double_pendulum_config/models/model_2.pth (torch, 35975 bytes, 10 tensors)

network.0.weight f4 [16, 6]
0	0xbe01ce36	-0.1267632
1	0xba24b09e	-0.00062824215
2	0xbd421179	-0.047379944
3	0x3e3c0fb7	0.1836537
4	0xbe5705b3	-0.20998268
5	0x3d7ef94a	0.06224946
6	0xbe931254	-0.2872492
7	0x3eb31c6c	0.34982622
8	0x3d996ce8	0.07491475
9	0x3e08815e	0.133306
10	0x3e16337e	0.1466808
11	0x3e8e96b5	0.27849355
12	0xbd9a862a	-0.07545121
13	0xbe6af05d	-0.22943254
14	0xbe60f1bf	-0.21967219
15	0xbde56115	-0.112001576
16	0x3b519c28	0.0031983946
17	0xbe497f8a	-0.19677559
18	0x3e890462	0.26761156
19	0xbe88770d	-0.2665333
20	0x3eb89998	0.36054683
21	0x3eb35d0c	0.35031927
22	0xbdfce882	-0.12349035
23	0xbc6a8f34	-0.014316369
24	0xbea1bb93	-0.3158842
25	0x3eafdef3	0.34349784
26	0x3eb7de1b	0.3591164
27	0x3cf80349	0.030275004
28	0x3e794841	0.24343969
29	0xbd064705	-0.032782573
30	0x3e3975c9	0.18111338
31	0x3ec4e78c	0.38457906
32	0x3eb2191f	0.3478479
33	0xbeb4a41f	-0.35281464
34	0x3e62feff	0.22167586
35	0xbea74a6d	-0.3267397
36	0x3d6cbf93	0.057799887
37	0x3eb3faa0	0.3515215
38	0xbd466724	-0.048438206
39	0x3d26fa82	0.040766247
40	0x3ec50a36	0.38484353
41	0x3e7b3d7b	0.24535172
42	0x3dd5592b	0.10417398
43	0x3d87a2d8	0.06622857
44	0xbdd9d05d	-0.10635445
45	0xbdc48cb5	-0.0959715
46	0xbe2ae602	-0.16689304
47	0x3ea5375e	0.32268804
48	0xbea3fbd6	-0.32028073
49	0x3e2dd0c8	0.16974175
50	0x3ea60bb3	0.324308
51	0x3ea1f41a	0.31631547
52	0x3e0b3bfe	0.13597104
53	0xbea34b49	-0.31893376
54	0x3ca79e2a	0.02046116
55	0x3e0d9f66	0.13830337
56	0x3d46326d	0.048387934
57	0xbdb1afbe	-0.08676098
58	0xbe4626fc	-0.19350809
59	0x3e776393	0.24159078
60	0x3db6eac5	0.089314975
61	0xbd3558ed	-0.04427426
62	0xbecb4a24	-0.39705002
63	0xbdb5644e	-0.08857022
64	0x3dfab6fd	0.122419335
65	0xbd35cfd4	-0.044387653
66	0x3e8d9863	0.27655324
67	0xbe98c953	-0.29841098
68	0x3e8b5ebd	0.27220717
69	0x3ec4d20b	0.384415
70	0xbd05ff93	-0.032714438
71	0xbd6891dc	-0.056779727
72	0x3ea1bfd6	0.31591672
73	0xbebf623b	-0.3737963
74	0xbeb225e2	-0.34794527
75	0xbdfab118	-0.12240809
76	0xbeb2670f	-0.34844252
77	0xbb2cc59f	-0.0026362909
78	0xbe561a69	-0.20908512
79	0xbc7ab06e	-0.015300853
80	0xbd32fbcd	-0.043697167
81	0xbd435bcc	-0.047694966
82	0x3d780ffe	0.060562126
83	0x3dd83e2a	0.10558732
84	0xbe2beb08	-0.16788876
85	0x3d92f372	0.0717534
86	0x3d669ab2	0.056299873
87	0xbe56ee03	-0.20989232
88	0xbe9c7e60	-0.30565166
89	0xbe89eb0b	-0.26937136
90	0x3e59cb40	0.2126894
91	0xbebf6c2e	-0.37387222
92	0xbde02706	-0.10944943
93	0x3e9c480a	0.3052371
94	0xbe8bd9d0	-0.27314615
95	0xbe475448	-0.19465744

network.0.bias f4 [16]
0	0xbe8a7857	-0.27044937
1	0x3dc0790b	0.09398087
2	0xbd7010d5	-0.058609802
3	0x3e58a603	0.21157078
4	0xbe845e91	-0.25853398
5	0xbcc7e121	-0.024399342
6	0xbe90af65	-0.28258815
7	0xbe38bb31	-0.18040158
8	0x3e48a33d	0.1959352
9	0xbe84446d	-0.25833455
10	0xbbacf705	-0.0052784705
11	0x3eb835df	0.359786
12	0x3e50c27f	0.20386694
13	0xbdce367c	-0.10068986
14	0x3e937705	0.28801742
15	0xbe7de6b1	-0.24795033

network.2.weight f4 [32, 16]
0	0xbe3ed7e8	-0.18637049
1	0xbe721246	-0.23639783
2	0xbe604e1e	-0.219048
3	0xbdc587b4	-0.09645024
4	0x3e1dfb98	0.15428007
5	0x3dc6bf44	0.0970445
6	0xbde666d4	-0.11250082
7	0x3e727eb4	0.23681146
8	0xbe17f89e	-0.14840934
9	0x3dfc4004	0.123168975
10	0x3ced9330	0.029000849
11	0xbbcb7140	-0.006208569
12	0xbe266928	-0.16251051
13	0xbe4d09fa	-0.20023337
14	0x3e121070	0.14264083
15	0xbe7cc188	-0.24683201
16	0xbe590eb6	-0.21197018
17	0xbe3b4996	-0.1828979
18	0xbcfa3360	-0.030542076
19	0xbe75f0bc	-0.24017614
20	0xbd3e3300	-0.046435356
21	0x3d7dd088	0.06196645
22	0xbe041202	-0.12897494
23	0xbde24a9c	-0.11049387
24	0x3dee2f2c	0.11630091
25	0x3dca59bc	0.09880397
26	0xbe583b58	-0.21116388
27	0xbdd9022c	-0.105961174
28	0xbcf90640	-0.030398488
29	0xbdc37d78	-0.09545416
30	0xbe28c09c	-0.16479725
31	0x3e5dab8a	0.21647468
32	0x3d121ad8	0.03567013
33	0xbd7aac28	-0.061199337
34	0xbe44c636	-0.19216236
35	0xbe195f76	-0.14977822
36	0xbd32a580	-0.043614864
37	0xbc8dc1f0	-0.01730439
38	0xbe0e8db8	-0.13921249
39	0x3cec3d00	0.02883768
40	0xbd53ee50	-0.051740944
41	0x3deea8f0	0.11653316
42	0x3c9faed0	0.019492537
43	0x3d49b908	0.049248725
44	0xbe5a13fe	-0.21296689
45	0xbd3ef4b8	-0.0466201
46	0xbe3cdf78	-0.18444622
47	0xbd2d18d8	-0.04226002
48	0x3e6917f0	0.22763038
49	0x3dc3fd0c	0.09569749
50	0xbdc413d4	-0.095740944
51	0x3e7290f4	0.23688108
52	0x3e596ece	0.21233675
53	0xbcef9980	-0.029248
54	0xbe0356d6	-0.12826094
55	0xbc78a000	-0.015174866
56	0x3cafa9c0	0.021443248
57	0xbdae41e8	-0.08508664
58	0x3e4126de	0.18862483
59	0xbe62c8f0	-0.22146964
60	0xbc799c20	-0.015234977
61	0xbe2353a0	-0.15949869
62	0xbda26fd0	-0.07931483
63	0x3d9b09b8	0.07570213
64	0x3e2dec62	0.16984704
65	0xbe2d0d6e	-0.16899654
66	0xbe763942	-0.2404528
67	0x3e767ce8	0.24071085
68	0xbe0729aa	-0.13199487
69	0xbdf7a6fc	-0.120923966
70	0x3ded07e4	0.11573771
71	0xbd4a6f00	-0.049422264
72	0x3ce48dd0	0.027899653
73	0x3e7f1d9a	0.24913636
74	0xbe47b10a	-0.19501129
75	0xbd13e148	-0.036103517
76	0xbdf80e34	-0.12112084
77	0xbe1b3e8a	-0.15160576
78	0x3dba95c4	0.09110597
79	0x3e70127a	0.23444548
80	0xbd372948	-0.044717103
81	0x3da79a98	0.08183783
82	0x3e68edc8	0.22746956
83	0xbe52d8f8	-0.2059058
84	0x3e3a3b14	0.18186599
85	0x3dde3a14	0.10850921
86	0xbdfb91b4	-0.1228365
87	0xbcd709d0	-0.026249796
88	0xbe1d6970	-0.15372252
89	0xbe3eb32c	-0.18623036
90	0x3dda69d0	0.106647134
91	0x3e5f2d78	0.21794689
92	0x3dd39e60	0.10332942
93	0x3dfbdca0	0.1229794
94	0xbe54252a	-0.20717302
95	0xbc895a80	-0.016766787
96	0xbd743ab8	-0.05962631
97	0xbda55d98	-0.08074492
98	0xbe0c4cf2	-0.13701227
99	0x3e7c6840	0.24649143
100	0xbe367a52	-0.17820099
101	0xbdc55c14	-0.09636703
102	0x3e6c625a	0.23084393
103	0xbe245a04	-0.16049963
104	0xbd0281a8	-0.03186193
105	0xbe660756	-0.22463736
106	0x3d8c5ec4	0.068540126
107	0x3ddaeaf8	0.10689348
108	0x3d9dafcc	0.07699546
109	0xbe4bf032	-0.19915846
110	0x3e579702	0.21053699
111	0xbe2faa80	-0.17154884
112	0x3d829d9c	0.06377718
113	0xbdb4d674	-0.08829966
114	0x3dc4b3b8	0.09604591
115	0x3dd18294	0.10229984
116	0x3dac2274	0.08405009
117	0x3e06da0a	0.13169113
118	0x3caf5a30	0.02140531
119	0x3e63d3f4	0.22248822
120	0x3d9f81e0	0.077884436
121	0x3d486ce0	0.048931956
122	0x3b9d6880	0.004803717
123	0x3d14bbf0	0.036312044
124	0xbe15795c	-0.14597076
125	0x3d81f930	0.06346357
126	0xbe56d166	-0.20978317
127	0xbe1833d4	-0.14863521
128	0xbd71f160	-0.059068084
129	0x3e452cb4	0.19255334
130	0x3dbf6934	0.09346238
131	0xbe1c8cb8	-0.15288055
132	0x3e3f8f66	0.18707046
133	0x3d65cc58	0.05610308
134	0x3e002c72	0.12516955
135	0x3e67e3f4	0.22645551
136	0x3e7397b4	0.23788339
137	0xbdf0d00c	-0.11758432
138	0x3e4b8aa0	0.198771
139	0x3e0fd8d6	0.1404756
140	0x3dad3530	0.0845741
141	0xbe65dc40	-0.224473
142	0xbe4efa78	-0.20212734
143	0xbdcb9328	-0.09940177
144	0x3e2fc3ce	0.17164537
145	0xbd2c01b0	-0.041993797
146	0xbd7870c0	-0.0606544
147	0x3a6cea00	0.0009037554
148	0x3e38d94c	0.18051642
149	0xbe7c5d7a	-0.24645033
150	0xbe7bd60c	-0.24593371
151	0x3e54db18	0.20786703
152	0x3d5c7648	0.05382374
153	0x3e2b62f4	0.16736966
154	0x3e3e24a2	0.18568662
155	0xbdfb0978	-0.122576654
156	0x3e226cda	0.15861836
157	0xbda6e890	-0.081498265
158	0x3d871694	0.06596103
159	0x3dc14a7c	0.09438035
160	0xbbbffc00	-0.005858898
161	0xbe5a618c	-0.21326274
162	0x3dc77dd4	0.09740797
163	0x3e12d27a	0.14338103
164	0xbc81a270	-0.015824527
165	0x3e06ea32	0.13175276
166	0x3e0bae04	0.136406
167	0x3db48258	0.088139236
168	0xbe0b87f8	-0.13626087
169	0xbca74350	-0.02041784
170	0xbc9feba0	-0.019521534
171	0xbdf7dcf8	-0.12102693
172	0xbdf8061c	-0.1211054
173	0xbe09578a	-0.134123
174	0x3d3640b8	0.044495314
175	0x3e1e2a4e	0.15445825
176	0x3d53a5e8	0.051671892
177	0x3d852ee0	0.06503081
178	0x3e6e72bc	0.23285955
179	0x3e2e32be	0.17011544
180	0x3e0765be	0.13222405
181	0xbe243512	-0.1603587
182	0x3cc972e0	0.02459091
183	0xbba59a80	-0.005053818
184	0xbe0c9b94	-0.13731223
185	0x3e47893a	0.19485942
186	0xbde87e44	-0.11352208
187	0x3d1a9100	0.03773594
188	0xbda0afdc	-0.078460425
189	0x3c6ca7c0	0.014444292
190	0xbe4715f6	-0.19441971
191	0x3e53beb4	0.20678216
192	0x3d777b60	0.060420394
193	0xbe01c0a0	-0.12671137
194	0x3d7e6318	0.062106222
195	0xbdd4d814	-0.10392776
196	0xbe2f8798	-0.17141569
197	0xbd6f8e08	-0.05848506
198	0x3e730c9c	0.23735279
199	0xbe3b7022	-0.18304494
200	0x3e063eb4	0.13109857
201	0xbe0d14a2	-0.13777402
202	0x3dc81528	0.0976966
203	0xbca898a0	-0.02058059
204	0xbe580ba2	-0.21098188
205	0xbd9f0538	-0.07764667
206	0x3e1b2f10	0.15154672
207	0x3c065f40	0.00820142
208	0x3e1a77e8	0.15084803
209	0xbe6d0442	-0.23146155
210	0xbe3f87c4	-0.18704134
211	0x3d822cf8	0.06356233
212	0xbd4a5be0	-0.049404025
213	0x3dddd39c	0.10831377
214	0x3e377298	0.17914808
215	0x3e7c4f2c	0.24639577
216	0xbe60c488	-0.2194997
217	0x3ccc16d0	0.024913222
218	0x3e411eb2	0.18859366
219	0xbd993550	-0.07480872
220	0xbdd77b90	-0.105216146
221	0xbe0366e0	-0.12832212
222	0x3de9ab80	0.11409664
223	0x3e1283ae	0.14308044
224	0x3e5d316e	0.21600887
225	0x3d8b0a1c	0.067890376
226	0xbe07e592	-0.13271168
227	0xbb1d9100	-0.0024042726
228	0xbd9dede8	-0.07711393
229	0x3e19cdde	0.15019938
230	0x3e5bd00a	0.2146608
231	0x3e7d5120	0.24737978
232	0xbe020b4c	-0.12699622
233	0x3e00a058	0.12561166
234	0x3e49bd30	0.19701076
235	0x3de11ef0	0.10992229
236	0xbd63ae30	-0.05558604
237	0x3dd62e10	0.104580045
238	0xbe075d8a	-0.13219276
239	0x3dc98be8	0.09841138
240	0x3d923ba4	0.07140282
241	0x3d249e60	0.0401901
242	0x3dd87cb8	0.10570663
243	0xbd591a18	-0.0530034
244	0xbe7bc31a	-0.24586144
245	0x3e7529ee	0.23941776
246	0x3e609c32	0.21934584
247	0xbc810730	-0.015750498
248	0xbd839c1c	-0.0642626
249	0xbd4ff6f0	-0.050772607
250	0x3da6f75c	0.08152649
251	0xbe338e78	-0.17534816
252	0x3df8cf00	0.12148857
253	0x3e0b179e	0.13583228
254	0xbd89b678	-0.06724256
255	0xbe1e0de2	-0.15434983

network.2.bias f4 [32]
0	0x3ddeaecc	0.108731836
1	0x3c92be60	0.017913043
2	0xbe5783a6	-0.21046314
3	0x3dd93020	0.10604882
4	0x3e7efa34	0.24900132
5	0xbe685188	-0.22687352
6	0x3d42d3c0	0.04756522
7	0xbd9d0590	-0.076670766
8	0xbe2972b8	-0.16547668
9	0xbd6a2a58	-0.05716929
10	0x3d9fa6b4	0.07795468
11	0x3d243640	0.0400908
12	0x3e4b5b1c	0.19858974
13	0xbe19c5f2	-0.15016916
14	0x3e7bb174	0.24579412
15	0xbe77e02a	-0.24206606
16	0x3c436420	0.011925727
17	0xbe044398	-0.1291641
18	0xbe3ad8d8	-0.18246782
19	0x3d881180	0.06643963
20	0xbe38a2a8	-0.18030798
21	0xbd791fe0	-0.060821414
22	0x3dc505f4	0.09620276
23	0x3d9315cc	0.07181892
24	0xbe621aba	-0.22080508
25	0xbe41abb4	-0.18913156
26	0xbe019ea0	-0.12658167
27	0x3d880150	0.06640875
28	0xbe395490	-0.18098664
29	0x3c79b3e0	0.015240639
30	0x3e79f4ac	0.24409741
31	0x3e12cd3e	0.14336106

network.4.weight f4 [64, 32]
0	0x3e2ffe4c	0.1718685
1	0x3dcd8ce3	0.10036638
2	0xbd053675	-0.032522637
3	0xbdc2297f	-0.09480571
4	0xbc118e24	-0.008883987
5	0x3bf3351b	0.007422102
6	0xbdb0bb28	-0.08629447
7	0xbd921ca2	-0.071343675
8	0xbe263ef6	-0.16234955
9	0xbce27b2d	-0.027646625
10	0xbd64f716	-0.055899702
11	0xbe24cac9	-0.16092981
12	0xbd52add7	-0.051435318
13	0x3e2d3151	0.16913344
14	0x3e2da41d	0.16957135
15	0x3c2a7417	0.010403655
16	0x3db9d6e5	0.09074191
17	0x3c63d1e7	0.013905025
18	0xba1c91a4	-0.000597263
19	0x3dd7808f	0.105225675
20	0x3dc83a6a	0.097767666
21	0x3cf2aed8	0.029624388
22	0x3e26f1df	0.16303204
23	0x3e1a1040	0.15045261
24	0x3e2bf07c	0.16790956
25	0xbe02c956	-0.12772116
26	0x3d833899	0.064072795
27	0xbe0f7e45	-0.14013012
28	0x3deff3f8	0.11716455
29	0x3cc7e3af	0.02440056
30	0x3e170998	0.14749753
31	0xbc09d3be	-0.0084123
32	0x3e15acd3	0.14616708
33	0x3e12af5e	0.1432471
34	0x3bbb10fc	0.005708812
35	0xbdb6cc45	-0.0892568
36	0x3d2c9f3c	0.042144045
37	0x3e18a172	0.14905336
38	0xbd5b3984	-0.053521648
39	0xbe1fa94d	-0.15591927
40	0xbdebae87	-0.11507898
41	0x3e06e521	0.13173343
42	0xbe0327cf	-0.12808155
43	0xbdb62283	-0.08893301
44	0xbe005751	-0.12533309
45	0xbd863183	-0.06552412
46	0xbdaee8f3	-0.08540525
47	0x3e09a7cc	0.13442916
48	0x3e116c28	0.14201415
49	0x3cebc33b	0.028779617
50	0xbe0ba535	-0.1363724
51	0xbdfa4160	-0.122195005
52	0x3dd321e8	0.103092015
53	0xbd97fa62	-0.074208036
54	0xbc0f4c9c	-0.008746292
55	0xbe10cc92	-0.14140537
56	0xbd3343ce	-0.043765835
57	0xbe069937	-0.13144384
58	0x3d01d177	0.031693902
59	0xbd76d6c0	-0.060263395
60	0x3e20e5b4	0.15712625
61	0x3da8f36f	0.08249556
62	0xbde66aab	-0.11250814
63	0xbd0b58d4	-0.03402026
64	0xbd8f7498	-0.0700466
65	0xbc7b61b3	-0.0153431175
66	0xbde0da4e	-0.10979138
67	0xbc983c8b	-0.018583557
68	0xbe0be409	-0.13661207
69	0x3ddbb735	0.10728303
70	0xbe0bfd78	-0.1367091
71	0x3d914c3f	0.07094621
72	0x3d9a2d82	0.07528211
73	0x3e02c082	0.12768748
74	0xbcafc266	-0.021455001
75	0x3d3760dd	0.04477011
76	0xbe210e8d	-0.15728207
77	0xbe1b1a47	-0.15146743
78	0xbdfab598	-0.122416675
79	0x3dfacdac	0.1224626
80	0xbd446bd8	-0.04795441
81	0xbe32face	-0.17478487
82	0xbd45541b	-0.048175912
83	0x3d2695a7	0.040670063
84	0xbdc9c889	-0.09852702
85	0xbd7d3c91	-0.06182534
86	0xbda83e43	-0.082150005
87	0xbe0d9510	-0.13826394
88	0x3e26005e	0.16211078
89	0xbc8ad998	-0.01694946
90	0x3d0d1802	0.034446724
91	0xbd1a971c	-0.037741765
92	0xbdedc74f	-0.11610281
93	0x3ad55c76	0.0016278166
94	0x3dae39f7	0.0850715
95	0xbd170757	-0.036872234
96	0x3d24101c	0.040054426
97	0xbe238af2	-0.15970972
98	0xbd0c039e	-0.034183137
99	0x3d776640	0.060400248
100	0x3c598b60	0.0132778585
101	0x3cff3fd3	0.031158363
102	0xbda1f48b	-0.07907971
103	0x3d7722e0	0.060335994
104	0x3daa11bf	0.08304166
105	0xbcbecbcc	-0.023290537
106	0x3e33cbfa	0.1755828
107	0x3d15299f	0.036416646
108	0xbdf97f60	-0.12182498
109	0xbd64e6d8	-0.055884212
110	0x3c9bac5c	0.019003086
111	0x3d7b3039	0.061325286
112	0x3e31bcc8	0.1735717
113	0x3da67de9	0.08129484
114	0xbe19e54f	-0.1502888
115	0x3dcb2688	0.09919459
116	0xbdbe9ce8	-0.09307271
117	0xbd6b3706	-0.05742552
118	0xbd79e59b	-0.061009984
119	0x3d50abe2	0.05094517
120	0x3d4f5528	0.05061832
121	0xbcc276bf	-0.023738263
122	0x3e02930b	0.12751405
123	0x3d216fd4	0.03941329
124	0x3d5977e3	0.05309285
125	0x3d0c7034	0.034286693
126	0xbd93a7ee	-0.072097644
127	0xbd9c1de2	-0.07622887
128	0xbc7f4302	-0.015579941
129	0x3da60f72	0.08108415
130	0xbd22b0b9	-0.039719317
131	0x3e12cdcd	0.1433632
132	0x3d51c753	0.05121548
133	0xbd400511	-0.04687983
134	0x3df1ee11	0.11812986
135	0xbd8471e4	-0.064670354
136	0xbd995bc8	-0.07488209
137	0x3c048db3	0.008090424
138	0xbddc928b	-0.10770138
139	0xbe14afb2	-0.14520147
140	0xbd6521c1	-0.055940393
141	0xbcda7add	-0.026669914
142	0x3e2b67c4	0.16738802
143	0xbde67259	-0.11252279
144	0x3d3dcf6d	0.046340395
145	0xbdf79716	-0.12089364
146	0xbdd8d165	-0.10586814
147	0x3e2d461a	0.16921273
148	0xbe018375	-0.12647803
149	0x3c05ae60	0.00815925
150	0xbe1b2fb6	-0.15154919
151	0xbcc4e08a	-0.02403285
152	0x3b359862	0.0027709235
153	0xbd982bce	-0.0743023
154	0xbc859a7d	-0.016309017
155	0xbe257d90	-0.1616118
156	0xbd82c141	-0.063845165
157	0x3ddf02bb	0.10889193
158	0xbde038ed	-0.10948358
159	0x3d9d4955	0.076800026
160	0x3e064c30	0.13115
161	0x3e06f13e	0.13177964
162	0xbcbf584b	-0.023357531
163	0x3cce41df	0.025177894
164	0xbe305bc3	-0.17222504
165	0xbd9ba8c2	-0.076005474
166	0xbd33b573	-0.043874215
167	0x3d0de6a9	0.034643803
168	0x3d97dd5f	0.0741527
169	0x3e2e384c	0.17013663
170	0x3caebce6	0.021330308
171	0x3dee0556	0.116221115
172	0x3e0e6d60	0.13908911
173	0x3cf2805a	0.029602218
174	0xbd8a5435	-0.067543425
175	0xbda1ef02	-0.07906915
176	0xbcd4a3dd	-0.025957042
177	0xbe29810c	-0.16553134
178	0x3cccf46d	0.025018895
179	0xbac04669	-0.0014669421
180	0xbd99145e	-0.07474588
181	0x3df4698c	0.11934194
182	0xbd487faa	-0.048949875
183	0xbce59969	-0.028027253
184	0x3de28179	0.11059851
185	0x3d4d0abf	0.050059076
186	0xbdf702d3	-0.120610856
187	0xbe16b3ca	-0.14717022
188	0x3e10d9eb	0.14145629
189	0x3e0f02e4	0.13965946
190	0x3dfbf6db	0.12302943
191	0x3daa30fe	0.08310126
192	0x3cf44639	0.029818641
193	0x3e2ab02a	0.16668764
194	0x3e2a506d	0.16632243
195	0x3dad8270	0.084721446
196	0xbdae4d8b	-0.08510884
197	0x3e1cba9f	0.15305565
198	0xbdd271fd	-0.10275648
199	0xbdea199c	-0.11430666
200	0x3d8bc63e	0.06824921
201	0x3ae20199	0.0017242908
202	0x3dca8af8	0.098897874
203	0xbd918b61	-0.071066625
204	0xbe025b12	-0.12730053
205	0xbdb509bc	-0.08839747
206	0x3dd53297	0.1041004
207	0xbc8bcbe9	-0.017065005
208	0x3d350c6b	0.044201296
209	0xbd2dfa3a	-0.042474963
210	0x3cd959a8	0.02653201
211	0xbd8081e6	-0.06274776
212	0xbc737502	-0.01485944
213	0x3e00a4de	0.12562892
214	0xbe1a95ae	-0.15096161
215	0xbd1cf722	-0.03832162
216	0xbd9e696f	-0.077349536
217	0xbb0d2c95	-0.0021541466
218	0x3c7907c6	0.015199607
219	0xbe133241	-0.14374639
220	0xbca211ab	-0.019783815
221	0x3e14d7e2	0.14535478
222	0xbde24a60	-0.11049342
223	0xbe1c89c0	-0.15286922
224	0x3da1ec8e	0.07906447
225	0x3e040f91	0.12896563
226	0x3c11a207	0.008888728
227	0x3d4c44f4	0.049870446
228	0xbe2cdc11	-0.16880824
229	0x3c715a32	0.014730977
230	0x3d0f8f52	0.03504879
231	0x3dca3a80	0.09874439
232	0x3b97ad88	0.004628841
233	0x3dd355b9	0.10319085
234	0xbe222ad2	-0.15836647
235	0x3dc1ff94	0.09472576
236	0xbcbe0098	-0.023193642
237	0xbe0a54b9	-0.13508882
238	0xbe173922	-0.14767888
239	0x3d6753e8	0.056476504
240	0xbe0dcd81	-0.13847925
241	0x3d76db4e	0.06026774
242	0x3d6eec9a	0.05833111
243	0x3e033535	0.12813266
244	0x3dfd31f8	0.123630464
245	0x3e205c3c	0.15660185
246	0xbe215f9f	-0.15759133
247	0xbe195cd5	-0.14976819
248	0xbd443b1e	-0.04790794
249	0xbdf04ddc	-0.117336005
250	0x3c85fe1a	0.016356517
251	0x3dd56bb3	0.104209326
252	0xbe250eac	-0.16118878
253	0xbdefecb8	-0.117150724
254	0xbcb9dca4	-0.022688217
255	0x3dd18d90	0.10232079

network.4.bias f4 [64]
0	0xbe04ff48	-0.12988007
1	0xbcf36b49	-0.029714243
2	0x3d301a69	0.042993937
3	0xbdb5d22d	-0.088779785
4	0xbd58e3dc	-0.05295168
5	0x3de5c532	0.11219253
6	0x3c54bf4f	0.012985065
7	0x3d014c82	0.031567104
8	0x3d049640	0.032369852
9	0x3b923f5c	0.0044631194
10	0xbd5d4516	-0.054020964
11	0xbd5cb46b	-0.053882997
12	0xbd90d2d0	-0.07071459
13	0xbdc0b09c	-0.094086856
14	0xbdc54079	-0.09631438
15	0x3df73de9	0.12072355
16	0xbe2eae32	-0.17058638
17	0xbdceff99	-0.10107345
18	0x3d8f17b3	0.06986942
19	0xbcb1874d	-0.021670962
20	0xbdfdd2e1	-0.123937376
21	0xbda8ebd8	-0.082481086
22	0xbd81c2a3	-0.06335952
23	0x3e047596	0.1293548
24	0xbdd22bfa	-0.10262294
25	0x3d80f44f	0.06296598
26	0x3e1b138c	0.15144175
27	0x3cea7843	0.028621798
28	0x3e0a5059	0.13507213
29	0xbdbbd011	-0.09170545
30	0x3d97fd31	0.07421339
31	0x3c4d3844	0.012525622
32	0x3e23d07a	0.15997496
33	0x3db776d7	0.08958214
34	0x3babcf75	0.0052432367
35	0xbd4953c6	-0.04915216
36	0x3de85e7f	0.11346149
37	0xbc5c4b09	-0.013445624
38	0xbdfb654d	-0.12275181
39	0x3c019fa3	0.0079115955
40	0x3e0aa504	0.13539511
41	0xbddcbde3	-0.107784055
42	0xbd84b656	-0.0648009
43	0xbe2e9bc3	-0.17051606
44	0x3cf40d20	0.029791415
45	0x3e1e3831	0.15451123
46	0xbc800277	-0.015626175
47	0xbcd4fe1c	-0.026000075
48	0xbd9bcb5a	-0.076071456
49	0xbde7c809	-0.113174506
50	0xbab0fbde	-0.0013502797
51	0x3e230093	0.15918188
52	0xbce11aba	-0.027478565
53	0x3e1f8760	0.15578985
54	0x3d3ee0b9	0.04660103
55	0xbe0c993d	-0.13730331
56	0xbe0389a0	-0.12845469
57	0xbd19a7f9	-0.037513707
58	0xbdd7c9de	-0.1053655
59	0xbde36967	-0.11104088
60	0x3e3183ca	0.1733543
61	0x3c5cabff	0.013468741
62	0x3e3141ce	0.17310259
63	0x3dbef05e	0.0932319

network.6.weight f4 [64, 64]
0	0xbd801c92	-0.06255449
1	0xbc8182d0	-0.015809447
2	0x3d192950	0.037392914
3	0x3b0f2d00	0.002184689
4	0x3d1ab28c	0.03776793
5	0xbd99b614	-0.07505432
6	0x3a84e800	0.0010139942
7	0xbdb86afe	-0.09004782
8	0x3dc686d4	0.09693685
9	0xbdae5868	-0.08512956
10	0xbdd43284	-0.103611976
11	0x3d91057e	0.07081126
12	0x3d27bcc4	0.040951505
13	0x3df5fe52	0.120113984
14	0xbd3b1290	-0.045672
15	0x3de8a4b8	0.113595426
16	0x3caf8100	0.021423817
17	0xbc9dbc38	-0.019254789
18	0xbd314820	-0.043281674
19	0xbd9dfcda	-0.07714243
20	0xbd535768	-0.05159703
21	0x3dc10fd6	0.094268486
22	0xbd69a248	-0.05703953
23	0xbd947ef2	-0.072507754
24	0xbc638f60	-0.013889164
25	0xbce7f698	-0.028315827
26	0x3de763c2	0.11298324
27	0x3d816606	0.063182876
28	0x3b9692a0	0.004595116
29	0x3d8a29f8	0.06746286
30	0xbdec4600	-0.11536789
31	0x3de540cc	0.11194
32	0x3da6d302	0.08145715
33	0x3db001d8	0.08594102
34	0x3dababf8	0.0838241
35	0x3dbfe63e	0.09370087
36	0xbd94504c	-0.07241878
37	0x3d65bfe8	0.05609122
38	0x3db3257c	0.08747384
39	0xbdd67390	-0.104712605
40	0xbd6a1720	-0.05715096
41	0xbda94acc	-0.082662195
42	0xbc50cbf0	-0.012743935
43	0xbd2d23b4	-0.042270377
44	0xbd472cc8	-0.04862669
45	0xbd652380	-0.05594206
46	0x3dcca68c	0.09992704
47	0xbcef2050	-0.029190212
48	0xbc9d7c58	-0.01922433
49	0x3da4839a	0.080329135
50	0x3dabb618	0.08384341
51	0x3d940dcc	0.07229194
52	0xbca517d8	-0.020152971
53	0x3c545cc0	0.012961566
54	0xbd04c6fc	-0.03241633
55	0x3d671e34	0.05642529
56	0xbd151df4	-0.03640552
57	0x3d88f638	0.066875875
58	0xbd2f8388	-0.042850047
59	0x3d58b338	0.05290529
60	0x3d09fe2c	0.033689663
61	0xbd763130	-0.060105503
62	0x3d9150f8	0.07095522
63	0xbdbbf816	-0.09178178
64	0x3d0f877c	0.035041317
65	0x3d419f78	0.047271222
66	0xbc6fc250	-0.01463373
67	0x3d2374fc	0.039906487
68	0xbdcc7c02	-0.0998459
69	0xbd1c33d4	-0.038135365
70	0xbda4ede4	-0.080531865
71	0xbc88c008	-0.01669313
72	0x3cb68088	0.022278085
73	0xbc0d80f0	-0.008636698
74	0xbd87fa32	-0.06639518
75	0x3d0e8cd8	0.034802288
76	0x3d5405d8	0.051763386
77	0xbdaadc7a	-0.08342834
78	0x3d1887c8	0.037238866
79	0xbdbddd58	-0.092707336
80	0xbdf6130c	-0.12015352
81	0x3cc1e560	0.023668945
82	0xbd70525c	-0.058672294
83	0xbd311bf8	-0.043239564
84	0x3dc1b45c	0.09458229
85	0xbd4ea804	-0.0504532
86	0x3df85432	0.12125434
87	0x3d388738	0.04505083
88	0xbd7cf3ec	-0.06175606
89	0xbdd4dace	-0.10393296
90	0xbdd7850c	-0.105234236
91	0x3de5d8d0	0.11222994
92	0x3c0cc8a0	0.008592755
93	0x3cc21378	0.023690924
94	0xbdb82c2c	-0.089928
95	0x3d2b63c4	0.04184319
96	0xbda30994	-0.07960811
97	0x3c288c60	0.010287374
98	0xbc368ef0	-0.011142477
99	0x3d882750	0.06648123
100	0xbdb1a050	-0.08673155
101	0xbdf7dfae	-0.121032104
102	0x3df57a4a	0.119862154
103	0x3dc6b3e2	0.09702279
104	0x3d94ea50	0.07271254
105	0x3bb69960	0.005572483
106	0xbdbd4ddc	-0.09243366
107	0xbd34aeec	-0.04411213
108	0x3cef6ab0	0.029225677
109	0xbddf8e3c	-0.10915801
110	0x3da04f66	0.07827644
111	0xbd17590c	-0.036950156
112	0xbce12030	-0.027481169
113	0x3ba061c0	0.004894465
114	0x3bbebbc0	0.0058207214
115	0x3dca8c9e	0.09890102
116	0x3d8fee16	0.07027833
117	0xbdc23c26	-0.09484129
118	0xbdcc8b92	-0.099875584
119	0x3dac0428	0.0839923
120	0x3d9fee2c	0.078090996
121	0xbdd1fcf2	-0.102533236
122	0xbafbb480	-0.0019203573
123	0x3df4e4da	0.119577125
124	0x3d681f4c	0.056670472
125	0x3db41094	0.087922245
126	0xbb40e3c0	-0.0029432625
127	0xbde2fde2	-0.110835806
128	0xbdc55fe8	-0.09637433
129	0xbd72c9ac	-0.05927436
130	0xbd69c7c0	-0.057075262
131	0xbd3c6054	-0.045990303
132	0x3dd4c884	0.10389808
133	0x3d94cf1c	0.072660655
134	0x3d798c60	0.060924888
135	0x3d857bf4	0.06517783
136	0x3ce5ed98	0.028067395
137	0x3df3b0e4	0.118989736
138	0x3c7b7b00	0.01534915
139	0x3db49686	0.088177726
140	0xbd6f2320	-0.058383107
141	0x3df265b8	0.118358076
142	0xbb9e2100	-0.0048257113
143	0x3dc930ca	0.09823759
144	0xbc2d2560	-0.010567993
145	0x3daf718e	0.08566581
146	0x3db9f21c	0.09079382
147	0xbcd8caa8	-0.026463822
148	0xbd87e1fe	-0.066349015
149	0xbd13623c	-0.035982355
150	0xbdc6447e	-0.096810326
151	0xbdf5e646	-0.12006812
152	0x3db3b454	0.08774629
153	0x3d1e6868	0.03867379
154	0xbd37db58	-0.044886917
155	0xbde4c39c	-0.11170122
156	0x3ded5574	0.115885645
157	0x3dcae79a	0.09907456
158	0xbd173148	-0.036912233
159	0x3d9d1756	0.076704666
160	0x3cec2400	0.02882576
161	0xbcda7620	-0.026667655
162	0x3d1f0c60	0.03883016
163	0x3ddf2986	0.10896592
164	0x3dbea97a	0.09309669
165	0x3d81ce7e	0.063382134
166	0xbdb96f9c	-0.09054491
167	0x3de9fa2e	0.11424671
168	0xbdc0085a	-0.09376593
169	0x3df0a96a	0.11751063
170	0x3dba117c	0.09085366
171	0xbd5e8bac	-0.05433242
172	0x3dd751f8	0.10513681
173	0x3d6347c8	0.055488378
174	0xbd97f7aa	-0.07420285
175	0xbcdd1e68	-0.026992038
176	0x3da9f6b6	0.082990095
177	0xbc8a9a08	-0.016919151
178	0x3d8f0ef4	0.06985274
179	0xbd85630e	-0.06513034
180	0xbd549754	-0.05190213
181	0xbc9fd748	-0.019511834
182	0x3d446c54	0.047954872
183	0x3d80bd24	0.06286076
184	0x3d97ebd6	0.07418029
185	0xbdb5d06e	-0.088776454
186	0xbd729074	-0.059219792
187	0xbd5a2918	-0.053261846
188	0xbbeead20	-0.0072838217
189	0x3b6096c0	0.0034269542
190	0xbd2210c8	-0.039566785
191	0xbcad7e40	-0.021178365
192	0xbd4dbffc	-0.05023192
193	0x3db5528a	0.08853634
194	0xbd525dac	-0.051358864
195	0x3d961656	0.07328479
196	0xbb1f1f00	-0.0024279952
197	0x3d81749c	0.063210696
198	0xbdd50646	-0.10401587
199	0xbdb272be	-0.087132916
200	0x3c211c80	0.009833455
201	0x3d1c1f28	0.03811565
202	0x3d25c3c0	0.040469885
203	0x3d839594	0.06425014
204	0x3d95eb74	0.073203
205	0xbc966ef8	-0.01836346
206	0xbb9ccc80	-0.0047851205
207	0x3d2e4d18	0.04255399
208	0x3b5b69c0	0.003347978
209	0xbcf50698	-0.02991037
210	0x3cde9df0	0.02717492
211	0x3d937900	0.07200813
212	0xbc69d1c0	-0.0142712
213	0xbdde4e60	-0.108547926
214	0x3cda0cb8	0.026617393
215	0x3c6c6390	0.014428034
216	0x3ce67f10	0.02813676
217	0xbd8192de	-0.06326841
218	0x3d84969c	0.06474039
219	0x3df61994	0.120165974
220	0x3d588fb0	0.052871406
221	0xbc4e05d0	-0.012574628
222	0xbd9ac124	-0.0755637
223	0x3caa68e8	0.020801976
224	0xbd488690	-0.048956454
225	0xbc518760	-0.012788624
226	0x3d4c182c	0.04982774
227	0x3ac82200	0.0015268922
228	0xbdd1df84	-0.1024771
229	0xbddc72e8	-0.10764104
230	0xbd87a638	-0.066235006
231	0xbdf20eee	-0.11819254
232	0xbdea8a12	-0.11452116
233	0xbc40ffc0	-0.011779726
234	0x3dd5a732	0.104322806
235	0x3d98f36c	0.07468304
236	0xbaf1b780	-0.0018441528
237	0xbb512600	-0.003191352
238	0xbdc15e54	-0.0944182
239	0x3d3adc00	0.045619965
240	0xbc6b1980	-0.014349341
241	0x3ba44c20	0.0050139576
242	0xbdc369c4	-0.095416576
243	0x3ddcc420	0.107795954
244	0x3c99b2e0	0.018762052
245	0x3d86f3fc	0.06589505
246	0x3dc350e2	0.095369115
247	0x3df0de40	0.11761141
248	0x3d097bf0	0.03356546
249	0xbc70ba50	-0.014692858
250	0x3c088c90	0.008334294
251	0x3bf2df00	0.0074118376
252	0x3ddd94d6	0.10819404
253	0xbd53dc24	-0.051723614
254	0xbda506b0	-0.08057916
255	0xbdf400a6	-0.11914186

network.6.bias f4 [64]
0	0x3d7dae6c	0.06193392
1	0x3dfb53b2	0.12271823
2	0x3d8a3486	0.06748299
3	0x3ddcfffe	0.10791014
4	0x3d9b1eca	0.07574232
5	0x3dbdc116	0.09265344
6	0x3a4ff500	0.0007932931
7	0x3d2cadb8	0.04215786
8	0xbd9beade	-0.07613157
9	0x3ca03cf8	0.019560322
10	0x3d6807ac	0.05664794
11	0xbd37757c	-0.044789776
12	0xbdf9ee42	-0.12203647
13	0x3b19cd80	0.0023468435
14	0xbdd36fb8	-0.10324043
15	0x3d1ca120	0.0382396
16	0xbd970d7e	-0.0737562
17	0x3db0208e	0.08599959
18	0x3d9935de	0.074809775
19	0x3df70cea	0.1206301
20	0xbd9a7dbe	-0.07543515
21	0x3c54dcb0	0.012992069
22	0xbddcd542	-0.10782863
23	0x3df147d2	0.11781277
24	0x3d3afcc8	0.045651227
25	0x3d74de0c	0.059782073
26	0x3b1d9880	0.0024047196
27	0xbb636040	-0.003469482
28	0x3dbb25e6	0.09138088
29	0xbdf3923c	-0.11893126
30	0xbca15b28	-0.019696787
31	0xbdbec3c0	-0.0931468
32	0x3d8e267c	0.06940934
33	0xbdf5f33a	-0.120092824
34	0x3db8743c	0.09006545
35	0x3a50d400	0.0007966161
36	0xbd6bf268	-0.057604223
37	0xbc0201d0	-0.007935002
38	0xbc44b670	-0.012006387
39	0x3ca4f8d0	0.020138174
40	0xbdac3db4	-0.084102064
41	0x3da45050	0.08023131
42	0x3db06936	0.086138174
43	0x3debd366	0.115149304
44	0xbd80c92a	-0.06288369
45	0xbc70a680	-0.014688134
46	0x3d4d67c4	0.050147787
47	0xbdd56dce	-0.10421334
48	0xbd8897d2	-0.066695824
49	0xbdaf80b2	-0.085694686
50	0xbd4cff40	-0.050048113
51	0xbb208180	-0.002449125
52	0x3dca2c86	0.098717734
53	0x3d0ed34c	0.034869477
54	0x3df2c828	0.11854583
55	0xbcfd3bf8	-0.030912384
56	0xbcf833c8	-0.030298129
57	0x3d72ec18	0.059307188
58	0x3d06d81c	0.03292094
59	0x3dfe097a	0.12404151
60	0xbdeda840	-0.11604357
61	0xbdc8f472	-0.09812249
62	0xbd6572c0	-0.056017637
63	0xbda34b7e	-0.07973383

network.8.weight f4 [21, 64]
0	0x3d436800	0.047706604
1	0x3de0b910	0.10972798
2	0xbde6c15c	-0.11267349
3	0xbc437050	-0.011928633
4	0x3d1700a4	0.036865845
5	0x3dbe1446	0.092812106
6	0xbdeff8b6	-0.1171736
7	0x3d77b11c	0.06047164
8	0xbdfea5f8	-0.12434
9	0xbd1e5080	-0.03865099
10	0x3d8a006c	0.06738362
11	0xbdce3e02	-0.10070421
12	0x3d9263a2	0.0714791
13	0x3d2478dc	0.040154323
14	0xbd464870	-0.048408926
15	0xbd6bc8ec	-0.05756466
16	0xbdc5479e	-0.096328005
17	0xbde5d450	-0.11222136
18	0xbdf9ad86	-0.121913
19	0xbdd7e03e	-0.10540818
20	0xbd0f22fc	-0.034945473
21	0xbd8f0fc0	-0.06985426
22	0xbd8565a4	-0.06513527
23	0x3d8d7294	0.0690662
24	0x3d4e9c20	0.05044186
25	0xbda61084	-0.08108619
26	0xbd0839e0	-0.03325832
27	0xbded2a02	-0.11580278
28	0x3d051b4c	0.032496735
29	0x3dfbd31a	0.12296124
30	0x3d652898	0.055946916
31	0xbdf1366a	-0.11777957
32	0xbb8838a0	-0.004157141
33	0x3de3228c	0.11090574
34	0xbdbc3aee	-0.091909274
35	0x3c440040	0.01196295
36	0xbdff4dae	-0.12465988
37	0xbd6421a8	-0.05569616
38	0xbc106470	-0.008813009
39	0x3da5ea14	0.081012875
40	0xbda8ded0	-0.08245623
41	0x3ddc6188	0.1076079
42	0x3c48a590	0.012246504
43	0x3dfca45a	0.12336035
44	0xbd8ad354	-0.06778589
45	0x3d21f0fc	0.03953646
46	0xbcc0b310	-0.023522884
47	0x3d729cd4	0.059231594
48	0xbc4e3fd0	-0.012588456
49	0x3deeb4c2	0.116555706
50	0xbbac42e0	-0.0052569956
51	0xbdbe06bc	-0.09278628
52	0x3c625020	0.013813049
53	0xbcb7fe58	-0.022460148
54	0xbdafca3e	-0.085834965
55	0x3ced7788	0.028987661
56	0x3d9aaee6	0.075528905
57	0xbd49e854	-0.04929383
58	0xbdd53e7c	-0.104123086
59	0xbd30d4d0	-0.043171704
60	0x3d50f848	0.05101803
61	0x3df5d5b8	0.12003654
62	0x3d2b2808	0.041786224
63	0xbdedd22e	-0.11612354
64	0x3dbea106	0.093080565
65	0xbd9b6078	-0.07586759
66	0x3de56372	0.11200608
67	0x3ca6d170	0.02036354
68	0xbd40b85c	-0.04705082
69	0x3c9dbfb8	0.019256458
70	0xbd750bd8	-0.05982575
71	0x3d96624e	0.07342969
72	0x3da93ede	0.08263944
73	0x3dca785c	0.09886238
74	0x3d3ff414	0.04686363
75	0xbd221014	-0.039566115
76	0xbd20a5c0	-0.03922057
77	0x3dabe832	0.08393897
78	0x3d2e9fd4	0.042632893
79	0x3cbf2730	0.023334116
80	0xbddeb1c8	-0.10873753
81	0x3dd68b2a	0.10475762
82	0xbb0f0080	-0.0021820366
83	0xbdac919e	-0.08426212
84	0x3d865cda	0.06560679
85	0x3d89f0d2	0.06735386
86	0xbb7de840	-0.0038743168
87	0x3da6153a	0.081095174
88	0x3ded99d0	0.11601603
89	0xbd71e9d8	-0.0590609
90	0xbda555ee	-0.080730304
91	0x3de409c2	0.11134674
92	0x3dbcbb1c	0.09215376
93	0xbd4ddd74	-0.050260022
94	0x3d5ef2cc	0.054430768
95	0xbd5c099c	-0.0537201
96	0x3bcf9360	0.006334707
97	0x3d1e40cc	0.038636014
98	0xbbeb6860	-0.0071840733
99	0x3d16ff44	0.036864534
100	0xbd998ea4	-0.0749791
101	0xbd797418	-0.06090173
102	0x3c0be250	0.008537844
103	0x3c8bd2c0	0.017068267
104	0x3d2a45b4	0.04157038
105	0xbd87b04c	-0.06625423
106	0x3cefe7b8	0.029285297
107	0xbcadc658	-0.021212742
108	0x3dd04890	0.1017009
109	0x3d557b00	0.052119255
110	0xbd9a10cc	-0.07522735
111	0x3b41f340	0.0029594451
112	0xbc79d950	-0.015249565
113	0x3cf21388	0.029550329
114	0x3ddaaf88	0.10678011
115	0x3cf8fda0	0.030394375
116	0xbda25564	-0.07926443
117	0xbc16c460	-0.009202093
118	0x3d693c58	0.056942314
119	0x3dd48e68	0.10378724
120	0x3dbe7dce	0.09301339
121	0xbd92d7da	-0.07170077
122	0x3d07b574	0.03313203
123	0x3df03224	0.117283136
124	0x3cf98628	0.030459478
125	0xbd122998	-0.0356842
126	0x3b522140	0.0032063276
127	0x3d733440	0.059376
128	0x3dbc3614	0.09190002
129	0xbd56c728	-0.052436024
130	0x3d2fb8ac	0.042900726
131	0xbd940548	-0.0722757
132	0xbbca5080	-0.006174147
133	0xbda19552	-0.07889809
134	0xbd1edfd8	-0.038787693
135	0x3d363b00	0.04448986
136	0x3bb58180	0.0055391192
137	0xbd5f2068	-0.054474264
138	0x3de0865a	0.109631255
139	0xbdb1d598	-0.08683318
140	0xbb438d40	-0.002983883
141	0x3d3f75b4	0.04674311
142	0x3de9cb8a	0.11415775
143	0xbddb33a4	-0.10703209
144	0x3dbfe454	0.09369722
145	0xbcfadba0	-0.030622303
146	0x3d51fc30	0.051265895
147	0xbd20d9b0	-0.039270103
148	0xbc81d7b0	-0.015849918
149	0x3df80e10	0.12112057
150	0x3d84553c	0.0646157
151	0xbd7ebc08	-0.06219104
152	0x3da16016	0.07879655
153	0x3cae3310	0.021264583
154	0xbc848880	-0.01617837
155	0x3cac0ba0	0.021001637
156	0x3de500bc	0.11181781
157	0xbd9369a4	-0.07197884
158	0xbd5883f8	-0.05286023
159	0x3c44dda0	0.01201573
160	0xbd8ebdf8	-0.069698274
161	0xbd988c68	-0.07448655
162	0xbde70ac6	-0.11281352
163	0xbc09c120	-0.008407861
164	0xbd8cc088	-0.0687266
165	0xbdf4acfc	-0.11947057
166	0xbdfecf9c	-0.12441942
167	0x3df7fbba	0.1210856
168	0xbdbd9d56	-0.09258525
169	0x3b795300	0.0038043857
170	0xbd6e9d64	-0.05825557
171	0x3d76f388	0.060290843
172	0xbb9c2240	-0.004764825
173	0xbde4c354	-0.111700684
174	0xbd616b54	-0.055033997
175	0x3dfc975e	0.123335585
176	0xbd1be9c4	-0.038064733
177	0xbdb7d1c4	-0.089755565
178	0x3de7dc96	0.1132137
179	0x3dfdc362	0.12390782
180	0xbdfa3d80	-0.122187614
181	0x3d51c10c	0.051209494
182	0xbd0e9a60	-0.034815192
183	0x3d0ef7e4	0.034904376
184	0x3d764d0c	0.06013207
185	0x3db0743c	0.0861592
186	0xbdb95ca2	-0.090508714
187	0xbcfe6200	-0.03105259
188	0x3df97388	0.12180239
189	0x3d0c5dc4	0.03426911
190	0xbdf5518e	-0.11978446
191	0x3d04eaf0	0.032450616
192	0x3dd56188	0.10418993
193	0x3da02c18	0.0782091
194	0x3d6ecbac	0.058299705
195	0xbd81dd12	-0.06340994
196	0xbc18bc10	-0.009322181
197	0xbd9ee6d2	-0.07758869
198	0xbd6a03c4	-0.057132497
199	0xbdbf2c2c	-0.09334597
200	0x3df8952a	0.12137826
201	0xbd065180	-0.03279257
202	0xbda178aa	-0.07884343
203	0x3d0f499c	0.03498231
204	0xbdbfce26	-0.093654916
205	0xbdf1dfe2	-0.118102804
206	0xbde9d44e	-0.11417447
207	0xbdecbf90	-0.11559975
208	0xbd157168	-0.036485106
209	0x3dfa40e0	0.12219405
210	0x3dcf2b48	0.10115677
211	0xbd923f6e	-0.071410045
212	0xbdb2bc1e	-0.08727287
213	0x3ace6e00	0.0015749335
214	0x3dac36c6	0.08408885
215	0x3bb8a020	0.0056343228
216	0x3d82e8fa	0.06392093
217	0x3dbc2700	0.09187126
218	0x3dcd3b76	0.10021107
219	0xbdd5a3ee	-0.10431658
220	0x3bce1840	0.006289512
221	0xbd4444fc	-0.04791735
222	0xbde3e814	-0.1112825
223	0xbde6db1a	-0.11272259
224	0x3c914b40	0.017736077
225	0x3d0d55dc	0.03450571
226	0x3d90cc90	0.07070267
227	0xbd510124	-0.05102648
228	0x3ae3a080	0.0017366558
229	0x3d9ffea2	0.07812239
230	0xbbe543e0	-0.0069966167
231	0x3da15736	0.07877962
232	0xbdecff14	-0.1157209
233	0x3c658790	0.014009371
234	0xbd95ce56	-0.07314746
235	0x3d4179e4	0.047235385
236	0xbd6f9f48	-0.05850151
237	0x3cf6e258	0.030137226
238	0xbde9b886	-0.11412148
239	0xbd7bb30c	-0.06145005
240	0x3d21f154	0.03953679
241	0x3d5bdb9c	0.053676233
242	0xbcdec170	-0.027191848
243	0x3d330408	0.043705016
244	0x3c9613b0	0.018319935
245	0x3d59a548	0.05313614
246	0x3dd36b58	0.103232086
247	0xbd886cce	-0.06661378
248	0x3db5c446	0.08875327
249	0x3db44822	0.08802821
250	0x3b405000	0.0029344559
251	0xbdda0d08	-0.10647017
252	0xbd82238e	-0.06354438
253	0x3da1d6c8	0.079022944
254	0x3cd9ee90	0.026603013
255	0xbc8b9340	-0.017037988

network.8.bias f4 [21]
0	0xbd2f9ec8	-0.042876035
1	0xbd130e74	-0.035902455
2	0xbcf13828	-0.029445723
3	0x3cdb2788	0.026752248
4	0x3cf944a8	0.030428246
5	0x3de38f00	0.111112595
6	0xbdaffee4	-0.085935384
7	0x3dc90166	0.0981472
8	0x3c932cd0	0.017965704
9	0x3b39e380	0.002836436
10	0x3dc34066	0.095337674
11	0xbbc525e0	-0.006016478
12	0xbcb799d8	-0.022412226
13	0xbd192058	-0.03738436
14	0x3d06e1dc	0.03293024
15	0x3cb45d98	0.022017285
16	0x3dba6b90	0.09102547
17	0xbca56988	-0.020191923
18	0x3c36b0c0	0.011150539
19	0xbc3212c0	-0.010868728
20	0x3ce6c078	0.028167948
