double_pendulum_config/models/model_1059.pth (torch, 35975 bytes, 10 tensors)

network.0.weight f4 [16, 6]
-0.8373489 -0.34122947 0.065842085 0.04187282 -0.84906477 -0.009241987 -0.65842474 0.13303311
0.19060442 0.12089111 -0.44580388 0.19872324 -0.8723596 -0.20129502 -0.018493004 -0.35368484
0.66642886 0.034574166 0.13746062 1.1739165 0.3543815 0.23060901 -0.010536081 0.119330734
-0.42691317 0.8795335 -0.1498732 -0.24770366 0.4404507 0.08069928 0.5647129 1.2062849
-0.13008028 -0.6787573 0.55500656 -0.16566044 -0.16375951 -0.81226933 -0.39348382 -0.0169672
-0.8354976 0.007463104 0.12773287 -1.1263307 -0.20773803 -0.13641123 -0.19577675 0.07902469
-1.0510857 0.43930224 -0.090561196 0.9849696 0.5365626 -0.16580017 0.48497194 -0.96424943
0.094645865 -1.1256748 -0.17980985 0.24058424 0.14855097 -1.3832464 -0.24343267 -0.13471733
0.670257 0.0027988981 0.35163733 0.14207405 0.40539098 0.10312462 0.8392768 0.15617786
0.4277418 -1.4015845 -0.020106383 0.21344806 -0.48156118 -0.11842003 -0.54344726 0.9623067
0.21427387 -0.57448715 0.43800265 0.006918536 0.07356564 0.40863463 -0.15698424 -0.5709071
-0.8625943 -0.27294245 0.31666926 -0.20051266 0.16851258 -0.0022881413 0.61602473 -0.18693578
00000000: 7f5c 56bf a1b5 aebe 37d8 863d d682 2b3d
00000010: 4f5c 59bf b46b 17bc 868e 28bf d539 083e
00000020: ce2d 433e c295 f73d 6840 e4be 1b7e 4b3e
00000030: f552 5fbf 4820 4ebe a47e 97bc 2e16 b5be
00000040: 159b 2a3f a49d 0d3d 7ac2 0c3e e542 963f
00000050: 7e71 b53e c524 6c3e 879f 2cbc ac63 f43d
00000060: 5d94 dabe 1c29 613f 5c78 19be 07a6 7dbe
00000070: c182 e13e aa45 a53d 0691 103f 8b67 9a3f
00000080: c433 05be 0ac3 2dbf e914 0e3f e4a2 29be
00000090: 93b0 27be e2f0 4fbf b676 c9be ccfe 8abc
000000a0: 2ce3 55bf 0e8d f43b 68cc 023e 9b2b 90bf
000000b0: 47b9 54be 63af 0bbe b379 48be b2d7 a13d
000000c0: fa89 86bf 39ec e03e 2678 b9bd f826 7c3f
000000d0: 2b5c 093f 85c7 29be 3e4e f83e 0dd9 76bf
000000e0: b1d5 c13d 1d16 90bf 1320 38be b75b 763e
000000f0: bf1d 183e 380e b1bf 6a46 79be 57f3 09be
00000100: f695 2b3f b86d 373b cf09 b43e dc7b 113e
00000110: 688f cf3e 0033 d33d d8da 563f 17ed 1f3e
00000120: f900 db3e 1f67 b3bf 24b6 a4bc 2192 5a3e
00000130: 308f f6be 3386 f2bd 5c1f 0bbf bb59 763f
00000140: 9c6a 5b3e 9711 13bf e241 e03e e3b4 e23b
00000150: 95a9 963d 8f38 d13e 7ac0 20be f826 12bf
00000160: fbd2 5cbf 1dbf 8bbe 7922 a23e 3153 4dbe
00000170: 908e 2c3e a4f4 15bb ccb3 1d3f 186c 3fbe

network.0.bias f4 [16]
-0.2099792 0.1444856 0.24036434 0.34239662 0.08887882 -0.20035104 -0.3059047 -0.026036484
-0.16932526 -0.14933513 0.13605328 0.7071745 0.32572314 0.13110144 0.46055493 -0.72246796
00000000: ca04 57be 08f4 133e 1222 763e 9c4e af3e
00000010: 1906 b63d d328 4dbe 8a9f 9cbe 774a d5bc
00000020: 9a63 2dbe 4feb 18be 8d51 0b3e 6309 353f
00000030: 2fc5 a63e 753f 063e dbcd eb3e a9f3 38bf

network.2.weight f4 [32, 16]
-0.23986691 -0.01814987 -0.13993068 -0.3243732 -0.04610342 0.2181657 -0.18926975 0.38215202
-0.14720352 0.30017436 0.22792564 0.2988046 -0.51731217 -0.42480648 0.43495348 -0.20330343
-0.97664297 -0.61558 0.046777576 -0.832055 0.37095672 0.3029219 -0.40352887 0.230931
0.108603984 -0.48542467 0.35176387 -0.34682447 0.3388866 -0.9988518 0.14897826 -0.7065446
0.03567013 -0.09296478 -0.2239267 -0.18154347 -0.07537982 -0.049065772 -0.13921249 -0.002927971
-0.051740944 0.08476746 -0.012272965 0.017483123 -0.24473108 -0.0466201 -0.18444622 -0.04226002
0.50630593 0.045594208 -0.072407536 0.4159727 0.060981363 -0.29652876 -0.7228846 0.08138386
0.08019539 -0.066380925 0.5715819 -0.29159856 0.09278334 -0.38823482 0.23090328 -0.2318833
-0.05358403 -0.2560403 -0.23265012 0.47692093 -0.012019306 0.036131356 -0.020637149 -0.5149602
0.23391299 0.17437842 -0.111937314 0.11599704 -0.20240192 -0.20411508 0.07532927 0.22391388
-0.43004513 0.0035272492 0.37203738 -0.19641963 0.12205372 -0.92391646 0.0076552676 -0.25544462
-1.231957 -0.68574196 0.17922239 0.06475818 -0.1149218 -0.0063723233 -0.2747406 0.07671485
-0.77148646 0.22775409 -0.07972193 0.5239951 -0.42212254 -0.1135223 0.24385816 0.19042738
0.043682337 -0.42685375 0.15360238 0.5075614 0.048084617 -0.2591112 0.21141154 0.092087716
0.67863303 -0.4479275 -0.42596394 0.14948736 0.45172 -0.21549109 -0.010509466 0.257159
-0.20434937 0.09200035 0.5583355 0.42451185 -0.014012105 0.030479033 0.09950435 -0.20871349
0.3474412 0.27595875 0.25961933 -0.38704336 -0.056735918 -0.0026685253 0.42142957 0.29169145
0.22882006 -0.29222518 0.3686151 -0.31718448 0.58079356 0.17154065 -0.30470678 0.034228027
-0.14747223 -0.46503463 0.3893645 -0.065776005 -0.030537749 0.0059176856 -0.54094064 0.4999549
-0.5052304 -0.28619394 0.36633566 -0.1786669 0.45085 0.16562645 0.40101779 -0.3064993
-1.098545 -0.8136042 0.33181468 0.32158762 0.014598791 0.0852998 0.2835255 -0.08831857
-0.1481267 -0.22980675 -0.54323095 -0.39309976 0.49429426 -0.9086391 0.49840382 0.22085066
-0.04177207 0.11221634 0.4133799 0.30010408 0.2634122 -0.51735485 0.021827677 -0.53124857
-0.3356944 0.4439186 0.079842776 -0.2705735 0.35520434 -0.35137615 0.11577452 0.8292443
-0.4126524 0.16518441 0.52152336 -0.7075575 -0.013669053 -0.6458198 0.1395419 -0.10165079
0.2931592 -0.08545779 -0.06704827 -0.3307545 0.14974357 0.11365099 0.123774946 -0.1449022
0.31706434 -0.161304 -0.076385215 -0.5077499 0.029981084 -0.45452386 0.3940974 -0.0028548748
0.23233016 0.69879466 -0.23878267 0.10786474 -0.52359307 -0.8891394 0.31487533 -0.26392025
0.25979683 -0.09843368 -0.50502867 -0.11284517 0.19043463 0.25154498 0.25068152 0.24614926
-0.19275066 0.4605134 0.31504273 0.49942508 0.010272622 -0.04392197 -0.20237942 0.05183926
0.3268239 0.11902229 -0.43994802 0.3387189 -0.13967569 0.102740265 0.5670994 0.4725698
0.28148186 0.0152862165 -0.10352993 -0.013800204 -0.023077654 0.36032706 -0.4015644 0.19963472
00000000: ac9f 75be 09af 94bc fd49 0fbe 3e14 a6be
00000010: f1d6 3cbd d466 5f3e eecf 41be 6ea9 c33e
00000020: 85bc 16be 74b0 993e 5765 693e ebfc 983e
00000030: 926e 04bf 3c80 d9be 39b2 de3e c62e 50be
00000040: 4605 7abf a796 1dbf d899 3f3d 8e01 55bf
00000050: 0aee bd3e 9418 9b3e 569b cebe 2d79 6c3e
00000060: c46b de3d 9589 f8be 651a b43e fa92 b1be
00000070: 8b82 ad3e c0b4 7fbf c28d 183e 1be0 34bf
00000080: d81a 123d 5264 bebd 0a4d 65be 88e6 39be
00000090: bc60 9abd 31f9 48bd b88d 0ebe 34e3 3fbb
000000a0: 50ee 53bd 909a ad3d 8c14 49bc c438 8f3c
000000b0: c99a 7abe b8f4 3ebd 78df 3cbe d818 2dbd
000000c0: 449d 013f fec0 3a3d 674a 94bd 60fa d43e
000000d0: 98c7 793d 9ed2 97be f70e 39bf 95ac a63d
000000e0: 7b3d a43d b9f2 87bd 3153 123f 684c 95be
000000f0: 3105 be3d b7c6 c6be e971 6c3e d172 6dbe
00000100: ee7a 5bbd b717 83be d53b 6ebe fb2e f43e
00000110: a0ec 44bc 79fe 133d 3d0f a9bc 6fd4 03bf
00000120: e386 6f3e 4290 323e 643f e5bd db8f ed3d
00000130: 7342 4fbe 8b03 51be 3b46 9a3d ae49 653e
00000140: e02e dcbe 6c29 673b af7b be3e 3a22 49be
00000150: 4df7 f93d ca85 6cbf 0ad9 fa3b a3c9 82be
00000160: c4b0 9dbf c98c 2fbf 1386 373e f09f 843d
00000170: 1f5c ebbd ecce d0bb cdaa 8cbe ad1c 9d3d
00000180: 2380 45bf 5e38 693e 4045 a3bd 8b24 063f
00000190: 7220 d8be 617e e8bd f4b5 793e 65ff 423e
000001a0: 40ec 323d 938c dabe f149 1d3e 8bef 013f
000001b0: 60f4 443d 39aa 84be 447c 583e 7c98 bc3d
000001c0: e5ba 2d3f c156 e5be f217 dabe 3713 193e
000001d0: d847 e73e b2a9 5cbe e52f 2cbc 58aa 833e
000001e0: f640 51be ae6a bc3d 13ef 0e3f 9e59 d93e
000001f0: 0793 65bc 2aaf f93c f0c8 cb3d fdb8 55be
00000200: d0e3 b13e 774a 8d3e d3ec 843e 8c2a c6be
00000210: ec63 68bd 6de2 2ebb 9ec5 d73e 9558 953e
00000220: ce4f 6a3e 8a9e 95be 1ebb bc3e 0166 a2be
00000230: e3ae 143f 5aa8 2f3e 8702 9cbe b032 0c3d
00000240: f602 17be 0519 eebe c95a c73e 92b5 86bd
00000250: 4d2a fabc 25e9 c13b 167b 0abf 17fa ff3e
00000260: c856 01bf 0388 92be 5990 bb3e 75f4 36be
00000270: d0d5 e63e fb99 293e 3452 cd3e 7aed 9cbe
00000280: 1f9d 8cbf 5d48 50bf 9de3 a93e 22a7 a43e
00000290: c42f 6f3c a9b1 ae3d 412a 913e 5ee0 b4bd
000002a0: 87ae 17be 7652 6bbe 2f11 0bbf 5f44 c9be
000002b0: 2314 fd3e 929c 68bf c92e ff3e ad26 623e
000002c0: 3119 2bbd aed1 e53d 88a6 d33e 3ea7 993e
000002d0: f7dd 863e 5e71 04bf f5cf b23c e8ff 07bf
000002e0: 23e0 abbe 4c49 e33e 9c84 a33d 9c88 8abe
000002f0: 58dd b53e 93e7 b3be 311b ed3d 5b49 543f
00000300: 2d47 d3be 1a26 293e 8e82 053f 7d22 35bf
00000310: 2af4 5fbc 7254 25bf 12e4 0e3e 4a2e d0bd
00000320: f618 963e 7e04 afbd 9a50 89bd a758 a9be
00000330: 6156 193e dac1 e83d b87d fd3d 3e61 14be
00000340: 4256 a23e e02c 25be da6f 9cbd e6fb 01bf
00000350: e49a f53c 5ab7 e8be 22c7 c93e da18 3bbb
00000360: f5e7 6d3e 35e4 323f 7283 74be 30e8 dc3d
00000370: 320a 06bf a49e 63bf 5737 a13e 8e20 87be
00000380: 1704 853e 9997 c9bd 8f49 01bf 5e1b e7bd
00000390: 4c01 433e 81ca 803e 5459 803e 8d0e 7c3e
000003a0: 6e60 45be 6ac8 eb3e 484d a13e a5b4 ff3e
000003b0: 804e 283c 86e7 33bd 8d3c 4fbe 6755 543d
000003c0: 7655 a73e f5c1 f33d de40 e1be 906c ad3e
000003d0: 2507 0fbe 7d69 d23d 6d2d 113f abf4 f13e
000003e0: 641e 903e 0a73 7a3c 8007 d4bd 401a 62bc
000003f0: 590d bdbc ca7c b83e d999 cdbe 0b6d 4c3e

network.2.bias f4 [32]
0.39199835 0.41477874 -0.24222872 -0.2591289 0.21203932 0.3905241 0.085331544 -0.48883173
-0.15784587 0.3836291 -0.049529504 0.1685766 0.39160752 -0.22812514 0.33382136 -0.3282741
0.019263523 -0.19250509 -0.13276367 0.0022929201 0.15783115 -0.18377839 0.3832243 -0.2251492
-0.1684067 -0.06402797 -0.55727 0.13625601 0.10416078 -0.20945312 0.90874296 0.3986709
00000000: 02b4 c83e e15d d43e ce0a 78be 8bac 84be
00000010: d620 593e c6f2 c73e 4ec2 ae3d 2748 fabe
00000020: 59a2 21be 096b c43e 73df 4abd 589f 2c3e
00000030: c880 c83e a399 69be a2ea aa3e 8b13 a8be
00000040: 89ce 9d3c 0e20 45be 33f3 07be d144 163b
00000050: 7d9e 213e 6730 3cbe fa35 c43e 838d 66be
00000060: ce72 2cbe 1921 83bd 3fa9 0ebf b286 0b3e
00000070: 3f52 d53d e17a 56be 61a3 683f 981e cc3e

network.4.weight f4 [64, 32]
1.0917017 -0.5895254 -0.06427722 -0.752098 0.11747408 0.07358097 -0.1602205 0.51472163
-0.480257 0.8263088 0.7086729 -0.6051098 -0.2700146 -0.9428789 -0.022165444 0.13386127
0.23954503 0.055347998 -0.6578666 0.34735975 -0.2761396 -0.034653086 0.1660238 0.18118107
0.14916569 -0.13314387 -0.20509395 -0.0073169945 -0.65648675 -0.38864753 0.17028576 0.6883553
0.14189345 0.11624696 0.005708812 -0.11449576 0.02641635 0.12777582 -0.08528185 -0.18688858
-0.15062535 0.11570083 -0.15999478 -0.1323249 -0.16302507 -0.06552412 -0.104807265 0.10266685
0.11768022 0.028779617 -0.16804966 -0.09044768 0.08078744 -0.074208036 -0.030962806 -0.15910637
-0.07089225 -0.1753378 0.0009556329 -0.07466509 0.12001199 0.043971494 -0.12997533 -0.038917035
0.10635374 -0.42826003 -0.10979138 -0.08007023 0.08830846 0.32807478 0.0696824 0.10737044
0.31604522 0.42013842 0.13917662 0.028751753 -0.21225046 -0.40055612 -0.35551816 0.24406135
0.30833542 -0.13002801 -0.02983916 -0.13834701 0.14750133 -0.26395985 -0.13868827 0.14247288
0.35681987 0.43079522 0.095166616 -0.15632726 -0.75042444 0.10931719 0.23964298 0.16682096
-0.09336141 -0.0309373 -0.034183137 0.15590128 0.53232497 0.5284193 0.40717563 0.1811633
0.17192692 0.0014352332 0.3862299 0.12139059 0.27925682 -0.54117954 -0.5731314 -0.3838364
0.27785194 0.124939576 -0.64700496 0.58450574 -0.651224 0.63137215 -0.1539634 0.40627843
-0.07214332 0.41984418 0.4357333 -0.20882568 -0.046734817 0.14400887 -0.7013939 0.060477227
-0.056368 0.06726798 -0.039719317 0.13301651 0.027422652 -0.071387164 -0.0036917436 -0.09280574
-0.09750031 -0.037242204 -0.13461104 -0.20188847 -0.073865384 -0.06098214 0.11333877 -0.1383321
-0.009539566 -0.12089364 -0.13253522 0.09006535 -0.1496098 -0.02124553 -0.1785112 -0.07599809
-0.055449463 -0.09112948 -0.025900869 -0.21543716 -0.06449016 0.086957715 -0.15410292 0.025637457
0.43231252 -0.10438007 -0.055098247 -0.531346 -0.41981712 0.49467477 -0.28256294 0.34884483
0.16178131 0.51104677 -0.5116635 0.18867244 -0.46319312 -0.32856414 -0.13132858 0.07700166
0.019082354 -0.12214605 -0.29842818 -0.44831383 0.21865696 0.44241196 0.43095043 -0.10989348
0.29078162 0.30395055 -0.16454107 -0.14174666 -0.42058778 -0.18475422 0.06055804 0.52649283
-0.33221042 -0.30606318 0.16632243 0.64428896 -0.4346554 -0.070373625 0.43951008 0.29419848
0.10689019 -0.63229465 0.57075024 -0.3458914 -0.32250807 0.20712258 0.41577253 0.18201603
-0.38260442 -0.042474963 0.14092883 -0.20529377 -0.6014909 0.51406324 -0.19172242 -0.23297156
-0.3268103 -0.16980077 0.26235154 0.48399606 0.04703929 -0.18634582 -0.49395826 0.0040345155
0.40661553 0.18317734 0.04064916 0.056554142 0.13744634 -0.73134536 0.003901165 0.86075866
-0.8566569 -0.33711383 0.2825966 0.72657865 0.44384325 -0.46959817 0.077714354 -0.36333752
-0.070643 0.06026774 0.50242674 0.5320106 0.36221108 -0.32877415 -0.3106931 -0.35929134
-0.19486865 -0.60228133 -0.4677057 0.17919858 -0.6757167 0.48273608 -0.15043683 -0.13574024
00000000: e2bc 8b3f 23eb 16bf c6a3 83bd 7f89 40bf
00000010: 4096 f03d 9fb1 963d d810 24be ccc4 033f
00000020: 3fe4 f5be f988 533f 966b 353f 7ae8 1abf
00000030: 5b3f 8abe 8360 71bf 4e94 b5bc ee12 093e
00000040: 4b4b 753e 95b4 623d f269 28bf 23d9 b13e
00000050: 2b62 8dbe 65f0 0dbd 2502 2a3e 8887 393e
00000060: e4be 183e de56 08be 2604 52be 66c3 efbb
00000070: 840f 28bf cffc c6be 645f 2e3e 0e38 303f
00000080: 844c 113e e312 ee3d fc10 bb3b c17c eabd
00000090: 1a67 d83c aad7 023e 40a8 aebd b85f 3fbe
000000a0: 883d 1abe 8ff4 ec3d acd5 23be 2e80 07be
000000b0: 0bf0 26be 8331 86bd 31a5 d6bd ff42 d23d
000000c0: 5402 f13d 3bc3 eb3c 3615 2cbe a23c b9bd
000000d0: e373 a53d 62fa 97bd b6a5 fdbc c8ec 22be
000000e0: f52f 91bd c18b 33be 7083 7a3a 03ea 98bd
000000f0: d9c8 f53d 741b 343d 4118 05be 7867 1fbd
00000100: fdcf d93d e644 dbbe 4eda e0bd dcfb a3bd
00000110: 11db b43d 6bf9 a73e a5b5 8e3d 09e5 db3d
00000120: aed0 a13e 621c d73e 5184 0e3e cc88 eb3c
00000130: 2f58 59be b115 cdbe 7a06 b6be 38eb 793e
00000140: 24de 9d3e 1026 05be 4171 f4bc d7aa 0dbe
00000150: 970a 173e bf25 87be 4c04 0ebe 69e4 113e
00000160: 18b1 b63e 3191 dc3e b7e6 c23d 4114 20be
00000170: d11b 40bf b1e1 df3d f864 753e 1dd3 2a3e
00000180: 4434 bfbd 3870 fdbc 9e03 0cbd 96a4 1f3e
00000190: 7346 083f 7d46 073f 5379 d03e df82 393e
000001a0: 9c0d 303e 6f1e bc3a edbf c53e a19b f83d
000001b0: c0fa 8e3e be8a 0abf bdb8 12bf 3486 c4be
000001c0: 9c42 8e3e 52e0 ff3d 1ea2 25bf 2ba2 153f
000001d0: 9eb6 26bf 9ba1 213f 95a8 1dbe ba03 d03e
000001e0: e1bf 93bd d1f5 d63e 6f18 df3e 66d6 55be
000001f0: 026d 3fbd 1077 133e 8d8e 33bf f8b6 773d
00000200: 22e2 66bd cbc3 893d b9b0 22bd 7b35 083e
00000210: 78a5 e03c 6f33 92bd 2ef1 71bb f010 bebd
00000220: 3eae c7bd 488b 18bd 7ad7 09be dabb 4ebe
00000230: bc46 97bd 69c8 79bd 281e e83d eea6 0dbe
00000240: d74b 1cbc 1697 f7bd 50b7 07be 2f74 b83d
00000250: 5033 19be 1b0b aebc a4cb 36be e3a4 9bbd
00000260: fa1e 63bd 18a2 babd 0f2e d4bc 8f9b 5cbe
00000270: 6b13 84bd e316 b23d 28cd 1dbe a505 d23c
00000280: 1158 dd3e 38c5 d5bd b3ae 61bd 4b06 08bf
00000290: 45f2 d6be 0346 fd3e 17ac 90be ca9b b23e
000002a0: 00aa 253e f6d3 023f 61fc 02bf 5933 413e
000002b0: a627 edbe 8f39 a8be 007b 06be 0cb3 9d3d
000002c0: 9952 9c3c b527 fabd 94cb 98be 6489 e5be
000002d0: 9ce7 5f3e d283 e23e 89a5 dc3e d50f e1bd
000002e0: 54e1 943e 689f 9b3e 747d 28be 0926 11be
000002f0: 4857 d7be 3630 3dbe b50b 783d 3cc8 063f
00000300: 7c17 aabe 50b4 9cbe 6d50 2a3e 1ff0 243f
00000310: 278b debe 0c20 90bd 7707 e13e 2fa1 963e
00000320: 3ee9 da3d 10de 21bf b01c 123f ad18 b1be
00000330: c71f a5be f117 543e 23e0 d43e 6962 3a3e
00000340: bae4 c3be 3afa 2dbd a64f 103e 8838 52be
00000350: 4ffb 19bf a699 033f e252 44be 1990 6ebe
00000360: ae53 a7be 41e0 2dbe f152 863e 55ce f73e
00000370: 45ac 403d 70d1 3ebe 19e8 fcbe f833 843b
00000380: e92f d03e d792 3b3e bc7f 263d 51a5 673d
00000390: bcbe 0c3e 7339 3bbf b0aa 7f3b ae5a 5c3f
000003a0: de4d 5bbf 2f9a acbe 80b0 903e 0f01 3a3f
000003b0: 6c3f e33e 2c6f f0be b428 9f3d 6007 babe
000003c0: 47ad 90bd 4edb 763d 0a9f 003f d931 083f
000003d0: bb73 b93e 1655 a8be 2a13 9fbe 09f5 b7be
000003e0: a68b 47be 1c2f 1abf 1f77 efbe d57f 373e
000003f0: c5fb 2cbf 2f29 f73e 1d0c 1abe 7dff 0abe

network.4.bias f4 [64]
-0.40610036 -0.059564885 0.06850152 -0.32753634 -0.10251466 -0.0457697 -0.048288126 0.19411501
0.36144817 -0.06362628 -0.5629609 0.17148507 -0.18348037 0.075100794 0.3465382 0.33217466
0.116952375 -0.1501254 0.13845578 0.16456014 -0.18619873 -0.3976785 0.13354698 0.41938686
-0.15119138 0.14066128 0.26744458 0.29046726 0.24312423 -0.23084635 0.19506098 0.089360125
0.40293738 0.22096549 0.08777433 0.33624247 0.41741392 0.36467576 -0.06812525 0.493569
0.3250886 0.26288557 0.022343013 -0.24185935 0.31934196 0.3158113 0.32086208 0.070765965
-0.02513741 0.014107369 0.11057457 0.34822598 0.19137816 0.4228812 0.34416297 -0.43591335
-0.12339196 0.0878469 0.011281957 0.22566837 0.43334854 0.20214437 0.30208957 0.23201534
00000000: 63ec cfbe 4ffa 73bd 864a 8c3d d8b2 a7be
00000010: 35f3 d1bd 0279 3bbd c5c9 45bd 16c6 463e
00000020: bc0f b93e 7f4e 82bd 351e 10bf c899 2f3e
00000030: 47e2 3bbe 72ce 993d 746d b13e cc12 aa3e
00000040: ba84 ef3d 79ba 19be 5ac7 0d3e 7482 283e
00000050: e1aa 3ebe 849c cbbe 8ac0 083e e0b9 d63e
00000060: ead1 1abe 8309 103e 7fee 883e 20b8 943e
00000070: 8ff5 783e fc62 6cbe 11be 473e 7102 b73d
00000080: cf4d ce3e c744 623e 07c3 b33d f927 ac3e
00000090: 47b7 d53e c8b6 ba3e 4085 8bbd 13b5 fc3e
000000a0: 0372 a63e f098 863e b208 b73c faa9 77be
000000b0: ca80 a33e 05b2 a13e 0948 a43e bfed 903d
000000c0: f8ec cdbc 9822 673c ec74 e23d ad4a b23e
000000d0: a3f8 433e e283 d83e 2136 b03e 0930 dfbe
000000e0: edb4 fcbd 13e9 b33d f5d7 383c 9c15 673e
000000f0: dcdf dd3e effe 4e3e 7cab 9a3e 6e95 6d3e

network.6.weight f4 [64, 64]
0.09859841 0.0016579735 0.18454061 0.027536191 0.033833634 0.068823345 0.18752375 -0.027830793
0.19765887 -0.05894139 -0.32501552 0.13310127 -0.015460324 0.19708185 0.17511989 0.23525177
-0.03358229 -0.032802597 0.021041824 0.16370328 -0.063929394 0.25745013 0.10467008 0.05536813
-0.0128751155 -0.31960925 0.20798221 0.29746094 0.03765536 0.29121986 -0.24234247 0.23858543
0.23806427 0.21202579 -0.3213636 -0.22525913 0.32173645 0.3874246 0.25192693 0.1803719
0.11366969 -0.46930388 0.18986912 -0.015479589 0.029123748 0.06526551 -0.09403078 0.1690794
0.5844748 0.12724753 0.25445557 0.15864457 0.0020821888 0.19164148 -0.30985463 0.1330374
-0.2589383 0.15327646 0.054477416 0.27655673 0.018116727 -0.0745739 0.1739932 0.0130842235
0.09634757 0.056526083 0.020206437 0.036670037 -0.11776042 0.032593537 0.31548503 -0.13122265
0.122636944 0.025421862 -0.2938475 0.0989679 0.019215463 -0.07781107 -0.04130211 0.02811014
-0.34386402 0.0070707384 0.021466207 0.108324155 0.09425379 0.08501524 0.086088814 0.04887537
-0.060809128 -0.29039335 -0.1328044 0.23660049 -0.13814175 -0.051818624 -0.39281666 0.106724
-0.047248293 0.0030586293 -0.28099015 -0.39998063 0.111301824 0.100134164 0.2014995 0.30820623
0.17121993 -0.7112844 0.0675269 -0.04445331 0.15782316 -0.013097237 -0.11878049 0.09596946
0.7635272 0.1746788 0.21045183 0.15426575 0.009042252 -0.031060169 -0.4935338 0.18736148
-0.093694374 -0.05535947 -0.0028509856 0.2230444 0.046352524 -0.117501944 0.031572107 -0.062003005
-0.1620876 -0.055477798 0.13615389 -0.0030944513 0.0963582 0.15052009 0.4177747 -0.32742584
0.16829357 0.13445048 -0.39622974 0.23909831 -0.06886065 0.2058448 0.26607183 0.25828224
-0.19161652 0.0686596 0.17486495 0.195269 -0.057957485 0.061472703 0.0645666 0.107932456
0.10397707 -0.20040295 0.039532967 0.28734976 0.078852326 0.14133781 -0.26103613 0.21205096
0.18027216 0.12163763 -0.23333666 -0.70312995 0.40483436 0.18043348 0.14884043 0.39758196
0.041648127 0.12517889 0.33217517 -0.082889415 0.1804167 0.16216305 -0.4047254 0.42122892
0.76762134 0.1115762 0.2955789 0.047642406 -0.02546218 0.13893823 -0.12563992 0.10632121
-0.017340641 0.059084255 0.062638685 0.43275917 0.049634952 -0.10937611 0.033793986 0.065593444
0.1498079 0.099322826 0.013215596 -0.2764301 -0.029494999 0.3373232 0.087643325 -0.1218105
0.029047577 0.025298767 -0.234362 0.5003997 0.0540476 -0.07614487 -0.030614039 0.18346144
0.07979926 -0.011973205 0.15022561 0.40341917 -0.038750686 0.13302468 0.1876437 -0.27064714
0.041708127 -1.3927718 -0.13558568 0.3697052 -0.4476244 -0.26187578 -0.34042865 0.3316258
-0.028925354 0.05255641 -0.5341484 -0.9513176 -0.09565283 -0.084995314 -0.07488698 -0.13836507
-0.09383824 -0.39577326 0.1650287 0.09044967 -0.022811716 0.047168296 -0.76823485 0.5260562
0.1535239 0.031610552 -0.19546156 0.1482985 0.04608341 0.03512276 -0.43108776 -0.0034831355
-0.57822645 0.02604083 -0.018117718 -0.024135109 0.10453972 -0.68803406 -0.10535856 -0.16072905
00000000: f7ed c93d 5c50 d93a 37f8 3c3e 9493 e13c
00000010: 2395 0a3d 41f3 8c3d 3a06 403e 67fd e3bc
00000020: 1667 4a3e 876c 71bd 6f68 a6be b34b 083e
00000030: 4c4d 7dbc d3cf 493e a152 333e d7e5 703e
00000040: 958d 09bd 045c 06bd e75f ac3c d5a1 273e
00000050: 6aed 82bd 81d0 833e 445d d63d b1c9 623d
00000060: 26f2 52bc d3a3 a3be 4af9 543e cd4c 983e
00000070: 823c 1a3d c51a 953e a028 78be bd4f 743e
00000080: 1fc7 733e 4a1d 593e c589 a4be 54aa 66be
00000090: a4ba a43e 845c c63e 91fc 803e 69b3 383e
000000a0: a8cb e83d 9948 f0be 0d6d 423e 1a9e 7dbc
000000b0: ed94 ee3c eca9 853d 3693 c0bd 2623 2d3e
000000c0: 24a0 153f 2d4d 023e 0048 823e b973 223e
000000d0: 5575 083b aa3d 443e 44a5 9ebe f53a 083e
000000e0: 9093 84be 81f4 1c3e b623 5f3d d898 8d3e
000000f0: 8869 943c 33ba 98bd 462b 323e 365f 563c
00000100: e051 c53d e587 673d f887 a53c 5233 163d
00000110: 602c f1bd cd80 053d 4187 a13e 3b5f 06be
00000120: 1429 fb3d 8241 d03c 2e73 96be afaf ca3d
00000130: bf69 9d3c 695b 9fbd 672c 29bd 3c47 e63c
00000140: f20e b0be a7b1 e73b e6d9 af3c 0ed9 dd3d
00000150: 2208 c13d 781c ae3d 554f b03d 8a31 483d
00000160: fe12 79bd 70ae 94be e0fd 07be 6647 723e
00000170: 0875 0dbe c43f 54bd 441f c9be 1d92 da3d
00000180: 6d87 41bd 4973 483b f1dd 8fbe 43ca ccbe
00000190: 36f2 e33d 2413 cd3d e355 4e3e 35cd 9d3e
000001a0: 4754 2f3e bc16 36bf 8b4b 8a3d ad14 36bd
000001b0: 659c 213e cb95 56bc 2f43 f3bd a38b c43d
000001c0: 8576 433f 00df 323e af80 573e d7f7 1d3e
000001d0: f425 143c e571 febc 76b0 fcbe b0db 3f3e
000001e0: d6e2 bfbd 9dc0 62bd 9ad7 3abb c065 643e
000001f0: 25dc 3d3d dca4 f0bd c151 013d ddf6 7dbd
00000200: 4bfa 25be b03c 63bd ed6b 0b3e 47cc 4abb
00000210: 7357 c53d f021 1a3e 91e6 d53e 5ca4 a7be
00000220: 2655 2c3e 63ad 093e a0de cabe 30d6 743e
00000230: d006 8dbd fbc8 523e 913a 883e 923d 843e
00000240: 1f37 44be 689d 8c3d cc0f 333e 99f4 473e
00000250: d464 6dbd cdca 7b3d 7e3b 843d b10b dd3d
00000260: eef1 d43d 6e36 4dbe 52ed 213d 821f 933e
00000270: 547d a13d dcba 103e 87a6 85be e323 593e
00000280: 4499 383e 261d f93d ceef 6ebe 5300 34bf
00000290: 7346 cf3e 8ec3 383e a069 183e dd8f cb3e
000002a0: 3a97 2a3d e52e 003e dd12 aa3e edc1 a9bd
000002b0: 28bf 383e 120e 263e 2b38 cfbe 51ab d73e
000002c0: d582 443f 1082 e43d 1e56 973e af24 433d
000002d0: 1096 d0bc d345 0e3e c0a7 00be efbe d93d
000002e0: f60d 8ebc 5502 723d b648 803d 9c92 dd3e
000002f0: 054e 4b3d 9500 e0bd 906b 0a3d db55 863d
00000300: 3e67 193e c469 cb3d 3a86 583c 3f88 8dbe
00000310: 7f9f f1bc a0b5 ac3e 587e b33d c977 f9bd
00000320: 2ff5 ed3c 5c3f cf3c 98fc 6fbe 321a 003f
00000330: 0461 5d3d d7f1 9bbd 4bca fabc 51dd 3b3e
00000340: cb6d a33d 432b 44bc bed4 193e f58c ce3e
00000350: 0ab9 1ebd 9f37 083e ac25 403e 4392 8abe
00000360: 24d6 2a3d 5946 b2bf f9d6 0abe 004a bd3e
00000370: 062f e5be 9514 86be aa4c aebe dbca a93e
00000380: ddf4 ecbc 6445 573d f3bd 08bf 8d89 73bf
00000390: a2e5 c3bd 0612 aebd 585e 99bd 93af 0dbe
000003a0: 432e c0bd cba2 cabe 49fd 283e ad3d b93d
000003b0: a3df babc 8b33 413d 0aab 44bf 9eab 063f
000003c0: 5f35 1d3e 117a 013d 1327 48be 90db 173e
000003d0: f5c1 3c3d e2dc 0f3d 89b7 dcbe 5145 64bb
000003e0: a606 14bf 9453 d53c 9c6b 94bc feb6 c5bc
000003f0: ec18 d63d 0023 30bf 3bc6 d7bd 2896 24be

network.6.bias f4 [64]
0.5418875 0.47553343 0.54267526 0.34598944 0.019390801 0.5030815 -0.07199447 0.46596763
-0.107853554 -0.061413933 0.55795336 -0.11147022 -0.17877252 0.0023468435 0.35061812 0.5006866
-0.13915415 0.5246521 0.19277453 0.21095386 -0.10718369 -0.018395849 0.30458078 0.5989366
0.43771714 0.0011110994 -0.022339618 -0.044554118 0.44716826 -0.12014362 0.40137306 -0.16347556
0.42911988 -0.17178628 0.40636277 -0.03708396 -0.08916041 0.21159431 0.48152602 0.39385054
-0.09894917 0.434595 0.51223886 0.5111373 -0.11085348 -0.078168824 0.003705446 -0.044051815
-0.114956394 -0.14749716 0.38070413 0.4780609 0.47218093 0.47968835 0.4287607 0.3222431
-0.07899132 0.0064464533 -0.01792747 0.5881972 -0.14779326 0.15914285 -0.08777448 -0.12436074
00000000: 24b9 0a3f 1e79 f33e c4ec 0a3f 8725 b13e
00000010: 75d9 9e3c f3c9 003f d671 93bd 4f93 ee3e
00000020: 53e2 dcbd 2d8d 7bbd 08d6 0e3f 804a e4bd
00000030: 2510 37be 80cd 193b 3884 b33e ff2c 003f
00000040: 6d7e 0ebe 9a4f 063f b066 453e 4a04 583e
00000050: 1f83 dbbd e4b2 96bc 03f2 9b3e e953 193f
00000060: 761c e03e 4fa2 913a 9301 b7bc 617e 36bd
00000070: 3df3 e43e dc0d f6bd c580 cd3e 2366 27be
00000080: 9ab5 db3e bee8 2fbe c80e d03e 5ae5 17bd
00000090: bc99 b6bd 2eac 583e 948a f63e c7a6 c93e
000000a0: dda5 cabd 3c83 de3e 1622 033f e5d9 023f
000000b0: 2607 e3bd fa16 a0bd 11d7 723b ad6f 34bd
000000c0: 426e ebbd 7f09 17be a7eb c23e 66c4 f43e
000000d0: b3c1 f13e b699 f53e 8686 db3e 0cfd a43e
000000e0: 34c6 a1bd c53c d33b a1dc 92bc 1794 163f
000000f0: 1e57 17be 58f6 223e 1bc3 b3bd d8b0 febd

network.8.weight f4 [21, 64]
0.33048803 0.13773544 0.14421798 0.4185966 0.054879334 0.21945073 -0.09753084 0.28676668
-0.12434 -0.018549995 0.3671043 -0.037249 0.040147923 0.040154323 0.16909872 0.88596416
-0.153497 0.18648583 -0.79379475 -0.5901419 -0.0034627328 -0.06985426 0.16262117 0.30096102
0.26787958 -0.07812418 -0.001848463 -0.100742064 0.27939713 0.5063782 -0.1788876 -0.09939705
0.22655827 0.11090574 -0.056371223 -0.012148271 -0.12078711 0.11700951 -0.48860535 0.28876427
-0.7142968 0.21949203 0.2924312 0.40281028 -0.04732426 -0.023833837 -0.011405626 0.2516563
-0.0046878266 0.14313343 0.24670257 0.23054117 0.24177483 0.24909188 0.52888256 0.295467
0.045784745 -0.036229797 -0.091026254 0.15395479 0.05101803 -0.9620852 0.041786224 -0.059299204
0.34883717 0.092666335 0.3106465 0.37688336 -0.028221743 0.16048206 -0.041570548 0.2809658
0.08263944 0.11840106 0.30233634 -0.039566115 -0.03922057 0.08393897 0.16608693 0.8547338
-0.14527947 0.23897418 -0.78463703 -0.43317533 0.06560679 0.06735386 0.21794379 0.25610432
0.28916377 -0.09376157 -0.080088064 0.11134674 0.3102983 0.40965223 -0.12777479 -0.036434494
0.2270842 0.038636014 0.018093355 -0.0022165405 -0.0749791 0.036535975 -0.5578537 0.32549286
-0.55901945 0.14811525 0.23855816 0.30729023 0.1017009 0.052119255 -0.06086298 -0.29925725
-0.046879567 0.048607994 0.29657084 0.22733864 0.18636826 0.255076 0.44555026 0.2992803
0.09301339 -0.09716532 0.048616115 0.19240822 0.030459478 -0.88316125 0.0032063276 0.03231903
0.3052826 0.15986219 0.24966161 0.3320641 0.013350329 0.18661971 -0.019423952 0.29229355
0.0055391192 -0.019976838 0.31701714 -0.08683318 -0.002983883 0.04674311 0.23877858 0.8875553
0.064929865 0.19447328 -0.7910957 -0.25453416 -0.015849918 0.12112057 0.27098155 0.17579798
0.25236335 0.008951522 0.00014825807 0.021001637 0.3163625 0.3733926 -0.06702247 0.036624264
0.23027539 -0.07448655 0.029002769 -0.0344314 -0.0687266 0.11614885 -0.55101633 0.3225341
-0.52351654 0.13114911 0.1676054 0.338891 -0.004764825 -0.111700684 -0.04601318 -0.17598198
-0.03217735 -0.067589805 0.33607817 0.32092795 0.15450259 0.272721 0.44681436 0.30695102
0.030000756 0.11989418 -0.08000329 0.19708993 0.12180239 -0.85628074 -0.11978446 0.08798695
0.35357207 0.2328449 0.2803489 0.35149506 0.0071565355 0.20113304 -0.03979784 0.21281765
0.12137826 -0.01841754 0.20515107 0.03498231 -0.061926216 -0.118102804 0.17805167 0.6187146
0.016601488 0.31655574 -0.77796185 -0.21142267 -0.08727287 0.0015749335 0.25489685 0.26022455
0.29625303 0.09250085 0.10852404 -0.10431658 0.28204685 0.3309173 -0.07067336 -0.1259008
0.2568649 0.03450571 0.026250176 -0.017990084 0.0017366558 0.101799585 -0.61228055 0.32300788
-0.46046528 0.2496309 0.19295147 0.32375517 -0.05850151 0.030137226 -0.10275874 -0.30854923
0.03953679 0.06613009 0.22242671 0.27263033 0.24870321 0.30832475 0.4302442 0.33284384
0.08875327 0.16168791 0.01443493 0.17516188 -0.06354438 -0.78392875 0.026603013 -0.030923443
00000000: ba35 a93e 850a 0d3e e1ad 133e 4b52 d63e
00000010: 27c9 603d b1b7 603e 40be c7bd 15d3 923e
00000020: f8a5 febd 29f6 97bc 18f5 bb3e 6892 18bd
00000030: 2672 243d dc78 243d 3728 2d3e 8cce 623f
00000040: 512e 1dbe 24f6 3e3e 2236 4bbf 8a13 17bf
00000050: 04ef 62bb c00f 8fbd 2a86 263e 9017 9a3e
00000060: 8327 893e 92ff 9fbd 2048 f2ba db51 cebd
00000070: 240d 8f3e 00a2 013f 502e 37be ae90 cbbd
00000080: e4fe 673e 8c22 e33d 83e5 66bd 8b09 47bc
00000090: 3b5f f7bd afa2 ef3d 7b2a fabe e9d8 933e
000000a0: 28dc 36bf 85c2 603e 8bb9 953e 263d ce3e
000000b0: 15d7 41bd 2e3f c3bc aade 3abc 18d9 803e
000000c0: 579c 99bb 9291 123e 999f 7c3e fc12 6c3e
000000d0: d293 773e f111 7f3e d964 073f 7347 973e
000000e0: c988 3b3d b265 14bd f96b babd 53a6 1d3e
000000f0: 48f8 503d 374b 76bf 0828 2b3d b9e3 72bd
00000100: c99a b23e d9c7 bd3d 0f0d 9f3e dbf6 c03e
00000110: 4931 e7bc 6955 243e e145 2abd c0da 8f3e
00000120: de3e a93d 417c f23d d4cb 9a3e 1410 22bd
00000130: c0a5 20bd 32e8 ab3d b112 2a3e d6cf 5a3f
00000140: 24c4 14be a6b5 743e f9dd 48bf 28c9 ddbe
00000150: da5c 863d d2f0 893d a82c 5f3e 1b20 833e
00000160: 460d 943e 1106 c0bd 3605 a4bd c209 e43d
00000170: 6bdf 9e3e f0bd d13e 65d7 02be 563c 15bd
00000180: c388 683e cc40 1e3d 8438 943c 6143 11bb
00000190: a48e 99bd bfa6 153d 80cf 0ebf 00a7 a63e
000001a0: e61b 0fbf 86ab 173e 9748 743e 2555 9d3e
000001b0: 9048 d03d 007b 553d 764b 79bd 3f38 99be
000001c0: ca04 40bd 2d19 473d 22d8 973e 76cb 683e
000001d0: 52d7 3e3e 5299 823e 2a1f e43e 443b 993e
000001e0: ce7d be3d 9cfe c6bd b121 473d a906 453e
000001f0: 2886 f93c db16 62bf 4021 523b f660 043d
00000200: 004e 9c3e eab2 233e 4ba7 7f3e 4e04 aa3e
00000210: 57bb 5a3c 3d19 3f3e fb1e 9fbc 80a7 953e
00000220: 8081 b53b 77a6 a3bc 1250 a23e 98d5 b1bd
00000230: 408d 43bb b475 3f3d 5f82 743e d336 633f
00000240: f3f9 843d 0124 473e 3f85 4abf 4d52 82be
00000250: b0d7 81bc 100e f83d 18be 8a3e 6304 343e
00000260: c535 813e 68a9 123c b975 1b39 a00b ac3c
00000270: 44fa a13e 512d bf3e 1443 89bd 5303 163d
00000280: 50cd 6b3e 688c 98bd 3797 ed3c f107 0dbd
00000290: 88c0 8cbd 73df ed3d 680f 0dbf 3123 a53e
000002a0: 2e05 06bf f44b 063e c0a0 2b3e 1f83 ad3e
000002b0: 4022 9cbb 54c3 e4bd 5178 3cbd 9f34 34be
000002c0: 66cc 03bd 866c 8abd 7012 ac3e ab50 a43e
000002d0: ed35 1e3e 16a2 8b3e dac4 e43e af28 9d3e
000002e0: 25c4 f53c 148b f53d c4d8 a3bd f1d1 493e
000002f0: 8873 f93d 3735 5bbf 8e51 f5bd 8132 b43d
00000300: 6607 b53e e56e 6e3e e489 8f3e 29f7 b33e
00000310: 5f81 ea3b d2f5 4d3e 0f03 23bd dfec 593e
00000320: 2a95 f83d 61e0 96bc 1f13 523e 9c49 0f3d
00000330: 58a6 7dbd e2df f1bd 2d53 363e 1464 1e3f
00000340: d8ff 873c 9813 a23e 8228 47bf 2f7f 58be
00000350: 1ebc b2bd 006e ce3a d781 823e 273c 853e
00000360: 7aae 973e 1671 bd3d da41 de3d eea3 d5bd
00000370: 7268 903e fe6d a93e 32bd 90bd 24ec 00be
00000380: cc83 833e dc55 0d3d 9c0a d73c f15f 93bc
00000390: 80a0 e33a 4d7c d03d 6bbe 1cbf 4a61 a53e
000003a0: 1bc2 ebbe 3e9f 7f3e 1295 453e 3dc3 a53e
000003b0: 489f 6fbd 58e2 f63c 2d73 d2bd 2afa 9dbe
000003c0: 54f1 213d 366f 873d d4c3 633e 3496 8b3e
000003d0: 0eac 7e3e bedc 9d3e f848 dc3e 826a aa3e
000003e0: 46c4 b53d 8491 253e 7c80 6c3c a35d 333e
000003f0: 8e23 82bd 8eaf 48bf 90ee d93c 2953 fdbc

network.8.bias f4 [21]
0.3644669 0.48794886 0.39143854 0.41576803 0.35435084 0.3962054 0.404097 0.47621024
0.31013423 0.5180774 0.5592175 0.4530151 0.43055975 0.48064902 0.5144488 0.41411495
0.54432696 0.52304214 0.517627 0.47523037 0.5242319
00000000: 689b ba3e 6fd4 f93e a26a c83e 8cdf d43e
00000010: 796d b53e 6fdb ca3e cde5 ce3e d4d1 f33e
00000020: eac9 9e3e b8a0 043f e128 0f3f 98f1 e73e
00000030: 5472 dc3e a117 f63e ebb2 033f e006 d43e
00000040: 0359 0b3f 17e6 053f 3483 043f 6551 f33e
00000050: 1034 063f
