double_pendulum_config/models/model_941.pth (torch, 35975 bytes, 10 tensors)

network.0.weight f4 [16, 6]
000000 af 0a 42 bf 3d 19 b4 be 80 31 4a 3d 4c 09 04 3d
       -0.7579755 -0.35175505 0.049363613 0.03223543
000010 bd a4 56 bf 5e 8f 4b bc bc b7 18 bf dc 6d e0 3d
       -0.8384512 -0.012424318 -0.59655356 0.10958454
000020 f1 97 3f 3e ed bf 14 3e f4 24 d9 be 05 0e 47 3e
       0.18710305 0.14526339 -0.42411005 0.19438942
000030 bc 00 55 bf af e0 38 be 66 a4 d4 bc 10 ed c8 be
       -0.83204246 -0.1805446 -0.025957298 -0.39243364
000040 2f a9 1c 3f 55 3a e6 3c 69 a5 25 3e a0 f0 88 3f
       0.61195654 0.028103987 0.1617638 1.0698433
000050 a3 dd b3 3e 7d 19 9e 3e 41 b2 8a bd 85 4c ee 3d
       0.35130033 0.3087882 -0.067722805 0.11635689
000060 5d b7 d3 be a7 09 5f 3f c7 3f 09 be 0a 3a 9f be
       -0.41350833 0.87124103 -0.13403235 -0.31098968
000070 35 ab ef 3e 40 dc 9b 3d 3a 5a f7 3e 4e 42 9b 3f
       0.46810308 0.07610369 0.48311025 1.212961
000080 2b 8a 1e be 5d 0f 2e bf 69 ca f4 3e d4 f2 34 be
       -0.15482394 -0.6799219 0.47810677 -0.17670757
000090 15 19 33 be 5f ea 3d bf de 7e bb be b4 ec b3 bd
       -0.17490037 -0.74185747 -0.3662023 -0.08785382
0000a0 2a 48 59 bf 24 45 aa 3c 2f 67 47 3e 47 f8 8d bf
       -0.8487574 0.020784922 0.19472955 -1.1091393
0000b0 13 7d 4a be 39 48 dd bd f8 6f 49 be 3d c2 9d 3d
       -0.19774275 -0.10804791 -0.19671619 0.07703064
0000c0 50 d1 81 bf e7 5c e7 3e 8e 1e bb bd 46 b7 76 3f
       -1.0142002 0.45188066 -0.09136687 0.96373403
0000d0 8c e5 0f 3f ac c2 32 be fe 0d da 3e a0 6c 71 bf
       0.56209636 -0.17457074 0.425888 -0.94306374
0000e0 ef 48 cb 3d b7 ed 8d bf 6c a4 29 be a0 92 7c 3e
       0.0992602 -1.108817 -0.16566628 0.24665308
0000f0 50 99 1c 3e 2c 81 b2 bf 65 49 61 be cd 21 a1 bd
       0.15292859 -1.394567 -0.22000654 -0.07867775
000100 fc 82 36 3f c1 3f 96 3b d9 0c c2 3e da fb 9f 3d
       0.71293616 0.004585237 0.37900427 0.07811709
000110 8d f7 bc 3e ad 22 45 3e 02 c6 67 3f 2b 80 ff 3d
       0.36907616 0.19251509 0.9053651 0.12475618
000120 42 49 d8 3e 61 da ba bf b1 33 7e bc a3 37 6b 3e
       0.4224339 -1.4597894 -0.015515254 0.22970442
000130 75 ae e2 be 8e 71 b9 bd 84 5d 10 bf e6 e0 67 3f
       -0.44273725 -0.09054862 -0.56392694 0.9057754
000140 73 f4 4c 3e 19 80 0d bf d4 63 d5 3e 74 c1 eb bb
       0.20015125 -0.55273587 0.41677725 -0.0071946923
000150 29 e6 4a 3d 57 a1 c8 3e 8c 45 1d be f8 e0 01 bf
       0.049535904 0.39185593 -0.15358561 -0.507339
000160 5c 0a 57 bf ff 37 8e be ae 0f b6 3e 5c 89 c4 be
       -0.8400018 -0.27777097 0.35558838 -0.38386047
000170 df be ed 3d c0 b4 b5 3d 5e a0 0e 3f 42 aa 4d be
       0.116086714 0.08872366 0.5571345 -0.2008448

network.0.bias f4 [16]
000000 e6 b2 68 be 04 22 19 3e 27 7a 72 3e 59 f8 bb 3e
       -0.22724494 0.14954382 0.2367941 0.36712912
000010 f1 66 04 3e e7 96 82 be 5a 4b 80 be 22 5c b4 3c
       0.12929894 -0.25505754 -0.2505749 0.022016589
000020 23 af 11 be 60 48 12 be 32 9a b4 3d de 6f 31 3f
       -0.14226966 -0.14285421 0.08818473 0.6931132
000030 57 7e b4 3e 3e a5 d4 3d 3f bf c7 3e 11 e4 19 bf
       0.3525264 0.1038308 0.39013097 -0.60113627

network.2.weight f4 [32, 16]
000000 12 34 62 be 5d 99 73 bc 84 e3 dc bd a5 c9 9b be
       -0.22090176 -0.014868108 -0.10785583 -0.3042728
000010 e2 35 98 bd d4 b9 43 3e b3 42 f4 bd 93 32 b0 3e
       -0.07432152 0.19113857 -0.11926784 0.34413585
000020 0c 69 1b be a8 d2 a3 3e ca df 55 3e 5a c7 a0 3e
       -0.15176791 0.31996655 0.2088615 0.31402093
000030 ab b8 00 bf cf 7f d3 be 01 36 d1 3e 38 41 45 be
       -0.5028178 -0.41308448 0.40861514 -0.1926316
000040 8d dc 7b bf 07 87 03 bf d2 b7 53 ba 67 f0 55 bf
       -0.9838341 -0.5137791 -0.00080764026 -0.8356995
000050 d6 f3 cd 3e d2 bf b2 3e 91 c4 c1 be 77 b6 6b 3e
       0.40225095 0.34911972 -0.3784528 0.23018824
000060 fa b5 f8 3d 89 c0 d0 be 37 ae a2 3e 4a c4 a8 be
       0.12144084 -0.40771893 0.3177354 -0.32962257
000070 02 b0 8e 3e 67 c4 84 bf 47 5f f6 3d 6c d0 09 bf
       0.27868658 -1.0372437 0.120298915 -0.5383365
000080 d8 1a 12 3d 52 64 be bd 0a 4d 65 be 88 e6 39 be
       0.03567013 -0.09296478 -0.2239267 -0.18154347
000090 bc 60 9a bd 31 f9 48 bd b8 8d 0e be 34 e3 3f bb
       -0.07537982 -0.049065772 -0.13921249 -0.002927971
0000a0 50 ee 53 bd 90 9a ad 3d 8c 14 49 bc c4 38 8f 3c
       -0.051740944 0.08476746 -0.012272965 0.017483123
0000b0 c9 9a 7a be b8 f4 3e bd 78 df 3c be d8 18 2d bd
       -0.24473108 -0.0466201 -0.18444622 -0.04226002
0000c0 25 30 03 3f a6 19 87 bd 7c d3 69 bd 74 a1 c4 3e
       0.5124534 -0.06596689 -0.057086453 0.3840443
0000d0 b6 cc 1f 3e 8c 02 89 be 96 b2 21 bf 6a 3c 1e 3d
       0.15605435 -0.26759756 -0.63163126 0.038631834
0000e0 ce ee 85 3d 52 88 7e 3d 68 4b 06 3f 14 c7 8c be
       0.06539689 0.062141724 0.5245881 -0.27495635
0000f0 35 3b a5 3d e4 d0 99 be b3 ab 50 3e 20 e5 0c be
       0.080679335 -0.30042183 0.20377998 -0.13759279
000100 ec d9 29 3a a7 4e 82 be 6f 43 26 be 67 43 d8 3e
       0.0006479311 -0.25450632 -0.16236661 0.42238924
000110 4e 12 9a bd 25 27 b2 3d e6 57 2e bd e8 7f 09 bf
       -0.075230226 0.086988725 -0.042564295 -0.53710794
000120 b8 59 40 3e 92 b1 33 3e 97 55 98 bd 71 01 8a 3d
       0.18784225 0.17548206 -0.074382 0.06738556
000130 ef 0a 63 be 97 d4 34 be 15 70 a9 3d 6b 16 22 3e
       -0.2217214 -0.17659222 0.08273331 0.15828864
000140 95 1c fb be 40 32 db 38 ce 18 ae 3e ed e9 69 be
       -0.49045244 0.000104520936 0.340033 -0.22843142
000150 f8 15 07 3e 4b ed 28 bf 7b 59 65 bc 55 25 8e be
       0.13191974 -0.6598708 -0.013998385 -0.27762857
000160 df b0 90 bf 23 83 38 bf e8 df 5b 3e 44 d4 71 3d
       -1.1303977 -0.720751 0.21472132 0.059040323
000170 99 a8 ee bd 3a 8b 9d bd 2e 05 9b bd 61 cb 11 3e
       -0.11653251 -0.07692571 -0.07569347 0.14237739
000180 e6 22 33 bf 20 df 7c 3e 12 61 fc bc 0d 54 de 3e
       -0.69975126 0.2469449 -0.030808005 0.434235
000190 b1 c0 e2 be 9e 90 f9 bd f7 e3 80 3e 61 4c 29 3e
       -0.44287637 -0.12185787 0.25173923 0.16533042
0001a0 4b 15 45 3b 3c 93 c7 be 10 c6 6e 3e e0 29 ff 3e
       0.0030072506 -0.38979518 0.23317742 0.49836636
0001b0 15 a5 cd 3c 3e ea 7c be 7a eb 76 3e 8b a3 9a 3d
       0.025103131 -0.24698731 0.24113265 0.075507246
0001c0 33 02 26 3f 21 d5 d7 be 44 ad c3 be b8 6b 3b 3e
       0.64847106 -0.42154792 -0.3821813 0.1830281
0001d0 10 d8 ee 3e b4 2e 4c be fa 51 1b bd 3e 77 8a 3e
       0.46649218 -0.19939691 -0.037919976 0.270441
0001e0 27 23 55 be d4 93 97 3d 2a b2 0f 3f f7 53 bd 3e
       -0.20814191 0.07401243 0.5613123 0.36978123
0001f0 81 56 72 bc 3f f7 c4 bc 3b dc e3 3d 8f 60 66 be
       -0.014791132 -0.024043677 0.1112599 -0.22497772
000200 ac e5 c6 3e fd b9 55 3e fa 95 85 3e 20 df a9 be
       0.388471 0.2087173 0.26090986 -0.33178043
000210 f3 96 1b bc fe 8d 85 bd 25 0e ce 3e ca 52 95 3e
       -0.009496438 -0.065212235 0.40245166 0.29164726
000220 98 83 72 3e 2c 4d af be 99 fe aa 3e 62 96 ac be
       0.23683012 -0.34238565 0.33397368 -0.33708483
000230 5e ac 27 3f 97 30 44 3e 89 a0 9c be 85 49 65 3d
       0.65497386 0.1915916 -0.3059123 0.055978317
000240 16 7b 46 be 14 d8 f3 be b2 84 cb 3e 3c 9b 36 bd
       -0.19382891 -0.47625792 0.39749676 -0.044581637
000250 f0 db e5 3d b2 c5 39 bd 43 7a 00 bf 7e 05 dc 3e
       0.112235904 -0.045354553 -0.50186557 0.4297294
000260 95 97 e3 be b9 a9 8f be e3 3c be 3e 9c 10 42 be
       -0.44451585 -0.28059176 0.37155828 -0.18951648
000270 37 9c fc 3e 63 b7 19 3e 12 cc c3 3e e8 80 c2 be
       0.49337932 0.15011363 0.3824163 -0.37988973
000280 1c 7f 82 bf ec 23 4d bf c5 58 ea 3e 05 8f 9b 3e
       -1.0195041 -0.8013294 0.4577085 0.30382553
000290 43 28 af 3c b7 4a 17 3a 1d f9 89 3e 36 cc 67 bd
       0.021381503 0.0005771326 0.2694787 -0.056591235
0002a0 00 da fe bd 0b 87 93 be c6 c8 0a bf 1a 7f b9 be
       -0.12443924 -0.28813967 -0.54212606 -0.36229783
0002b0 92 e6 ef 3e 88 f7 24 bf a9 9b d4 3e 09 40 12 3e
       0.468556 -0.644402 0.4152501 0.1428224
0002c0 2d a2 f6 3c c8 19 0f 3e 4a 32 c7 3e f1 ee 8f 3e
       0.030106628 0.13974679 0.38905555 0.28111985
0002d0 53 cb 5a 3e 99 4d fc be 71 3e 5f 3d d5 ec 00 bf
       0.21366625 -0.49277952 0.05450291 -0.50361377
0002e0 a0 4a 9b be f3 7b be 3e 4e b5 89 3d 19 f8 7b be
       -0.30330372 0.3720394 0.06724034 -0.2460636
0002f0 ec 3e 93 3e fc 8f de be 75 4f 13 3e bc 2d 4f 3f
       0.28758943 -0.43469226 0.14385779 0.8092916
000300 2d d7 bc be 9e 30 1f 3e 57 66 03 3f 77 2a 24 bf
       -0.36882916 0.1554589 0.51328033 -0.64127296
000310 53 81 23 bd a8 22 1c bf a8 87 2d 3e c2 03 9c bd
       -0.039918255 -0.6099038 0.1694628 -0.07617904
000320 7a 6d 96 3e b8 0d ad bc 5d df 26 bd fa 49 ad be
       0.293804 -0.021124706 -0.04074036 -0.33845502
000330 cc 3c f7 3d 03 70 f8 3c 5e 0f eb 3d 3d 5d 32 be
       0.12072143 0.030326849 0.114775404 -0.1741838
000340 cb da 8e 3e 0d 9d 51 bd 32 c6 15 3b d0 71 c8 be
       0.279013 -0.051175166 0.002285373 -0.39149332
000350 ec 60 81 bc 22 5d aa be fd d1 d3 3e 52 94 3e bc
       -0.015793286 -0.3327418 0.41371146 -0.011632042
000360 46 2f 53 3e a7 40 23 3f 7b 01 74 be c0 08 89 3d
       0.20623502 0.63770527 -0.2382869 0.06691122
000370 8a c3 ea be ea bf 8c bf a6 ea ad 3e f4 0d e1 bd
       -0.4585231 -1.0996068 0.33968085 -0.109889895
000380 3d 63 72 3e 7a a2 ab bd f4 ac f8 be 13 97 b3 bd
       0.23670669 -0.08380599 -0.48569453 -0.087690495
000390 bd 4a 0f 3e 40 43 7c 3e 97 d3 78 3e 18 cf 63 3e
       0.13993354 0.24635029 0.24299465 0.22246969
0003a0 3b 3a 62 be d2 ae cc 3e b9 0f b0 3e 6b b5 00 3f
       -0.22092526 0.39977127 0.34386995 0.5027682
0003b0 01 ff 0e 3d ed 26 36 bc ca a8 48 be 69 24 ae bd
       0.03491116 -0.011117679 -0.19595638 -0.085030384
0003c0 e4 65 b3 3e 35 d7 db 3d 95 02 c0 be 94 7d ab 3e
       0.35038674 0.10734407 -0.3750197 0.33494246
0003d0 2d 3c f6 bd b6 87 c3 3d 2f 88 fd 3e 04 69 f5 3e
       -0.12023196 0.09547369 0.49517962 0.47931683
0003e0 b3 3d 91 3e da 37 5f 3c dd 12 7a bc 4f 3b 0b bd
       0.28367385 0.013624156 -0.015263286 -0.033992108
0003f0 ad bf 42 3d 14 3d b6 3e 72 72 f0 be 88 e4 44 3e
       0.047546078 0.35593474 -0.46962315 0.19227803

network.2.bias f4 [32]
000000 37 fb b5 3e a1 25 c8 3e ce 0a 78 be 04 b4 45 be
       0.35543224 0.3909121 -0.24222872 -0.19306952
000010 c1 03 6f 3e 3f 04 bd 3e 51 cb 6b 3d d7 3d eb be
       0.23341276 0.36917302 0.057566945 -0.45945618
000020 62 bd 2d be 02 70 8a 3e 50 e5 f7 bc a2 68 2a 3e
       -0.16966775 0.2703858 -0.030260712 0.16641477
000030 59 07 dc 3e 39 1a 65 be 99 e0 b1 3e fd 7d ae be
       0.42974356 -0.22373284 0.34741667 -0.34080496
000040 73 31 df ba 0e 20 45 be e2 3d 26 be c5 2b d0 bb
       -0.0017028287 -0.19250509 -0.16234544 -0.006352874
000050 f5 25 05 3e 4a 62 22 be 11 50 c6 3e 7b 3c 3d be
       0.1300276 -0.15857807 0.3873296 -0.18480103
000060 52 9b 47 be 8a df a3 bd 0b 9c 0c bf 18 7d ee 3d
       -0.19492844 -0.08001621 -0.549256 0.116449535
000070 70 16 8e 3d d2 1f 0a be 9d f4 45 3f 60 52 be 3e
       0.06937873 -0.13488701 0.77326375 0.37172222

network.4.weight f4 [64, 32]
000000 5d 71 85 3f 21 b1 29 bf c6 a3 83 bd de 9e 2b bf
       1.0425221 -0.662859 -0.06427722 -0.6703929
000010 28 e0 46 3d cd 0b 9e 3e 14 eb 1c be 3c b8 0d 3f
       0.048553616 0.30868378 -0.1532405 0.55359244
000020 a1 57 fe be 26 1c 40 3f f5 35 4e 3f 90 79 04 bf
       -0.4967623 0.7504295 0.8055108 -0.5174799
000030 5d 2c c0 be 06 ad 46 bf dc f3 db 3c ad 03 3d 3e
       -0.37533846 -0.7760776 0.02684968 0.18458433
000040 47 29 1b 3e 95 b4 62 3d 8b ef 1d bf fb 84 d4 3e
       0.15152465 0.055347998 -0.6169364 0.41507706
000050 d0 6c a4 be 1d d4 88 bd eb dc 2b 3e 5c 67 4d 3e
       -0.32114267 -0.066810824 0.16783492 0.2005896
000060 5f ae 47 3e 05 97 4c be 92 3a 71 be 66 f5 76 3c
       0.19500111 -0.19979484 -0.23557499 0.015073156
000070 15 4f 51 bf 6c d6 cf be a2 6a 18 3e ff 02 2b 3f
       -0.81761295 -0.40593278 0.14884427 0.66801447
000080 84 4c 11 3e e3 12 ee 3d fc 10 bb 3b c1 7c ea bd
       0.14189345 0.11624696 0.005708812 -0.11449576
000090 1a 67 d8 3c aa d7 02 3e 40 a8 ae bd b8 5f 3f be
       0.02641635 0.12777582 -0.08528185 -0.18688858
0000a0 88 3d 1a be 8f f4 ec 3d ac d5 23 be 2e 80 07 be
       -0.15062535 0.11570083 -0.15999478 -0.1323249
0000b0 0b f0 26 be 83 31 86 bd 31 a5 d6 bd ff 42 d2 3d
       -0.16302507 -0.06552412 -0.104807265 0.10266685
0000c0 54 02 f1 3d 3b c3 eb 3c 36 15 2c be a2 3c b9 bd
       0.11768022 0.028779617 -0.16804966 -0.09044768
0000d0 e3 73 a5 3d 62 fa 97 bd b6 a5 fd bc c8 ec 22 be
       0.08078744 -0.074208036 -0.030962806 -0.15910637
0000e0 f5 2f 91 bd c1 8b 33 be 70 83 7a 3a 03 ea 98 bd
       -0.07089225 -0.1753378 0.0009556329 -0.07466509
0000f0 d9 c8 f5 3d 74 1b 34 3d 41 18 05 be 78 67 1f bd
       0.12001199 0.043971494 -0.12997533 -0.038917035
000100 a9 58 95 3d a7 59 bc be 4e da e0 bd 3a 3d 12 bd
       0.07292301 -0.3678715 -0.10979138 -0.03570292
000110 78 4b c7 3d 86 5c b8 3e 10 ce a5 3d ed e0 26 3e
       0.097311914 0.3600809 0.08095944 0.1629674
000120 cd c3 96 3e 9f d7 e3 3e a7 69 a2 3e f4 1e 97 3d
       0.2944626 0.44500443 0.3172123 0.07378951
000130 cf a2 4c be 13 62 b9 be 54 2d b0 be 2e e8 8e 3e
       -0.19983982 -0.36207637 -0.34409583 0.27911514
000140 2b 86 9f 3e 10 26 05 be 96 70 78 bd 8d 44 11 be
       0.3115705 -0.13002801 -0.060654245 -0.14186306
000150 ac a0 11 3e ae c6 79 be 18 80 2b be d9 74 e2 3d
       0.14221448 -0.24392197 -0.16748083 0.11057443
000160 36 2f bc 3e d4 82 da 3e 20 5e 66 3d 62 64 38 be
       0.3675477 0.4267794 0.05624211 -0.18007043
000170 72 b5 42 bf 37 d0 0f 3e 18 1a 59 3e 1d b3 d0 3d
       -0.76058114 0.14044271 0.2120136 0.10190413
000180 ac 07 ae 3c 50 1a 83 bd 9e 03 0c bd 3e 97 de 3d
       0.021243893 -0.06401503 -0.034183137 0.10868691
000190 b6 59 cb 3e 63 0d 0d 3f 04 e7 b1 3e 02 85 c4 3d
       0.39716882 0.5509855 0.34746563 0.09595682
0001a0 c7 c1 53 3e a7 db 2c bc 54 40 c2 3e 03 a8 04 3c
       0.20679389 -0.010550416 0.37939703 0.008096698
0001b0 1a 68 86 3e 49 fa 0b bf 4c b6 18 bf 87 d7 8e be
       0.26251298 -0.5467878 -0.5965316 -0.2789881
0001c0 07 8b 97 3e 52 e0 ff 3d 68 82 28 bf 18 18 29 3f
       0.29598257 0.124939576 -0.65823984 0.6605239
0001d0 14 72 f3 be f0 6e f7 3e 8b 71 12 3c 63 3d a1 3e
       -0.47547972 0.48326826 0.008938204 0.31492147
0001e0 5d 0f d7 bd ad bc 00 3f 1c 4c d4 3e 70 84 3c be
       -0.10500977 0.50287896 0.41464317 -0.18409896
0001f0 99 72 3f be 20 cc 27 3e a9 f7 f4 be 5f f6 7a bc
       -0.1869606 0.16386461 -0.478452 -0.0153175285
000200 22 e2 66 bd cb c3 89 3d b9 b0 22 bd 7b 35 08 3e
       -0.056368 0.06726798 -0.039719317 0.13301651
000210 78 a5 e0 3c 6f 33 92 bd 2e f1 71 bb f0 10 be bd
       0.027422652 -0.071387164 -0.0036917436 -0.09280574
000220 3e ae c7 bd 48 8b 18 bd 7a d7 09 be da bb 4e be
       -0.09750031 -0.037242204 -0.13461104 -0.20188847
000230 bc 46 97 bd 69 c8 79 bd 28 1e e8 3d ee a6 0d be
       -0.073865384 -0.06098214 0.11333877 -0.1383321
000240 d7 4b 1c bc 16 97 f7 bd 50 b7 07 be 2f 74 b8 3d
       -0.009539566 -0.12089364 -0.13253522 0.09006535
000250 50 33 19 be 1b 0b ae bc a4 cb 36 be e3 a4 9b bd
       -0.1496098 -0.02124553 -0.1785112 -0.07599809
000260 fa 1e 63 bd 18 a2 ba bd 0f 2e d4 bc 8f 9b 5c be
       -0.055449463 -0.09112948 -0.025900869 -0.21543716
000270 6b 13 84 bd e3 16 b2 3d 28 cd 1d be a5 05 d2 3c
       -0.06449016 0.086957715 -0.15410292 0.025637457
000280 21 f8 de 3e ef bf 0d be b3 ae 61 bd ab 1d f9 be
       0.43548682 -0.13842748 -0.055098247 -0.48655447
000290 6d d1 db be 9d c6 f5 3e 28 db 8a be c7 6e b8 3e
       -0.42933217 0.48003092 -0.27120328 0.36022016
0002a0 e5 b1 13 3e c4 5b ed 3e 31 a9 a9 be 8b 00 13 3e
       0.1442333 0.46359074 -0.33136895 0.14355676
0002b0 95 e6 d5 be 6e 98 ba be 76 9a 00 be 5a c5 90 3d
       -0.41777483 -0.3644442 -0.12558922 0.07068892
0002c0 9c 54 88 bd b5 27 fa bd 93 25 a1 be ee ae d1 be
       -0.06656763 -0.12214605 -0.3147398 -0.40953773
0002d0 22 ec 76 3e d6 b3 ce 3e 24 d0 db 3e 16 c1 10 be
       0.24113515 0.4037158 0.42932236 -0.14136156
0002e0 bc 53 93 3e 28 cd a4 3e 01 d2 29 be 0f 67 3d be
       0.28774822 0.32187772 -0.16584016 -0.18496345
0002f0 89 3d dc be 24 3b 2c be 19 49 64 3d a4 c2 11 3f
       -0.43015698 -0.16819435 0.055733774 0.56937623
000300 95 67 8b be ad 1b 84 be 6d 50 2a 3e 72 ac f7 3e
       -0.27227464 -0.25802365 0.16632243 0.48373753
000310 b0 5a 00 bf 98 7c 10 3d c3 c4 bd 3e f4 2d 7f 3e
       -0.5013838 0.03527507 0.3706418 0.24919873
000320 4a 60 f0 3d c3 d9 1d bf 4c 94 04 3f f0 0a a1 be
       0.11737116 -0.61660403 0.51788783 -0.31453657
000330 12 ba b4 be e9 5b 26 3e 88 b9 cb 3e 3b 64 28 3e
       -0.3529821 0.16245998 0.39789987 0.16444485
000340 06 5e 92 be 3a fa 2d bd 16 52 55 3e aa f9 50 be
       -0.2858736 -0.042474963 0.20832095 -0.2040774
000350 86 16 1f bf 31 0a 2a 3f af 7a 1c be 8a 49 9a be
       -0.62143743 0.664218 -0.15281175 -0.3013423
000360 c8 07 96 be 4d 81 5e be 5c 1d b6 3e cb 6f d3 3e
       -0.29302812 -0.21729012 0.35569274 0.4129623
000370 a9 dd d5 3c e7 08 12 be 46 ac c1 be 7e 17 dc bc
       0.026106672 -0.14261208 -0.37826747 -0.02686667
000380 f9 fa c1 3e da b4 22 3e bc 7f 26 3d 28 9c b9 3d
       0.3788679 0.15889302 0.04064916 0.090629876
000390 c3 06 cb 3d 30 6c 41 bf f4 15 4d 3d 7d 77 56 3f
       0.09913399 -0.75555706 0.050069764 0.83776075
0003a0 09 04 6a bf 5c 26 8b be 1e 91 34 3e 78 3f 2a 3f
       -0.9141241 -0.27177703 0.17633483 0.66503096
0003b0 3b 95 cf 3e 81 d5 c8 be 65 31 f8 3d f9 2c a0 be
       0.4054354 -0.3922539 0.12118796 -0.3128431
0003c0 04 9a 0d be 4e db 76 3d 87 05 ed 3e 4c 6b 1a 3f
       -0.13828284 0.06026774 0.4629328 0.6031997
0003d0 32 6e bd 3e 3a 29 b1 be 8a 58 9a be 9c bd 9f be
       0.36998135 -0.34601766 -0.30145675 -0.31199348
0003e0 12 75 76 be 10 86 1b bf 5b 9e a9 be 15 3e a4 3d
       -0.24068096 -0.6075144 -0.33128628 0.08019654
0003f0 8d eb 4e bf da 14 fd 3e dd 20 c3 bd cd 4c 16 be
       -0.8082817 0.4942997 -0.095277525 -0.14677735

network.4.bias f4 [64]
000000 95 59 b9 be 4f fa 73 bd 4a d4 3d 3d 10 a4 98 be
       -0.36201158 -0.059564885 0.046345033 -0.2981267
000010 35 f3 d1 bd 3a f2 58 bd 69 0d 83 bc 80 cb 66 3e
       -0.10251466 -0.05296538 -0.015997605 0.22538567
000020 8b 08 a7 3e 7f 4e 82 bd 52 01 11 bf be 56 b7 3d
       0.32623705 -0.06362628 -0.5664264 0.08952092
000030 47 e2 3b be 7d 40 d6 3d e2 4f a5 3e 40 2f a3 3e
       -0.18348037 0.10461519 0.32287508 0.31871986
000040 1f 30 c9 3d 79 ba 19 be 97 62 13 3e 54 bd 4a 3e
       0.098236315 -0.1501254 0.14393078 0.19798785
000050 e1 aa 3e be 61 dc b4 be 1d 52 00 3e 5c 69 d5 3e
       -0.18619873 -0.35324386 0.12531324 0.41681945
000060 ea d1 1a be b6 f5 0d 3e b8 da a3 3e 59 b3 90 3e
       -0.15119138 0.13863263 0.32002807 0.2826183
000070 b6 16 85 3e ab c6 4f be af 73 4e 3e 6a 41 1f 3d
       0.2599389 -0.2029063 0.20161317 0.038880743
000080 10 e0 c3 3e 99 b3 68 3e 66 a7 df 3d 7e 46 9a 3e
       0.38256884 0.22724761 0.109206006 0.30131906
000090 60 b9 d6 3e 06 52 b5 3e 95 c5 bf bd 69 f5 f1 3e
       0.41938305 0.3541414 -0.09363858 0.47257546
0000a0 d0 b4 a3 3e 87 f0 5d 3e 75 18 1b 3c fa a9 77 be
       0.31973886 0.21673785 0.00946628 -0.24185935
0000b0 ee 45 ab 3e a2 73 a6 3e f0 e9 9e 3e be 03 1c 3c
       0.3345179 0.32510096 0.31037855 0.009522377
0000c0 6c 8b 25 bc 7f ba 14 3d 79 c0 0a 3e 28 99 b2 3e
       -0.010104042 0.03631067 0.13549985 0.34882474
0000d0 48 8d 4a 3d 76 1d d4 3e 0f 55 79 3e ca 56 c5 be
       0.049451143 0.41428727 0.24348854 -0.38542777
0000e0 8d 05 a0 bd 2f c7 cd 3d 62 8c b4 bb 1c 89 1f 3e
       -0.07813559 0.10047757 -0.005509899 0.15579647
0000f0 97 f9 aa 3e cc db 4a 3e 45 04 95 3e 97 68 84 3e
       0.33393547 0.19810408 0.2910482 0.25861046

network.6.weight f4 [64, 64]
000000 86 a7 f2 3d 5c 50 d9 3a f2 82 3f 3e 6c 5b f6 3c
       0.11848359 0.0016579735 0.18702295 0.03007289
000010 23 95 0a 3d f1 d7 b5 3d 25 37 2d 3e 93 b8 7b bc
       0.033833634 0.08879078 0.16915567 -0.01536383
000020 d7 f0 57 3e 87 6c 71 bd be f7 b6 be 10 11 ca 3d
       0.21087967 -0.05894139 -0.35735887 0.09866536
000030 4c 4d 7d bc a8 58 4c 3e 36 1b 16 3e d3 2b 6a 3e
       -0.015460324 0.19955695 0.14658818 0.2286828
000040 1b 1f 48 bd 04 5c 06 bd 26 b7 86 3b cd 35 26 3e
       -0.04885779 -0.032802597 0.0041111885 0.16231461
000050 6a ed 82 bd 90 d2 88 3e 35 b9 11 3e 7a f0 fb 3c
       -0.063929394 0.26723146 0.14230807 0.030754317
000060 26 f2 52 bc 3e e2 90 be 10 1f 50 3e 32 b7 aa 3e
       -0.0128751155 -0.2829761 0.2032435 0.33342892
000070 e5 77 6b 3d 02 da 8d 3e ea 35 73 be c1 9c 62 3e
       0.057487387 0.2770539 -0.23751035 0.2213011
000080 af 7b 80 3e d2 b5 5b 3e c3 cd ab be 96 10 63 be
       0.25094363 0.21456078 -0.3355542 -0.22174296
000090 7e a6 a9 3e c2 9c bd 3e dc dc 59 3e ee 85 44 3e
       0.33134836 0.3703366 0.21275657 0.19191715
0000a0 33 02 c9 3d f8 55 de be 7f c9 2b 3e 1a 9e 7d bc
       0.098148726 -0.43424964 0.16776083 -0.015479589
0000b0 88 a4 32 3d 21 22 ae 3d b1 a6 5c bd 11 87 35 3e
       0.04361394 0.08502603 -0.053869907 0.17727305
0000c0 cc 21 23 3f 69 4b db 3d ed 1a 71 3e 48 05 22 3e
       0.63723445 0.10707743 0.23545428 0.15822327
0000d0 d4 5d 55 3d bf 09 3b 3e dc 0c a0 be 01 6f 3e 3e
       0.052091435 0.18265437 -0.3125981 0.18597032
0000e0 10 02 5c be ce 44 1e 3e db 5b b1 3d 7b 8f a2 3e
       -0.21485162 0.15455934 0.08660098 0.31750092
0000f0 0e 36 93 3d 8a 68 61 bd ca f8 22 3e 7a 11 ad 3c
       0.071880445 -0.055031337 0.15915218 0.021126498
000100 c4 4e 93 3d e5 87 67 3d 60 26 5c 3d 8a d7 a1 3b
       0.07192758 0.056526083 0.053747535 0.0049390243
000110 60 2c f1 bd da 65 8f 3d c1 5e 58 3e 52 94 14 be
       -0.11776042 0.070018485 0.21129896 -0.14509705
000120 5a 12 08 3e 82 41 d0 3c 09 85 9f be 89 04 73 3d
       0.1328825 0.025421862 -0.31156185 0.059330497
000130 bf 69 9d 3c 5d 3d 53 bd 00 84 c5 3c b7 8f 97 3b
       0.019215463 -0.051572192 0.024110794 0.0046252864
000140 4a 40 aa be a7 b1 e7 3b 12 fc 29 bd 7d c5 9d 3d
       -0.33252174 0.0070707384 -0.04150016 0.077036835
000150 22 08 c1 3d 95 b1 8a 3d 03 d6 44 3e c0 cf 74 3d
       0.09425379 0.06772152 0.19222264 0.05976844
000160 fe 12 79 bd b5 81 6c be 07 bb dd bd 42 a3 38 3e
       -0.060809128 -0.23096354 -0.10826688 0.18031028
000170 1f 3a 7b bd 5c 9c 84 bd 10 90 c5 be 91 a5 c5 3d
       -0.061334725 -0.06475136 -0.38586473 0.0965072
000180 a9 58 84 bc ec d5 e8 3c 67 15 9f be ed 75 dd be
       -0.016155558 0.028422318 -0.31071016 -0.43254033
000190 ea f0 26 3e c7 61 ef 3d 70 de 45 3e c2 cc a2 3e
       0.16302839 0.116885714 0.19323134 0.31796843
0001a0 32 6b 0e 3e 49 03 39 bf 3e f0 24 3d ad 14 36 bd
       0.1390808 -0.7227064 0.040268175 -0.04445331
0001b0 56 30 ca 3d 50 3e 0e bd a8 04 90 be ee 31 1d 3e
       0.098725006 -0.034727395 -0.28128552 0.15351078
0001c0 f6 80 22 3f 0d 29 f2 3d 9a 8e 2c 3e 7b c7 20 3e
       0.6347803 0.11824236 0.16851273 0.15701096
0001d0 8b 04 86 3c ed 25 68 bc 51 67 ef be 4c 9e 33 3e
       0.016359588 -0.014169198 -0.46758512 0.17540854
0001e0 7a 9f 29 be cd 5e 7b bd 68 15 0f 3d d0 ba 17 3e
       -0.16564742 -0.061369706 0.034932524 0.14817357
0001f0 eb 73 28 3d 61 5b eb bb ca 3c 92 3c 4f 29 3e bd
       0.041126173 -0.007182524 0.017851252 -0.046426114
000200 a7 99 1c be b0 3c 63 bd 14 71 21 3e 06 85 3a bd
       -0.15292989 -0.055477798 0.15765792 -0.045537017
000210 73 57 c5 3d 12 d9 53 3e c2 34 df 3e bc 93 b0 be
       0.0963582 0.20688275 0.4359494 -0.34487712
000220 81 7a 3a 3e 63 ad 09 3e f1 0f c4 be e2 85 4f 3e
       0.18210794 0.13445048 -0.38293412 0.20265916
000230 d0 06 8d bd ce 69 5d 3e f5 35 82 3e 38 a1 77 3e
       -0.06886065 0.21622393 0.2543179 0.24182594
000240 8f 87 46 be 68 9d 8c 3d 82 3f 15 3e 3e 43 41 3e
       -0.19387649 0.0686596 0.14575008 0.18873307
000250 d4 64 6d bd b2 2c b1 3c 54 7c c7 3d d6 2a 94 3d
       -0.057957485 0.021627758 0.097405106 0.07234733
000260 ee f1 d4 3d e5 49 3c be be 30 03 3d 3e 00 a6 3e
       0.10397707 -0.18387564 0.032028906 0.3242206
000270 50 a2 f8 3d 11 cc 25 3e 2e 0f 81 be e3 f4 4c 3e
       0.12140334 0.16191126 -0.25206894 0.20015292
000280 12 cd 35 3e 6e 03 ec 3d 97 e9 5e be a1 82 27 bf
       0.1775401 0.11524092 -0.21768795 -0.654337
000290 89 04 e2 3e 0c 02 46 3e 65 88 08 3e ba 9e d1 3e
       0.44144085 0.19336718 0.1333328 0.4094141
0002a0 05 1a 0d 3d bc f7 53 3c a3 68 ab 3e ed c1 a9 bd
       0.034448642 0.012937482 0.3347827 -0.082889415
0002b0 88 8e 38 3e e4 96 38 3e 62 03 cf be f5 96 c5 3e
       0.18023121 0.1802631 -0.40432268 0.38591734
0002c0 9d 0d 49 3f f1 b7 84 3d 3d 89 86 3e a1 85 45 3d
       0.785364 0.064803965 0.2627658 0.04822314
0002d0 4a ef 65 3c 1c 00 09 3e 18 59 1f be 66 56 01 3e
       0.014034102 0.13378948 -0.1556133 0.12630615
0002e0 d6 c4 c7 bd 38 a7 1d 3d c1 c9 ad 3d 1e 5d e1 3e
       -0.0975434 0.03848955 0.08485747 0.44016355
0002f0 af bd 1b 3d 25 99 7f bd 53 bf aa 3c bf 8e a3 3d
       0.038022693 -0.06240191 0.020843184 0.07986211
000300 a7 56 25 3d c4 69 cb 3d 64 96 60 bd 32 77 0b be
       0.04036584 0.099322826 -0.054830924 -0.13619688
000310 7f 9f f1 bc b7 b9 a2 3e f3 18 49 bd 44 7c d4 bd
       -0.029494999 0.31782314 -0.04909606 -0.10375264
000320 8e 20 78 3d 5c 3f cf 3c 4a 51 4b be ba e5 a1 3e
       0.06057792 0.025298767 -0.19855228 0.3162058
000330 04 61 5d 3d 3e 0c b0 bd 28 f1 41 3d de 45 d2 3d
       0.0540476 -0.08596085 0.047349125 0.10267232
000340 05 61 56 3d 43 2b 44 bc 3a 2c c3 3d d6 b8 87 3e
       0.05233862 -0.011973205 0.0952992 0.26508206
000350 0a b9 1e bd 53 99 30 3e b9 6c 92 3d c0 ab 3f be
       -0.038750686 0.17245989 0.071496435 -0.18717861
000360 24 d6 2a 3d 24 6e 49 bf 8e 54 ac bd db a1 73 3e
       0.041708127 -0.78683686 -0.08414565 0.23792212
000370 3e fb 63 be 7a 26 10 bd 47 d0 a2 be a5 90 95 3e
       -0.2226381 -0.035192944 -0.31799528 0.29211918
000380 d0 a5 32 bd 9c 27 00 bd 88 18 dc be a2 87 3b bf
       -0.043615162 -0.031287774 -0.42987466 -0.73253834
000390 36 6c 87 bd 09 23 18 bd 01 d9 14 3d 78 c2 32 bd
       -0.066124365 -0.037142787 0.036339764 -0.04364249
0003a0 0f bb 26 be b8 51 98 be 75 a4 14 3e ad 3d b9 3d
       -0.16282295 -0.29749846 0.1451586 0.09044967
0003b0 dc 47 71 bd 26 31 1f bd 64 d3 38 bf 00 22 fc 3e
       -0.05890642 -0.03886523 -0.72197556 0.4924469
0003c0 17 aa 86 3e f8 c3 93 3d 9e 05 9d bd 6b a2 ea 3d
       0.26301643 0.072151124 -0.07667087 0.1145676
0003d0 e2 08 83 3d b3 10 84 3c 3f 4a 7f be 5e 38 b7 3c
       0.06398179 0.016121244 -0.24930666 0.022365745
0003e0 5a 97 6a be 45 e0 97 bc e9 cb 0b 3e 78 fa b4 bb
       -0.22909299 -0.018539557 0.13652004 -0.0055230223
0003f0 b9 9d f9 3c 8e bd f9 be 8c ad d9 bd ec 1f 33 be
       0.030470716 -0.4877743 -0.106288046 -0.17492646

network.6.bias f4 [64]
000000 69 de 00 3f 3c bf e7 3e 2a 0e ff 3e a5 f4 8d 3e
       0.5033937 0.45263088 0.49815494 0.2772571
000010 75 d9 9e 3c 0b 7c ef 3e d6 71 93 bd 05 6a de 3e
       0.019390801 0.46774325 -0.07199447 0.4344026
000020 53 e2 dc bd 2d 8d 7b bd 48 d8 04 3f 6b 41 a3 bd
       -0.107853554 -0.061413933 0.5189252 -0.07971462
000030 25 10 37 be 80 cd 19 3b a0 28 9d 3e b7 bf ec 3e
       -0.17877252 0.0023468435 0.30695057 0.46240017
000040 6d 7e 0e be 5a 55 f9 3e c8 df 4d 3e e4 cc 59 3e
       -0.13915415 0.4869793 0.20104897 0.21269566
000050 be 7d 9a bd e4 b2 96 bc ae 55 89 3e 8c 86 0f 3f
       -0.07543515 -0.018395849 0.2682318 0.5606468
000060 e7 1d d3 3e 4f a2 91 3a 93 01 b7 bc 61 7e 36 bd
       0.4123375 0.0011110994 -0.022339618 -0.044554118
000070 fc 38 d7 3e 62 96 d0 bd 49 7c ab 3e 23 66 27 be
       0.42035663 -0.10184933 0.3349326 -0.16347556
000080 c2 59 ce 3e be e8 2f be cf dd c2 3e 5a e5 17 bd
       0.40302855 -0.17178628 0.38059852 -0.03708396
000090 bc 99 b6 bd 65 e3 06 3e 21 b5 fb 3e e8 8f bd 3e
       -0.08916041 0.13172682 0.49161628 0.37023854
0000a0 dd 2e a9 bd 92 98 da 3e 27 36 f3 3e 00 3c f4 3e
       -0.082608916 0.42694527 0.47502252 0.47702026
0000b0 26 07 e3 bd a5 39 3e bd 11 d7 72 3b c3 49 98 bd
       -0.11085348 -0.046441693 0.003705446 -0.07435944
0000c0 42 6e eb bd 7f 09 17 be 9d 6f af 3e 39 73 df 3e
       -0.114956394 -0.14749716 0.34264842 0.43642595
0000d0 7c 96 e1 3e 0c cf e2 3e c4 3f b6 3e 67 5c 92 3e
       0.44060123 0.4429859 0.35595524 0.28586122
0000e0 34 c6 a1 bd c5 3c d3 3b a1 dc 92 bc 88 f5 07 3f
       -0.07899132 0.0064464533 -0.01792747 0.53109026
0000f0 1e 57 17 be 0f a4 2d 3e 1b c3 b3 bd d8 b0 fe bd
       -0.14779326 0.16957115 -0.08777448 -0.12436074

network.8.weight f4 [21, 64]
000000 eb 2e a4 3e ca b8 15 3e 38 65 08 3e 3a 2d 82 3e
       0.32067046 0.14621273 0.13319862 0.2542513
000010 27 c9 60 3d 93 15 79 3e 40 be c7 bd d9 97 96 3e
       0.054879334 0.24324636 -0.09753084 0.29412726
000020 f8 a5 fe bd 29 f6 97 bc d8 e0 b6 3e 94 46 8d bd
       -0.12434 -0.018549995 0.35718417 -0.06898227
000030 26 72 24 3d dc 78 24 3d a0 a6 20 3e 25 42 51 3f
       0.040147923 0.040154323 0.15688562 0.81741554
000040 51 2e 1d be b8 0b 2d 3e 23 fe 4a bf 51 5d 5e be
       -0.153497 0.16899002 -0.7929403 -0.21715285
000050 fc 22 0f bd c0 0f 8f bd 9c 28 2b 3e 9b 40 98 3e
       -0.034945473 -0.06985426 0.1671471 0.2973679
000060 e7 a8 7c 3e 92 ff 9f bd 20 48 f2 ba db 51 ce bd
       0.24673806 -0.07812418 -0.001848463 -0.100742064
000070 6b 74 8d 3e dd 98 f2 3e 3e bd 26 be ae 90 cb bd
       0.27627882 0.4738225 -0.16283128 -0.09939705
000080 b5 8a 51 3e 8c 22 e3 3d 17 dd 25 bd 8b 09 47 bc
       0.20463069 0.11090574 -0.04049405 -0.012148271
000090 3b 5f f7 bd 1a 8f 15 3e 19 1c f0 be db 9c 8f 3e
       -0.12078711 0.1460537 -0.46896437 0.2804936
0000a0 00 1a e8 be d3 f5 4a 3e 87 f9 89 3e d5 e6 cb 3e
       -0.45332336 0.19820337 0.26948187 0.39824548
0000b0 15 d7 41 bd 93 de 00 3c aa de 3a bc a7 3d 0f 3e
       -0.04732426 0.007865566 -0.011405626 0.13988362
0000c0 57 9c 99 bb 92 91 12 3e 60 c2 79 3e ff cd 53 3e
       -0.0046878266 0.14313343 0.24390554 0.2068405
0000d0 44 e1 82 3e af e6 75 3e 6b 82 99 3e 78 f6 7f 3e
       0.2556249 0.2401378 0.29982314 0.24996364
0000e0 c9 88 3b 3d b2 65 14 bd f9 6b ba bd 24 5d 39 3e
       0.045784745 -0.036229797 -0.091026254 0.18101937
0000f0 48 f8 50 3d 23 92 7a bf 08 28 2b 3d b9 e3 72 bd
       0.05101803 -0.97879237 0.041786224 -0.059299204
000100 64 5e a8 3e bc 25 93 3d 24 ac 97 3e 33 3a 31 3e
       0.32884514 0.07184932 0.2962352 0.17307357
000110 49 31 e7 bc 56 98 3f 3e e1 45 2a bd 0f ea 97 3e
       -0.028221743 0.18710455 -0.041570548 0.2967076
000120 de 3e a9 3d 41 7c f2 3d 84 ef 96 3e 14 10 22 bd
       0.08263944 0.11840106 0.2947961 -0.039566115
000130 c0 a5 20 bd 32 e8 ab 3d 8d 05 1a 3e 40 81 54 3f
       -0.03922057 0.08393897 0.1504118 0.8300972
000140 24 c4 14 be 57 c9 6e 3e 48 4e 4d bf 07 22 85 be
       -0.14527947 0.23318993 -0.8019757 -0.26002523
000150 da 5c 86 3d d2 f0 89 3d f6 89 43 3e e5 9d 7e 3e
       0.06560679 0.06735386 0.19095597 0.2486492
000160 96 74 99 3e 11 06 c0 bd 36 05 a4 bd c2 09 e4 3d
       0.2997176 -0.09376157 -0.080088064 0.11134674
000170 7a bc a0 3e c9 46 d2 3e 14 8d fc bd 56 3c 15 bd
       0.31393796 0.4106963 -0.12331596 -0.036434494
000180 76 1e 5c 3e cc 40 1e 3d ab c6 e7 3c 61 43 11 bb
       0.21495995 0.038636014 0.028292974 -0.0022165405
000190 a4 8e 99 bd 2d 14 70 3d 79 95 05 bf f8 b7 9b 3e
       -0.0749791 0.05861299 -0.521812 0.30413795
0001a0 f8 fc b0 be a2 1c f9 3d 2b 81 73 3e fa cf 8d 3e
       -0.34568 0.121636644 0.23779742 0.27697736
0001b0 90 48 d0 3d 00 7b 55 3d 76 4b 79 bd c5 af 44 bd
       0.1017009 0.052119255 -0.06086298 -0.04801919
0001c0 ca 04 40 bd 2d 19 47 3d 6e e8 95 3e b1 43 64 3e
       -0.046879567 0.048607994 0.29278892 0.22291447
0001d0 45 88 30 3e 5e 91 72 3e ff b5 9b 3e f8 82 8b 3e
       0.17239483 0.23688266 0.3041229 0.2724836
0001e0 ce 7d be 3d 9c fe c6 bd b1 21 47 3d 33 4f 47 3e
       0.09301339 -0.09716532 0.048616115 0.19463806
0001f0 28 86 f9 3c 4c f3 66 bf 40 21 52 3b f6 60 04 3d
       0.030459478 -0.9021499 0.0032063276 0.03231903
000200 19 c1 97 3e 21 7b 17 3e 37 16 76 3e 71 5c 48 3e
       0.2963951 0.14793064 0.24031912 0.19566514
000210 57 bb 5a 3c 16 32 29 3e fb 1e 9f bc fb fd 93 3e
       0.013350329 0.16523013 -0.019423952 0.2890471
000220 80 81 b5 3b 77 a6 a3 bc 0f f1 a2 3e 98 d5 b1 bd
       0.0055391192 -0.019976838 0.31824538 -0.08683318
000230 40 8d 43 bb b4 75 3f 3d cd 21 70 3e e9 cf 4e 3f
       -0.002983883 0.04674311 0.23450394 0.80785996
000240 f3 f9 84 3d cd eb 27 3e cb fa 4c bf 64 a6 aa bd
       0.064929865 0.16398545 -0.8007018 -0.08332518
000250 b0 d7 81 bc 10 0e f8 3d 19 39 86 3e ec 0b 29 3e
       -0.015849918 0.12112057 0.26215437 0.16508454
000260 43 6a 85 3e 68 a9 12 3c b9 75 1b 39 a0 0b ac 3c
       0.26057634 0.008951522 0.00014825807 0.021001637
000270 d0 c6 9d 3e 7a 7b ad 3e d7 60 83 bd 53 03 16 3d
       0.30815744 0.33883268 -0.06414955 0.036624264
000280 6f 91 5a 3e 68 8c 98 bd 14 43 25 3d f1 07 0d bd
       0.21344541 -0.07448655 0.040347174 -0.0344314
000290 88 c0 8c bd f8 58 9e 3d 36 03 03 bf a4 e5 9c 3e
       -0.0687266 0.07731813 -0.51176775 0.30643952
0002a0 a1 12 c6 be 3a 33 1d 3e 67 03 27 3e 41 b1 aa 3e
       -0.38686088 0.15351573 0.16309892 0.3333836
0002b0 40 22 9c bb 54 c3 e4 bd 51 78 3c bd f5 08 a6 be
       -0.004764825 -0.111700684 -0.04601318 -0.3242871
0002c0 66 cc 03 bd 86 6c 8a bd 4b 12 a7 3e 99 75 a8 3e
       -0.03217735 -0.067589805 0.32631144 0.3290222
0002d0 91 0c 0f 3e fd 18 89 3e 91 38 67 3e 2c 0d 8c 3e
       0.13969637 0.26776877 0.22580172 0.273538
0002e0 25 c4 f5 3c 14 8b f5 3d c4 d8 a3 bd f6 62 1f 3e
       0.030000756 0.11989418 -0.08000329 0.15565094
0002f0 88 73 f9 3d fb 6c 65 bf 8e 51 f5 bd 81 32 b4 3d
       0.12180239 -0.89619416 -0.11978446 0.08798695
000300 92 3e b4 3e 3e e0 68 3e 5d 0e 8d 3e fe 0b 20 3e
       0.35203987 0.22741792 0.2755002 0.15629575
000310 5f 81 ea 3b 5e 23 20 3e 0f 03 23 bd a3 57 2c 3e
       0.0071565355 0.15638492 -0.03979784 0.16830306
000320 2a 95 f8 3d 61 e0 96 bc 71 ad 57 3e 9c 49 0f 3d
       0.12137826 -0.01841754 0.21062256 0.03498231
000330 58 a6 7d bd e2 df f1 bd ff 1e 39 3e d8 65 16 3f
       -0.061926216 -0.118102804 0.1807823 0.5874915
000340 d8 ff 87 3c 22 f9 98 3e 0b b0 41 bf 59 5c 2b be
       0.016601488 0.29877573 -0.75659245 -0.16734447
000350 1e bc b2 bd 00 6e ce 3a 30 2a 76 3e 20 26 7e 3e
       -0.08727287 0.0015749335 0.24039531 0.24819231
000360 92 a0 93 3e 16 71 bd 3d da 41 de 3d ee a3 d5 bd
       0.28833443 0.09250085 0.10852404 -0.10431658
000370 e0 97 85 3e 86 a8 bb 3e 89 3f 81 bd 24 ec 00 be
       0.26092434 0.3665201 -0.063109465 -0.1259008
000380 f4 a0 72 3e dc 55 0d 3d e2 32 5d bc f1 5f 93 bc
       0.23694211 0.03450571 -0.013500901 -0.017990084
000390 80 a0 e3 3a 95 50 8b 3d 78 14 0a bf 01 0c 9c 3e
       0.0017366558 0.06802479 -0.5393748 0.30477908
0003a0 a6 c1 63 be 1b 1b 7b 3e ac 87 37 3e cd c9 a2 3e
       -0.2224184 0.24522059 0.17922848 0.31794587
0003b0 48 9f 6f bd 58 e2 f6 3c 2d 73 d2 bd 82 2b 9d bc
       -0.05850151 0.030137226 -0.10275874 -0.019185785
0003c0 54 f1 21 3d 36 6f 87 3d b5 20 58 3e 7a f7 81 3e
       0.03953679 0.06613009 0.21106227 0.25384122
0003d0 e3 4e 77 3e 47 ba 92 3e dc d0 a7 3e 90 b8 93 3e
       0.24151187 0.28657743 0.32776535 0.28851748
0003e0 46 c4 b5 3d 84 91 25 3e 7c 80 6c 3c 2c 17 23 3e
       0.08875327 0.16168791 0.01443493 0.15926808
0003f0 8e 23 82 bd 82 40 5b bf 90 ee d9 3c 29 53 fd bc
       -0.06354438 -0.85645306 0.026603013 -0.030923443

network.8.bias f4 [21]
000000 f9 27 b2 3e 3c 30 ef 3e 6b f3 ad 3e 14 b4 d5 3e
       0.34796122 0.46716487 0.33974776 0.4173895
000010 a2 8d ab 3e 07 7d ca 3e cc 84 c1 3e 1c 28 d9 3e
       0.33506495 0.39548513 0.37796628 0.42413414
000020 20 28 9b 3e 0c 37 f6 3e dd 93 f8 3e de 78 d6 3e
       0.3030405 0.48088872 0.4855031 0.4188909
000030 41 08 cb 3e 51 0f db 3e 81 33 ea 3e 6a b0 c2 3e
       0.39654735 0.42785123 0.4574242 0.38025218
000040 3c 00 f7 3e 7c 35 eb 3e c2 b2 ec 3e f5 aa d4 3e
       0.48242366 0.45939243 0.4623013 0.4153668
000050 1a aa fd 3e
       0.4954384
