double_pendulum_config/models/model_74.pth (torch, 35975 bytes, 10 tensors)

network.0.weight f4 [16, 6]
0	0xbe700334	-0.23438722
1	0xbeaf3188	-0.34217477
2	0x3d61dc4c	0.055141732
3	0x3e8c9971	0.27460817
4	0xbf0b6871	-0.5445624
5	0x3cdad650	0.02671352
6	0xbeceb7dd	-0.40374652
7	0xbe269309	-0.16267027
8	0x3e8c9e77	0.2746465
9	0xbdd67f25	-0.1047347
10	0x3dd7625a	0.10516806
11	0x3e87d63f	0.26530644
12	0xbe8c1ca2	-0.27365595
13	0xbf13d481	-0.5774613
14	0xbe2cb009	-0.16864027
15	0xbee71eda	-0.45140725
16	0x3f0e2bcc	0.5553558
17	0xbdf7952c	-0.12088999
18	0x3dd17eb5	0.102292456
19	0xbef6c022	-0.4819346
20	0x3efc72aa	0.49306232
21	0x3e848aa0	0.25887012
22	0xbeb3c98f	-0.35114715
23	0x3dc197ea	0.094528034
24	0xbee76f4c	-0.452021
25	0x3f7cdf19	0.9877792
26	0x3df7826c	0.12085423
27	0xbeb71cde	-0.3576421
28	0x3e370809	0.17874159
29	0x3bdbdd12	0.0067097032
30	0x3e4cdaae	0.20005295
31	0x3f80744d	1.0035492
32	0x3e96032c	0.29299295
33	0xbee2f6d1	-0.4432893
34	0x3d92b4b1	0.071633704
35	0xbe570ecd	-0.2100174
36	0xbd666ca6	-0.05625596
37	0x3f2dede4	0.6794112
38	0xbe24aa0d	-0.16080494
39	0x3e892030	0.2678237
40	0xbe5ba46e	-0.21449444
41	0x3e6a2efa	0.22869483
42	0x3e40ec86	0.18840227
43	0xbf04ebab	-0.519221
44	0x3d1f55db	0.038900238
45	0xbe84d947	-0.2594702
46	0x3e1e67d7	0.154693
47	0x3e8b8d9e	0.27256483
48	0xbf5dd998	-0.86660147
49	0x3f220772	0.6329261
50	0x3c630a35	0.013857414
51	0x3f4eaaaf	0.8072919
52	0x3eff99c5	0.49922004
53	0xbe92c6fc	-0.28667438
54	0x3e12e803	0.14346318
55	0xbdd99314	-0.10623756
56	0x3df6e93d	0.120562054
57	0xbefea076	-0.49731797
58	0xbbf0ca46	-0.0073483316
59	0x3e58192d	0.21103354
60	0x3d31bf80	0.04339552
61	0xbf4b9dd6	-0.79537714
62	0xbe4ec28f	-0.20191406
63	0xbe5f2c6b	-0.21794288
64	0x3ee9b9dd	0.45649615
65	0xbd454318	-0.04815969
66	0x3ea1aa44	0.31575215
67	0xbe8eef0c	-0.27916753
68	0x3e73bc8f	0.23802398
69	0x3e49f9e9	0.1972424
70	0x3f0d76c5	0.5525935
71	0xbdbb92d5	-0.09158865
72	0x3ebf1b86	0.37325686
73	0xbf867b35	-1.050635
74	0xbe852e64	-0.26011956
75	0xbe8909bb	-0.26765236
76	0xbe01f166	-0.12689742
77	0xbc0879aa	-0.008329788
78	0xbea2186f	-0.31659266
79	0xbe9a1b2a	-0.3009885
80	0x3e35f07a	0.17767516
81	0xbee0ece4	-0.43930733
82	0xbea4ed88	-0.32212472
83	0x3b543212	0.0032378477
84	0xbeb11c8b	-0.3459209
85	0x3ebc20c0	0.36743736
86	0x3d0dbef3	0.03460593
87	0xbed6211f	-0.41822144
88	0xbf113c8d	-0.5673302
89	0xbe618438	-0.22023094
90	0x3ed688e9	0.4190133
91	0xbf1fd15f	-0.6242885
92	0x3a03cba8	0.00050276006
93	0x3eddedf5	0.4334561
94	0xbf06ff31	-0.5273314
95	0xbe1360aa	-0.14392343

network.0.bias f4 [16]
0	0xbec51cc1	-0.384985
1	0x3e6edc3e	0.23326203
2	0x3da18072	0.07885827
3	0x3e0b2546	0.13588437
4	0xbd051388	-0.03248933
5	0x3e16448c	0.14674586
6	0xbe814d6a	-0.25254375
7	0x3cfe42bb	0.031037679
8	0x3e6b053f	0.2295122
9	0xbda2a1a4	-0.07940987
10	0x3da3d3e9	0.07999403
11	0x3ed0243c	0.40652645
12	0x3e702df5	0.23455031
13	0x3d37f878	0.044914693
14	0x3e94d367	0.29067537
15	0xbecc8af1	-0.39949754

network.2.weight f4 [32, 16]
0	0x3d936f85	0.07199005
1	0xbd39cfda	-0.04536424
2	0xbe7060ca	-0.23474422
3	0xbe59871e	-0.2124295
4	0x3e2f7195	0.17133172
5	0x3e12719c	0.14301151
6	0xbe039cb8	-0.12852752
7	0x3e863acb	0.2621673
8	0xbe708300	-0.23487473
9	0x3d9ad846	0.07560782
10	0x3d60d746	0.0548928
11	0x3d1b8dc4	0.037976995
12	0xbe20c883	-0.15701489
13	0xbe0415f8	-0.12899005
14	0x3e535ff7	0.20642076
15	0xbc0d423c	-0.008621749
16	0xbedea1f9	-0.4348295
17	0xbe959d8d	-0.29221764
18	0x3e5c496a	0.2151238
19	0xbf16ed81	-0.5895615
20	0x3dbd633c	0.09247443
21	0x3e3f2880	0.18667793
22	0xbedccb76	-0.43123978
23	0xbeeb46b2	-0.45952374
24	0x3dcad1e2	0.09903313
25	0xbe21d7dc	-0.15805
26	0xbce75e50	-0.028243214
27	0xbe0be0e9	-0.13660015
28	0xbc8ec273	-0.017426705
29	0xbe9a9dd1	-0.3019853
30	0xbe68117c	-0.2266292
31	0xbe35f21f	-0.17768143
32	0x3d121ad8	0.03567013
33	0xbd7aac28	-0.061199337
34	0xbe44c636	-0.19216236
35	0xbe195f76	-0.14977822
36	0xbd32a580	-0.043614864
37	0xbc8dc1f0	-0.01730439
38	0xbe0e8db8	-0.13921249
39	0x3cec3d00	0.02883768
40	0xbd53ee50	-0.051740944
41	0x3deea8f0	0.11653316
42	0x3c9faed0	0.019492537
43	0x3d49b908	0.049248725
44	0xbe5a13fe	-0.21296689
45	0xbd3ef4b8	-0.0466201
46	0xbe3cdf78	-0.18444622
47	0xbd2d18d8	-0.04226002
48	0x3ed0ac1a	0.40756303
49	0x3e2354fd	0.15950389
50	0x3d8dbc2d	0.06920657
51	0x3e2a27ac	0.16616696
52	0x3e57af9c	0.21063083
53	0xbdb89046	-0.09011893
54	0xbdd9f229	-0.106418915
55	0xbcc472ad	-0.023980463
56	0x3ca0d303	0.019631868
57	0xbd9efcb7	-0.07763045
58	0x3e48da3a	0.19614497
59	0xbe7f929a	-0.24958268
60	0xbd86d787	-0.06584077
61	0xbdb8a713	-0.09016242
62	0xbb5e9fe6	-0.0033969819
63	0xbd955fb0	-0.072936416
64	0x3cf6c551	0.030123385
65	0xbe87b603	-0.2650605
66	0xbe10d333	-0.14143066
67	0x3e4f3925	0.20236643
68	0xbcc4ac88	-0.02400805
69	0xbdb28060	-0.08715892
70	0xbeae2f99	-0.3402069
71	0xbea84de3	-0.32871923
72	0x3c712ea9	0.014720597
73	0x3dfc1337	0.123083524
74	0xbe57a3b4	-0.21058542
75	0xbcee066b	-0.029055795
76	0xbebb51da	-0.36585885
77	0xbe1f0bf1	-0.15531899
78	0x3e407bb5	0.1879719
79	0x3e8ca9e8	0.27473378
80	0xbf0b3899	-0.54383236
81	0x3d3188a5	0.043343205
82	0x3e98c85f	0.2984037
83	0xbcbadd91	-0.02281073
84	0x3ea85359	0.3287609
85	0xbeb674a4	-0.35635865
86	0xbeb2a1ba	-0.34889013
87	0xbdafe8e3	-0.085893415
88	0xbe9c2391	-0.30495885
89	0xbda37878	-0.07981962
90	0x3e071f75	0.13195594
91	0x3e31b785	0.17355163
92	0x3db76bfc	0.08956143
93	0x3e72bffc	0.23706049
94	0xbcc6e559	-0.024279283
95	0x3e5808f4	0.21097165
96	0xbee9030e	-0.45510143
97	0x3d0f4b3d	0.034983862
98	0xbe4641fc	-0.19361109
99	0x3eb32c98	0.3499496
100	0xbe4da909	-0.20084013
101	0xbd142768	-0.036170393
102	0x3ea751ed	0.32679692
103	0xbd0618a3	-0.03273834
104	0xbd2336f9	-0.039847348
105	0xbdebb900	-0.11509895
106	0x3dfc74cf	0.12326967
107	0x3e93c999	0.28864744
108	0x3d686186	0.05673363
109	0xbe582d62	-0.21111062
110	0x3e35b047	0.17743026
111	0xbd522a65	-0.05130996
112	0x3f0d17be	0.5511435
113	0xbe69b565	-0.22823103
114	0x3c37a2e9	0.011208274
115	0x3e8eb36a	0.27871257
116	0x3e128d75	0.14311774
117	0x3de317f6	0.110885546
118	0x3c67c45f	0.01414594
119	0x3e2544bf	0.16139506
120	0xbc95fb33	-0.018308258
121	0x3b30a253	0.0026952222
122	0x3e4e9107	0.20172511
123	0x3c03e8b9	0.008051091
124	0x3a42725a	0.00074175524
125	0xbd7d6634	-0.061865047
126	0xbe633783	-0.22189145
127	0xbeafbcfc	-0.3432387
128	0x3eabbd60	0.3354292
129	0xbc3adb53	-0.01140483
130	0x3e949394	0.29018843
131	0xbe463158	-0.1935476
132	0x3e24c775	0.16091712
133	0x3dcc304c	0.099701494
134	0x3e8ba4de	0.2727422
135	0x3e0c1fb5	0.1368397
136	0x3ec6a976	0.38801163
137	0xbeae60ad	-0.34058133
138	0x3e6d11aa	0.2315127
139	0x3e2ebf7d	0.17065234
140	0x3e9498fc	0.29022968
141	0xbea05f30	-0.31322622
142	0xbe8e24ee	-0.2776255
143	0xbe523891	-0.20529391
144	0x3e8fb493	0.28067455
145	0xbb7cc70e	-0.0038570794
146	0x3e0990db	0.13434164
147	0xbd6bae0b	-0.057539027
148	0x3e923a32	0.28560024
149	0xbe52f6be	-0.20601937
150	0xbe76aa35	-0.24088366
151	0x3e506068	0.20349276
152	0x3e143ccf	0.14476322
153	0x3e18ac62	0.14909509
154	0x3e5a3af6	0.21311554
155	0xbdcbc8c6	-0.09950404
156	0x3e378d5c	0.17925018
157	0xbd3b51e8	-0.04573241
158	0x3e47cca3	0.19511656
159	0x3d24491c	0.040108785
160	0xbe8ebc9a	-0.27878267
161	0xbf2696e7	-0.6507401
162	0xbe0a56aa	-0.13509622
163	0x3df7aeaa	0.120938614
164	0x3d9e25cd	0.07722054
165	0x3e092629	0.13393463
166	0x3dc5d1b6	0.0965914
167	0x3d8ba8ee	0.0681933
168	0xbe53d109	-0.2068521
169	0xbd923a93	-0.071400784
170	0x3caa2e07	0.0207739
171	0xbdb6d0b3	-0.08926525
172	0x3c6b62a6	0.014366781
173	0xbeea607f	-0.45776746
174	0x3de8e384	0.1137152
175	0x3edeee88	0.4354136
176	0x3d819da3	0.06328895
177	0x3dff4dc6	0.12466006
178	0x3ed64f67	0.41857454
179	0x3d45198b	0.048120063
180	0x3d93c114	0.07214561
181	0xbe599967	-0.21249925
182	0x3d486516	0.048924528
183	0xbb05641c	-0.002035386
184	0xbe00d4b2	-0.12581137
185	0x3e428761	0.18996955
186	0xbd03481e	-0.0320512
187	0x3d6c43ad	0.05768173
188	0xbd50b763	-0.05095614
189	0xbc03a41b	-0.008034731
190	0xbe45535e	-0.19270083
191	0x3ea421dd	0.32057086
192	0x3e0a1483	0.13484387
193	0x3d10dedf	0.035368796
194	0x3e3a37da	0.18185368
195	0xbe610429	-0.21974243
196	0xbe17bba4	-0.14817673
197	0xbdcd6ee6	-0.10030918
198	0x3e9636e3	0.2933875
199	0xbe6d0fb8	-0.23150527
200	0x3e399195	0.18121941
201	0xbe0194fe	-0.12654492
202	0xba832039	-0.001000411
203	0xbe04de65	-0.12975462
204	0xbe9ce80e	-0.30645794
205	0x3de9776d	0.11399732
206	0x3e37ece4	0.1796146
207	0xbcc4e011	-0.024032624
208	0xbe52a605	-0.20571144
209	0xbe8d0f89	-0.27550915
210	0xbe564507	-0.2092477
211	0x3e33bbae	0.17552063
212	0x3c6ba71d	0.014383105
213	0xbda297a5	-0.0793908
214	0x3e8ec769	0.27886513
215	0x3e18ce93	0.14922552
216	0xbe677984	-0.22604948
217	0xbdb802bc	-0.089848965
218	0x3e2236d5	0.1584123
219	0x3c079bed	0.008276922
220	0xbee1ffaf	-0.44140384
221	0xbe552136	-0.2081345
222	0x3e3fcad8	0.18729722
223	0x3e9fb8d9	0.31195715
224	0x3eae4358	0.34035754
225	0x3e0b19b9	0.13584031
226	0xbc80e1eb	-0.015732726
227	0xbd4d0b53	-0.050059628
228	0xbd2e3168	-0.042527586
229	0x3e06f982	0.13181117
230	0x3e5e7951	0.21725966
231	0x3e843b26	0.25826377
232	0xbde4f86c	-0.11180195
233	0x3de84737	0.11341708
234	0x3e6b2955	0.22964986
235	0x3df0cd9b	0.11757966
236	0xbd6b4514	-0.057438925
237	0x3e1a68cf	0.15079044
238	0xbd8d19f9	-0.068897195
239	0x3cd8ea7d	0.026479
240	0x3e3fbf8a	0.1872541
241	0x3dcb503c	0.09927413
242	0x3e148b05	0.14506157
243	0x3d7811d5	0.06056388
244	0xbf36f519	-0.7146774
245	0xbdef3acd	-0.11681137
246	0x3e96238f	0.29324004
247	0x396f61ac	0.00022829202
248	0xbc5e26ed	-0.013559085
249	0xbd34367b	-0.04399727
250	0x3e0692fa	0.13142005
251	0xbdb98082	-0.09057714
252	0x3e1d6017	0.15368687
253	0x3e902e88	0.281605
254	0xbe268819	-0.16262855
255	0xbe97d3ac	-0.2965368

network.2.bias f4 [32]
0	0x3e6fd9e7	0.23422967
1	0x3de7b32e	0.11313473
2	0xbe5783a6	-0.21046314
3	0x3e4ddc2c	0.2010352
4	0x3e5bf61b	0.214806
5	0xbe347e65	-0.1762634
6	0x3d1aab02	0.037760742
7	0xbe0b5896	-0.13608012
8	0xbe0333ff	-0.12812804
9	0x3d91c326	0.071173
10	0x3cd2a4be	0.02571332
11	0x3e15298c	0.1456663
12	0x3e98f168	0.29871678
13	0xbe3aadd5	-0.18230374
14	0x3eaa0311	0.33205464
15	0xbe01d65a	-0.12679425
16	0x3dd6cb9e	0.10488056
17	0xbe2b4266	-0.16724548
18	0xbea189bf	-0.31550404
19	0x3e55053d	0.2080278
20	0xbe16f98c	-0.14743632
21	0x3b1719f7	0.0023056248
22	0x3e5ded05	0.21672447
23	0x3e1a219f	0.15051888
24	0xbe06bab1	-0.13157155
25	0xbe0c4c3e	-0.13700959
26	0xbe6f0acf	-0.23343967
27	0x3e33085c	0.17483658
28	0xbe7adbf0	-0.24497962
29	0x3dd4ffe5	0.104003705
30	0x3ea585ef	0.32328746
31	0x3e796941	0.24356557

network.4.weight f4 [64, 32]
0	0x3e91003b	0.28320488
1	0x3bf614ea	0.0075098174
2	0xbd053675	-0.032522637
3	0xbcf2fa7f	-0.029660461
4	0xbc0a2aa4	-0.008433018
5	0x3d82e320	0.06390977
6	0xbdfdfff3	-0.12402334
7	0x3e0239a2	0.12717298
8	0xbe00aa8d	-0.1256506
9	0xbbeb773c	-0.0071858447
10	0x3dc24d9b	0.09487458
11	0xbdfb62a6	-0.12274675
12	0xbc0ce3ea	-0.008599261
13	0xbcf31f26	-0.029677939
14	0x3e34a8e4	0.17642552
15	0x3d2448dc	0.040108547
16	0x3e08f97a	0.13376418
17	0x3d02d559	0.031941745
18	0xbe0ce87f	-0.13760565
19	0x3e191682	0.14949992
20	0x3d55d705	0.05220701
21	0x3dc8c6d7	0.09803551
22	0x3e8bba47	0.27290556
23	0x3e214c8b	0.15751855
24	0x3e135bc0	0.14390469
25	0xbdc0e463	-0.09418561
26	0xbdacd7a2	-0.08439566
27	0xbde06afb	-0.10957905
28	0xbe98f077	-0.2987096
29	0x3d0efc54	0.034908608
30	0x3e20cde0	0.15703535
31	0x3cfb8d1f	0.03070694
32	0x3e15acd3	0.14616708
33	0x3e12af5e	0.1432471
34	0x3bbb10fc	0.005708812
35	0xbdb6cc45	-0.0892568
36	0x3d2c9f3c	0.042144045
37	0x3e18a172	0.14905336
38	0xbd5b3984	-0.053521648
39	0xbe1fa94d	-0.15591927
40	0xbdebae87	-0.11507898
41	0x3e06e521	0.13173343
42	0xbe0327cf	-0.12808155
43	0xbdb62283	-0.08893301
44	0xbe005751	-0.12533309
45	0xbd863183	-0.06552412
46	0xbdaee8f3	-0.08540525
47	0x3e09a7cc	0.13442916
48	0x3e116c28	0.14201415
49	0x3cebc33b	0.028779617
50	0xbe0ba535	-0.1363724
51	0xbdfa4160	-0.122195005
52	0x3dd321e8	0.103092015
53	0xbd97fa62	-0.074208036
54	0xbc0f4c9c	-0.008746292
55	0xbe10cc92	-0.14140537
56	0xbd3343ce	-0.043765835
57	0xbe069937	-0.13144384
58	0x3d01d177	0.031693902
59	0xbd76d6c0	-0.060263395
60	0x3e20e5b4	0.15712625
61	0x3da8f36f	0.08249556
62	0xbde66aab	-0.11250814
63	0xbd0b58d4	-0.03402026
64	0xbb9742a4	-0.0046160985
65	0xbd90314e	-0.07040654
66	0xbde0da4e	-0.10979138
67	0x3d171cc2	0.03689266
68	0xbd874f04	-0.06606868
69	0x3e7bd0f6	0.24591431
70	0xbe04a7b7	-0.12954603
71	0x3e753cd2	0.23948982
72	0x3e332df7	0.17498003
73	0x3e5ad41e	0.21369979
74	0x3e8bc20a	0.27296478
75	0x3d951f3d	0.07281349
76	0xbd21f64d	-0.03954153
77	0xbeb43c81	-0.3520241
78	0xbdabb548	-0.08384186
79	0x3e704592	0.23464039
80	0x3d6b9249	0.057512555
81	0xbe1efa4a	-0.15525165
82	0xbdb7dd23	-0.08977725
83	0x3dba8693	0.09107699
84	0xbe3816e4	-0.17977482
85	0xb8d0f7bf	-9.964359e-05
86	0x3d4dc4c9	0.050236497
87	0xbd93eaa0	-0.072224855
88	0x3e6f9e85	0.23400314
89	0x3d8d517d	0.06900308
90	0xbe20597f	-0.1565914
91	0x3bea61ee	0.0071527874
92	0xbf2c34d5	-0.67268115
93	0x3d482423	0.048862588
94	0x3e244768	0.16042864
95	0x3d9769ec	0.0739325
96	0x3e47d6fb	0.19515602
97	0xbe4492ba	-0.19196597
98	0xbd0c039e	-0.034183137
99	0x3e02744f	0.1273968
100	0x3d79b896	0.06096705
101	0x3e2d9c59	0.16954173
102	0xbdbf8ad5	-0.09352652
103	0x3ea03ea7	0.312978
104	0x3e149561	0.14510109
105	0x3c1f3d60	0.009719223
106	0x3ef4ffe5	0.47851482
107	0x3d566bd8	0.05234894
108	0xbcda57a9	-0.026653128
109	0xbe9b7f1d	-0.30370417
110	0x3c62c44d	0.013840747
111	0x3dd20397	0.10254591
112	0x3e615bc5	0.22007664
113	0x3dccc5ed	0.09998689
114	0xbe6f428d	-0.23365231
115	0x3e18a14b	0.14905278
116	0xbe42d46d	-0.19026347
117	0x3d8687c2	0.065688625
118	0x3db3efda	0.087859824
119	0x3dadfa1f	0.084949724
120	0x3dbcc7e3	0.09217813
121	0x3cf01ab2	0.029309604
122	0xbd5b2937	-0.053506102
123	0x3d4c7096	0.049912058
124	0xbec85561	-0.3912764
125	0x3ce12f71	0.027488442
126	0xbca4bca0	-0.020109475
127	0xbb1d6702	-0.0024017696
128	0xbcca0137	-0.024658782
129	0x3d89c3cb	0.06726798
130	0xbd22b0b9	-0.039719317
131	0x3e08357b	0.13301651
132	0x3ce0a578	0.027422652
133	0xbd92336f	-0.071387164
134	0x3ce4c164	0.027924247
135	0xbd7b92fb	-0.06141947
136	0xbdc7ae3e	-0.09750031
137	0xbbb638a0	-0.0055609494
138	0xbe09d77a	-0.13461104
139	0xbe2e75e7	-0.17037164
140	0xbd9746bc	-0.073865384
141	0xbd79c869	-0.06098214
142	0x3e148d61	0.14507057
143	0xbe0da6ee	-0.1383321
144	0x3cb4f450	0.022089154
145	0xbdf79716	-0.12089364
146	0xbe07b750	-0.13253522
147	0x3df94ebb	0.1217322
148	0xbe193350	-0.1496098
149	0x3c2aa3bb	0.010415013
150	0xbe36cba4	-0.1785112
151	0xbd356a60	-0.0442909
152	0xbcc352c4	-0.023843177
153	0xbdbaa218	-0.09112948
154	0xbcd42e0f	-0.025900869
155	0xbe3c6671	-0.18398453
156	0xbd84136b	-0.06449016
157	0x3db216e3	0.086957715
158	0xbdfaae91	-0.12240327
159	0x3d6a83f9	0.057254765
160	0x3e903a90	0.2816968
161	0x3d36616d	0.044526506
162	0xbcbf584b	-0.023357531
163	0x3d806098	0.06268424
164	0xbe161aa0	-0.14658594
165	0x3e1020e3	0.14075045
166	0xbe1a5b66	-0.15073928
167	0x3e67ba19	0.22629584
168	0x3db0bd70	0.08629882
169	0x3e72df5b	0.23718016
170	0x3e9b258d	0.30302086
171	0x3dfe02b0	0.12402856
172	0x3e4656c6	0.19369039
173	0xbe849164	-0.25892174
174	0xbdc070cf	-0.093965165
175	0xbd0058c4	-0.031334653
176	0x3c2cdacc	0.010550212
177	0xbe16ca49	-0.14725603
178	0xbe33c72f	-0.17556451
179	0x3da80535	0.08204118
180	0xbe407361	-0.18794014
181	0x3e71c6f8	0.23611057
182	0x3d5d0727	0.0539619
183	0xbd2f1d8b	-0.042752784
184	0x3e0201f7	0.12696062
185	0x3db2c8a3	0.08729675
186	0xbecb0bb0	-0.39657354
187	0xbdfa1879	-0.12211699
188	0xbe4f6af7	-0.20255648
189	0x3e07d77f	0.13265799
190	0x3e03e60a	0.12880722
191	0x3e09b41d	0.13447614
192	0xbb1e3ab6	-0.0024143881
193	0xbf4720df	-0.7778453
194	0x3e2a506d	0.16632243
195	0x3e096386	0.13416871
196	0x3cba2c47	0.022726191
197	0xbdf62e1f	-0.12020516
198	0x3cfe427a	0.031037558
199	0x3e22c14c	0.1589405
200	0x3d974ec1	0.07388068
201	0xbe005242	-0.12531379
202	0x3e707a6a	0.23484197
203	0xbd395da7	-0.04525533
204	0xbe65b469	-0.22432102
205	0xbecf71c0	-0.40516472
206	0x3e428a29	0.18998016
207	0x3cc15d84	0.023604162
208	0xbce067ea	-0.0273933
209	0xbd2dfa3a	-0.042474963
210	0x3ed8de5d	0.4235715
211	0xbd5ca359	-0.053866718
212	0xbd4e3563	-0.050343882
213	0x3edb5dba	0.42844945
214	0xbd766508	-0.060154945
215	0x3bbd6b0f	0.0057805846
216	0xbe73f746	-0.23824796
217	0x3da4bf52	0.08044304
218	0xbedb2138	-0.4279878
219	0xbe2a6c92	-0.16642979
220	0xbd8ae149	-0.06781251
221	0x3e35636d	0.17713709
222	0xbd9b8bf0	-0.0759505
223	0xbd901a49	-0.070362635
224	0x3e44919c	0.1919617
225	0x3e7f6a24	0.24942833
226	0x3c11a207	0.008888728
227	0xbbed2df2	-0.007238143
228	0xbe174618	-0.14772832
229	0x3d19a39e	0.037509553
230	0x3e846085	0.2585489
231	0x3d797740	0.06090474
232	0xbf05cd72	-0.5226661
233	0x3c8387cf	0.01605597
234	0xbe0967c1	-0.13418485
235	0x3eab16ec	0.33415926
236	0xbe57e413	-0.21083097
237	0xbebd0cd0	-0.36923838
238	0xbd463a13	-0.048395228
239	0xbe41b99e	-0.18918464
240	0xbe434a1c	-0.19071239
241	0x3d76db4e	0.06026774
242	0x3f05993e	0.52186954
243	0x3e8caec3	0.27477083
244	0x3f167733	0.58775634
245	0xbe33662c	-0.17519444
246	0xbea8f0dc	-0.3299626
247	0xbe3e72d7	-0.18598495
248	0xbebf0047	-0.373049
249	0xbe64c625	-0.22341211
250	0x3eeb5a43	0.45967302
251	0x3ba876a9	0.0051410985
252	0xbdee4642	-0.11634494
253	0x3d05a651	0.032629315
254	0xbdc81af1	-0.09770764
255	0xbd354c0d	-0.04426198

network.4.bias f4 [64]
0	0xbd719bd8	-0.058986515
1	0xbcf36b49	-0.029714243
2	0x3e0b6bde	0.13615367
3	0x3b8b5377	0.004251893
4	0xbd90fd9d	-0.07079623
5	0x3e27d72c	0.16390675
6	0x3def64fe	0.116891846
7	0x3e3b422f	0.18286966
8	0x3e0b2c99	0.13591231
9	0xbb88169f	-0.0041530873
10	0xbe2b3922	-0.16721013
11	0x3d6e1d53	0.058133435
12	0xbdf5bec4	-0.11999276
13	0x3d0ac7d2	0.03388197
14	0xbceda50e	-0.029009368
15	0x3e6b205a	0.2296156
16	0xbe0150e1	-0.12628509
17	0xbdceff99	-0.10107345
18	0x3e3173f0	0.17329383
19	0x3df3b786	0.11900239
20	0xbe0dbbbe	-0.13841149
21	0x3c25193e	0.010076819
22	0x3b88038f	0.004150815
23	0x3e46b638	0.19405448
24	0xbdf4f8c7	-0.11961513
25	0x3d58c461	0.052921657
26	0x3e8a73af	0.27041385
27	0x3dd20e98	0.1025669
28	0x3e7ca2ba	0.2467145
29	0xbd1a7211	-0.03770644
30	0x3e0152f9	0.12629308
31	0x3ded71bd	0.115939595
32	0x3e85fa67	0.26167604
33	0x3e47b9ef	0.19504522
34	0x3dca4c57	0.09877842
35	0xbbb9d259	-0.0056708273
36	0x3e8ff43b	0.2811602
37	0x3d6cf04f	0.057846364
38	0xbc81b6d7	-0.015834255
39	0x3df8ac66	0.121422574
40	0x3e611c3b	0.21983425
41	0xbd2a8f7a	-0.041640736
42	0x3d4f51a9	0.050614987
43	0xbe578fde	-0.21050975
44	0x3dd842bd	0.10559604
45	0x3e84be04	0.2592622
46	0xbcf1f43f	-0.02953541
47	0xbd280b20	-0.041026235
48	0xbd0ff339	-0.035144065
49	0xbc94c6c5	-0.018161187
50	0x3de6bc50	0.112663865
51	0x3e83a7a9	0.25713852
52	0x3d589f2d	0.052886177
53	0x3e900e7e	0.28136057
54	0x3d28c8d6	0.041207157
55	0xbd1e93ea	-0.03871528
56	0xbd107772	-0.035270162
57	0x3d8e8bd1	0.069602616
58	0xbd4edccc	-0.050503537
59	0xbdfbd9ed	-0.122974254
60	0x3e94f120	0.29090214
61	0x3e0a0f43	0.13482384
62	0x3e943024	0.28942978
63	0x3e46c8ef	0.19412588

network.6.weight f4 [64, 64]
0	0xbce53083	-0.027977234
1	0xbc8182d0	-0.015809447
2	0x3e18bf29	0.14916672
3	0x3d8d309c	0.06894037
4	0x3d85e256	0.06537311
5	0x3bf7d2d2	0.0075629735
6	0x3e23c429	0.15992798
7	0xbee28bfb	-0.44247422
8	0x3e39ffc0	0.18163967
9	0xbd75d6a2	-0.060019143
10	0xbe38629b	-0.18006365
11	0x3e1f05e2	0.15529588
12	0x3b5970e2	0.0033178856
13	0x3e5bad57	0.21452843
14	0x3d46e230	0.048555553
15	0x3e69c34b	0.22828405
16	0x3c4973d4	0.012295682
17	0xbc9dbc38	-0.019254789
18	0x3d300ce1	0.042981032
19	0xbd0412ea	-0.0322446
20	0xbd5386a6	-0.051642083
21	0x3e20d273	0.1570528
22	0x3e4c6e32	0.19963911
23	0x3ca26e94	0.019828118
24	0x3c864d70	0.016394347
25	0xbc67407a	-0.0141144935
26	0x3e55ef1c	0.20891994
27	0x3eceb6db	0.40373883
28	0x3dc89163	0.09793355
29	0x3e0da29b	0.1383156
30	0xbcb0843c	-0.02154743
31	0x3e3a8e92	0.18218449
32	0x3e35b232	0.17743757
33	0x3e38b967	0.18039475
34	0x3e1e00c9	0.15429987
35	0xbef6ee6b	-0.48228773
36	0x3e3b3366	0.18281326
37	0x3e1c6fb4	0.15276986
38	0x3e30e8e5	0.17276342
39	0xbca07b26	-0.019589972
40	0x3d99104b	0.07473811
41	0xbeacab23	-0.33724317
42	0x3d6ca9f2	0.05777926
43	0xbc0b2681	-0.008493067
44	0x3c2872c0	0.010281265
45	0x3d79c3b5	0.060977656
46	0x3dba19cf	0.09086954
47	0xbd1fd52a	-0.03902165
48	0x3ea15888	0.31512856
49	0x3e14beb4	0.14525872
50	0x3e2f8d60	0.17143774
51	0x3e23ab90	0.15983415
52	0x3d2be41b	0.041965585
53	0x3dcaba3e	0.09898804
54	0xbc1ff86d	-0.009763819
55	0x3e02e2d7	0.12781845
56	0x3d3097c6	0.043113492
57	0x3e0972ca	0.13422695
58	0x3b7ce8ca	0.0038590902
59	0x3d8749a6	0.06605844
60	0x3df2d558	0.11857098
61	0x3d0688ec	0.032845423
62	0x3e228afa	0.15873328
63	0x3b99b6a5	0.0046909624
64	0x3d96e42b	0.07367738
65	0x3d419f78	0.047271222
66	0x3dea1794	0.114302784
67	0x3dba4604	0.09095386
68	0xbdb08c7f	-0.086205475
69	0x3d371465	0.044697184
70	0xbcff7e62	-0.031188194
71	0xbf06b4f0	-0.5261984
72	0x3ddda434	0.10822335
73	0x3b8ac7f9	0.0042352644
74	0xbde90bd9	-0.11379213
75	0x3dd98229	0.10620529
76	0x3d21a1d7	0.039460983
77	0x3c4e09c9	0.012575575
78	0x3daaefdd	0.083465315
79	0xbc66f6bf	-0.014096915
80	0xbe2c53f8	-0.16828907
81	0x3cc1e560	0.023668945
82	0x3c89c302	0.01681662
83	0xbd64a0b9	-0.05581734
84	0x3dcce0b3	0.100037955
85	0xbac4a7cd	-0.0015003622
86	0x3ec63e47	0.3871939
87	0x3da6e3ee	0.08148943
88	0xbcfa8ab9	-0.030583726
89	0xbdcb695c	-0.09932205
90	0xbcf26a6f	-0.029591767
91	0x3efd62fd	0.49489585
92	0x3db9a5e1	0.09064842
93	0x3d3fcc62	0.046825774
94	0xbcbfbabb	-0.02340447
95	0x3dbd2d09	0.092371054
96	0x3b1fa34b	0.0024358805
97	0x3dbe665a	0.09296866
98	0x3cc2ad22	0.023764197
99	0xbf0156f6	-0.50523317
100	0x3e2fc9a4	0.17166764
101	0xbd1036ca	-0.0352085
102	0x3e385562	0.18001321
103	0x3e389c62	0.18028405
104	0x3e413760	0.1886878
105	0xbeb1d523	-0.34732923
106	0xbca1dda4	-0.019759007
107	0xbd159160	-0.036515594
108	0x3d9aa399	0.07550735
109	0x3be84586	0.007088366
110	0x3d7dff7e	0.062011234
111	0xbd269506	-0.040669464
112	0x3ef238ec	0.47309053
113	0x3d5d6ce7	0.054058935
114	0x3db5afec	0.08871445
115	0x3e30c171	0.17261292
116	0x3de48254	0.111576706
117	0xbc9c1d86	-0.019057047
118	0xbdb9a236	-0.090641424
119	0x3e058c9e	0.13041922
120	0x3e1e2a6d	0.15445872
121	0xbd1c224d	-0.03811865
122	0x3c5355f2	0.012898909
123	0x3dc5783c	0.096420735
124	0x3dfac681	0.12244893
125	0x3e31489f	0.17312859
126	0x3d81b049	0.06332452
127	0xbc8ceebe	-0.017203685
128	0xbd565ada	-0.052332737
129	0xbd72c9ac	-0.05927436
130	0x3e065076	0.13116631
131	0x3d094731	0.03351516
132	0x3e02fb71	0.1279123
133	0x3e3f4dfe	0.18682095
134	0x3e6bd4d0	0.230304
135	0xbee8f45f	-0.4549894
136	0x3df680ef	0.12036311
137	0x3e12d922	0.14340642
138	0x3ca79adb	0.020459583
139	0x3e27243d	0.16322418
140	0xbd5b401e	-0.053527944
141	0x3e655f42	0.22399619
142	0x3e36e92f	0.1786239
143	0x3e44c0e8	0.19214213
144	0xbd8d8186	-0.0690947
145	0x3daf718e	0.08566581
146	0x3e238d84	0.15971953
147	0x3cda5d94	0.02665595
148	0xbd55e2aa	-0.052218117
149	0x3c7e76b3	0.01553123
150	0x3e70215d	0.23450227
151	0xbcd858e2	-0.02640957
152	0x3e094970	0.1340692
153	0x3d4264a2	0.047459252
154	0x3d06e028	0.032928616
155	0x3ea6b60d	0.3256077
156	0x3e48618f	0.19568466
157	0x3e168aa3	0.14701323
158	0x3d166a29	0.036722336
159	0x3e1ddeee	0.15417072
160	0x3e0040c0	0.125247
161	0x3d9e8539	0.07740254
162	0x3dcdbafe	0.100454316
163	0xbf0a5e94	-0.54050565
164	0x3ec49583	0.38395318
165	0x3e1a0571	0.15041138
166	0xbcde7b3c	-0.027158372
167	0x3e560b34	0.20902711
168	0x3cb401ec	0.021973573
169	0xbe9f2a8d	-0.3108715
170	0x3e5b92fb	0.21442787
171	0xbd94dcaa	-0.07268651
172	0x3e21e4d4	0.15809947
173	0x3e40c606	0.1882554
174	0xbda45867	-0.08024674
175	0xbd29bd34	-0.041440204
176	0x3f051e92	0.5199977
177	0x3d2294bc	0.039692625
178	0x3e300c78	0.17192256
179	0x3c7d6671	0.0154663185
180	0x3c5e95eb	0.013585548
181	0x3d6f0f26	0.058364056
182	0x3d6f5a3c	0.058435664
183	0x3e00e54f	0.12587474
184	0x3e21a26f	0.1578462
185	0xbbf861cf	-0.007580019
186	0xbc9fa5c2	-0.01948822
187	0xbd4cc914	-0.04999645
188	0x3d7eace7	0.06217661
189	0x3dbb85e2	0.091563955
190	0x3cde178f	0.027110843
191	0x3d8854da	0.06656809
192	0xbd256a46	-0.040384553
193	0x3db5528a	0.08853634
194	0x3d5a4477	0.05328795
195	0x3dcb96a5	0.099408425
196	0x3b02e860	0.0019974932
197	0x3e03eff9	0.12884511
198	0xbc977c41	-0.018491866
199	0xbee17a41	-0.44038585
200	0x3d82f691	0.06394685
201	0x3d37e788	0.04489854
202	0xbd15064f	-0.03638297
203	0x3dd6217e	0.10455607
204	0x3d38ec0d	0.04514699
205	0x3d3a135b	0.045428615
206	0x3d932f9a	0.07186814
207	0x3dcbca18	0.09950656
208	0xbd0ecf5b	-0.03486572
209	0xbcf50698	-0.02991037
210	0x3d8d57a3	0.06901481
211	0x3d91cf19	0.07119579
212	0xbcbd9084	-0.0231402
213	0xbdad75bb	-0.08469721
214	0x3ecb72ae	0.3973593
215	0x3d6af56e	0.057362966
216	0x3d9047e8	0.07044965
217	0xbd8a4c5d	-0.067528464
218	0x3ddf0b20	0.10890794
219	0x3eb61849	0.35565403
220	0x3dcd55ef	0.10026156
221	0x3cea8c5d	0.028631384
222	0xbd090385	-0.033450622
223	0x3d2a2b39	0.041545127
224	0x3c5af7e3	0.013364765
225	0x3d07674e	0.033057503
226	0x3d9a1fd8	0.07525605
227	0xbef3d830	-0.47625875
228	0x3dc35e4a	0.095394686
229	0xbd02c0a3	-0.031921994
230	0xbd0add66	-0.03390255
231	0xbd950d6a	-0.07277949
232	0xbd091414	-0.033466414
233	0xbea2e631	-0.31816247
234	0x3e23e495	0.16005166
235	0x3dc72a93	0.09724917
236	0x3c2bad77	0.010478369
237	0x3d94171b	0.072309695
238	0xbde579cd	-0.11204872
239	0x3cf82152	0.030289326
240	0x3e9b28c0	0.30304527
241	0x3cb3ccee	0.021948304
242	0xbd46f773	-0.04857583
243	0x3e18b59e	0.14913031
244	0x3d355741	0.044272665
245	0x3dc6487a	0.096817926
246	0x3dd6da32	0.10490836
247	0x3e174dde	0.14775798
248	0x3d78ec36	0.060772143
249	0x3c72606f	0.014793499
250	0x3cfd1197	0.030892177
251	0x3b91b696	0.004446815
252	0x3e1349b6	0.14383587
253	0xbc33eb0a	-0.010981331
254	0xbd312bfa	-0.04325483
255	0xbd856c3e	-0.06514786

network.6.bias f4 [64]
0	0x3e3dc014	0.18530303
1	0x3e786ce8	0.24260294
2	0x3e351857	0.17685066
3	0x3e2e5976	0.17026314
4	0x3d51720e	0.05113416
5	0x3e5d11f5	0.21588881
6	0xbcc7df5a	-0.024398495
7	0x3e2cfabc	0.16892523
8	0xbd9beade	-0.07613157
9	0xbcb52456	-0.022112053
10	0x3e49876c	0.19680566
11	0xbd6e1189	-0.05812219
12	0xbdf9ee42	-0.12203647
13	0x3b19cd80	0.0023468435
14	0x3ce1d76f	0.027568547
15	0x3dc33e57	0.09533375
16	0xbdb31c18	-0.08745593
17	0x3e3f5b00	0.18687057
18	0x3d48d1ec	0.049028322
19	0x3dfc9f07	0.123350196
20	0xbd9a7dbe	-0.07543515
21	0xbc96b2e4	-0.018395849
22	0x3ae0f1fe	0.0017161963
23	0x3e812f6f	0.252315
24	0x3e27b799	0.1637863
25	0x3d06942d	0.032856155
26	0xbbb1ee24	-0.00543
27	0xbd367e61	-0.044554118
28	0x3e44f0f6	0.19232544
29	0xbdb7eb0b	-0.08980378
30	0x3d404c2a	0.046947636
31	0xbde5b57c	-0.11216256
32	0x3e2d5961	0.16928627
33	0xbdf5f33a	-0.120092824
34	0x3e258941	0.1616564
35	0xbbd942ce	-0.006630278
36	0xbd6bf268	-0.057604223
37	0x3d4e793f	0.050408598
38	0x3e83b9aa	0.25727588
39	0x3e13a3f0	0.14418006
40	0xbdac3db4	-0.084102064
41	0x3e49dd6c	0.19713372
42	0x3e4f5787	0.20248233
43	0x3e6c94ff	0.23103712
44	0xbdab75eb	-0.083721004
45	0xbc70a680	-0.014688134
46	0x3d0d8733	0.034552764
47	0xbdf61290	-0.12015259
48	0xbda34943	-0.07972958
49	0xbdd33681	-0.1031313
50	0x3d968d50	0.07351172
51	0x3e07c141	0.13257314
52	0x3e4a51f1	0.1975782
53	0x3e1f86a5	0.15578707
54	0x3e431346	0.19050321
55	0x3d642d88	0.055707484
56	0xbd417c23	-0.047237527
57	0x3d227a28	0.03966728
58	0x3c60acbb	0.013713057
59	0x3e350820	0.1767888
60	0xbdeda840	-0.11604357
61	0xbd97408d	-0.07385359
62	0xbd6572c0	-0.056017637
63	0xbdd10e38	-0.1020779

network.8.weight f4 [21, 64]
0	0x3e15f640	0.14644718
1	0x3e4b594e	0.19858286
2	0xbcc58143	-0.024109488
3	0x3d81f66a	0.06345828
4	0x3d60c927	0.054879334
5	0x3e30796f	0.17233823
6	0xbdc7be40	-0.09753084
7	0x3e2890af	0.16461442
8	0xbdfea5f8	-0.12434
9	0xbc5caebb	-0.013469393
10	0x3e37d8f8	0.17953861
11	0xbdce3e02	-0.10070421
12	0x3d9263a2	0.0714791
13	0x3d2478dc	0.040154323
14	0x3d0dc1ea	0.03460876
15	0x3da2b22e	0.07944141
16	0xbdb43a10	-0.08800137
17	0xbcfaf2a0	-0.03063327
18	0xbdd25058	-0.102692306
19	0xbdb275c6	-0.0871387
20	0xbd0f22fc	-0.034945473
21	0xbd8f0fc0	-0.06985426
22	0x3ce46790	0.027881414
23	0x3e223a28	0.15842497
24	0x3e177cb3	0.14793663
25	0xbd9fff92	-0.07812418
26	0xbaf24820	-0.001848463
27	0xbdce51db	-0.100742064
28	0x3e1c391c	0.1525616
29	0x3e33f5f7	0.17574297
30	0xbcc7faff	-0.024411676
31	0xbdc9ff57	-0.09863155
32	0x3db66243	0.08905461
33	0x3de3228c	0.11090574
34	0xbc2dc6ba	-0.010606462
35	0x3ca087b9	0.019595968
36	0xbdff4dae	-0.12465988
37	0x3c7640a6	0.015030062
38	0xbe65b822	-0.22433522
39	0x3e3eaa07	0.18619548
40	0xbda8ded0	-0.08245623
41	0x3e554f3a	0.20831004
42	0x3df5bc8e	0.119988546
43	0x3e76bb73	0.24094944
44	0xbd41d715	-0.04732426
45	0x3d21f0fc	0.03953646
46	0xbc3adeaa	-0.011405626
47	0x3d729cd4	0.059231594
48	0xbb999c57	-0.0046878266
49	0x3e129192	0.14313343
50	0x3da2bbfa	0.0794601
51	0x3c1f66e4	0.009729121
52	0x3dec62c4	0.115422755
53	0x3d9dcb3d	0.0770478
54	0x3d4c6da1	0.049909238
55	0x3e10a0f5	0.141239
56	0x3d3b88c9	0.045784745
57	0xbd01b14f	-0.031663235
58	0xbdba6bf9	-0.091026254
59	0x3d2bdf33	0.041960906
60	0x3d50f848	0.05101803
61	0x3db27116	0.08712976
62	0x3d2b2808	0.041786224
63	0xbdba617e	-0.091006264
64	0x3e3125a8	0.17299521
65	0xbc9af8b1	-0.018917413
66	0x3e2cf649	0.16890825
67	0x3d9c0fae	0.07620178
68	0xbce73149	-0.028221743
69	0x3d98ac54	0.07454744
70	0xbd2a45e1	-0.041570548
71	0x3e1d71ef	0.15375493
72	0x3da93ede	0.08263944
73	0x3dd64ca4	0.10463837
74	0x3e0ab358	0.13544977
75	0xbd221014	-0.039566115
76	0xbd20a5c0	-0.03922057
77	0x3dabe832	0.08393897
78	0x3dbca367	0.09210854
79	0xba8b84fb	-0.001064449
80	0xbdc85571	-0.09781922
81	0x3e26152d	0.16219015
82	0xba0a25b3	-0.00052699
83	0xbde7e932	-0.11323775
84	0x3d865cda	0.06560679
85	0x3d89f0d2	0.06735386
86	0x3d8de2cd	0.069280244
87	0x3e0f35af	0.13985322
88	0x3e366756	0.17812857
89	0xbdc00611	-0.09376157
90	0xbda40536	-0.080088064
91	0x3de409c2	0.11134674
92	0x3e48ca9c	0.1960854
93	0x3d630b33	0.055430602
94	0xbe11380b	-0.14181535
95	0xbd153c56	-0.036434494
96	0x3da6aa38	0.081379354
97	0x3d1e40cc	0.038636014
98	0x3d3169b9	0.043313716
99	0x3d2dbd08	0.042416602
100	0xbd998ea4	-0.0749791
101	0xbc74bdd3	-0.014937836
102	0xbe3b980e	-0.18319723
103	0x3dd52fe1	0.10409523
104	0x3d2a45b4	0.04157038
105	0x3c0ce533	0.008599567
106	0x3ddf78b9	0.10911698
107	0x3dae507d	0.08511446
108	0x3dd04890	0.1017009
109	0x3d557b00	0.052119255
110	0xbd794b76	-0.06086298
111	0xbc53e722	-0.012933524
112	0xbc79d950	-0.015249565
113	0x3d47192d	0.048607994
114	0x3e2b7423	0.16743521
115	0x3dc5a7a3	0.09651115
116	0x3bee6790	0.007275529
117	0x3d93b2d7	0.07211845
118	0x3e317641	0.17330267
119	0x3e338197	0.17529903
120	0x3dbe7dce	0.09301339
121	0xbd530fb6	-0.051528655
122	0x3d4721b1	0.048616115
123	0x3e1a1b44	0.15049464
124	0x3cf98628	0.030459478
125	0xbe110f83	-0.14166074
126	0x3b522140	0.0032063276
127	0x3d9b5bd7	0.075858764
128	0x3e31eedf	0.17376278
129	0x3d18a77c	0.0372691
130	0x3dfb76f0	0.12278545
131	0x3c83a47c	0.016069643
132	0x3c5abb57	0.013350329
133	0xbbbc15b0	-0.00573989
134	0xbc9f1efb	-0.019423952
135	0x3e0c81b7	0.13721357
136	0x3bb58180	0.0055391192
137	0xbd80cbce	-0.06288873
138	0x3e4818f2	0.19540766
139	0xbdb1d598	-0.08683318
140	0xbb438d40	-0.002983883
141	0x3d3f75b4	0.04674311
142	0x3e36b993	0.17844228
143	0xbcc5c32d	-0.024140919
144	0x3dd97c1a	0.106193736
145	0x3d36bc77	0.044613328
146	0x3dbc7903	0.09202769
147	0xbcd28e6f	-0.025702683
148	0xbc81d7b0	-0.015849918
149	0x3df80e10	0.12112057
150	0x3e115ac3	0.14194779
151	0x3ce60ae7	0.02808137
152	0x3e2a5a65	0.16636045
153	0x3d25fe33	0.040525626
154	0x391b75b9	0.00014825807
155	0x3cac0ba0	0.021001637
156	0x3e542362	0.20716622
157	0x3d6e9db4	0.058255866
158	0xbdb7f50a	-0.08982284
159	0x3d160353	0.036624264
160	0x3c8fe043	0.017562991
161	0xbd988c68	-0.07448655
162	0xbd130d16	-0.03590115
163	0xbb3bb4cd	-0.0028641701
164	0xbd8cc088	-0.0687266
165	0xbd401e90	-0.046904147
166	0xbe4433f1	-0.19160439
167	0x3e52c764	0.20583874
168	0xbdbd9d56	-0.09258525
169	0x3db950a4	0.09048584
170	0x3ce3dba3	0.027814692
171	0x3e24417b	0.16040604
172	0xbb9c2240	-0.004764825
173	0xbde4c354	-0.111700684
174	0xbd3c7851	-0.04601318
175	0x3dfc975e	0.123335585
176	0xbd04ee23	-0.032453667
177	0xbd8a6c86	-0.067589805
178	0x3e37bcd7	0.1794313
179	0x3e4b0f6e	0.19830105
180	0xbd034577	-0.03204867
181	0x3e06653d	0.13124557
182	0x3d98e387	0.074652724
183	0x3e06e60e	0.13173696
184	0x3cf5c425	0.030000756
185	0x3dd43532	0.10361709
186	0xbda3d8c4	-0.08000329
187	0x3d3d23c7	0.046176698
188	0x3df97388	0.12180239
189	0xbd6dc91a	-0.058053114
190	0xbdf5518e	-0.11978446
191	0x3d6659cb	0.056237977
192	0x3e4749d0	0.19461751
193	0x3e226f33	0.15862732
194	0x3e140c97	0.14457928
195	0x3c8d6cc6	0.017263781
196	0x3bea815f	0.0071565355
197	0x3bb22dcc	0.0054375883
198	0xbd23030f	-0.03979784
199	0x3a946740	0.0011322275
200	0x3df8952a	0.12137826
201	0xbcf53ad8	-0.029935285
202	0x3ca0e0a1	0.019638361
203	0x3d0f499c	0.03498231
204	0xbdbfce26	-0.093654916
205	0xbdf1dfe2	-0.118102804
206	0xbd0dc2f8	-0.034609765
207	0xbe8710fa	-0.2638014
208	0xbcdbb671	-0.026820393
209	0x3e4df806	0.20114145
210	0x3dda1c70	0.10649955
211	0xb8ae604e	-8.314905e-05
212	0xbdb2bc1e	-0.08727287
213	0x3ace6e00	0.0015749335
214	0x3e2afd73	0.16698246
215	0x3db18844	0.08668569
216	0x3e1ee9ef	0.15518926
217	0x3dbd7116	0.09250085
218	0x3dde41da	0.10852404
219	0xbdd5a3ee	-0.10431658
220	0x3de7dcfe	0.11321448
221	0xbcc492da	-0.023995806
222	0xbddf00fa	-0.10888858
223	0xbe00ec24	-0.1259008
224	0x3dccdf40	0.10003519
225	0x3d0d55dc	0.03450571
226	0x3e0998a2	0.13437131
227	0xbd273517	-0.040822115
228	0x3ae3a080	0.0017366558
229	0x3e16b7c2	0.14718536
230	0xbdab16b6	-0.08353941
231	0x3e320b29	0.1738707
232	0xbdecff14	-0.1157209
233	0x3ddfa158	0.10919446
234	0x3cbe926b	0.023263177
235	0x3e1bcf4f	0.152158
236	0xbd6f9f48	-0.05850151
237	0x3cf6e258	0.030137226
238	0xbdd2732d	-0.10275874
239	0xbd7bb30c	-0.06145005
240	0x3d21f154	0.03953679
241	0x3d876f36	0.06613009
242	0x3d77b265	0.060472865
243	0x3e07900f	0.13238548
244	0x3dd428be	0.103593335
245	0x3e12a9f9	0.14322652
246	0x3e5c33f0	0.21504188
247	0x3d151832	0.036400028
248	0x3db5c446	0.08875327
249	0x3dd449ca	0.10365637
250	0x3c6c807c	0.01443493
251	0xbc82f4be	-0.015985843
252	0xbd82238e	-0.06354438
253	0xbceafa54	-0.028683819
254	0x3cd9ee90	0.026603013
255	0x3a422972	0.00074066885

network.8.bias f4 [21]
0	0x3da12bf2	0.0786971
1	0x3d70ed39	0.058819983
2	0x3e082b3d	0.13297744
3	0x3dc2c19f	0.095095865
4	0x3e0ef8fa	0.13962165
5	0x3e33c72e	0.1755645
6	0x3d6fb9b4	0.05852671
7	0x3e23714f	0.15961193
8	0x3dcc62d2	0.09979786
9	0x3d8aa070	0.06768882
10	0x3e2ec0c7	0.17065726
11	0x3df2c90d	0.11854754
12	0x3d5f5b76	0.054530583
13	0x3c8455ed	0.016154254
14	0x3df7a520	0.12092042
15	0x3da1f7dc	0.079086035
16	0x3e27575b	0.16341917
17	0x3da7bf37	0.08190768
18	0x3dfa3cae	0.12218605
19	0x3d9b90e9	0.07595999
20	0x3e2b0ccf	0.16704105
