double_pendulum_config/models/model_1754.pth (torch, 35975 bytes, 10 tensors)

network.0.weight f4 [16, 6]
00000000: 19a7 80bf 78de adbd e2e9 ef3d 80ff 90bd
00000010: d3ea 7abf e001 c6bc e131 6dbf 73db 8b3d
00000020: 272a e73d 1b06 8fbb ef8d 1dbf 21e1 513e
00000030: dc19 85bf b00f 88be 41b8 803d 7152 b4be
00000040: c1e9 3d3f 24bb ac3d 22f4 f93d 6f50 b93f
00000050: eb61 ea3e be83 e33d 6099 af3d 6e18 073e
00000060: df73 f0be e4d7 3f3f 29c3 65be c693 5cbe
00000070: d0d1 8d3e d7a0 c93d 373a 203f cdd4 953f
00000080: aafa 1fbe 8470 09bf 2fdd 1a3f 0aaa 32be
00000090: 91a2 6abd 88c5 98bf 5b96 f4be da14 783e
000000a0: 1a30 3cbf bd79 e3bd 13ab 1cbd 9e08 aabf
000000b0: 911e 85be 8686 9e3b b284 b1be 83fb 8c3d
000000c0: 015b 7dbf 2212 cb3e 7253 babd f7fa 803f
000000d0: 0e01 2c3f bf83 2ebe 02f4 e73e ded4 68bf
000000e0: 5d30 d63d 93d5 b1bf 72bc 86be e313 6b3e
000000f0: f0a0 d73d 3459 b9bf 6e1f a2be ec2f a6be
00000100: 1de7 153f 1d46 2f3b 7dff fe3e 8e52 8b3e
00000110: 8e69 f23e 273c 96bd fadd 813f 6e46 873e
00000120: adf8 153f 233b 9abf f084 93bc b115 383e
00000130: 88fd d6be b23e ffbd da52 cfbe 8d2b 9e3f
00000140: e2d4 623e 9b32 2fbf ce74 fa3e fdd2 153d
00000150: 18eb 0c3e 3dde ef3e 5ef7 15be 9b6c 65bf
00000160: f51a 30bf 5475 9abe c978 5e3e a2b5 133e
00000170: 120e 1a3e b58f 25bf 4564 593f d9d8 7fbe
-1.0050994 -0.08489698 0.117145315 -0.07079983 -0.98014563 -0.024170816 -0.92654234 0.06828966
0.11287337 -0.0043647415 -0.615447 0.20496036 -1.0398517 -0.2657447 0.06285144 -0.35219148
0.74184805 0.08434132 0.12204768 1.4477671 0.4577783 0.11109112 0.08574176 0.13192913
-0.46963403 0.749388 -0.22437729 -0.21540746 0.27699137 0.09845131 0.6258883 1.1705567
-0.15622965 -0.5368731 0.6049375 -0.17447677 -0.05728394 -1.1935282 -0.47770962 0.24226704
-0.735109 -0.11107204 -0.038249087 -1.328388 -0.25999883 0.004837814 -0.3467155 0.068839096
-0.98966986 0.39662272 -0.09097947 1.0076588 0.6718911 -0.17042445 0.4530335 -0.9094981
0.10458443 -1.3893303 -0.26315647 0.22956805 0.10528743 -1.4480348 -0.31664604 -0.32458436
0.58555776 0.0026744672 0.49804297 0.27211422 0.47346157 -0.07335692 1.0145867 0.2642092
0.58582574 -1.2049297 -0.018007725 0.17977025 -0.41990304 -0.1246313 -0.40492898 1.2357041
0.22151521 -0.6843659 0.4891724 0.036578167 0.13761556 0.46849242 -0.14645144 -0.89618844
-0.68791133 -0.3016764 0.21725763 0.14424756 0.1504443 -0.64672405 0.84918624 -0.24985065

network.0.bias f4 [16]
00000000: d364 983b 2e78 783e 77cb b13e 7403 bb3e
00000010: 46d9 a53e c6c0 cebe 4ebd ccbe e6c0 25be
00000020: 2f1a 09be fcda 553c 4ca8 963e db08 213f
00000030: 8810 be3e 65dd ca3e 00b3 363f 57bb 32bf
0.004650691 0.24264595 0.34725544 0.36526072 0.3239233 -0.4038145 -0.39988178 -0.16186866
-0.13388894 0.013052698 0.29425275 0.6290414 0.37121987 0.39622036 0.7136688 -0.6981711

network.2.weight f4 [32, 16]
00000000: f60d e2be 8769 1b3d 33c1 abbe a750 e4be
00000010: 26d2 37be 0eec ce3c 32be 1abf f5d4 463f
00000020: cd04 16bd 8af0 133d 07fc a03e 57bd c63e
00000030: 2d3f 1fbf e6dc c7be 4067 0e3f 6c78 8fbe
00000040: 8efc 80bf 4ea4 3dbf 66e0 523e f501 9abf
00000050: 2a5c 713e 526f 963e 067f 92be e211 133e
00000060: 95a2 ff3d 7873 a6be f64d e83e cb48 99be
00000070: eba0 6f3e a18d 80bf d951 9b3e ade7 78bf
00000080: d81a 123d 5264 bebd 0a4d 65be 88e6 39be
00000090: bc60 9abd 31f9 48bd b88d 0ebe 34e3 3fbb
000000a0: 50ee 53bd 909a ad3d 8c14 49bc c438 8f3c
000000b0: c99a 7abe b8f4 3ebd 78df 3cbe d818 2dbd
000000c0: a957 013f f6bb 3d3c 72b6 f23d 477e 2d3f
000000d0: b15d 27bc 65b1 a5be e803 39bf 9c0a d2bd
000000e0: d2c3 7c3d b512 8bbe b368 4b3f 2244 debe
000000f0: 90ca 553e 9dd9 07bf dffc aa3e 94c5 cabe
00000100: 8f84 3ebe 55c2 61be 3f8e 95be ea32 0d3f
00000110: 18e2 d83d 52cd cdbe 7dea d1bd 804c cbbe
00000120: 4695 803e ede0 9a3e dec6 7dbe 9978 c43d
00000130: 8675 25be 6e8d 4dbe 0387 343e fb18 973e
00000140: 48bd 8dbf 9aab 6ebe 5eb5 fa3e 8e65 01bf
00000150: bfc0 c83d c9dd 56bf d877 9e3d c71b 14bf
00000160: 6155 90bf 7ed4 15bf 4caf 3c3e 1884 cc3d
00000170: e1c3 b3be 13f6 123e 66bb 2bbe 3e81 c03e
00000180: 299a 26bf d252 aa3e aa66 1e3d ace9 353f
00000190: f97e 76be 4988 a0bd e248 b83d 69a0 283d
000001a0: 0444 3dbd 2c9d 1cbf 51f5 9bbd 01e4 073f
000001b0: c6b5 4a3e c1b0 0abf 95c2 da3e c73b 563c
000001c0: 9745 563f 0f38 04bf 0e88 d7be db1e 973c
000001d0: 399f d23e cd8c 183d 7e6d 22be 9654 a93e
000001e0: 308b b6be 4d3d c7bd b1c7 0d3f 68ee 243f
000001f0: b5aa 40bd 3d1c 0fbe 47bc 073d 3cfc 85be
00000200: 170d 0d3e 0eca cc3e 57b7 f93e 6c90 2bbf
00000210: 0267 92be 993f c93e 0d49 1b3f 5232 653e
00000220: ee94 443e 4b08 cebe 3a52 a13e 3d27 b9be
00000230: d95f d33e db32 f43e 3cb7 f5be ac28 2b3e
00000240: fa7d 18bb bf79 06bf 7684 e83e c5a6 f8bd
00000250: b09a 5fbd cb20 89be 1209 23bf bcb3 b93e
00000260: d53c f2be 17e4 b4be 526d 7e3e 0ef9 7abe
00000270: ad6d 913e 720b 9dbb 4477 0b3f 2621 c9be
00000280: 66b9 86bf a308 eebe 234a f33e 0e45 043f
00000290: 4191 883d 5ff6 08be 5646 353f 7432 58be
000002a0: 4301 eebd 87ee 25be 4720 1dbf 25d4 07bf
000002b0: 2bd7 093f a3d8 54bf abd1 1a3f d614 213e
000002c0: 9059 503d 6385 c03d dc8a 093f 2b30 3e3e
000002d0: af1f eb3e 1f46 19bf dbb8 0a3e 8c41 0ebf
000002e0: f7c1 05bf 959f 0f3f b61f 13be 9a1e 8fbe
000002f0: f257 083f f1f0 c1bd 0eb5 43bd 7896 523f
00000300: 659a eabe 7502 963e 741c 0b3f 80fe 6abf
00000310: 7b9d e3bd b753 07bf 640a 923e 424d 53be
00000320: 384e 003f 06a3 61be 33d7 d5bd 814a a1be
00000330: 3088 523e c0d6 393e d7ae 4ebd 2e59 9cbe
00000340: 4df9 973e 57df 4cbe 55bd 91be 4f62 0bbf
00000350: 05de 963d 4201 babe 5832 873e 8c30 3d3e
00000360: 6937 c63e ee1b 533f caf9 0dbe d45f c93e
00000370: 82f6 22bf a9cb 89bf 6bef 1a3e dd65 10bf
00000380: 72bb f53e 06d5 3dbe 7050 debe ac62 f5bd
00000390: 1ce0 303e 2226 c33e 2f4c 84bd 1e65 a53e
000003a0: 6b3f 3abe 4069 cb3e 25a0 133e 0be4 fa3e
000003b0: cbb0 c5bd 1d29 9dbd 63d7 d7be 63ed 863e
000003c0: b69c 643e f409 7a3d 6a99 b2be 4fba 063f
000003d0: 5448 873c 8c8e 083e dc99 d93e 5157 3d3f
000003e0: c834 243d 5cc6 283e c3cb 01bf 6ea4 0c3e
000003f0: 13f6 94bc 727e ac3e 50bb 19be 529b bd3e
-0.44151276 0.037942436 -0.33545837 -0.44592783 -0.17951259 0.025259044 -0.60446465 0.77668697
-0.036625672 0.036118068 0.31442282 0.3881633 -0.62205774 -0.3903572 0.55626297 -0.28021562
-1.0077074 -0.74078834 0.20593414 -1.2031847 0.23570314 0.29381806 -0.28612536 0.1436229
0.12482182 -0.3250997 0.4537198 -0.2993835 0.23401229 -1.0043222 0.30335882 -0.9722851
0.03567013 -0.09296478 -0.2239267 -0.18154347 -0.07537982 -0.049065772 -0.13921249 -0.002927971
-0.051740944 0.08476746 -0.012272965 0.017483123 -0.24473108 -0.0466201 -0.18444622 -0.04226002
0.50524384 0.011580458 0.11851205 0.6777081 -0.010215209 -0.32361904 -0.72271585 -0.1025593
0.061710186 -0.2716271 0.79456633 -0.43411356 0.20878053 -0.53066427 0.3339605 -0.39603865
-0.18605255 -0.22046788 -0.29210088 0.55155814 0.10589999 -0.4019571 -0.10249803 -0.39706802
0.25113887 0.3024973 -0.24782893 0.09593315 -0.16158113 -0.20073482 0.17629628 0.29511246
-1.1073389 -0.23307648 0.48966497 -0.50545585 0.098023884 -0.8393217 0.07737702 -0.57854885
-1.1276056 -0.5852736 0.18426245 0.099861324 -0.3511038 0.14351682 -0.16770706 0.37598604
-0.6507898 0.33266312 0.038672127 0.7105968 -0.24071874 -0.07838494 0.08998276 0.041168604
-0.046207443 -0.61177325 -0.0761515 0.5308228 0.19795904 -0.54175955 0.4272658 0.0130757755
0.83699936 -0.5164804 -0.4209599 0.01844733 0.41137102 0.037243653 -0.1586208 0.33072346
-0.35653067 -0.09728489 0.5538283 0.6442628 -0.0470378 -0.13975616 0.03313854 -0.26169002
0.13774525 0.39997905 0.4877269 -0.67017245 -0.28594214 0.39306334 0.6065834 0.22382477
0.19197437 -0.40240702 0.31508046 -0.3616275 0.41284063 0.4769505 -0.4799136 0.16714734
-0.0023268447 -0.5252952 0.4541356 -0.12141184 -0.05459088 -0.26782832 -0.63685715 0.3626994
-0.47312036 -0.3533027 0.2484639 -0.2450907 0.28403988 -0.004792624 0.5447886 -0.39283103
-1.0525329 -0.46490964 0.475175 0.5166787 0.0666833 -0.13375233 0.7081045 -0.21112996
-0.116213344 -0.16204272 -0.61377376 -0.5305808 0.53843945 -0.8314306 0.6047618 0.15730605
0.050866663 0.094004415 0.5372751 0.18573062 0.4592261 -0.5987262 0.1354708 -0.55568767
-0.5224909 0.5610288 -0.14367566 -0.27953035 0.53259194 -0.09469784 -0.04778009 0.8226085
-0.4582092 0.2929875 0.5434029 -0.91794586 -0.111140214 -0.52862114 0.28523552 -0.2063494
0.5011935 -0.22034845 -0.104414366 -0.31502154 0.20559764 0.18148327 -0.05045971 -0.3053679
0.2968239 -0.20007072 -0.2846476 -0.5444688 0.073665656 -0.36329085 0.26405597 0.1847555
0.3871415 0.8246449 -0.13864818 0.39330924 -0.6365739 -1.0765277 0.15130393 -0.5640543
0.47994572 -0.18538293 -0.43420744 -0.11981711 0.17272991 0.3811503 -0.06459843 0.3230371
-0.18188255 0.39728737 0.14416559 0.49002108 -0.09652861 -0.07673857 -0.42156515 0.26352987
0.22325405 0.06104465 -0.3488267 0.52628034 0.01651398 0.13335627 0.42500198 0.7396136
0.0400894 0.16481918 -0.5070154 0.137346 -0.018183744 0.3369022 -0.1501286 0.37032562

network.2.bias f4 [32]
00000000: 181d d33e 8245 273f ce0a 78be 1079 e1be
00000010: 77fd 8b3e 3d8a 413f a7f3 e13d ee49 eabe
00000020: b965 0abd 9abf 3b3f 6a65 babe 4592 8b3d
00000030: 2a61 a53e 9cb6 d4be f5ee a23e 23ef cabe
00000040: f071 b9bc d4a6 65be 517f 6e3e dbf7 fb3d
00000050: aee3 a33e 8440 38be 7c60 363e 8944 bbbe
00000060: 13eb 04be 7164 58be 9de0 c8be 0df0 09bd
00000070: ce49 c83e 98ae 03bf 4d47 b23f 310c d93e
0.41233134 0.65340436 -0.24222872 -0.44037676 0.27341816 0.7560156 0.11032801 -0.4575953
-0.033788417 0.73339236 -0.36405498 0.06815008 0.32300693 -0.4154557 0.31822935 -0.39635572
-0.022637337 -0.22426921 0.23290755 0.12303134 0.32009643 -0.17993361 0.17810243 -0.36575726
-0.12980299 -0.21132065 -0.39233866 -0.033676196 0.39118809 -0.51438284 1.3928009 0.42392114

network.4.weight f4 [64, 32]
00000000: a010 a43f 116a d3be c6a3 83bd a123 49bf
00000010: c034 c73d aae4 bf3e 08f5 8dbe bedf 0a3f
00000020: d9a6 9cbe 8a0c 6f3f b6cf 2b3f 31a0 54bf
00000030: 7e45 10bf 020a 74bf e245 8abd 8319 1c3e
00000040: 2510 8d3e 3d18 c33c fc86 46bf 2176 8d3e
00000050: 22ae b3bd a2f2 cd3d 4258 a23d ff1c 4c3e
00000060: 7d6f 923d acb8 3cbd 5abf 65bd ac2a 6a3e
00000070: 2530 0fbd 5254 d8be 2e4b 903e 700a 4d3f
00000080: 844c 113e e312 ee3d fc10 bb3b c17c eabd
00000090: 1a67 d83c aad7 023e 40a8 aebd b85f 3fbe
000000a0: 883d 1abe 8ff4 ec3d acd5 23be 2e80 07be
000000b0: 0bf0 26be 8331 86bd 31a5 d6bd ff42 d23d
000000c0: 5402 f13d 3bc3 eb3c 3615 2cbe a23c b9bd
000000d0: e373 a53d 62fa 97bd b6a5 fdbc c8ec 22be
000000e0: f52f 91bd c18b 33be 7083 7a3a 03ea 98bd
000000f0: d9c8 f53d 741b 343d 4118 05be 7867 1fbd
00000100: 9551 a23e def4 55bf 4eda e0bd 7e37 dfbe
00000110: 7447 283e 15d6 d83b 5edc d5bc e937 01bd
00000120: 834a 0b3f 6e62 ce3e 7af1 a3be 4f8f e5bc
00000130: 8c1e c1bd 59b4 59be 6b0f 85be fc2b 223c
00000140: 8e46 c7bd b3cd cabd b795 99be 9341 c0be
00000150: e81d 383e 296b ac3d 5b39 a2be 12ce 883d
00000160: d246 cb3e 9989 973e 5f68 04be bd12 5cbd
00000170: 3e6d 2fbf 0547 d1bb 7328 e83e c9cf b63e
00000180: efd5 ecbe 1522 933e 9e03 0cbd c5a5 ba3e
00000190: ee03 143f 250d ad3e 1f6c 303f d02e dc3e
000001a0: a9da 273d fa9d 26be ef64 013f 3ac2 7f3e
000001b0: ad4b 0739 3195 cbbe d439 25bf 1e5c 40bf
000001c0: 66ce 193f 93a0 1f3e 438d 1fbf 3ba4 853e
000001d0: 330c f3be 4e4a e43e e994 4abd 9bae 2e3f
000001e0: a643 003c 1462 aa3e 6167 5bbe 4a85 a1be
000001f0: b976 a2bc 89d0 103e 185b 94bf d019 88be
00000200: 22e2 66bd cbc3 893d b9b0 22bd 7b35 083e
00000210: 78a5 e03c 6f33 92bd 2ef1 71bb f010 bebd
00000220: 3eae c7bd 488b 18bd 7ad7 09be dabb 4ebe
00000230: bc46 97bd 69c8 79bd 281e e83d eea6 0dbe
00000240: d74b 1cbc 1697 f7bd 50b7 07be 2f74 b83d
00000250: 5033 19be 1b0b aebc a4cb 36be e3a4 9bbd
00000260: fa1e 63bd 18a2 babd 0f2e d4bc 8f9b 5cbe
00000270: 6b13 84bd e316 b23d 28cd 1dbe a505 d23c
00000280: 5778 193f 0874 873d b3ae 61bd 045b 29bf
00000290: c5b3 a2be 8646 723f 4326 d5be 3536 203e
000002a0: 6d53 6b3e cb55 003f b066 52bf ee6e ed3e
000002b0: ca58 32bf 6287 2d3e c469 26be 2768 b83d
000002c0: 6178 aabe b527 fabd 6f40 abbe ed31 17bf
000002d0: 2fc3 853e 7975 ccbd 9a64 e33e e4d0 d83d
000002e0: 67da eb3e 2c4a 383e 028f 53bf a913 17be
000002f0: 8516 ebbe 63eb 4ebd f457 ca3c a857 013f
00000300: a64f 17bf de5b 8ebe 6d50 2a3e 4753 7f3f
00000310: ebcb 9bbe 7e49 9ebe 9f06 ed3e 831a 8c3e
00000320: 9531 aa3e 6df3 4bbf 8cda 413f 033b 29be
00000330: f378 f2be a4eb cf3e c513 103f 6768 a43d
00000340: 0c51 41be e47e 97bd 5bee 29be d7f4 41bc
00000350: a632 2abf 4875 c33e 6c8e 9cbe 8c01 dfbd
00000360: 78b2 20bf 0422 5fbe 3080 f23e 972e 153f
00000370: cfa2 81be 5c28 e2be c5b2 f9be eead 063e
00000380: 2b12 033f 5327 32be bc7f 263d f60e dc3c
00000390: 0d22 2b3e d2d8 823e 98fc 12b9 011c 7f3f
000003a0: 44fb 7ebf ac83 c2be a889 273f 548e 083f
000003b0: 8e68 e53e a1df 39bf b166 62be 5058 e8be
000003c0: c0cb e6b9 4edb 763d 48de 113f c5e3 1c3f
000003d0: f30c aa3e c1cb 16bd 0963 a2be 8ed5 d2be
000003e0: 4e98 32be b887 abbe 7174 23bf afdd 9d3e
000003f0: 15c6 01bf ec1a 2e3f 92b7 73be 2fff 933b
1.2817574 -0.4129186 -0.06427722 -0.7856999 0.09726858 0.37479144 -0.27726007 0.54247653
-0.30596045 0.9337851 0.67113817 -0.8305693 -0.56356037 -0.9532777 -0.0675161 0.15244107
0.2755138 0.023815269 -0.7754972 0.27629188 -0.087734476 0.10056044 0.0792699 0.19932936
0.07150171 -0.046074554 -0.05609069 0.2286784 -0.034958024 -0.4225183 0.28182358 0.8009405
0.14189345 0.11624696 0.005708812 -0.11449576 0.02641635 0.12777582 -0.08528185 -0.18688858
-0.15062535 0.11570083 -0.15999478 -0.1323249 -0.16302507 -0.06552412 -0.104807265 0.10266685
0.11768022 0.028779617 -0.16804966 -0.09044768 0.08078744 -0.074208036 -0.030962806 -0.15910637
-0.07089225 -0.1753378 0.0009556329 -0.07466509 0.12001199 0.043971494 -0.12997533 -0.038917035
0.31702867 -0.8357676 -0.10979138 -0.43597025 0.16433507 0.0066173174 -0.026106056 -0.03154746
0.5441057 0.4030947 -0.3202017 -0.028022436 -0.094296545 -0.21260203 -0.25988325 0.009898182
-0.09730254 -0.09902515 -0.29997036 -0.3755003 0.17980158 0.08418877 -0.31684384 0.0667993
0.3970247 0.29597166 -0.1293044 -0.053728808 -0.68526065 -0.00638664 0.4534336 0.35705402
-0.46256968 0.2873694 -0.034183137 0.36454597 0.57818496 0.3379909 0.6891498 0.43004465
0.040980015 -0.16271201 0.5054464 0.24976435 0.00012902795 -0.39762262 -0.64541364 -0.7514056
0.60080564 0.15588598 -0.62324923 0.2610186 -0.47470245 0.4458794 -0.049458418 0.68235177
0.007828629 0.33277953 -0.21426155 -0.31547004 -0.019832002 0.1414205 -1.15903 -0.26582193
-0.056368 0.06726798 -0.039719317 0.13301651 0.027422652 -0.071387164 -0.0036917436 -0.09280574
-0.09750031 -0.037242204 -0.13461104 -0.20188847 -0.073865384 -0.06098214 0.11333877 -0.1383321
-0.009539566 -0.12089364 -0.13253522 0.09006535 -0.1496098 -0.02124553 -0.1785112 -0.07599809
-0.055449463 -0.09112948 -0.025900869 -0.21543716 -0.06449016 0.086957715 -0.15410292 0.025637457
0.5994925 0.06613928 -0.055098247 -0.66154504 -0.31777778 0.9463886 -0.41630754 0.15645678
0.22981043 0.5013091 -0.8218794 0.46373695 -0.6966673 0.16946176 -0.16251284 0.090042405
-0.33294967 -0.12214605 -0.33447596 -0.59060556 0.26125476 -0.09983344 0.4441269 0.10586718
0.46065065 0.17997044 -0.8264009 -0.14753594 -0.4591562 -0.05051745 0.024700142 0.5052438
-0.5910591 -0.27804464 0.16632243 0.99736446 -0.30429015 -0.30915445 0.46294114 0.27363977
0.33240953 -0.79668313 0.757241 -0.16526417 -0.47357902 0.40609467 0.56280166 0.08027726
-0.18878573 -0.07397249 -0.16594832 -0.0118381595 -0.66483533 0.38175416 -0.3057741 -0.10888967
-0.6277232 -0.2179032 0.47363424 0.58274215 -0.25319526 -0.44171417 -0.48769203 0.13152286
0.511996 -0.17397813 0.04064916 0.026862603 0.16712208 0.25556046 -0.00014017744 0.99652106
-0.9960215 -0.37991083 0.6544442 0.53342175 0.4480633 -0.72606856 -0.22109486 -0.45379877
-0.00044020824 0.06026774 0.569798 0.6128505 0.33213004 -0.03681541 -0.31716183 -0.41178554
-0.17440912 -0.33501983 -0.6384955 0.30833194 -0.50692874 0.6800983 -0.23800495 0.0045165042

network.4.bias f4 [64]
00000000: 7c8c 34bf 4ffa 73bd 306c fc3d f082 22bf
00000010: 35f3 d1bd 9236 15bd 38e3 07be b1a7 913e
00000020: 2653 143f 7f4e 82bd e19d 2fbf 9566 803e
00000030: 47e2 3bbe 3ade 29bd 6a83 cd3e db6e a83e
00000040: d5e5 1f3d 79ba 19be 2cb6 0d3e 0751 033e
00000050: e1aa 3ebe e369 00bf 35aa e33d b02f 123f
00000060: ead1 1abe 4318 573d d863 6d3e 4aa3 ab3e
00000070: e818 8c3e 0776 0abf 8ca8 9f3e 8907 41bd
00000080: 7f75 bc3e 5fc4 2c3e e8c0 793e 29fe 073f
00000090: 3f92 f13e 5810 c43e 1df9 99bc 1d98 103f
000000a0: a2f0 4d3e 50e4 ad3e f9d9 ce3d faa9 77be
000000b0: fb1f 433d 5302 d93e 1f53 0c3f 0d69 073e
000000c0: 4845 98be 3340 48be ba36 4fbb 229a d03e
000000d0: 0e51 423f 0687 9d3e a3ec 173f d37d 56bf
000000e0: c1c3 93bd 6edb 2f3d 1045 a8be 53f6 c93e
000000f0: 9998 183f 4647 693e 5545 d43e ff55 003e
-0.7052686 -0.059564885 0.12325323 -0.63481045 -0.10251466 -0.036428995 -0.13270271 0.2844825
0.57939374 -0.06362628 -0.6860028 0.25078264 -0.18348037 -0.041471697 0.40139323 0.32897076
0.039037544 -0.1501254 0.13839024 0.12823878 -0.18619873 -0.5016157 0.11116449 0.57104015
-0.15119138 0.052513372 0.23182619 0.33523017 0.27362752 -0.54086345 0.3118328 -0.047126327
0.36808392 0.16871785 0.24389994 0.5312219 0.4718189 0.3829372 -0.018795544 0.56482106
0.20111325 0.3396325 0.10100169 -0.24185935 0.04763792 0.42384586 0.5481433 0.13223667
-0.29740357 -0.1955574 -0.0031618313 0.40742594 0.7590493 0.30767077 0.59345454 -0.8378574
-0.072150715 0.042933874 -0.3286519 0.39445743 0.59607846 0.22781095 0.41459146 0.12532805

network.6.weight f4 [64, 64]
00000000: f487 7e3d 5c50 d93a 49dd 963d 63c4 423d
00000010: 2395 0a3d 5bd9 ccbb 785e e83d a07e 253d
00000020: 6376 3a3e 876c 71bd c8a0 efbd 24a6 5f3e
00000030: 4c4d 7dbc 91d6 973e a9e2 e93d 1883 913e
00000040: 4d54 5bbd 045c 06bd bc91 dc3d 6241 123e
00000050: 6aed 82bd ffe0 1a3e 0065 cd3d bfb5 293e
00000060: 26f2 52bc 5153 39be 9005 913e 4414 033e
00000070: be93 133e 09f8 df3e 9d6c 09be f620 7d3e
00000080: 3aa0 483e fe3c 1b3e 15e6 d9bc f2d7 33bd
00000090: 8edd 903e ea07 a93e bdb2 6b3e aa74 363e
000000a0: be7a 073e 40b7 e6be 2a56 e63d 1a9e 7dbc
000000b0: 1909 de3c 7ea6 46bc 20e8 04be d5ba fc3d
000000c0: c6b2 883e 358d 0a3e 1c6b 983e d532 523d
000000d0: c4de 65be db0c e93c a4c3 dbbe a4ff dd3c
000000e0: ec8b 35bd 7fac 8e3b c6ba 3c3d d5d6 2a3e
000000f0: da66 d93c 147d 3dbd da44 353e 843e 453d
00000100: 7cd7 70bc e587 673d e410 8f3d dc50 843e
00000110: 602c f1bd d507 29bf 6d54 623e 8554 ed3d
00000120: b9ca 4fbe 8241 d03c ba2b 78be af13 913e
00000130: bf69 9d3c c77f 10be a21b 803e 46f1 b33d
00000140: 3803 e0be a7b1 e73b a0c2 e83d 981f 3e3e
00000150: 2208 c13d 7ae0 ed3d 54ab cd3e 114f fb3c
00000160: fe12 79bd 8617 35bf 45d4 70be 0c99 9d3e
00000170: eb6a acbe 66f1 6bbe afb4 11bf 3a8e 5c3e
00000180: 6607 7fbe 3d07 423e 3947 54be cf22 db3d
00000190: b6a1 083e ccf7 4ebe 14b7 0b3f 4334 a13d
000001a0: 8076 903e 8bfb 6dbe cef4 d03e ad14 36bd
000001b0: b261 71be 485d 69b8 dd98 183e 01eb 923c
000001c0: a02c 143f 2ed0 9ebd c242 593e ea5b 493e
000001d0: 87c0 5c3c 1ef3 1bbe 5d71 1bbf c79d c0bd
000001e0: 0b06 5abf c982 cfbd 52d3 73be 1530 6dbf
000001f0: b228 c7be c0e6 eabd 29ad 9a3e 240f ccbe
00000200: ce59 84be b03c 63bd e837 fcbb d00b 5e3d
00000210: 7357 c53d 9b00 ee3d 0775 8a3e 724d 8ebe
00000220: 9cee 2b3e 63ad 093e 9ec2 54be b1b2 2b3e
00000230: d006 8dbd e870 5e3e e22f 253e 7351 833e
00000240: 137e 0ebe 689d 8c3d dbf8 8e3e 90d1 a13d
00000250: d464 6dbd 8764 173d 4e81 a0bc bff6 f43d
00000260: eef1 d43d cc29 d9bd d667 b83d 54ff 053d
00000270: e6a5 653d 4267 e33d f2a9 00be 423c 823e
00000280: 9b33 143e e561 d43d 557b 0cbd 8acc ffbe
00000290: 2dd1 bd3e 2396 943d 0bfa 023e bbbd 9c3e
000002a0: 7b5d db3d c16d 243e 192f 863e edc1 a9bd
000002b0: f301 833d a3ac 173e 4efe a9be 08d0 743e
000002c0: 4c60 b33e 2967 153e c676 9d3e 7cd7 1fbd
000002d0: 3c47 34be ed85 523c e27e b5be 587e d2bd
000002e0: 5173 1d3e cbff 5abd 4e2b 823d a154 603e
000002f0: 1272 69bd 8287 52bd 6e3e 983d 1d27 0c3e
00000300: 6e56 043e c469 cb3d 590d 6dbe 7d42 02bf
00000310: 7f9f f1bc 157c ee3e 6b79 c93e 8a23 68be
00000320: 5217 543e 5c3f cf3c fe35 e8bd a8bb 953e
00000330: 0461 5d3d b930 93bd 590a f239 ca9c 953e
00000340: ad89 1a3f 432b 44bc 212d 573d 12d0 303f
00000350: 0ab9 1ebd 8b2a e33e 98fe 543e dfb7 b3be
00000360: 24d6 2a3d fdc8 5bbf 9ed0 8bbd 5f27 f23e
00000370: 1073 2ebf f7cd 8dbe 1052 05bf d328 ce3e
00000380: d483 db3d 2aad c33d cb0c 36bf 8846 8fbf
00000390: 384d d0bc 2e63 48be 09db 35bd bc4f 1abe
000003a0: ea86 5fbd 4aae 4ebf 63b6 b33d ad3d b93d
000003b0: 4c0a 70be 5734 c33d 1bc2 53bf b3e1 6b3f
000003c0: 8b69 c73e 818f 4dbf 5d65 16bf cbab 44be
000003d0: d9ee 403d 3378 763d ae8e 5dbf ad52 c13e
000003e0: c11c d0bf 8a27 a43d ae74 54bf ce16 783e
000003f0: dc4e a43d 2083 b4bf 5aac 253e cb0b 35be
0.062141374 0.0016579735 0.073664255 0.04755057 0.033833634 -0.0062514967 0.113461435 0.040403962
0.18209223 -0.05894139 -0.117005885 0.21840721 -0.015460324 0.2965589 0.11420185 0.2842033
-0.053547192 -0.032802597 0.10769984 0.14282754 -0.063929394 0.15124892 0.1002903 0.16573237
-0.0128751155 -0.18098189 0.28324556 0.128007 0.14411828 0.43743923 -0.13420339 0.24719605
0.19592372 0.15159985 -0.02659897 -0.043907113 0.28294033 0.3301385 0.23017402 0.17817941
0.13230416 -0.45061684 0.11246903 -0.015479589 0.027103947 -0.012124656 -0.12979174 0.12340323
0.26698893 0.13530429 0.29769218 0.05131801 -0.2244826 0.028448513 -0.429227 0.027099438
-0.044322893 0.004354059 0.04607656 0.16683514 0.026538301 -0.046261862 0.17702046 0.048155323
-0.014699813 0.056526083 0.069856435 0.2584294 -0.11776042 -0.66027576 0.22102518 0.115883864
-0.20292176 0.025421862 -0.2423543 0.2833533 0.019215463 -0.14111243 0.25021082 0.08786254
-0.43752456 0.0070707384 0.11365247 0.1856674 0.09425379 0.11615081 0.40169775 0.03067735
-0.060809128 -0.7073902 -0.23518474 0.30780828 -0.33675322 -0.23041305 -0.56916326 0.2153863
-0.24905166 0.18948074 -0.20730294 0.106999986 0.13342938 -0.20211715 0.5457623 0.07871296
0.28215408 -0.23240487 0.4081177 -0.04445331 -0.23572424 -5.5638404e-05 0.14902063 0.017934324
0.5788059 -0.07754551 0.21216872 0.19663969 0.0134736365 -0.1522946 -0.60719854 -0.09405094
-0.8516547 -0.10132367 -0.23811081 -0.9265149 -0.38898236 -0.11469793 0.30210236 -0.398553
-0.25849766 -0.055477798 -0.007697094 0.054210484 0.0963582 0.11621209 0.2704241 -0.2779346
0.16790241 0.13445048 -0.20777366 0.16767384 -0.06886065 0.21722758 0.16131547 0.25648078
-0.13915281 0.0686596 0.27924237 0.07901299 -0.057957485 0.036961105 -0.019592907 0.119611256
0.10397707 -0.10603675 0.0900418 0.032714203 0.056066416 0.11103679 -0.12564829 0.25436598
0.14472811 0.103702344 -0.034297306 -0.49960738 0.3707365 0.07255199 0.12790696 0.30613503
0.10711189 0.16057493 0.26207808 -0.082889415 0.06396856 0.1481195 -0.33201832 0.23907483
0.35034406 0.14590134 0.3075468 -0.03902386 -0.17605299 0.012849313 -0.35448366 -0.102780044
0.15376021 -0.0534666 0.06355916 0.21907283 -0.05699355 -0.05139876 0.074337825 0.13686796
0.12923595 0.099322826 -0.23149623 -0.50882703 -0.029494999 0.46579042 0.39350447 -0.22669807
0.20712021 0.025298767 -0.11338423 0.29244733 0.0540476 -0.071870275 0.00046165547 0.29221183
0.60366327 -0.011973205 0.052533273 0.6906749 -0.038750686 0.44368395 0.20800245 -0.3510122
0.041708127 -0.8585356 -0.068269 0.47295663 -0.6814432 -0.276962 -0.5207834 0.4026552
0.107185036 0.09554513 -0.7111327 -1.11934 -0.025427446 -0.19569084 -0.04439834 -0.15069479
-0.054572023 -0.80734694 0.08775022 0.09044967 -0.23441428 0.095314674 -0.82718056 0.92141265
0.3894771 -0.80297095 -0.5874842 -0.19206159 0.047102783 0.060173225 -0.86545837 0.3775839
-1.6258775 0.08015354 -0.8299054 0.2422745 0.08022854 -1.4102516 0.16179028 -0.1768028

network.6.bias f4 [64]
00000000: d849 2c3f b885 1a3f c827 2c3f b3a0 283f
00000010: 75d9 9e3c 5fdd 263f d671 93bd 612d 153f
00000020: 53e2 dcbd 2d8d 7bbd b1a5 353f 804a e4bd
00000030: 2510 37be b892 7abd dd8b c63e 63ea ff3e
00000040: 6d7e 0ebe 4f94 153f d947 0a3e 26a8 f03d
00000050: 1f83 dbbd cf0d 4cbc 44af c83e 0b7a 383f
00000060: f874 e83e 4fa2 913a 08cf 34bd 4146 9ebd
00000070: d13e ea3e 2f1f a2bd a92e 5f3f 2366 27be
00000080: 2b54 fd3e bee8 2fbe ac36 f73e a06d 5cbd
00000090: bc99 b6bd 8ed1 6e3e b5f2 1f3f 5355 e43e
000000a0: b6aa 37be 3e01 d73e 029e 183f 4b9d 253f
000000b0: dd03 12be fa16 a0bd 08c6 e5bc d116 5bbc
000000c0: 426e ebbd 7f09 17be a57f 003f d3a5 1c3f
000000d0: 114f 023f cc3e 1d3f 3e2a 363f 61d7 173f
000000e0: a9d3 e2bd 2c7d 63bd 857f 4bbd eaec 633f
000000f0: 1e57 17be 33d7 473e 1bc3 b3bd 1ce1 acbd
0.67300177 0.6036029 0.672482 0.6587021 0.019390801 0.65181535 -0.07199447 0.5827237
-0.107853554 -0.061413933 0.7095595 -0.11147022 -0.17877252 -0.06117508 0.38778582 0.4998351
-0.13915415 0.58429426 0.1350397 0.11750822 -0.10718369 -0.012454464 0.39196217 0.7206122
0.4540174 0.0011110994 -0.044142753 -0.077282436 0.4575105 -0.07916104 0.8718057 -0.16347556
0.49478278 -0.17178628 0.482839 -0.053815484 -0.08916041 0.23322126 0.62479717 0.44596347
-0.17936215 0.41993135 0.596161 0.64693135 -0.14259286 -0.078168824 -0.02804853 -0.013372139
-0.114956394 -0.14749716 0.5019477 0.6119053 0.50901896 0.61423945 0.71158206 0.5931302
-0.11075527 -0.055539295 -0.04968216 0.8903338 -0.14779326 0.19515686 -0.08777448 -0.08441374

network.8.weight f4 [21, 64]
00000000: 6a3c c33e 3d96 213e c2d2 803e 5763 313f
00000010: 27c9 603d fda3 653e 40be c7bd d7bd 4a3e
00000020: f8a5 febd 29f6 97bc 0922 d63e 6892 18bd
00000030: 2672 243d ce74 0c3c c12b d03d 5c48 943f
00000040: 512e 1dbe db1d 133e 8308 29bf 6feb 88bf
00000050: 04ef 62bb 51d1 033f 077e 083e 75ae 8c3e
00000060: 0966 543e 92ff 9fbd 2048 f2ba 38d1 a8bd
00000070: 2854 813e 6f11 263f c76e 8abe ae90 cbbd
00000080: 40cb 003f 8c22 e33d d485 9abd 8b09 47bc
00000090: 3b5f f7bd 7a86 c33e 2309 0bbf b01f 783e
000000a0: caff 45bf 0da8 013f 39d2 8b3e 7586 d03e
000000b0: 15d7 41bd 2e3f c3bc aade 3abc f595 13bf
000000c0: 579c 99bb 9291 123e dbe6 533e 5154 743e
000000d0: fb4c 263e 8272 783e 68e0 433f 5b50 de3e
000000e0: c988 3b3d 27dc debc f96b babd 210f 723e
000000f0: 48f8 503d 830f 4bbf 0828 2b3d 2105 b6be
00000100: 926d c53e a210 4d3e 4153 b33e 0394 253f
00000110: 4931 e7bc b722 073e e145 2abd 51e4 713e
00000120: de3e a93d 417c f23d 0e59 973e 1410 22bd
00000130: c0a5 20bd b5bf 553d c4e6 de3d 0a31 6d3f
00000140: 24c4 14be 5e7e 2a3e 767d 2abf 3f60 79bf
00000150: da5c 863d 4388 ea3e 060b ff3d 17a9 793e
00000160: 61d7 6c3e 1106 c0bd 3605 a4bd c209 e43d
00000170: 202f 993e 958e 133f d3d2 65be 563c 15bd
00000180: d764 e03e cc40 1e3d da42 6dbd 7073 0abd
00000190: a48e 99bd 3450 b93e 2ce4 11bf d81f 8c3e
000001a0: cd88 45bf 6762 f33e f144 733e c9c5 c93e
000001b0: 9048 d03d 007b 553d 764b 79bd a9f1 22bf
000001c0: ca04 40bd 2d19 473d 23f8 8e3e 23fe 893e
000001d0: 6fc0 193e e056 443e 2c74 363f 548a d63e
000001e0: ce7d be3d 5d90 a6bc b121 473d c83f 643e
000001f0: 2886 f93c 5b3f 46bf 4021 523b feba eabd
00000200: 1756 b93e 29ee 6c3e 60a9 913e 9509 363f
00000210: 57bb 5a3c 6d00 483e fb1e 9fbc 769d 743e
00000220: 8081 b53b 77a6 a3bc 03ce a23e 98d5 b1bd
00000230: 408d 43bb b475 3f3d 9fc7 363e 1e01 653f
00000240: f3f9 843d 99b2 3c3e 5958 28bf 481a 6fbf
00000250: b0d7 81bc 6664 e23e 35f4 083e 7184 6c3e
00000260: c629 043e 68a9 123c b975 1b39 a00b ac3c
00000270: 0957 353e 47b8 0f3f 5ac1 52be 5303 163d
00000280: e80c d13e 688c 98bd f20f a2bc f107 0dbd
00000290: 88c0 8cbd f250 c63e a84f 19bf fb1f 933e
000002a0: 1384 3fbf 65df e33e 84ef 4d3e f51d cc3e
000002b0: 4022 9cbb 54c3 e4bd 5178 3cbd b8a3 1ebf
000002c0: 66cc 03bd 866c 8abd 4791 753e f631 a23e
000002d0: 6f8b c33d 3182 973e 0148 403f add0 d43e
000002e0: 25c4 f53c cbba 493e c4d8 a3bd 0c30 773e
000002f0: 8873 f93d 000b 35bf 8e51 f5bd 3594 a7be
00000300: c322 bf3e d632 533e 0a55 993e 66c8 2b3f
00000310: 5f81 ea3b 58c0 313e 0f03 23bd d123 533e
00000320: 2a95 f83d 61e0 96bc 3dbc 963e 9c49 0f3d
00000330: 58a6 7dbd e2df f1bd d495 fe3d 3e8e 603f
00000340: d8ff 873c aff2 7e3e 0442 31bf 47ec 65bf
00000350: 1ebc b2bd c6f2 d63e 034e 1f3e 336a 973e
00000360: a2f7 a03d 1671 bd3d 4938 9d3d eea3 d5bd
00000370: f26d 873e bb06 fe3e 180b 10be 24ec 00be
00000380: 6f47 c03e dc55 0d3d 33ee 483d f15f 93bc
00000390: 80a0 e33a 49e1 d23e 0049 1bbf ebd4 8a3e
000003a0: 0ced 3abf 6e26 e93e b78c 593e 1184 a73e
000003b0: 257a e4bc 58e2 f63c 2d73 d2bd 8d56 28bf
000003c0: 54f1 213d 366f 873d fff7 503e 1cfc 833e
000003d0: ea74 703e 5eb7 a43e f6cd 323f 175c c83e
000003e0: 46c4 b53d d05a 243e 7c80 6c3c 117a 783e
000003f0: 8e23 82bd 6322 40bf 90ee d93c 1dec 7e3e
0.3813203 0.15779968 0.25160795 0.69292206 0.054879334 0.22425838 -0.09753084 0.1979898
-0.12434 -0.018549995 0.41822842 -0.037249 0.040147923 0.00857277 0.101645954 1.1584582
-0.153497 0.14366858 -0.6602861 -1.0696849 -0.0034627328 0.51491266 0.13329326 0.2747685
0.20742048 -0.07812418 -0.001848463 -0.0824303 0.2525952 0.6487035 -0.2703764 -0.09939705
0.50310135 0.11090574 -0.07545057 -0.012148271 -0.12078711 0.38188535 -0.54310817 0.24230838
-0.7734343 0.5064705 0.27308825 0.40727583 -0.04732426 -0.023833837 -0.011405626 -0.5765069
-0.0046878266 0.14313343 0.20693533 0.23860289 0.16240303 0.24262431 0.7651429 0.4342068
0.045784745 -0.027204586 -0.091026254 0.23638584 0.05101803 -0.79320544 0.041786224 -0.35550788
0.38560158 0.20025876 0.35024455 0.6467897 -0.028221743 0.13196836 -0.041570548 0.23622252
0.08263944 0.11840106 0.2956013 -0.039566115 -0.03922057 0.05218478 0.10883859 0.9265295
-0.14527947 0.16649768 -0.6659769 -0.97412485 0.06560679 0.45807084 0.124532744 0.24380909
0.23129036 -0.09376157 -0.080088064 0.11134674 0.29918766 0.5763944 -0.22443704 -0.036434494
0.43826935 0.038636014 -0.057925083 -0.033801496 -0.0749791 0.36194003 -0.5698879 0.27368045
-0.77161866 0.47536013 0.23756768 0.3940871 0.1017009 0.052119255 -0.06086298 -0.63649994
-0.046879567 0.048607994 0.27923688 0.26951703 0.15014814 0.19173765 0.71271014 0.4190241
0.09301339 -0.02033251 0.048616115 0.22289956 0.030459478 -0.7744042 0.0032063276 -0.11461447
0.36198494 0.23137726 0.28449535 0.7110837 0.013350329 0.19531412 -0.019423952 0.23888192
0.0055391192 -0.019976838 0.317978 -0.08683318 -0.002983883 0.04674311 0.17849587 0.8945483
0.064929865 0.18427505 -0.6575981 -0.93399477 -0.015849918 0.44217223 0.13374408 0.23097397
0.1290656 0.008951522 0.00014825807 0.021001637 0.17708983 0.5614056 -0.2058157 0.036624264
0.4083016 -0.07448655 -0.019782994 -0.0344314 -0.0687266 0.3873363 -0.5988717 0.28735337
-0.74810904 0.44506374 0.20110899 0.39866605 -0.004764825 -0.111700684 -0.04601318 -0.61968565
-0.03217735 -0.067589805 0.239812 0.31678742 0.09548079 0.29591516 0.7510987 0.41565457
0.030000756 0.19700162 -0.08000329 0.24139422 0.12180239 -0.7071991 -0.11978446 -0.3273026
0.3733121 0.20624861 0.29947692 0.6710266 0.0071565355 0.1735853 -0.03979784 0.20619132
0.12137826 -0.01841754 0.2944049 0.03498231 -0.061926216 -0.118102804 0.12430921 0.87717044
0.016601488 0.24897264 -0.69241357 -0.89813656 -0.08727287 0.41982096 0.15557103 0.2957321
0.07859732 0.09250085 0.07676751 -0.10431658 0.2645107 0.4961451 -0.14066732 -0.1259008
0.375545 0.03450571 0.04905529 -0.017990084 0.0017366558 0.41187504 -0.60658264 0.2711557
-0.73017955 0.45537132 0.21245085 0.32717946 -0.027890274 0.030137226 -0.10275874 -0.65757066
0.03953679 0.06613009 0.20407103 0.25778282 0.23482099 0.32171148 0.6984552 0.3913276
0.08875327 0.16050267 0.01443493 0.24265315 -0.06354438 -0.7505247 0.026603013 0.24894758

network.8.bias f4 [21]
00000000: 80c8 f13e 37ca 213f 3be3 113f 3e01 203f
00000010: c468 1a3f cc84 113f 72e2 283f 79a3 1e3f
00000020: 23c9 1a3f 3206 2f3f db8d 173f 2b43 003f
00000030: 26d6 223f 221f 353f bf9f 1d3f 5368 153f
00000040: 6d75 433f 7a0b 433f 68cc 453f 8bb7 333f
00000050: d8b7 163f
0.47223282 0.6319918 0.5698735 0.62501895 0.6031611 0.56843257 0.6597053 0.6196819
0.6046316 0.6836883 0.5920083 0.5010249 0.63608015 0.7075063 0.6157188 0.5836231
0.7635105 0.76189387 0.77265024 0.7020194 0.58874273
