double_pendulum_config/models/model_1026.pth (torch, 35975 bytes, 10 tensors)

network.0.weight f4 [16, 6]
000000 45 a9 55 bf 1e 09 b3 be e8 e6 57 3d 23 d3 4c 3d
       -0.8346141 -0.34967893 0.052710444 0.050006043
000010 20 81 55 bf 98 ea 7d bc ae 91 25 bf 19 29 0c 3e
       -0.83400154 -0.015497826 -0.64675415 0.13687553
000020 45 b1 2e 3e 0b e0 10 3e 51 71 ef be 33 54 47 3e
       0.1705981 0.14147966 -0.4676614 0.19465713
000030 2d c0 5f bf 44 5b 2b be 6b 9b 8e bc 5d 77 bb be
       -0.8740261 -0.16734034 -0.017408093 -0.36614504
000040 1d b0 29 3f 78 cb 03 3d 52 6f 37 3e f1 40 8e 3f
       0.6628435 0.032176465 0.17913559 1.1113569
000050 b8 b7 b7 3e c7 a7 91 3e a8 5b 23 bc 19 4c ee 3d
       0.35882354 0.28448316 -0.009970583 0.11635608
000060 9d 97 d7 be a0 e2 5c 3f d9 02 14 be 07 5a 8d be
       -0.4210786 0.862833 -0.14454211 -0.27607748
000070 3a b4 f2 3e fb f2 ac 3d 69 d9 0b 3f 3c cd 9b 3f
       0.47403127 0.08444782 0.54628617 1.2172008
000080 82 b6 0c be f3 0d 2b bf 1e b9 05 3f 2e b3 21 be
       -0.13741496 -0.6681816 0.5223559 -0.15791008
000090 8d c1 3e be d4 0c 44 bf 07 66 ca be 98 9e 6e bd
       -0.18628521 -0.76582074 -0.39530966 -0.058256716
0000a0 07 d8 4b bf f2 2d 08 3c 02 53 e3 3d ee bd 8f bf
       -0.79626507 0.0083117355 0.11099817 -1.1229837
0000b0 3d d7 5b be 18 a0 0c be d2 e4 3a be 1c 76 97 3d
       -0.21468826 -0.13732946 -0.1825135 0.073955745
0000c0 44 23 82 bf 88 74 e4 3e ba 98 b8 bd 5b 24 75 3f
       -1.0167012 0.44620156 -0.09013505 0.957586
0000d0 fa 7e 11 3f 92 c2 2e be 42 7b f0 3e 4d a9 7d bf
       0.56834376 -0.1706641 0.46969038 -0.9908646
0000e0 94 25 d2 3d 71 61 90 bf 72 98 1c be f9 c9 79 3e
       0.10261074 -1.1279737 -0.15292528 0.24393453
0000f0 fa 06 15 3e e6 2b b0 bf b4 47 6e be cc fe e9 bd
       0.14553443 -1.3763397 -0.2326954 -0.11425552
000100 87 b1 2e 3f be be b4 3b 55 e1 b9 3e cd 9d 06 3e
       0.68239635 0.0055159023 0.36304727 0.13146134
000110 30 20 d0 3e 94 1e e8 3d 17 12 5c 3f c1 e8 21 3e
       0.40649557 0.11333957 0.859651 0.15811445
000120 e2 d7 e3 3e 87 af b4 bf a3 9d 38 bc 3e b3 49 3e
       0.44500643 -1.4116067 -0.011268052 0.19697282
000130 8d 18 ea be a6 ee e8 bd 90 e7 10 bf 0b 04 72 3f
       -0.45721856 -0.113736436 -0.56603336 0.9453742
000140 b9 a0 53 3e 39 b7 12 bf 56 93 ec 3e ea 28 2a 3b
       0.2066678 -0.57310826 0.46206158 0.0025964328
000150 df fc 9d 3c 42 6f c9 3e 7f 79 1b be f0 81 0f bf
       0.019285617 0.39342695 -0.15183066 -0.56057644
000160 44 09 5a bf d8 d1 89 be 0d 80 ab 3e 3a 90 8c be
       -0.8517039 -0.2691791 0.33496132 -0.27453786
000170 06 2b 23 3e c3 67 c1 3c f6 9f 1f 3f da ed 3d be
       0.15934381 0.023609048 0.62353456 -0.18547764

network.0.bias f4 [16]
000000 c2 08 5e be 33 6c 1d 3e 0d 35 77 3e 47 3c ae 3e
       -0.21683028 0.15373306 0.24141331 0.34030363
000010 4c b3 f0 3d 22 f3 72 be f5 45 94 be 1d d6 e4 bc
       0.11752948 -0.2372556 -0.28959623 -0.027934128
000020 4c 44 24 be 66 8d 09 be 81 ed bd 3d 12 05 36 3f
       -0.16041678 -0.13432845 0.09273816 0.71101487
000030 bf 6c ad 3e d8 b3 e2 3d 1d bf de 3e cd e9 29 bf
       0.3387203 0.11069459 0.43505183 -0.66372377

network.2.weight f4 [32, 16]
000000 10 d5 82 be b1 a1 04 bd 31 ff 14 be 0c 14 a8 be
       -0.2555318 -0.032380763 -0.14550473 -0.32827795
000010 7d 8f 72 bd 04 47 62 3e c0 8a 13 be 00 10 c3 3e
       -0.059218872 0.22097403 -0.14408398 0.38098145
000020 68 7e 20 be 54 5c a6 3e 31 28 5d 3e 94 42 98 3e
       -0.1567322 0.32492316 0.21597363 0.29738295
000030 54 a1 fe be 32 07 dd be 8e 36 de 3e 56 6e 4c be
       -0.4973246 -0.43169552 0.43400997 -0.19963965
000040 7e ea 73 bf 5d 7c 15 bf dd db 36 3d f5 94 45 bf
       -0.9527968 -0.5839289 0.04464327 -0.77180415
000050 18 cd c6 3e cf 06 a3 3e 4f 35 cc be 9c 91 73 3e
       0.3882835 0.31841132 -0.3988442 0.23786014
000060 4c 79 e9 3d 15 a5 0a bf c8 8e b7 3e 47 29 b1 be
       0.11400089 -0.54158145 0.3585112 -0.34601805
000070 2f 90 9b 3e 82 d8 7f bf 37 cc 29 3e 30 1f 26 bf
       0.3038344 -0.9993974 0.16581808 -0.6489134
000080 d8 1a 12 3d 52 64 be bd 0a 4d 65 be 88 e6 39 be
       0.03567013 -0.09296478 -0.2239267 -0.18154347
000090 bc 60 9a bd 31 f9 48 bd b8 8d 0e be 34 e3 3f bb
       -0.07537982 -0.049065772 -0.13921249 -0.002927971
0000a0 50 ee 53 bd 90 9a ad 3d 8c 14 49 bc c4 38 8f 3c
       -0.051740944 0.08476746 -0.012272965 0.017483123
0000b0 c9 9a 7a be b8 f4 3e bd 78 df 3c be d8 18 2d bd
       -0.24473108 -0.0466201 -0.18444622 -0.04226002
0000c0 1d aa 05 3f 62 7d b0 3b 66 72 87 bd e1 18 cc 3e
       0.522127 0.0053860405 -0.06613617 0.3986273
0000d0 a2 2a b1 3d 3b 03 8a be 58 db 2d bf a1 5f 77 3d
       0.0865071 -0.2695559 -0.67912817 0.060393933
0000e0 de fe 7f 3d f8 30 00 bd 3a 85 10 3f 8e 4c 96 be
       0.06249892 -0.0312967 0.5645329 -0.29355282
0000f0 da f6 bf 3d 2d b9 a7 be 42 74 66 3e 75 8e 49 be
       0.09373255 -0.32758465 0.22505286 -0.1968325
000100 1d d3 bd bd 2c 4d 86 be a4 a8 5f be 94 c4 ef 3e
       -0.09268782 -0.26230752 -0.21841675 0.46829665
000110 a0 8f 1c bd bc 87 9d 3d 64 7b 76 bd e2 b8 fc be
       -0.03822291 0.07691905 -0.06017627 -0.49359804
000120 d4 81 65 3e 1e 1c 3c 3e fb 5c b4 bd 5b ca af 3d
       0.22412807 0.18370101 -0.08806797 0.08583518
000130 ba 63 3e be 12 77 4c be b1 6b ae 3d b7 68 36 3e
       -0.1859273 -0.19967297 0.08516634 0.17813383
000140 1d 13 e6 be bd 7b 0f 3d 67 5e ba 3e e5 b7 5e be
       -0.44936457 0.035030115 0.36400148 -0.21749838
000150 61 f2 fa 3d ea ce 61 bf 16 6a 5c bc 38 ba 90 be
       0.12253261 -0.8820635 -0.013453027 -0.28267074
000160 e6 30 93 bf a4 12 37 bf ca dc 25 3e 63 0b 9a 3d
       -1.1499298 -0.7151282 0.16197506 0.07521703
000170 d4 ab c7 bd b5 5c 96 bc 3b fa 4f be fe fe 54 3d
       -0.097495705 -0.018354753 -0.20310299 0.052000992
000180 88 48 3f bf ef 63 6c 3e 85 e8 21 bd c7 76 f3 3e
       -0.7472005 0.23084997 -0.03952839 0.47551557
000190 99 b3 d2 be fb 23 fd bd ff 9e 81 3e 26 b8 4e 3e
       -0.41152647 -0.12360378 0.25316617 0.20187435
0001a0 0c e8 25 3d f3 0f d5 be 9f 48 29 3e ca fd 03 3f
       0.0405045 -0.4161373 0.16531609 0.51559126
0001b0 34 2c 65 3d e4 93 80 be 40 f7 56 3e 5e 24 a1 3d
       0.05595036 -0.25112832 0.20992756 0.078682646
0001c0 4c f8 29 3f ca 39 e6 be 2c cb d4 be a2 b2 20 3e
       0.66394496 -0.44965965 -0.41561258 0.15693143
0001d0 8f 22 e7 3e 75 ce 44 be d6 4e dc bc 28 e9 82 3e
       0.45143554 -0.19219382 -0.02689306 0.2556851
0001e0 48 cf 4e be b4 27 bb 3d ee ba 0c 3f ee eb d4 3e
       -0.20196259 0.09138432 0.5497273 0.4158625
0001f0 5f d2 85 bc 3a 88 3c 3c e2 1f cb 3d 6c 0b 75 be
       -0.016335664 0.011507088 0.099181905 -0.23930138
000200 7f 11 b8 3e c8 e8 80 3e 30 83 82 3e 58 b1 c2 be
       0.35950848 0.25177598 0.25490713 -0.38025928
000210 c6 bd 07 bd ef 1e 1f bd 74 e6 d7 3e 1a 5c 94 3e
       -0.033139966 -0.03884786 0.4216801 0.28976518
000220 38 15 60 3e 15 04 aa be 80 51 b8 3e 3c 16 aa be
       0.21883094 -0.3320624 0.3599968 -0.33220088
000230 bb aa 1a 3f ce 02 42 3e 99 71 94 be 63 cc 58 3d
       0.60416764 0.18946382 -0.28992918 0.052929293
000240 02 b9 26 be be 5f e6 be fc e1 be 3e d5 c3 9a bd
       -0.16281512 -0.4499492 0.37281787 -0.07556883
000250 b2 ea 9c 3b 43 f8 17 3c 12 43 04 bf be 98 f7 3e
       0.00478872 0.009275499 -0.5166484 0.4835872
000260 3f aa fe be 90 33 a0 be 65 27 ba 3e 99 8b 43 be
       -0.49739262 -0.3128934 0.3635818 -0.19096221
000270 59 ca f2 3e c9 29 0e 3e f4 e5 c4 3e cf c3 a0 be
       0.47420004 0.13883127 0.3845669 -0.3139939
000280 a7 64 8a bf d7 3d 50 bf c7 56 c0 3e 17 55 95 3e
       -1.0811967 -0.8134436 0.37566206 0.2916648
000290 07 15 c1 3c 5b ce 93 3d 25 a2 8f 3e 58 b9 8a bd
       0.023569597 0.072170936 0.28053394 -0.06773633
0002a0 93 bd 17 be e9 a0 7d be 18 95 06 bf 16 83 c1 be
       -0.1481841 -0.24768414 -0.5257125 -0.37795323
0002b0 d8 74 f9 3e b1 3f 51 bf 5c 4d f1 3e 1c 15 4d 3e
       0.48721957 -0.8173781 0.47129333 0.20027584
0002c0 9b 36 0e bd 9f ef f3 3d cd 27 d5 3e 14 2a 9b 3e
       -0.034720045 0.119109385 0.41631928 0.3030554
0002d0 1f f4 6c 3e 14 34 0c bf e4 b4 3a 3c c5 94 01 bf
       0.2314 -0.54766965 0.011395667 -0.5061763
0002e0 ec cb a5 be d2 3a e4 3e e3 3b c0 3d 20 e4 89 be
       -0.32382143 0.44576126 0.093864225 -0.26931858
0002f0 d7 93 a9 3e d2 da c0 be 6c 1c df 3d 80 7d 53 3f
       0.33120605 -0.37666947 0.10894093 0.8261337
000300 dd 60 c8 be ce 54 38 3e de 7e 0a 3f c1 84 30 bf
       -0.391364 0.180011 0.54099834 -0.68952566
000310 4e 25 1f bd cd df 30 bf 11 7f 1b 3e 9c 5b 97 bd
       -0.038853936 -0.6909149 0.1518519 -0.0739052
000320 51 11 8f 3e f9 08 a1 bd be 2b 85 bd ff dc aa be
       0.279429 -0.078630395 -0.06502484 -0.33371732
000330 db 49 20 3e 8b a9 e8 3d 87 88 a8 3d 66 27 0e be
       0.15653174 0.11360463 0.082291655 -0.13882217
000340 00 f3 95 3e 69 00 f1 bd e0 23 c3 bc 2d 67 eb be
       0.29286957 -0.11767656 -0.023820817 -0.45977154
000350 1b e7 8c 3c 65 1d c7 be 47 ad c9 3e 78 c9 25 39
       0.017200043 -0.38889614 0.39390013 0.00015810679
000360 bc 15 5e 3e 78 e8 28 3f e9 ba 5b be 43 e1 bb 3d
       0.21687979 0.6597972 -0.2145802 0.09173825
000370 8c 98 03 bf d3 5a 78 bf 68 8f a9 3e bf a8 27 be
       -0.51404643 -0.97013587 0.33117223 -0.16372965
000380 f9 15 87 3e 58 5b c7 bd fd 68 05 bf 5b ba c9 bd
       0.2638395 -0.09734219 -0.52113324 -0.098499976
000390 09 96 2e 3e 2e 50 91 3e b8 1d 5c 3e 56 84 62 3e
       0.17049421 0.28381485 0.21495712 0.22120795
0003a0 29 b4 41 be f6 f0 da 3e f7 5f a6 3e f3 06 ff 3e
       -0.18916382 0.42761964 0.3249509 0.4980999
0003b0 3d ca 0b 3d db e0 44 ba a1 d1 47 be dd 02 13 3d
       0.034128416 -0.0007510313 -0.19513561 0.035891403
0003c0 da aa b1 3e dd e2 fb 3d 94 66 d6 be 2a 59 a6 3e
       0.34700662 0.1229913 -0.41875136 0.32489902
0003d0 00 0f 01 be 61 df 00 3e 86 45 07 3f 27 1f f4 3e
       -0.12603378 0.12585212 0.5284046 0.47680017
0003e0 54 8a 93 3e 65 03 36 bc 08 94 b7 bd c5 d6 0d bd
       0.28816473 -0.011109208 -0.089637816 -0.03462865
0003f0 3e 49 93 bb 30 8d bb 3e 17 66 d2 be 7b 7e 54 3e
       -0.004494815 0.36631155 -0.41093513 0.20751373

network.2.bias f4 [32]
000000 14 05 c1 3e 1b 71 d4 3e ce 0a 78 be f6 ba 74 be
       0.37699187 0.41492543 -0.24222872 -0.23899445
000010 a2 db 67 3e ea 30 c0 3e 7f 58 91 3d d0 bd fa be
       0.22642377 0.37537318 0.070969574 -0.4897294
000020 14 c8 1a be c0 f4 b5 3e 94 3f 70 bd 2e b3 1c 3e
       -0.15115386 0.35538292 -0.058654383 0.15302727
000030 a3 2b cb 3e b6 4e 6f be 10 5d ae 3e 6c df aa be
       0.3968173 -0.2336987 0.34055376 -0.33373582
000040 02 1e 7f 3c 0e 20 45 be 0b 12 19 be 4d d0 41 3b
       0.015571119 -0.19250509 -0.14948289 0.002957362
000050 0e 1c 15 3e 12 ea 32 be 2f 27 c7 3e 86 7a 59 be
       0.14561483 -0.17472103 0.38897082 -0.21238145
000060 0f ca 3b be bc 7d 76 bd d8 55 12 bf 36 c2 02 3e
       -0.18338798 -0.060178503 -0.5716224 0.12769398
000070 81 1f b5 3d 39 7c 3c be 64 31 5e 3f c8 d4 c7 3e
       0.088438995 -0.18406762 0.86794114 0.39029527

network.4.weight f4 [64, 32]
000000 e6 f7 89 3f 00 f2 1b bf c6 a3 83 bd 78 6d 46 bf
       1.0778778 -0.6091614 -0.06427722 -0.77510786
000010 2e 77 c6 3d df 70 0f 3e 25 e2 29 be 9b 68 02 3f
       0.096907005 0.140079 -0.16590174 0.50940865
000020 d4 35 f1 be c1 b7 49 3f 3e 39 45 3f 9a 23 17 bf
       -0.4711138 0.7879601 0.7704047 -0.590387
000030 c5 7f 92 be 82 ac 5d bf 7f 51 9a bc 96 75 14 3e
       -0.28613105 -0.8659135 -0.018837688 0.1449798
000040 c1 8a 55 3e 95 b4 62 3d 0d d6 22 bf 60 4e b6 3e
       0.20853712 0.055347998 -0.63607866 0.3560667
000050 85 69 8c be 7b b4 16 bd f6 64 1d 3e 80 f1 45 3e
       -0.27424255 -0.036793213 0.15370545 0.19330406
000060 6a a1 25 3e d9 b7 10 be 06 a6 72 be 91 5b 7b 3c
       0.16174856 -0.14132632 -0.23696145 0.015341655
000070 b9 c1 3d bf aa 12 b7 be 00 00 1c 3e c3 9a 2e 3f
       -0.7412372 -0.35756427 0.15234375 0.682049
000080 84 4c 11 3e e3 12 ee 3d fc 10 bb 3b c1 7c ea bd
       0.14189345 0.11624696 0.005708812 -0.11449576
000090 1a 67 d8 3c aa d7 02 3e 40 a8 ae bd b8 5f 3f be
       0.02641635 0.12777582 -0.08528185 -0.18688858
0000a0 88 3d 1a be 8f f4 ec 3d ac d5 23 be 2e 80 07 be
       -0.15062535 0.11570083 -0.15999478 -0.1323249
0000b0 0b f0 26 be 83 31 86 bd 31 a5 d6 bd ff 42 d2 3d
       -0.16302507 -0.06552412 -0.104807265 0.10266685
0000c0 54 02 f1 3d 3b c3 eb 3c 36 15 2c be a2 3c b9 bd
       0.11768022 0.028779617 -0.16804966 -0.09044768
0000d0 e3 73 a5 3d 62 fa 97 bd b6 a5 fd bc c8 ec 22 be
       0.08078744 -0.074208036 -0.030962806 -0.15910637
0000e0 f5 2f 91 bd c1 8b 33 be 70 83 7a 3a 03 ea 98 bd
       -0.07089225 -0.1753378 0.0009556329 -0.07466509
0000f0 d9 c8 f5 3d 74 1b 34 3d 41 18 05 be 78 67 1f bd
       0.12001199 0.043971494 -0.12997533 -0.038917035
000100 19 19 c1 3d 2d 6e cf be 4e da e0 bd 13 89 91 bd
       0.09428615 -0.40513745 -0.10979138 -0.07106223
000110 4c 31 ce 3d b5 1e b1 3e 34 b2 97 3d 68 d8 ed 3d
       0.100679964 0.3459374 0.074070364 0.11613542
000120 84 8d 9e 3e 9c 15 d6 3e 11 bd 4a 3e 91 c6 4e 3d
       0.30967343 0.41813362 0.19798686 0.050482336
000130 94 83 4d be 90 47 ba be 56 07 b9 be 8a 5e 81 3e
       -0.20069724 -0.36382723 -0.3613841 0.2526744
000140 21 cf 96 3e 10 26 05 be aa de 02 bd fb 6a 39 be
       0.29454902 -0.13002801 -0.03195063 -0.18107216
000150 5f 6c 2b 3e cc e2 88 be 47 4a 24 be 79 6f 0a 3e
       0.16740559 -0.26735532 -0.1604396 0.13519086
000160 b0 e1 ba 3e e7 96 e5 3e 8e 23 a2 3d b7 3a 21 be
       0.3650031 0.44841692 0.07916938 -0.15745054
000170 3f 08 42 bf 29 5d 02 3e 12 4e 73 3e 09 97 19 3e
       -0.7579383 0.1273085 0.2376025 0.14999022
000180 bf 65 bd bc 21 6b 18 bd 9e 03 0c bd 4b 3e f1 3d
       -0.023119805 -0.03721154 -0.034183137 0.117794596
000190 6c 61 04 3f f2 85 0b 3f ba 52 cf 3e ce a2 22 3e
       0.51711154 0.5450126 0.40492803 0.15882418
0001a0 f1 9d 44 3e f9 1f 03 bd 2b 1a d3 3e 9a b9 cf 3d
       0.19200875 -0.032012913 0.41230902 0.101428226
0001b0 0b 3f 8e 3e 3a 36 0c bf 3a 11 10 bf 46 44 aa be
       0.27782473 -0.54770243 -0.56276286 -0.33255213
0001c0 e8 7c 92 3e 52 e0 ff 3d 44 aa 1f bf 52 ed 1c 3f
       0.2861092 0.124939576 -0.6236918 0.6129962
0001d0 57 c1 11 bf cb e6 21 3f 05 4c f7 bd c9 5b c8 3e
       -0.5693564 0.6324279 -0.120750464 0.39132527
0001e0 48 a2 90 bd 8c 50 e6 3e 10 6f d2 3e ce c9 56 be
       -0.07062203 0.44983327 0.4110036 -0.2097542
0001f0 dc 00 c6 bd 09 68 1f 3e e4 07 1d bf 64 8f cd 3c
       -0.09668133 0.1556703 -0.61340165 0.025092788
000200 22 e2 66 bd cb c3 89 3d b9 b0 22 bd 7b 35 08 3e
       -0.056368 0.06726798 -0.039719317 0.13301651
000210 78 a5 e0 3c 6f 33 92 bd 2e f1 71 bb f0 10 be bd
       0.027422652 -0.071387164 -0.0036917436 -0.09280574
000220 3e ae c7 bd 48 8b 18 bd 7a d7 09 be da bb 4e be
       -0.09750031 -0.037242204 -0.13461104 -0.20188847
000230 bc 46 97 bd 69 c8 79 bd 28 1e e8 3d ee a6 0d be
       -0.073865384 -0.06098214 0.11333877 -0.1383321
000240 d7 4b 1c bc 16 97 f7 bd 50 b7 07 be 2f 74 b8 3d
       -0.009539566 -0.12089364 -0.13253522 0.09006535
000250 50 33 19 be 1b 0b ae bc a4 cb 36 be e3 a4 9b bd
       -0.1496098 -0.02124553 -0.1785112 -0.07599809
000260 fa 1e 63 bd 18 a2 ba bd 0f 2e d4 bc 8f 9b 5c be
       -0.055449463 -0.09112948 -0.025900869 -0.21543716
000270 6b 13 84 bd e3 16 b2 3d 28 cd 1d be a5 05 d2 3c
       -0.06449016 0.086957715 -0.15410292 0.025637457
000280 8b 58 df 3e 34 30 12 be b3 ae 61 bd c3 e8 ff be
       0.4362224 -0.142762 -0.055098247 -0.4998227
000290 ca b7 e1 be 1a 9e 09 3f 18 0f 95 be 50 a4 b3 3e
       -0.44085532 0.5375687 -0.29113078 0.35086298
0002a0 f1 b9 1d 3e 60 96 02 3f 21 81 e9 be 06 1b 34 3e
       0.15402962 0.51010704 -0.4560633 0.17588434
0002b0 ae 1c e8 be be 82 9f be 0c e4 03 be 65 26 a1 3d
       -0.4533438 -0.31154436 -0.12879962 0.07868651
0002c0 1f 9a 09 bd b5 27 fa bd cb 85 8f be 9a e1 e1 be
       -0.033594247 -0.12214605 -0.28031763 -0.44117433
0002d0 73 c9 6f 3e 03 f4 cf 3e 54 d1 e5 3e 83 be 13 be
       0.2341669 0.40615854 0.44886267 -0.14428143
0002e0 7c 1f 86 3e 45 82 95 3e c6 b8 47 be 38 0d 00 be
       0.26195896 0.2920095 -0.19504079 -0.12505043
0002f0 64 b6 eb be 65 76 3c be 74 0a 7f 3d 9b 38 0b 3f
       -0.4603759 -0.18404539 0.06226583 0.5438325
000300 a5 5a a6 be ca 52 8b be 6d 50 2a 3e 0e 8a 07 3f
       -0.3249103 -0.272116 0.16632243 0.5294503
000310 dc 39 ee be 78 0f d1 bd 46 34 dc 3e ab 81 96 3e
       -0.46528518 -0.102080286 0.4300863 0.29395804
000320 0c 69 f4 3d 60 5c 23 bf 08 0a 0e 3f bb da a5 be
       0.119340986 -0.6381283 0.55484056 -0.3239344
000330 a4 f8 a3 be 31 dd 28 3e df 6a d2 3e a2 6a 31 3e
       -0.32025635 0.16490628 0.4109716 0.17325833
000340 14 ac a6 be 3a fa 2d bd b3 61 23 3e e0 c4 69 be
       -0.3255316 -0.042474963 0.15955238 -0.22829008
000350 d5 15 21 bf 04 b2 0e 3f 35 24 38 be 08 d8 68 be
       -0.6292394 0.5574038 -0.17982562 -0.2273866
000360 aa c1 ad be ed 1a 30 be 59 2a a1 3e 4f e5 e2 3e
       -0.33936816 -0.17197771 0.3147762 0.44315574
000370 7e 19 08 bc 3b 60 41 be ed 86 de be f9 5a 26 bd
       -0.008306859 -0.18884365 -0.43462315 -0.040614102
000380 2a d4 d1 3e 84 e8 34 3e bc 7f 26 3d 78 c4 5c 3d
       0.4098218 0.17666823 0.04064916 0.053898305
000390 ad 0f 11 3e 84 6c 4f bf 9d e2 be 3b 51 c5 5a 3f
       0.14166136 -0.81024957 0.0058253543 0.8545733
0003a0 94 62 64 bf 67 60 a6 be d9 05 78 3e 5b d7 35 3f
       -0.8921292 -0.32495424 0.2422098 0.7103173
0003b0 09 1f e3 3e ac ba d3 be 25 c2 ba 3d 67 09 aa be
       0.44359615 -0.41353357 0.091190614 -0.33210298
0003c0 04 af eb bd 4e db 76 3d e4 27 07 3f fa bf 0f 3f
       -0.11507991 0.06026774 0.52795243 0.5615231
0003d0 83 72 b9 3e b4 bc 9c be 1b db a5 be c3 10 ae be
       0.36220178 -0.3061272 -0.32393727 -0.33997163
0003e0 34 61 4d be fd 04 1d bf 7c af ca be 29 e3 25 3e
       -0.20056611 -0.61335737 -0.3958701 0.16199936
0003f0 4a 5e 1b bf e0 c9 00 3f 27 3c 14 be c6 d5 19 be
       -0.6069075 0.50308037 -0.14476071 -0.15022954

network.4.bias f4 [64]
000000 de d6 c9 be 4f fa 73 bd 71 66 83 3d f9 0c a5 be
       -0.39421743 -0.059564885 0.064160235 -0.3223646
000010 35 f3 d1 bd 91 94 1f bd c6 99 25 bd 84 40 45 3e
       -0.10251466 -0.038960043 -0.040429853 0.19262892
000020 52 87 b6 3e 7f 4e 82 bd 46 e7 10 bf 0a cd 25 3e
       0.35650116 -0.06362628 -0.56602895 0.16191497
000030 47 e2 3b be 13 50 ba 3d a2 92 ae 3e d3 84 ab 3e
       -0.18348037 0.09097304 0.34096247 0.33499774
000040 5e b7 d5 3d 79 ba 19 be b0 61 01 3e 93 ab 36 3e
       0.10435365 -0.1501254 0.12634921 0.17838888
000050 e1 aa 3e be 28 a7 c9 be cc ae 05 3e cd 38 d2 3e
       -0.18619873 -0.39385343 0.13054961 0.4105896
000060 ea d1 1a be 0f 74 1e 3e 34 00 91 3e 15 5f 91 3e
       -0.15119138 0.1547396 0.28320467 0.28392854
000070 b0 1a 7a 3e fa a7 69 be 71 5a 49 3e b2 c5 98 3d
       0.24424243 -0.22817984 0.19663407 0.074595824
000080 67 b9 cb 3e 0c c8 67 3e 83 00 d7 3d 8d 47 a7 3e
       0.39789888 0.22634906 0.104981445 0.32671776
000090 7a 8d d9 3e 72 6f bd 3e 15 60 a3 bd 54 3b f7 3e
       0.4249075 0.3699909 -0.079773106 0.4828745
0000a0 83 71 a3 3e 3f 1d 75 3e b0 e4 82 3c fa a9 77 be
       0.3192254 0.23936938 0.015978187 -0.24185935
0000b0 83 7a a8 3e be 4f a4 3e 93 e3 9f 3e f7 09 34 3d
       0.3290597 0.32092088 0.31228313 0.043954816
0000c0 1b cd 3c bd 8a 9d f0 3c d0 84 da 3d 97 3d b1 3e
       -0.04609404 0.029371995 0.10669863 0.34617302
0000d0 9c 40 0e 3e 2c 9c d6 3e f4 53 9e 3e fa 25 d1 be
       0.13891834 0.41916025 0.30923426 -0.40849286
0000e0 61 e5 bc bd 0a 35 bc 3d a0 4f 56 bb 6d fd 51 3e
       -0.09223438 0.09189804 -0.0032701269 0.2050683
0000f0 c2 37 cd 3e 3a 36 51 3e 6c 58 95 3e 1c a4 74 3e
       0.40081602 0.20430842 0.29169023 0.23890728

network.6.weight f4 [64, 64]
000000 37 d6 c1 3d 5c 50 d9 3a c8 43 46 3e 98 03 15 3d
       0.09464686 0.0016579735 0.19361794 0.03638038
000010 23 95 0a 3d c8 49 af 3d 60 f9 2d 3e d6 b4 06 bd
       0.033833634 0.085589945 0.1698966 -0.032887302
000020 0d 4f 3f 3e 87 6c 71 bd 4c 55 ac be 9c 21 00 3e
       0.18682499 -0.05894139 -0.33658826 0.12512821
000030 4c 4d 7d bc d2 db 48 3e 18 c6 2d 3e 5c 42 70 3e
       -0.015460324 0.19615105 0.16970098 0.23462814
000040 52 07 09 bd 04 5c 06 bd 56 7b 57 3c 30 3b 31 3e
       -0.033454247 -0.032802597 0.013151964 0.17307734
000050 6a ed 82 bd ca fd 82 3e cd 9f a5 3d 02 7d 29 3d
       -0.063929394 0.2558425 0.0808712 0.041378982
000060 26 f2 52 bc 5b fa 98 be bf 3c 52 3e 14 89 a4 3e
       -0.0128751155 -0.29878506 0.20530985 0.32135832
000070 4f 8b 0b 3d ee 32 9a 3e 27 7d 6a be 7b 4d 66 3e
       0.034068402 0.3011698 -0.22899304 0.22490494
000080 c7 03 76 3e 1a 19 5a 3e fb db ac be 11 89 65 be
       0.24024878 0.21298638 -0.33761582 -0.22415568
000090 5a 76 a8 3e 6e 06 c7 3e 02 d2 6b 3e 8e bf 34 3e
       0.32902795 0.38872093 0.2302933 0.17651197
0000a0 a9 0f eb 3d 19 cf 00 bf 3f 25 38 3e 1a 9e 7d bc
       0.11477596 -0.50316006 0.17982958 -0.015479589
0000b0 48 5e 0c 3d e9 c8 94 3d 0d 1b 9c bd b5 d4 39 3e
       0.0342696 0.07264883 -0.07622347 0.18147548
0000c0 ac 4b 18 3f 64 c6 ff 3d 19 19 7b 3e 47 90 22 3e
       0.59490466 0.12489012 0.24521293 0.1587535
0000d0 ba 86 be bb ff dd 43 3e bc 1f 9f be 30 fd 1b 3e
       -0.0058144005 0.19127654 -0.310789 0.15233302
0000e0 17 dc 84 be 90 46 19 3e 83 65 4c 3d 08 21 92 3e
       -0.25949165 0.14968324 0.049901497 0.28540826
0000f0 74 bd 26 3d 02 20 a1 bd fa 7e 31 3e 0e a4 57 3c
       0.04070802 -0.07867433 0.17333594 0.013161672
000100 45 34 b8 3d e5 87 67 3d e1 2a 1e 3d 88 a0 cb 3c
       0.089943446 0.056526083 0.03861511 0.02485682
000110 60 2c f1 bd ca dc 76 3d ce a2 84 3e a6 47 0a be
       -0.11776042 0.060269155 0.2590546 -0.13503894
000120 56 42 f9 3d 82 41 d0 3c e4 df 94 be 35 2f ae 3d
       0.12170856 0.025421862 -0.29077065 0.08505098
000130 bf 69 9d 3c a6 16 90 bd e6 6f cd bc 26 fc ae 3c
       0.019215463 -0.0703557 -0.025077771 0.021360468
000140 c4 1e ad be a7 b1 e7 3b 92 7a ac 3b 82 05 d0 3d
       -0.33812535 0.0070707384 0.005263635 0.101573005
000150 22 08 c1 3d a5 cb ab 3d 49 d5 ac 3d 87 8d 29 3d
       0.09425379 0.083884515 0.084391184 0.041394737
000160 fe 12 79 bd 6f 02 81 be e8 cb 0b be c7 57 66 3e
       -0.060809128 -0.2519717 -0.13652003 0.22494422
000170 67 90 ea bd 27 af 50 bd 0b 1a ce be 18 ba c5 3d
       -0.11453324 -0.05094829 -0.40254244 0.09654635
000180 4a 3c 24 bd 3d 96 3f 3b fc 5e 94 be 56 0d e7 be
       -0.04009656 0.0029233836 -0.28978717 -0.45127362
000190 d3 d2 ea 3d e1 25 d9 3d d4 ce 3c 3e 6e eb 99 3e
       0.11465993 0.10602928 0.18438274 0.3006243
0001a0 03 0d 2e 3e 60 50 35 bf 74 3d 7c 3d ad 14 36 bd
       0.16997151 -0.7082577 0.061582044 -0.04445331
0001b0 8c 2e 16 3e a5 86 81 bc a6 0d 20 be 88 e7 e3 3d
       0.14666194 -0.015811274 -0.15630206 0.111281455
0001c0 70 04 3a 3f 2b 1d 29 3e a2 b6 4e 3e d0 19 1d 3e
       0.7266302 0.16515033 0.20186856 0.15341878
0001d0 32 b9 76 3b db 4a e7 bc da 44 01 bf ac ca 32 3e
       0.0037647006 -0.028233936 -0.50495684 0.17460126
0001e0 61 d5 e9 bd d2 a3 73 bd b6 d7 3b 3c 33 a6 67 3e
       -0.11417652 -0.059482403 0.011465004 0.22621994
0001f0 8b a6 63 3d 63 55 e7 bd 34 4f e6 3c f2 b7 7b bd
       0.05557875 -0.11295583 0.028113939 -0.06145472
000200 30 72 1e be b0 3c 63 bd ff b9 15 3e cb 30 b8 3b
       -0.15473247 -0.055477798 0.14621733 0.005621051
000210 73 57 c5 3d 4d d2 37 3e 8a bb ce 3e 28 82 ac be
       0.0963582 0.17951317 0.40377456 -0.3369305
000220 f5 8e 2f 3e 63 ad 09 3e 29 19 bf be e9 3d 75 3e
       0.17144378 0.13445048 -0.37323883 0.23949398
000230 d0 06 8d bd b3 c0 59 3e 9a 82 89 3e 1a 12 83 3e
       -0.06886065 0.21264915 0.26857454 0.25599748
000240 c5 c3 3b be 68 9d 8c 3d b4 1a 2e 3e 86 29 4e 3e
       -0.18336399 0.0686596 0.17002374 0.20133027
000250 d4 64 6d bd a2 23 92 3d 78 81 3d 3d 1b 12 bf 3d
       -0.057957485 0.07135703 0.04626605 0.09329625
000260 ee f1 d4 3d 27 46 4c be ef ba 0d 3d fa 14 9f 3e
       0.10397707 -0.19948636 0.034602102 0.3107069
000270 c9 98 b8 3d 70 93 1c 3e 45 94 7b be 93 af 4e 3e
       0.090135165 0.15290618 -0.24568279 0.20184164
000280 3d 9c 36 3e 15 65 e9 3d a0 6e 73 be c5 57 32 bf
       0.17833038 0.11396233 -0.23772669 -0.69665176
000290 83 04 d4 3e 24 42 3d 3e 92 c4 11 3e da 4b cd 3e
       0.41409692 0.18482262 0.14235142 0.40096933
0002a0 b4 05 2c 3d 0f 38 ba 3d cd 60 ac 3e ed c1 a9 bd
       0.041997626 0.090927236 0.33667603 -0.082889415
0002b0 85 c5 32 3e 5a 66 31 3e fc ec cd be 81 57 cb 3e
       0.1745816 0.173242 -0.40219867 0.39715198
0002c0 cb 1c 4a 3f de 02 cc 3d 31 15 9b 3e 52 93 54 3d
       0.78950185 0.099614844 0.30289605 0.051898308
0002d0 b8 59 b0 bc 99 3b 0f 3e bb 0d 0f be ad 9f ef 3d
       -0.021527156 0.13987578 -0.13970082 0.117003776
0002e0 82 a8 5e bd 06 ec 4d 3d 6a 41 95 3d 68 e9 e2 3e
       -0.05435992 0.050273918 0.07287867 0.443187
0002f0 dd d2 42 3d a5 ec d7 bd e1 60 e4 3c 30 98 94 3d
       0.047564376 -0.10543183 0.027878227 0.0725559
000300 c2 b6 fa 3d c4 69 cb 3d 0b bb d9 3c a4 ea 7b be
       0.122418895 0.099322826 0.026578447 -0.24601227
000310 7f 9f f1 bc 03 7b b8 3e 5f dc 21 3d fb e1 08 be
       -0.029494999 0.3603135 0.039516803 -0.13367455
000320 37 f1 74 3c 5c 3f cf 3c 0c b9 69 be 9e 4c e4 3e
       0.014950088 0.025298767 -0.22824496 0.44589704
000330 04 61 5d 3d 20 a4 8d bd d1 b9 63 bd e3 bd 39 3e
       0.0540476 -0.0691607 -0.05559713 0.18138842
000340 de ea e0 3d 43 2b 44 bc 8f 5a 1a 3e 0b 70 d4 3e
       0.10982297 -0.011973205 0.15073608 0.41491732
000350 0a b9 1e bd 8e 35 3d 3e c4 f3 bb 3d 4c b2 81 be
       -0.038750686 0.1847746 0.09177354 -0.25331342
000360 24 d6 2a 3d 34 f5 9b bf 1c ce 09 be e3 32 ab 3e
       0.041708127 -1.2184205 -0.1345753 0.3343726
000370 7c 12 c3 be d7 9f 4a be 1a b2 a0 be 20 cf a3 3e
       -0.3810004 -0.19787537 -0.3138588 0.3199396
000380 3a a0 5f bd 2f d1 ee 3c 6c 8b 02 bf 67 53 80 bf
       -0.054596163 0.02915248 -0.5099399 -1.0025452
000390 77 91 8e bd 23 f1 c7 bd bb 50 4d bd 32 b2 0a be
       -0.06961339 -0.0976279 -0.05012582 -0.13544539
0003a0 9a 17 e1 bd 19 1b dc be 80 21 31 3e ad 3d b9 3d
       -0.1099083 -0.42989424 0.17297935 0.09044967
0003b0 6e 7c fa bc 10 12 25 3d a6 08 49 bf c5 fc 08 3f
       -0.03057691 0.04030043 -0.7852882 0.53510696
0003c0 1e 33 67 3e 9b aa da 3c b4 cd 38 be fa 89 10 3e
       0.22578093 0.02669268 -0.1804722 0.14115134
0003d0 36 54 26 3d 10 a2 ed 3c 08 ed dc be c8 cb aa 3b
       0.040607654 0.029007941 -0.4314959 0.005212281
0003e0 b0 25 db be 3c 72 e5 3c b6 35 99 3c f0 c9 3f 3c
       -0.4280219 0.028008573 0.01870237 0.0117058605
0003f0 d3 29 9d 3d ae c0 1f bf 1f f8 a5 bd 7c 74 1c be
       0.07673993 -0.6240338 -0.08103966 -0.1527881

network.6.bias f4 [64]
000000 be cf 07 3f c8 e6 ed 3e c5 bc 07 3f b6 fc a0 3e
       0.53051364 0.46465135 0.53022414 0.31442803
000010 75 d9 9e 3c b8 11 fd 3e d6 71 93 bd 6a e2 e9 3e
       0.019390801 0.4942758 -0.07199447 0.45680553
000020 53 e2 dc bd 2d 8d 7b bd 2e c0 0b 3f 80 4a e4 bd
       -0.107853554 -0.061413933 0.5459012 -0.11147022
000030 25 10 37 be 80 cd 19 3b 11 a1 ad 3e 10 80 ff 3e
       -0.17877252 0.0023468435 0.33911946 0.4990239
000040 6d 7e 0e be d8 58 03 3f 02 d8 3b 3e 21 cf 5c 3e
       -0.13915415 0.5130744 0.18344119 0.21563388
000050 1f 83 db bd e4 b2 96 bc ee 1d 97 3e 04 9a 16 3f
       -0.10718369 -0.018395849 0.29515022 0.5882876
000060 ef 81 db 3e 4f a2 91 3a 93 01 b7 bc 61 7e 36 bd
       0.4287257 0.0011110994 -0.022339618 -0.044554118
000070 7a ba df 3e 65 7d f9 bd e8 30 cd 3e 23 66 27 be
       0.43696958 -0.1218212 0.40076375 -0.16347556
000080 ae cd d7 3e be e8 2f be fe fe cd 3e 5a e5 17 bd
       0.4214911 -0.17178628 0.40233606 -0.03708396
000090 bc 99 b6 bd ea 3d 44 3e ea 95 f1 3e 51 ba c5 3e
       -0.08916041 0.19164243 0.47184688 0.3861871
0000a0 60 e0 b2 bd 29 f5 d8 3e 7b 67 00 3f 71 03 00 3f
       -0.087342024 0.42374542 0.501579 0.5000525
0000b0 26 07 e3 bd fa 16 a0 bd 11 d7 72 3b bc 52 80 bd
       -0.11085348 -0.078168824 0.003705446 -0.0626578
0000c0 42 6e eb bd 7f 09 17 be ae 0f bd 3e a7 04 ef 3e
       -0.114956394 -0.14749716 0.36926025 0.46683237
0000d0 31 e4 ed 3e 46 51 f0 3e b7 67 c7 3e 2e e8 9d 3e
       0.4646316 0.46937007 0.38946316 0.30841202
0000e0 34 c6 a1 bd c5 3c d3 3b a1 dc 92 bc 3c 37 15 3f
       -0.07899132 0.0064464533 -0.01792747 0.58287406
0000f0 1e 57 17 be ff fa 28 3e 1b c3 b3 bd d8 b0 fe bd
       -0.14779326 0.16501997 -0.08777448 -0.12436074

network.8.weight f4 [21, 64]
000000 7c 54 a6 3e 32 e2 03 3e 01 d9 0c 3e 28 43 d2 3e
       0.3248633 0.12879255 0.13754655 0.4106686
000010 27 c9 60 3d 04 65 61 3e 40 be c7 bd a9 ad 94 3e
       0.054879334 0.2201119 -0.09753084 0.29038742
000020 f8 a5 fe bd 29 f6 97 bc 7d 80 bc 3e 68 92 18 bd
       -0.12434 -0.018549995 0.3681678 -0.037249
000030 26 72 24 3d dc 78 24 3d 24 5f 2e 3e 6b 36 5f 3f
       0.040147923 0.040154323 0.17028481 0.8719241
000040 51 2e 1d be 8f c5 39 3e 9a 90 46 bf d2 ec 01 bf
       -0.153497 0.18141769 -0.77564394 -0.50751984
000050 04 ef 62 bb c0 0f 8f bd 80 45 2b 3e 19 b4 96 3e
       -0.0034627328 -0.06985426 0.16725731 0.2943428
000060 7f 47 87 3e 92 ff 9f bd 20 48 f2 ba db 51 ce bd
       0.26421735 -0.07812418 -0.001848463 -0.100742064
000070 a2 9f 8b 3e 1f a7 02 3f 2d 1e 24 be ae 90 cb bd
       0.27270228 0.51036257 -0.16027136 -0.09939705
000080 7b 1c 5f 3e 8c 22 e3 3d 90 bf 58 bd 8b 09 47 bc
       0.21788208 0.11090574 -0.052917063 -0.012148271
000090 3b 5f f7 bd 56 0c 12 3e 02 4e 00 bf 17 56 91 3e
       -0.12078711 0.14262518 -0.5011903 0.28385994
0000a0 fe 4d 22 bf 77 3d 51 3e c2 46 92 3e e7 11 ce 3e
       -0.63400257 0.20433603 0.2856961 0.40248033
0000b0 15 d7 41 bd 2e 3f c3 bc aa de 3a bc a6 dc 64 3e
       -0.04732426 -0.023833837 -0.011405626 0.22349796
0000c0 57 9c 99 bb 92 91 12 3e a2 f9 7b 3e fa 9d 66 3e
       -0.0046878266 0.14313343 0.24606946 0.22521201
0000d0 e3 e7 7c 3e 6e 33 81 3e 08 c7 00 3f 3a 59 9c 3e
       0.24697833 0.2523455 0.503037 0.30536824
0000e0 c9 88 3b 3d b2 65 14 bd f9 6b ba bd 03 75 29 3e
       0.045784745 -0.036229797 -0.091026254 0.16548543
0000f0 48 f8 50 3d da 71 72 bf 08 28 2b 3d b9 e3 72 bd
       0.05101803 -0.94704974 0.041786224 -0.059299204
000100 22 cc ae 3e c9 bc ba 3d 73 29 9c 3e b9 16 a7 3e
       0.34140116 0.09118039 0.30500373 0.32634524
000110 49 31 e7 bc 12 6b 28 3e e1 45 2a bd 98 66 93 3e
       -0.028221743 0.16447094 -0.041570548 0.2878921
000120 de 3e a9 3d 41 7c f2 3d b2 f1 99 3e 14 10 22 bd
       0.08263944 0.11840106 0.3006721 -0.039566115
000130 c0 a5 20 bd 32 e8 ab 3d a0 85 28 3e aa c3 53 3f
       -0.03922057 0.08393897 0.16457224 0.82720435
000140 24 c4 14 be 88 7c 73 3e 93 00 4f bf 8b 51 c9 be
       -0.14527947 0.23777974 -0.8086025 -0.39320025
000150 da 5c 86 3d d2 f0 89 3d 22 e9 55 3e 15 af 82 3e
       0.06560679 0.06735386 0.20889714 0.25524202
000160 00 0f 94 3e 11 06 c0 bd 36 05 a4 bd c2 09 e4 3d
       0.28917694 -0.09376157 -0.080088064 0.11134674
000170 f0 c5 a1 3e 39 62 ca 3e 76 4a 0d be 56 3c 15 bd
       0.31596327 0.39528063 -0.13797936 -0.036434494
000180 f6 28 6f 3e cc 40 1e 3d 02 5b 8d bb 61 43 11 bb
       0.23355469 0.038636014 -0.0043138275 -0.0022165405
000190 a4 8e 99 bd c3 1d 75 3d 45 66 0a bf e5 e8 a3 3e
       -0.0749791 0.059842836 -0.540623 0.32013622
0001a0 5e 2f fc be d9 93 17 3e 37 57 76 3e 84 99 97 3e
       -0.49254888 0.14802493 0.24056707 0.2960931
0001b0 90 48 d0 3d 00 7b 55 3d 76 4b 79 bd 7c d5 4e be
       0.1017009 0.052119255 -0.06086298 -0.20198625
0001c0 ca 04 40 bd 2d 19 47 3d 01 42 96 3e 1b ba 69 3e
       -0.046879567 0.048607994 0.29347232 0.228249
0001d0 81 e0 3c 3e 0f 61 7c 3e ee de d9 3e 19 57 9b 3e
       0.18445016 0.246464 0.42552894 0.30339888
0001e0 ce 7d be 3d 9c fe c6 bd b1 21 47 3d b5 27 2f 3e
       0.09301339 -0.09716532 0.048616115 0.17104991
0001f0 28 86 f9 3c 0e d7 67 bf 40 21 52 3b f6 60 04 3d
       0.030459478 -0.9056252 0.0032063276 0.03231903
000200 a3 f7 9c 3e c2 0a 1e 3e f3 09 79 3e fb 2d cf 3e
       0.30657682 0.15433791 0.24320202 0.40464768
000210 57 bb 5a 3c 03 39 3e 3e fb 1e 9f bc 5f 7f 94 3e
       0.013350329 0.18576436 -0.019423952 0.29003426
000220 80 81 b5 3b 77 a6 a3 bc a1 98 a2 3e 98 d5 b1 bd
       0.0055391192 -0.019976838 0.31757072 -0.08683318
000230 40 8d 43 bb b4 75 3f 3d cc 19 71 3e 25 aa 4c 3f
       -0.002983883 0.04674311 0.23544997 0.7994712
000240 f3 f9 84 3d b5 52 3d 3e f7 46 44 bf 9b 2f 5a be
       0.064929865 0.18488581 -0.76670784 -0.21307223
000250 b0 d7 81 bc 10 0e f8 3d 3d e6 87 3e 56 91 2d 3e
       -0.015849918 0.12112057 0.26542845 0.16949973
000260 ac f8 89 3e 68 a9 12 3c b9 75 1b 39 a0 0b ac 3c
       0.26947534 0.008951522 0.00014825807 0.021001637
000270 da 18 a4 3e 07 a1 b7 3e 0d 92 a5 bd 53 03 16 3d
       0.3205021 0.35865042 -0.080844976 0.036624264
000280 ee 95 6d 3e 68 8c 98 bd b7 2b e2 3c f1 07 0d bd
       0.23201725 -0.07448655 0.027608735 -0.0344314
000290 88 c0 8c bd f5 73 aa 3d 5c f1 0e bf 4d 46 a3 3e
       -0.0687266 0.08322898 -0.55837035 0.31889573
0002a0 dc c8 00 bf 71 89 07 3e 80 5a 29 3e f3 e8 ad 3e
       -0.5030649 0.13236023 0.1653843 0.3396679
0002b0 40 22 9c bb 54 c3 e4 bd 51 78 3c bd f7 4c 5f be
       -0.004764825 -0.111700684 -0.04601318 -0.21806704
0002c0 66 cc 03 bd 86 6c 8a bd bf 7d aa 3e 79 3d a4 3e
       -0.03217735 -0.067589805 0.33299062 0.3207815
0002d0 c5 f3 17 3e 30 32 8b 3e 2e 6a cb 3e 9f 89 91 3e
       0.14839084 0.27186728 0.39729446 0.2842531
0002e0 25 c4 f5 3c 14 8b f5 3d c4 d8 a3 bd 71 41 3f 3e
       0.030000756 0.11989418 -0.08000329 0.18677308
0002f0 88 73 f9 3d 60 21 5a bf 8e 51 f5 bd 81 32 b4 3d
       0.12180239 -0.85207176 -0.11978446 0.08798695
000300 48 3d b4 3e d9 66 80 3e 9f 64 90 3e 0f 70 9d 3e
       0.35203004 0.25078467 0.28201768 0.30749556
000310 5f 81 ea 3b 68 95 35 3e 0f 03 23 bd 8a 82 42 3e
       0.0071565355 0.17732775 -0.03979784 0.18995109
000320 2a 95 f8 3d 61 e0 96 bc 16 92 53 3e 9c 49 0f 3d
       0.12137826 -0.01841754 0.20661196 0.03498231
000330 58 a6 7d bd e2 df f1 bd 96 1d 3a 3e e2 25 12 3f
       -0.061926216 -0.118102804 0.18175349 0.57089055
000340 d8 ff 87 3c 34 34 9c 3e 1f 07 4f bf eb 8f 6c be
       0.016601488 0.30508578 -0.8087024 -0.23101775
000350 1e bc b2 bd 00 6e ce 3a b1 2c 83 3e dc 11 82 3e
       -0.08727287 0.0015749335 0.25620034 0.2540425
000360 69 5d 97 3e 16 71 bd 3d da 41 de 3d ee a3 d5 bd
       0.29563454 0.09250085 0.10852404 -0.10431658
000370 cb 2b 86 3e 5f fe b2 3e 92 34 45 bd 24 ec 00 be
       0.26205286 0.34959695 -0.048145838 -0.1259008
000380 31 5c 75 3e dc 55 0d 3d b4 2f 2c bc f1 5f 93 bc
       0.2396095 0.03450571 -0.01050942 -0.017990084
000390 80 a0 e3 3a 4a 03 c2 3d d8 c6 19 bf bb d4 9d 3e
       0.0017366558 0.094732836 -0.60069036 0.30826363
0003a0 07 a5 ce be 18 1a 81 3e e8 03 40 3e b4 96 a4 3e
       -0.4036028 0.2521522 0.1875149 0.32146227
0003b0 48 9f 6f bd 58 e2 f6 3c 2d 73 d2 bd de 70 7b be
       -0.05850151 0.030137226 -0.10275874 -0.24554774
0003c0 54 f1 21 3d 36 6f 87 3d 6e 89 61 3e cb c4 86 3e
       0.03953679 0.06613009 0.22025082 0.26322016
0003d0 b7 85 7a 3e 78 dd 9a 3e 4b be be 3e 5f a9 a7 3e
       0.2446507 0.30247092 0.37254557 0.32746407
0003e0 46 c4 b5 3d 84 91 25 3e 7c 80 6c 3c ec 0a 19 3e
       0.08875327 0.16168791 0.01443493 0.14945573
0003f0 8e 23 82 bd 5e eb 4b bf 90 ee d9 3c 29 53 fd bc
       -0.06354438 -0.79656017 0.026603013 -0.030923443

network.8.bias f4 [21]
000000 59 87 b6 3e 69 17 f4 3e 40 8f be 3e b8 ed d2 3e
       0.35650137 0.4767411 0.37218666 0.4119699
000010 ba c4 b0 3e 30 7d cb 3e eb 01 d1 3e c6 a5 ef 3e
       0.3452509 0.39743948 0.40821776 0.46806163
000020 e5 33 9d 3e 61 7a 01 3f c0 62 07 3f 5f c1 e7 3e
       0.30703655 0.5057736 0.52885056 0.45264718
000030 24 f2 d0 3e 64 33 ee 3e 13 42 fe 3e df 3a d6 3e
       0.4080974 0.46523583 0.49659786 0.4184179
000040 33 b6 07 3f 02 a7 ff 3e b5 28 03 3f 51 d5 e5 3e
       0.5301239 0.49932104 0.5123399 0.4488931
000050 96 b4 06 3f
       0.526193
