double_pendulum_config/models/model_1589.pth (torch, 35975 bytes, 10 tensors)

network.0.weight f4 [16, 6]
00000000: a729 80bf 7943 12be 2178 f43d c49d 14bd
00000010: 4d54 7fbf 385c eebc 771c 56bf 487c 6e3d
00000020: 173c f63d 285f ccbc 500a 10bf 4bf8 543e
00000030: ee10 76bf 973c 56be ed8e 7f3d bf5b b4be
00000040: e21f 333f 6ae2 b93d 8be2 d73d 7c43 b23f
00000050: a1a2 df3e b7f8 b83d c982 843d 586a fd3d
00000060: 8c76 d5be 0607 4b3f 66b6 59be d3b4 62be
00000070: 82f0 a43e bab1 ca3d f1ea 083f 033a 983f
00000080: 2e14 22be ceac 1bbf b67f 123f b87d 33be
00000090: 17b6 dfbd dc07 93bf d685 e3be 29af 3a3e
000000a0: 3a8e 3fbf 358c b8bd 4b3d 913c 0111 a5bf
000000b0: b665 7ebe 4203 68bd 4e47 a8be 4280 993d
000000c0: bd99 82bf e658 cb3e 6aac a7bd 1815 7e3f
000000d0: 5f1d 2f3f 5bb6 24be 3df9 ef3e aa45 68bf
000000e0: 2bc7 e93d 7a7a a8bf c447 a2be 3d21 653e
000000f0: 1429 013e 1809 b5bf fba3 9dbe 4f08 afbe
00000100: 3981 123f 1cc7 bdbb 09c9 ef3e 70e3 473e
00000110: 0143 e63e d3c7 a3bd ed55 7a3f 979e 803e
00000120: a068 0a3f 88ed 99bf 5327 16bd d9f8 863e
00000130: 1352 e8be b742 00be f414 c3be 3c69 993f
00000140: 7e11 753e 4780 2abf e3ea ef3e d9d7 443d
00000150: 7793 7a3d 29a9 dd3e db83 eebd ab52 5ebf
00000160: 8c71 35bf 1202 92be b2aa 553e 1893 bd3c
00000170: 1c8a 203e 1176 1bbf 62b6 4e3f f053 77be
-1.0012711 -0.14283551 0.11936975 -0.03628327 -0.9973801 -0.029096708 -0.83637184 0.058223993
0.1202318 -0.024947718 -0.56265736 0.20797841 -0.9611958 -0.2092155 0.062392164 -0.35226247
0.69970524 0.09076388 0.105412565 1.3926845 0.43678764 0.090318136 0.06470258 0.12373799
-0.41692007 0.7930759 -0.21260986 -0.22139291 0.32214743 0.0989718 0.5348349 1.1892704
-0.1582801 -0.60810554 0.5722612 -0.17528427 -0.10923403 -1.1486773 -0.44438046 0.18230881
-0.74826396 -0.09011117 0.017729422 -1.2895814 -0.24843487 -0.056643732 -0.328669 0.07495166
-1.0203167 0.39716262 -0.08187182 0.99250937 0.6840419 -0.16085188 0.4686984 -0.907313
0.114149414 -1.3162377 -0.31695378 0.2237596 0.12613326 -1.41434 -0.3078917 -0.34186026
0.5722843 -0.005791558 0.46833065 0.19520354 0.44972995 -0.07997098 0.9778736 0.25120994
0.54065895 -1.2025614 -0.036658596 0.2636173 -0.45375118 -0.1252545 -0.38101923 1.198524
0.23932454 -0.66601986 0.46858892 0.04805741 0.06117579 0.4329312 -0.11646243 -0.8684489
-0.70876384 -0.28517205 0.20865896 0.023141429 0.15677685 -0.6072703 0.80747044 -0.24153113

network.0.bias f4 [16]
00000000: 1770 9cbd 156c 6c3e d1b9 d23e b650 bd3e
00000010: 8cc9 943e 4c18 c8be aefd b4be c6b7 f4bd
00000020: 5100 4cbe 7156 a03c afbf 9f3e a718 2f3f
00000030: 11b2 ac3e 8943 b53e 420b 323f 0e47 3dbf
-0.07638567 0.23088105 0.41157392 0.3697564 0.29060018 -0.39081037 -0.35349792 -0.119491145
-0.19921996 0.019572468 0.3120093 0.6839699 0.33729604 0.35403088 0.6954843 -0.73936546

network.2.weight f4 [32, 16]
00000000: 63e2 a9be 1b29 6b3d 21cb a3be 1c5f d0be
00000010: c1da 1bbe 89fc d13c fa90 11bf ea5a 353f
00000020: 4c5b 27bd c2fb 6d3d fa73 a23e 09dd b73e
00000030: 1e62 16bf 06b4 c6be f7e4 063f d1b4 aebe
00000040: 513c 88bf f5d9 31bf 37db 4a3e 1d16 87bf
00000050: 019f 7b3e a8f3 6f3e 84cd acbe d674 043e
00000060: a923 da3d d880 bfbe 9ce7 d93e f3b0 7dbe
00000070: 0c45 8d3e 3a61 80bf f5e8 ad3e 2df3 76bf
00000080: d81a 123d 5264 bebd 0a4d 65be 88e6 39be
00000090: bc60 9abd 31f9 48bd b88d 0ebe 34e3 3fbb
000000a0: 50ee 53bd 909a ad3d 8c14 49bc c438 8f3c
000000b0: c99a 7abe b8f4 3ebd 78df 3cbe d818 2dbd
000000c0: 1af4 043f 28f3 183d 6d09 723d aa48 1e3f
000000d0: 25ab 333c a0a8 7dbe 73e1 47bf 45f2 2ebd
000000e0: 39d6 6a3d 692d 9bbe 13dc 4e3f 7fc4 b9be
000000f0: 476d 443e be67 10bf dac2 9b3e e52d f2be
00000100: 681e 60be 9067 81be 8225 65be cd16 0b3f
00000110: e5c8 903d bed0 90be a576 b1bd cbcb d7be
00000120: e630 8e3e 42f0 8b3e adbc 8fbe de48 963d
00000130: 97e4 56be f2d0 8fbe 076f 4b3e 8f08 683e
00000140: 8b40 90bf 19fc 4fbe 49f1 db3e bf6f dfbe
00000150: 199e d43d f9ff a9bf 93d0 f53d 76b8 0ebf
00000160: 01ab 8abf 453b 21bf 720e 3b3e c02a d93d
00000170: 79ac 9abe d29d 563e 6159 0fbe 1bbb 903e
00000180: 7ed1 27bf 0c57 893e b052 1abd b9f6 2e3f
00000190: b073 4ebe 84c8 b6bd 4ac6 ca3d 821f 083e
000001a0: 0939 09bc 648d 13bf 1c7c 52bd e568 013f
000001b0: 5716 493e 42a9 01bf eb20 c73e 1427 8f3d
000001c0: 0e14 493f 683d f6be 81c6 dbbe 61d3 933b
000001d0: 6822 e43e d788 65bd 855f 03be 6fba a83e
000001e0: 2e64 b4be 7733 45bd 1f6b 0b3f 8b71 1f3f
000001f0: 8886 92bd 3b7a a0bd b03a 973c 3aac 70be
00000200: f2ff 323e 43e3 d43e ac8c e43e 8e69 1ebf
00000210: 1b1d 90be e2e8 833e c126 053f b56a 773e
00000220: 2e89 683e 8c3c cfbe 6f8a c03e 0339 b1be
00000230: 8654 dc3e 1ad3 b03e e92f bfbe 0631 393e
00000240: 0ae5 9ebc d8bb eebe 8ac6 ed3e 0e46 a3bd
00000250: 8ebf d9bd 595f 49be 5f5c 1abf eb0a b03e
00000260: 8916 01bf 95a0 96be ec1f 803e 41df 6fbe
00000270: 268e 963e 822f 4abd c613 083f c78b adbe
00000280: 7223 8bbf f270 05bf cfe9 da3e d4f7 073f
00000290: fc2b 433d 222d a5bd f082 1f3f f4c5 26be
000002a0: 97f7 eebd 226a 0abe c94b 18bf 4d39 f8be
000002b0: 3603 013f b1c3 57bf 7881 1c3f 169a 7a3e
000002c0: 95ec 693d 2367 703d 4fad 0c3f bb97 553e
000002d0: a02c ce3e 8471 30bf 075d 6e3e adc4 1dbf
000002e0: 0450 08bf 1738 063f beeb d4bd a08f 8cbe
000002f0: 8c53 fc3e b652 e0bd bbf2 2fbd b1e2 4d3f
00000300: 5d7a e0be df12 793e b921 0c3f 69aa 6bbf
00000310: de93 5fbd 3e35 06bf f6f9 883e a9e3 02be
00000320: c862 ee3e 2a92 92be 6ba9 e6bd adf5 96be
00000330: 9752 493e 65bb 8a3e 2d9b 283d 1b9d 9bbe
00000340: 9ff6 b83e cab6 34be 9fea 83be cf5d 10bf
00000350: df06 ad3c 9290 d8be 7d97 813e bc28 173e
00000360: e04f bf3e 8c7f 573f 77e5 febd 4a80 a13e
00000370: ff54 16bf e4d4 6cbf 49ba 013e 9f51 efbe
00000380: 05ee f43e 1075 45be 8f6e ecbe e46d dabd
00000390: 5204 2c3e 36dc a33e d3ba 00bb 6bde a13e
000003a0: b354 37be ea78 bb3e b80d 553e 02f8 013f
000003b0: b564 dfbd 62d6 50bd d2b6 cfbe 23f0 7d3e
000003c0: 1e6f 7e3e ee66 923d c48f c9be a333 023f
000003d0: 3011 563c 3598 fc3d 0407 ec3e 2fd9 3e3f
000003e0: 8ca8 733d f79e 0d3e 8de7 fdbe e692 d53d
000003f0: 1a3b fdbc c92c 983e a3a8 3bbe 7583 c73e
-0.33180532 0.057412248 -0.31990913 -0.40697563 -0.15220167 0.025633113 -0.5686184 0.7084185
-0.04085855 0.058101423 0.31729108 0.35910824 -0.58743465 -0.38809222 0.5269312 -0.34122327
-1.0643407 -0.694732 0.19810186 -1.0553623 0.24572374 0.23432791 -0.33750546 0.12935194
0.10651333 -0.37402987 0.42559516 -0.24774532 0.2759174 -1.0029671 0.33966795 -0.96464807
0.03567013 -0.09296478 -0.2239267 -0.18154347 -0.07537982 -0.049065772 -0.13921249 -0.002927971
-0.051740944 0.08476746 -0.012272965 0.017483123 -0.24473108 -0.0466201 -0.18444622 -0.04226002
0.5193497 0.037341267 0.05909102 0.61829627 0.010966097 -0.24771357 -0.78078383 -0.042711515
0.057333205 -0.30308083 0.80804557 -0.36282727 0.19182311 -0.564083 0.30422097 -0.4730064
-0.21886599 -0.25274324 -0.2237759 0.54331666 0.070695676 -0.28284258 -0.08665208 -0.4214767
0.27771682 0.2733174 -0.28073636 0.07338117 -0.20985638 -0.280891 0.19866572 0.22659515
-1.1269697 -0.20311011 0.42957523 -0.43639943 0.10381717 -1.3281242 0.12002673 -0.55750215
-1.0833436 -0.62981063 0.18267229 0.10603857 -0.3020971 0.20958641 -0.13998939 0.2826775
-0.65554035 0.26824224 -0.037676513 0.6834522 -0.20161319 -0.08924964 0.09901102 0.1329327
-0.008375415 -0.5763762 -0.05138789 0.5055068 0.19637428 -0.5064889 0.38892302 0.069898754
0.78546226 -0.48093724 -0.42924884 0.0045112823 0.445575 -0.056038704 -0.12829407 0.32954738
-0.3523268 -0.048144784 0.5446033 0.6228263 -0.07154566 -0.078358136 0.018460602 -0.23503199
0.17480448 0.41579637 0.44638574 -0.61879814 -0.28147206 0.25763613 0.5201226 0.24161799
0.2270858 -0.4047588 0.37605616 -0.3461381 0.43033236 0.34536058 -0.3734124 0.18085107
-0.019396324 -0.46627688 0.46440536 -0.07972346 -0.10632239 -0.19665278 -0.602972 0.3438333
-0.5042501 -0.2941939 0.25024354 -0.23425008 0.29405326 -0.049361713 0.5315517 -0.33895704
-1.0870192 -0.52125466 0.42756507 0.5311253 0.04764937 -0.08065249 0.6230917 -0.1628645
-0.11668318 -0.13517049 -0.5949064 -0.48481217 0.50395525 -0.84282976 0.61135054 0.24472842
0.057110388 0.05869211 0.5495195 0.20858662 0.4026842 -0.6892321 0.23277675 -0.6162823
-0.53247094 0.52429336 -0.10396527 -0.27453327 0.4928249 -0.10953276 -0.042956095 0.8042403
-0.43843356 0.24323605 0.54738957 -0.920569 -0.054584377 -0.5242499 0.26753205 -0.12782158
0.4655974 -0.2862714 -0.11262783 -0.2948431 0.19660412 0.27096096 0.041163612 -0.303933
0.36125657 -0.17647853 -0.2576494 -0.5639314 0.02112144 -0.42297798 0.2531089 0.14761633
0.37365627 0.84178996 -0.12446111 0.3154319 -0.58723444 -0.92512345 0.12668718 -0.4674196
0.47837844 -0.19282937 -0.461781 -0.10665491 0.16798523 0.32003945 -0.0019642606 0.31615004
-0.17903404 0.36615688 0.20806015 0.50769055 -0.1090788 -0.0509857 -0.40569168 0.24798636
0.24847075 0.071485385 -0.39367497 0.5086004 0.013065621 0.12333719 0.46099102 0.74550146
0.05948691 0.13830172 -0.49590722 0.10428409 -0.03091197 0.29721668 -0.18326049 0.3896748

network.2.bias f4 [32]
00000000: 0630 c53e 050a 0a3f ce0a 78be 54b0 d0be
00000010: 99bb 5d3e 2497 243f fdcb 113e 5eda e5be
00000020: 55c7 81bd 429c 343f 9d19 8abe 57a4 903d
00000030: 55f2 953e aea6 cabe 5715 a53e d5c5 b0be
00000040: 67c7 983c 0e20 45be 4636 4d3e 0bc7 7d3d
00000050: e612 b33e 36c1 67be cef8 213e f975 bebe
00000060: f45a f7bd 2121 23be 6987 d5be ba0c ff3b
00000070: 2c35 a53e 3daf d8be 4fdd a43f 0a95 d43e
0.385132 0.5392154 -0.24222872 -0.40759528 0.21653594 0.6429312 0.14237972 -0.44893163
-0.06336848 0.7055093 -0.26972666 0.07062595 0.29286447 -0.39580292 0.32242844 -0.34525934
0.01864977 -0.19250509 0.20040235 0.0619574 0.34975356 -0.22632298 0.15817568 -0.3719938
-0.12077895 -0.15930606 -0.41704872 0.0077834995 0.3226713 -0.42321196 1.2880038 0.41519958

network.4.weight f4 [64, 32]
00000000: e7ae a13f a6d0 d7be c6a3 83bd fdc4 49bf
00000010: 2898 423e 90ca 233e f672 87be ed43 f33e
00000020: 24c1 e9be cf0d 653f ac23 293f 8fae 5dbf
00000030: cc34 eabe 9e5c 47bf 7ba2 03bd 81fc e83d
00000040: 12ee b83e 95b4 623d cc90 4fbf d4ea bb3e
00000050: a73e ebbd 20a0 be3d 9b78 193d 4af5 3c3e
00000060: e8e3 a43d 55f7 1cbd 5cfe 93bd 1e1c e93d
00000070: b8b8 bcbd e60b e9be 7193 bb3e af55 343f
00000080: 844c 113e e312 ee3d fc10 bb3b c17c eabd
00000090: 1a67 d83c aad7 023e 40a8 aebd b85f 3fbe
000000a0: 883d 1abe 8ff4 ec3d acd5 23be 2e80 07be
000000b0: 0bf0 26be 8331 86bd 31a5 d6bd ff42 d23d
000000c0: 5402 f13d 3bc3 eb3c 3615 2cbe a23c b9bd
000000d0: e373 a53d 62fa 97bd b6a5 fdbc c8ec 22be
000000e0: f52f 91bd c18b 33be 7083 7a3a 03ea 98bd
000000f0: d9c8 f53d 741b 343d 4118 05be 7867 1fbd
00000100: 3055 b43d 12e5 39bf 4eda e0bd 805d cabe
00000110: 78ac b53d ee63 d03e 5f6b 62bd 0893 1b3d
00000120: e8b6 ee3e 20d7 f83e f460 a3be 6291 ac3c
00000130: 8f58 1cbe 25ff 07be 76e8 94be 8474 e43d
00000140: 30eb 9cbd 1026 05be 35b8 0cbe cc77 6abe
00000150: 38d0 3b3e 1f14 14bd 440f a0be 6dd5 aa3d
00000160: 343a 9e3e 0a98 c73e d90f 52bd 2601 01be
00000170: 90bd 43bf abe5 a83d b7b4 e83e 726b 733e
00000180: 7c16 d1be 740f 6d3e 9e03 0cbd d07a ad3e
00000190: 551d 293f 0098 6e3e 6919 193f 6d92 933e
000001a0: 7fc9 c73c fc03 2fbe 6e3f 063f b6ac 9e3e
000001b0: 5a7c 6f3d 6dab 04bf 7d16 18bf 28c1 3cbf
000001c0: 4549 0a3f 52e0 ff3d 6c09 12bf f3cf 9b3e
000001d0: 0a15 06bf 3046 183f 1cfd 38bd f288 323f
000001e0: 394f 473d de34 873e 1b9d 6ebe 2531 acbe
000001f0: ed96 efbc 64c4 9b3d 1d43 85bf 8c28 2dbe
00000200: 22e2 66bd cbc3 893d b9b0 22bd 7b35 083e
00000210: 78a5 e03c 6f33 92bd 2ef1 71bb f010 bebd
00000220: 3eae c7bd 488b 18bd 7ad7 09be dabb 4ebe
00000230: bc46 97bd 69c8 79bd 281e e83d eea6 0dbe
00000240: d74b 1cbc 1697 f7bd 50b7 07be 2f74 b83d
00000250: 5033 19be 1b0b aebc a4cb 36be e3a4 9bbd
00000260: fa1e 63bd 18a2 babd 0f2e d4bc 8f9b 5cbe
00000270: 6b13 84bd e316 b23d 28cd 1dbe a505 d23c
00000280: 0ea9 123f 88cf 983d b3ae 61bd b2da 34bf
00000290: f5d2 d3be 71ef 4b3f a244 d4be 4ddc 7e3e
000002a0: e294 613e 9b77 f53e 75d4 43bf 6528 ca3e
000002b0: 6e9d 27bf 955f 003e eb8c 01be 7c8f 9f3d
000002c0: 0be1 c2be b527 fabd 08ad b4be c119 0fbf
000002d0: e977 8f3e a829 c3bd fdcd bb3e 004f d83d
000002e0: 88bd e63e 1955 583e 1657 16bf 2cc8 60be
000002f0: c543 d2be f350 efbd 122c 3e3d fad2 083f
00000300: baea 04bf 5af2 71be 6d50 2a3e e04b 6f3f
00000310: da96 acbe 0d11 b0be 4873 f43e c5c2 993e
00000320: e9a6 803e 2a0a 53bf b9e6 3b3f ca3a 4fbe
00000330: 5b14 f3be f06a 763e 02ed 0f3f 0a67 123e
00000340: 3038 50be 3afa 2dbd 7fa0 babd a8cc ebbc
00000350: d2d7 23bf 3b9d d13e 9b6c 8dbe 3aec 16be
00000360: 01b3 12bf 7ab0 19be 7539 d83e e3dc 0b3f
00000370: a251 1bbe 4289 afbe 1838 00bf eb97 9a3d
00000380: 2a38 033f 92c8 62bd bc7f 263d 2a75 a23d
00000390: b440 223e acea 013e b70a 3d3a a21c 653f
000003a0: 897a 75bf 8b55 bdbe b0fb 1d3f 57b0 2b3f
000003b0: 71f1 e13e 2062 33bf 36ce 28be 8b43 ecbe
000003c0: c0e9 a0bc 4edb 763d 28e5 fd3e 23dc 113f
000003d0: 0b7a af3e 31e6 25be a6cc 98be 3564 d4be
000003e0: 7afc 4dbe 2b84 d0be 4ed2 11bf 70bb 7f3e
000003f0: 156e 2dbf 9cd7 1d3f 987c 44be 6cbd 26bd
1.2631501 -0.42151374 -0.06427722 -0.78816205 0.19003356 0.1599524 -0.26454896 0.4751276
-0.45655167 0.89474195 0.66070056 -0.8659448 -0.45743406 -0.778757 -0.032137375 0.11376286
0.36119133 0.055347998 -0.8108032 0.36702597 -0.11486559 0.09307885 0.037468534 0.18452945
0.08051282 -0.03832181 -0.072262496 0.11382316 -0.0921492 -0.4551689 0.36635926 0.7044324
0.14189345 0.11624696 0.005708812 -0.11449576 0.02641635 0.12777582 -0.08528185 -0.18688858
-0.15062535 0.11570083 -0.15999478 -0.1323249 -0.16302507 -0.06552412 -0.104807265 0.10266685
0.11768022 0.028779617 -0.16804966 -0.09044768 0.08078744 -0.074208036 -0.030962806 -0.15910637
-0.07089225 -0.1753378 0.0009556329 -0.07466509 0.12001199 0.043971494 -0.12997533 -0.038917035
0.08805311 -0.7261516 -0.10979138 -0.3952446 0.088707864 0.4070124 -0.05527818 0.037982017
0.4662392 0.48601627 -0.31909907 0.021065418 -0.15268157 -0.13280924 -0.29083604 0.11155036
-0.07662046 -0.13002801 -0.13742144 -0.22897261 0.18341148 -0.036152 -0.31261647 0.08341489
0.3090378 0.38983184 -0.051284645 -0.12598094 -0.76461124 0.08246931 0.45450374 0.23771456
-0.40837467 0.23150426 -0.034183137 0.3388276 0.6606038 0.23300171 0.598044 0.28822652
0.024388073 -0.17091364 0.52440536 0.30991143 0.0584682 -0.51824075 -0.59409314 -0.73732233
0.5401805 0.124939576 -0.57045627 0.3043209 -0.52375853 0.594821 -0.04516326 0.6974021
0.048659537 0.26407522 -0.23302118 -0.33631244 -0.029246772 0.07605818 -1.0411106 -0.16909999
-0.056368 0.06726798 -0.039719317 0.13301651 0.027422652 -0.071387164 -0.0036917436 -0.09280574
-0.09750031 -0.037242204 -0.13461104 -0.20188847 -0.073865384 -0.06098214 0.11333877 -0.1383321
-0.009539566 -0.12089364 -0.13253522 0.09006535 -0.1496098 -0.02124553 -0.1785112 -0.07599809
-0.055449463 -0.09112948 -0.025900869 -0.21543716 -0.06449016 0.086957715 -0.15410292 0.025637457
0.57289207 0.074614584 -0.055098247 -0.706462 -0.41371885 0.79662234 -0.41458613 0.24888726
0.2202945 0.47942814 -0.7649606 0.39483944 -0.65474594 0.12536462 -0.12651412 0.07791039
-0.3806232 -0.12214605 -0.35288262 -0.5589867 0.28021172 -0.0952943 0.36680594 0.10561943
0.45066476 0.21126212 -0.5872663 -0.2195136 -0.4106733 -0.11685362 0.046428747 0.53446925
-0.51920664 -0.23627606 0.16632243 0.9347515 -0.3370884 -0.3438801 0.47744203 0.3003141
0.25127342 -0.82437384 0.7339893 -0.2023727 -0.47476467 0.24064231 0.5622102 0.14297119
-0.20333934 -0.042474963 -0.091126435 -0.028784111 -0.6400119 0.4094027 -0.27621922 -0.14738551
-0.5730439 -0.15008727 0.42231336 0.5463392 -0.15167859 -0.34284407 -0.5008559 0.07548507
0.51257575 -0.05536706 0.04064916 0.079325035 0.15844995 0.12687176 0.00072113745 0.89496815
-0.958901 -0.36979327 0.6171217 0.6706595 0.44129518 -0.700716 -0.16484913 -0.4614528
-0.01964271 0.06026774 0.49588895 0.56976527 0.342728 -0.16201092 -0.29843634 -0.41482702
-0.20115843 -0.40725836 -0.56961524 0.24973845 -0.67746097 0.6165712 -0.19188154 -0.04070799

network.4.bias f4 [64]
00000000: bd87 20bf 4ffa 73bd 3782 ee3d 9cbf ffbe
00000010: 35f3 d1bd 5772 68bd fb18 e0bd 28e9 8f3e
00000020: 1124 0c3f 7f4e 82bd 3ef9 29bf 9421 883e
00000030: 47e2 3bbe 1aa1 36bd 7062 c53e ce30 a33e
00000040: 246f 843d 79ba 19be 6091 d93d 6e49 1c3e
00000050: e1aa 3ebe a859 fbbe ea77 c23d 4805 003f
00000060: ead1 1abe c13a e53c b72b 6d3e 52e5 9e3e
00000070: ac1e 943e 8865 f2be c0d6 8b3e 47f1 a23c
00000080: d075 aa3e 9970 453e 0244 3b3e f619 013f
00000090: 287f e63e 7952 dc3e 6fec 86bc 5aa5 0e3f
000000a0: 2a13 783e d75b b53e d472 983d faa9 77be
000000b0: 523d 193e d59e bd3e da16 023f a289 0f3e
000000c0: 1906 6bbe 9056 24be e858 073c 0b42 8e3e
000000d0: 46ca 253f 9780 ad3e 916a 123f bf56 40bf
000000e0: 3fbf d2bd a8ed 29bb 2b3e 4fbe bb9a dd3e
000000f0: fefb 113f 2fd3 753e 90e0 b53e 73c4 c73d
-0.6270712 -0.059564885 0.1164593 -0.49950874 -0.10251466 -0.056749668 -0.10942265 0.28107572
0.5474253 -0.06362628 -0.6639594 0.26588118 -0.18348037 -0.044587232 0.38551664 0.31873173
0.06466511 -0.1501254 0.10623431 0.15262386 -0.18619873 -0.4909184 0.09495528 0.5000806
-0.15119138 0.027982118 0.23161207 0.31034333 0.2892965 -0.47343087 0.2731228 0.01989044
0.3329301 0.19281234 0.18287662 0.5043024 0.45018888 0.43031672 -0.016470162 0.55721056
0.2422606 0.3542163 0.07443777 -0.24185935 0.14964798 0.37035242 0.5081612 0.14017347
-0.22951545 -0.16048646 0.008260943 0.27784762 0.6476177 0.3388717 0.5719386 -0.75132364
-0.102903835 -0.0025929008 -0.20238559 0.43282112 0.57025135 0.24006341 0.3552289 0.097542666

network.6.weight f4 [64, 64]
00000000: db9e 943d 5c50 d93a c42c bf3d 7928 eb3c
00000010: 2395 0a3d 13a4 ff3c 5fe3 123e 31c4 793d
00000020: b31a 3a3e 876c 71bd 0db1 17be d715 853e
00000030: 4c4d 7dbc f593 973e 3994 173e 9972 7b3e
00000040: 830e 37bd 045c 06bd adcb d63d de00 113e
00000050: 6aed 82bd 02a3 1e3e 3f4f fd3d 213b e43d
00000060: 26f2 52bc f824 5fbe 19ed 763e dd1a 313e
00000070: fa78 d63d 4fcf cf3e 5cb4 66be 926f 8b3e
00000080: 2305 483e 84c6 363e bf3e 4ebd 7a66 7cbd
00000090: 09bb 903e 8cc7 a43e 4ea5 843e b7f4 3a3e
000000a0: 9bb7 2f3e 3c3d f5be 77e9 1e3e 1a9e 7dbc
000000b0: 1fe9 b1bc 3f46 1e3b f749 93bd d7b2 e43d
000000c0: c7dc ac3e 3a6c 023e 022d 933e 916e 193e
000000d0: 6194 55be 5c7c e03d c814 a1be 6517 743d
000000e0: 8ed4 98bd a59a 8a3d f826 593d 5522 283e
000000f0: a55d 22bd 1f33 60bd cc29 2b3e 3490 5f3d
00000100: 4216 ae3c e587 673d 5095 19bd 512d 223e
00000110: 602c f1bd 7024 ebbe a50a 983e bebc a7bd
00000120: 80b2 b03d 8241 d03c 9a6f 8dbe 5355 3b3e
00000130: bf69 9d3c 34a2 4dbe 5f43 0d3e 0840 a73d
00000140: 375d edbe a7b1 e73b ac4d e43d 4dd3 323c
00000150: 2208 c13d 1775 433d 76fc 723e f6b6 8e3c
00000160: fe12 79bd 0c65 64bf c050 3bbe 4dfc 433e
00000170: acfe a8be 4099 5abe 903c d2be 8868 0f3e
00000180: 2f0f 91be abcb 253e c1a2 6abe 2a2c a9bd
00000190: 26c4 c63d 3536 09be b74e dd3e c3cf 123e
000001a0: 3722 8e3e 76b1 f5be acf7 963e ad14 36bd
000001b0: 0870 48be afc0 a63c 875e a73d 1614 e5bc
000001c0: 70d7 1d3f f22d 59bc 0da4 653e 8e01 d23d
000001d0: bba9 d8bd e7c3 43bd c910 16bf 2d94 9c3c
000001e0: 91c0 6abf d441 1abc 7be5 90be 4d86 e0be
000001f0: 43c4 a3be 2c7f 4bbd 1f02 673e a263 a8be
00000200: 43d2 79be b03c 63bd a9a5 1a3d 1838 f23c
00000210: 7357 c53d 2bda d83d fa35 9e3e 2584 8ebe
00000220: dfac 193e 63ad 093e 4f5d 87be 61b9 503e
00000230: d006 8dbd 76f1 603e 9473 4c3e 44da 6f3e
00000240: f298 03be 689d 8c3d 6c1c 893e 83d1 f03d
00000250: d464 6dbd 488e 123d 28e1 063d c2b0 a63d
00000260: eef1 d43d a5b0 33be e8cf 3d3d cbc9 e63d
00000270: 691c 3e3d c9d2 b23d 5f2d 4fbe d65f 873e
00000280: e670 143e 1d01 dd3d 3844 babd 068a 04bf
00000290: 8bd3 c43e 841b b83d 5dcb 263e ded4 aa3e
000002a0: 93fe 083e b837 653e 19a6 9b3e edc1 a9bd
000002b0: f63a 793d 60eb 293e 9d33 94be 2a67 863e
000002c0: 0524 de3e fdb4 053e c616 9e3e e97c b5ba
000002d0: f72b 2cbe 67b5 863d f169 6cbe 7eb4 34bd
000002e0: e7fa 0e3e c02b 65bc e389 a93d 02c4 483e
000002f0: 2a68 b9bd c5f9 38bd f863 923d 98f2 0d3e
00000300: d3be 163e c469 cb3d e483 06be f1dd ccbe
00000310: 7f9f f1bc c51b ce3e 2054 a73e 4c3a 53be
00000320: c7c9 d93d 5c3f cf3c d1ee 59be dd39 133f
00000330: 0461 5d3d 1cc1 eebc 28f2 723c 32ec 903e
00000340: 2061 cb3e 432b 44bc ae09 7e3d 1eba e73e
00000350: 0ab9 1ebd bb15 c33e 0ab6 5f3e 46e4 babe
00000360: 24d6 2a3d 39be 29bf eacc 54bd 118f e03e
00000370: 3c7e 4bbf fdad 81be bb02 d2be 6807 de3e
00000380: cf78 003e a0ad 383d b777 39bf eac8 88bf
00000390: 2044 1bbc b428 bcbd 8bcc adbd a621 2abe
000003a0: cd90 cdbc ecb0 7bbf 05dc 183e ad3d b93d
000003b0: 0dad 2dbe d2f0 503d 2dc5 6fbf 0cde 463f
000003c0: 6372 e83e c0f6 36bf 78f6 f4be 1765 0abc
000003d0: 071a 5ebd 035d 083e 4490 3dbf 4fd8 933e
000003e0: 6c1d afbf 4b6d 0e3d c638 43bf 411c 903e
000003f0: ad31 3b3e d8ef a8bf 382b 6d3e cb6e 63be
0.07256862 0.0016579735 0.0933471 0.028705822 0.033833634 0.031206166 0.14344548 0.06097812
0.18174247 -0.05894139 -0.14813633 0.25993225 -0.015460324 0.2960507 0.14802636 0.24555434
-0.044691574 -0.032802597 0.10488067 0.14160487 -0.063929394 0.1549187 0.123686306 0.111440904
-0.0128751155 -0.21791446 0.24113883 0.17295404 0.10472293 0.4058785 -0.22529739 0.2723356
0.1953321 0.17849165 -0.050352808 -0.061621167 0.28267696 0.32183492 0.25907367 0.18257414
0.17159884 -0.4789828 0.15518747 -0.015479589 -0.021717606 0.0024150757 -0.07191842 0.111669235
0.3376219 0.12736598 0.28745276 0.14983584 -0.20857383 0.1096122 -0.31461167 0.059592623
-0.074624166 0.06767777 0.05301568 0.16419347 -0.039640088 -0.054736253 0.16715163 0.054580882
0.021250848 0.056526083 -0.03749591 0.158376 -0.11776042 -0.45926237 0.2969562 -0.081902966
0.08627796 0.025421862 -0.27624208 0.18294267 0.019215463 -0.20081407 0.13795231 0.0816651
-0.4636018 0.0070707384 0.11147627 0.010914636 0.09425379 0.047719087 0.23729119 0.017421227
-0.060809128 -0.89216685 -0.18292522 0.19139214 -0.330068 -0.21347523 -0.4106183 0.1400472
-0.28331897 0.16190974 -0.22913648 -0.08260377 0.09705381 -0.13399585 0.43224117 0.14337067
0.2776048 -0.47986954 0.29485834 -0.04445331 -0.19573987 0.02035555 0.081723265 -0.02796368
0.61656857 -0.013255583 0.22425862 0.10254203 -0.105792485 -0.04779425 -0.5861936 0.019113624
-0.91700083 -0.009415109 -0.2830008 -0.43852463 -0.31985673 -0.049681827 0.22559403 -0.32888514
-0.24396615 -0.055477798 0.037755642 0.029567763 0.0963582 0.10588487 0.30900556 -0.27835193
0.15007351 0.13445048 -0.26438376 0.20383216 -0.06886065 0.2196711 0.19965965 0.23423105
-0.12851313 0.0686596 0.26779497 0.11758711 -0.057957485 0.03578022 0.03292957 0.081391826
0.10397707 -0.17547853 0.046340853 0.11268958 0.046413813 0.0873161 -0.20232151 0.26440305
0.14496192 0.10791228 -0.09095043 -0.5177311 0.38442644 0.08989623 0.16288514 0.3336553
0.13378362 0.22384536 0.3040016 -0.082889415 0.060847245 0.16593695 -0.28945628 0.26250583
0.43386856 0.13057323 0.3087675 -0.001384643 -0.16813646 0.065775685 -0.23087288 -0.044117443
0.13962899 -0.013987482 0.08278253 0.19606021 -0.09053071 -0.045160074 0.07147974 0.13862073
0.14721231 0.099322826 -0.1313625 -0.40013078 -0.029494999 0.4025556 0.3268137 -0.20627707
0.10634189 0.025298767 -0.21282507 0.5751017 0.0540476 -0.029144816 0.014828242 0.28305203
0.39722538 -0.011973205 0.06202095 0.45259184 -0.038750686 0.38102517 0.21846786 -0.36502284
0.041708127 -0.6630588 -0.051953234 0.4385915 -0.79489493 -0.25328055 -0.41017708 0.43365026
0.12546085 0.045087457 -0.72448295 -1.0686314 -0.0094766915 -0.09187451 -0.08486279 -0.16614398
-0.02509346 -0.98316836 0.14927681 0.09044967 -0.16960545 0.051010914 -0.9366024 0.77682567
0.4539977 -0.7147026 -0.4784429 -0.008446953 -0.05422404 0.13316731 -0.74048257 0.28875968
-1.3680854 0.0347722 -0.76258504 0.28146556 0.18280669 -1.3198195 0.23161018 -0.22210233

network.6.bias f4 [64]
00000000: 747a 2a3f dd0b 093f 589f 2a3f b02f 1b3f
00000010: 75d9 9e3c 7aca 1a3f d671 93bd 3192 123f
00000020: 53e2 dcbd 2d8d 7bbd 5680 313f 804a e4bd
00000030: 2510 37be b892 7abd 2373 cb3e 58bb 023f
00000040: 6d7e 0ebe acda 223f 6ba7 103e 99f6 213e
00000050: 1f83 dbbd 7ccb a8bd b214 b63e 25a6 363f
00000060: c8ce d63e 4fa2 913a 08cf 34bd 4146 9ebd
00000070: 2639 023f 56ab c9bd 4ee5 3f3f 2366 27be
00000080: 8c58 e63e bee8 2fbe 64af e23e a06d 5cbd
00000090: bc99 b6bd c720 703e a3b0 123f dc83 da3e
000000a0: 8719 ecbd c5c2 d73e 83a8 193f b792 213f
000000b0: dd03 12be fa16 a0bd 08c6 e5bc 4b0d ddbc
000000c0: 426e ebbd 7f09 17be 51c3 f63e 7015 1a3f
000000d0: 5116 0c3f 99bd 1a3f 72db 253f f30d 023f
000000e0: a9d3 e2bd 892b ccbc a1dc 92bc 72ad 533f
000000f0: 1e57 17be db0e 3f3e 1bc3 b3bd d5d9 cbbd
0.665931 0.53533727 0.6664939 0.6061964 0.019390801 0.60465205 -0.07199447 0.5725432
-0.107853554 -0.061413933 0.6933645 -0.11147022 -0.17877252 -0.06117508 0.3973628 0.51067114
-0.13915415 0.63614917 0.14126365 0.15816726 -0.10718369 -0.082419366 0.35562664 0.71347266
0.41954637 0.0011110994 -0.044142753 -0.077282436 0.5086845 -0.09847133 0.74959266 -0.16347556
0.4498943 -0.17178628 0.44274437 -0.053815484 -0.08916041 0.23450004 0.57300776 0.42678726
-0.115283065 0.42140785 0.60022753 0.63114494 -0.14259286 -0.078168824 -0.02804853 -0.026983878
-0.114956394 -0.14749716 0.4819589 0.6018896 0.5472155 0.60445553 0.6478797 0.50802535
-0.11075527 -0.024923103 -0.01792747 0.8268653 -0.14779326 0.1865801 -0.08777448 -0.099536575

network.8.weight f4 [21, 64]
00000000: cf72 b93e 8620 053e ab58 603e 6ef0 233f
00000010: 27c9 603d f001 6b3e 40be c7bd d0ce 6d3e
00000020: f8a5 febd 29f6 97bc cfcc ca3e 6892 18bd
00000030: 2672 243d ce74 0c3c 1d29 193e 7341 8f3f
00000040: 512e 1dbe d7ac 443e 0d93 2cbf 7ec3 81bf
00000050: 04ef 62bb 1f57 c93e 7a22 193e 170c 913e
00000060: 1232 893e 92ff 9fbd 2048 f2ba 38d1 a8bd
00000070: ff9e 333e 2ef6 283f 27c3 83be ae90 cbbd
00000080: 7b29 b43e 8c22 e33d 2dc6 84bd 8b09 47bc
00000090: 3b5f f7bd 30b8 523e cfce 08bf b516 7f3e
000000a0: 29b2 47bf 1946 d13e b636 913e 8168 c43e
000000b0: 15d7 41bd 2e3f c3bc aade 3abc fb1c edbe
000000c0: 579c 99bb 9291 123e 2a60 753e c14e 6e3e
000000d0: e468 4e3e 2dd1 7a3e 31dd 443f 0704 cd3e
000000e0: c988 3b3d 27dc debc f96b babd 3c38 553e
000000f0: 48f8 503d f8e3 49bf 0828 2b3d 6837 24be
00000100: e658 c33e bdc9 3c3e f720 b43e dd9b 173f
00000110: 4931 e7bc 873c 0b3e e145 2abd 42a9 773e
00000120: de3e a93d 417c f23d 82c9 983e 1410 22bd
00000130: c0a5 20bd b5bf 553d b9b4 c63d b5b5 8a3f
00000140: 24c4 14be d833 553e 6f39 2fbf 73d3 79bf
00000150: da5c 863d a540 703e 9f0f 0e3e 8752 753e
00000160: 53ed 6c3e 1106 c0bd 3605 a4bd c209 e43d
00000170: 1616 9a3e 4536 243f 72fd 7cbe 563c 15bd
00000180: 1464 ba3e cc40 1e3d f6f7 1dbd 7073 0abd
00000190: a48e 99bd 3c0b 813e 9cf3 0fbf bf1b 953e
000001a0: e3e0 4cbf a497 b53e fb3f 783e 5580 bc3e
000001b0: 9048 d03d 007b 553d 764b 79bd f238 0bbf
000001c0: ca04 40bd 2d19 473d 6d54 943e cb45 8a3e
000001d0: 2853 323e b928 4e3e eb7b 2b3f 3503 c23e
000001e0: ce7d be3d 764e 3b3c b121 473d abbf 523e
000001f0: 2886 f93c 4a7a 56bf 4021 523b d466 1cbd
00000200: d363 b53e b83f 843e 1fee 923e c54e 2a3f
00000210: 57bb 5a3c 3da0 203e fb1e 9fbc 4c2e 743e
00000220: 8081 b53b 77a6 a3bc 3c21 a63e 98d5 b1bd
00000230: 408d 43bb b475 3f3d 4331 543e 5015 5b3f
00000240: f3f9 843d ae5e 543e 21fe 31bf e7e3 5bbf
00000250: b0d7 81bc 9a17 783e 4da2 453e b897 6e3e
00000260: 1dbd 093e 68a9 123c b975 1b39 a00b ac3c
00000270: b3f8 643e 23e9 193f 69da 41be 5303 163d
00000280: ad05 9c3e 688c 98bd cd33 d33c f107 0dbd
00000290: 88c0 8cbd 2a35 923e fc86 1ebf f751 9f3e
000002a0: d66f 40bf ac79 c03e dba7 6b3e bcd2 c53e
000002b0: 4022 9cbb 54c3 e4bd 5178 3cbd b77e 19bf
000002c0: 66cc 03bd 866c 8abd 4d05 763e 2984 9e3e
000002d0: 11f8 063e e04f 953e f9c2 2a3f 9cb6 c63e
000002e0: 25c4 f53c cbba 493e c4d8 a3bd 232a 733e
000002f0: 8873 f93d 0279 44bf 8e51 f5bd c7b0 13be
00000300: 5fdd c43e fe36 743e 5e2a a63e 62a2 373f
00000310: 5f81 ea3b c8d4 2b3e 0f03 23bd 9978 423e
00000320: 2a95 f83d 61e0 96bc dada 883e 9c49 0f3d
00000330: 58a6 7dbd e2df f1bd 938e eb3d 0563 563f
00000340: d8ff 873c 4ca8 913e 2c23 30bf 0f75 47bf
00000350: 1ebc b2bd af35 673e d7c9 2a3e 1067 973e
00000360: 8f93 d53d 1671 bd3d 4938 9d3d eea3 d5bd
00000370: 928f 803e 55d3 dc3e 0236 cfbd 24ec 00be
00000380: 08a9 993e dc55 0d3d 8c39 db3d f15f 93bc
00000390: 80a0 e33a c1b9 a53e 49ca 20bf 6c0f 773e
000003a0: bb1c 33bf bbde b33e d895 503e d2ed aa3e
000003b0: 257a e4bc 58e2 f63c 2d73 d2bd 8330 03bf
000003c0: 54f1 213d 366f 873d bcfa 583e 219d 883e
000003d0: 6847 823e 0d38 a43e e0cc 273f e7f9 b33e
000003e0: 46c4 b53d d05a 243e 7c80 6c3c 66de 803e
000003f0: 8e23 82bd c779 37bf 90ee d93c 5caa 373e
0.36220405 0.13000688 0.21908824 0.6403874 0.054879334 0.22949958 -0.09753084 0.23223424
-0.12434 -0.018549995 0.39609382 -0.037249 0.040147923 0.00857277 0.1495709 1.1191849
-0.153497 0.19206558 -0.6741188 -1.0137784 -0.0034627328 0.3932428 0.14954558 0.28329536
0.26796013 -0.07812418 -0.001848463 -0.0824303 0.17541121 0.6600064 -0.25734827 -0.09939705
0.35187897 0.11090574 -0.064831115 -0.012148271 -0.12078711 0.20578074 -0.53440565 0.24911006
-0.78006226 0.40873793 0.28362054 0.3836098 -0.04732426 -0.023833837 -0.011405626 -0.46311173
-0.0046878266 0.14313343 0.23962465 0.2327223 0.201572 0.24493857 0.7690001 0.40042135
0.045784745 -0.027204586 -0.091026254 0.20822233 0.05101803 -0.7886348 0.041786224 -0.16036761
0.38153762 0.18436332 0.351814 0.59222203 -0.028221743 0.13597308 -0.041570548 0.2418566
0.08263944 0.11840106 0.29841238 -0.039566115 -0.03922057 0.05218478 0.09702439 1.0836703
-0.14527947 0.20820558 -0.6844701 -0.9758827 0.06560679 0.2346216 0.13873146 0.23957263
0.23137407 -0.09376157 -0.080088064 0.11134674 0.30094975 0.6414531 -0.24706057 -0.036434494
0.3640448 0.038636014 -0.038566552 -0.033801496 -0.0749791 0.25203884 -0.56231093 0.2912273
-0.8003065 0.35467255 0.24243157 0.3681666 0.1017009 0.052119255 -0.06086298 -0.54383767
-0.046879567 0.048607994 0.28970662 0.27006373 0.17414534 0.20132722 0.6698596 0.37893072
0.09301339 0.011432281 0.048616115 0.20580928 0.030459478 -0.8378035 0.0032063276 -0.038184002
0.35427722 0.25829864 0.28697297 0.6652644 0.013350329 0.15686126 -0.019423952 0.23845786
0.0055391192 -0.019976838 0.3244723 -0.08683318 -0.002983883 0.04674311 0.20721917 0.85579395
0.064929865 0.20739242 -0.69528395 -0.85894626 -0.015849918 0.24227753 0.19300194 0.23300064
0.13451047 0.008951522 0.00014825807 0.021001637 0.22360496 0.60121363 -0.18930973 0.036624264
0.3047308 -0.07448655 0.025781536 -0.0344314 -0.0687266 0.28556186 -0.6192472 0.31117222
-0.7517065 0.37592828 0.2301325 0.3863734 -0.004764825 -0.111700684 -0.04601318 -0.59958977
-0.03217735 -0.067589805 0.2402546 0.30960205 0.13180567 0.29162502 0.66703755 0.38811195
0.030000756 0.19700162 -0.08000329 0.23746543 0.12180239 -0.76747143 -0.11978446 -0.14422904
0.38450143 0.23849103 0.324542 0.7173215 0.0071565355 0.16780388 -0.03979784 0.18991317
0.12137826 -0.01841754 0.2672947 0.03498231 -0.061926216 -0.118102804 0.11501803 0.8374484
0.016601488 0.28448713 -0.6880367 -0.7791299 -0.08727287 0.22579072 0.16678558 0.29570818
0.10428535 0.09250085 0.07676751 -0.10431658 0.25109535 0.43129984 -0.10117723 -0.1259008
0.30011773 0.03450571 0.107043356 -0.017990084 0.0017366558 0.3236828 -0.6280866 0.24126977
-0.69965714 0.35130867 0.20369661 0.33384567 -0.027890274 0.030137226 -0.10275874 -0.512459
0.03953679 0.06613009 0.21189398 0.2668238 0.25445104 0.32074013 0.6554699 0.35151598
0.08875327 0.16050267 0.01443493 0.25169677 -0.06354438 -0.7167019 0.026603013 0.1793608

network.8.bias f4 [21]
00000000: 8b42 de3e fc91 1e3f c2f1 0d3f d1d2 183f
00000010: fd66 0c3f 21ab 083f 7fff 173f 11e9 163f
00000020: 18ea 0d3f d06b 233f f9e9 0d3f a141 e83e
00000030: 8c82 243f f151 273f 7359 163f b2f4 0b3f
00000040: 9d0a 2c3f 5529 353f 07c9 3a3f 6622 2a3f
00000050: 576d 1d3f
0.43410143 0.61941504 0.5544702 0.5969668 0.5484465 0.5338612 0.5937423 0.5894938
0.55435324 0.63836384 0.5543514 0.4536257 0.642617 0.6535941 0.5873024 0.5467025
0.67203695 0.7076619 0.72962993 0.6645874 0.61494964
