model/model_116.pth (torch, 35975 bytes, 10 tensors)

network.0.weight f4 [16, 6]
000000 34 77 94 be 7b e8 08 bf 9d cc e5 3c e3 3a 93 3d
       -0.28997195 -0.5347974 0.028051669 0.07188966
000010 78 94 2c bf 2d f0 88 3c a9 48 d3 be 3b ab 5f be
       -0.67414045 0.016716087 -0.41266373 -0.21842663
000020 c0 e7 44 3e ec 78 bf bc 1c f9 1b bc 44 01 90 3e
       0.1922903 -0.02337309 -0.0095198415 0.28125966
000030 d5 69 98 be a1 70 df be 49 0d 12 be 04 4f d7 be
       -0.29768243 -0.43640617 -0.1426288 -0.42052472
000040 61 6e 0f 3f 88 b7 e5 bd 44 cb 13 3e d5 a3 ba bc
       0.560278 -0.112166464 0.14433008 -0.0227832
000050 7e b6 01 3f a4 c0 d1 3e 83 f7 be be 98 12 4a 3d
       0.50669086 0.40967286 -0.3729821 0.04933414
000060 af ad e0 be a5 42 50 3f 86 c3 98 bc 5b a1 03 bf
       -0.4388251 0.8135169 -0.01864792 -0.51418084
000070 32 01 ef 3e 40 a1 f4 3b 5e d6 d5 3e 37 25 88 3f
       0.466806 0.0074655116 0.41765112 1.0636357
000080 a0 ac 37 3e df b2 f8 be 60 56 aa 3e ca 7f 5d be
       0.17936945 -0.48573968 0.33269024 -0.21630779
000090 f0 e5 97 be b3 1e 09 3f 93 3b 09 be 17 d3 2f bc
       -0.29667616 0.5356247 -0.13401632 -0.01073148
0000a0 bf 18 32 bf 4c c9 85 3e 8f a6 6a 3e 07 40 2b bf
       -0.6956901 0.2613014 0.229151 -0.6689457
0000b0 99 0d d1 bc be 5b 5c be 6b 6a 6d 3d de 1f 72 3e
       -0.02551918 -0.21519372 0.057962816 0.23644969
0000c0 2f 0e 53 bf f3 a6 18 3f bc 47 12 bd 7c f9 65 3f
       -0.8244352 0.59629744 -0.035712942 0.8983381
0000d0 08 3e 47 3f e8 8a 82 be 87 f6 45 3e 15 66 70 be
       0.7782903 -0.25496602 0.19332324 -0.23476441
0000e0 59 f3 23 3d 26 8a 2e bf 23 82 d5 3c ca 7a 38 3e
       0.040026996 -0.6817955 0.02606303 0.1801559
0000f0 64 b9 84 3d 68 e8 66 bf 1b 06 29 be e9 20 f3 bd
       0.06480673 -0.90198374 -0.16506235 -0.118715115
000100 ad 1a 17 3f 42 eb ee bc 50 10 f5 3e c9 3f 99 be
       0.5902508 -0.029164914 0.47864008 -0.29931477
000110 83 da 09 3e c5 49 8f 3d c0 4a 37 3f 2e 53 11 be
       0.13462262 0.06996492 0.71598434 -0.14191887
000120 75 c3 13 3f d9 63 9a bf 1d f5 3f be 3e a8 03 be
       0.5772012 -1.2061721 -0.18745847 -0.12857148
000130 6c 2a 01 bf 52 af 7c bd f0 ad 9d be 4f f6 2d be
       -0.50455356 -0.061690636 -0.30796766 -0.1698849
000140 02 50 58 3e 80 e3 20 bf e2 74 9c be 75 e4 24 bd
       0.2112427 -0.6284714 -0.30557925 -0.040256936
000150 4f 5d 97 be 3c 15 ee 3e 8c 74 73 3d ef b1 d4 be
       -0.29563376 0.46500576 0.05943732 -0.41542003
000160 e3 a3 1c bf b3 80 43 be 7f 3d 17 3f a8 57 49 bf
       -0.6118757 -0.19092064 0.5907821 -0.7864938
000170 6b 34 82 bc fb c8 82 3e a1 e5 a5 be 2c 48 21 be
       -0.015894135 0.2554396 -0.32401755 -0.15750188

network.0.bias f4 [16]
000000 8e db a2 be e6 71 41 3e e5 54 34 3d a5 b6 40 3e
       -0.31808132 0.18891105 0.044026274 0.18819673
000010 72 54 1a 3a 11 1a 13 3e 41 5c 5f be 97 31 c8 3d
       0.0005887217 0.14365412 -0.21812536 0.097750835
000020 4e ae 1e 3e bf 5a 7e 3d fb 25 87 3d 64 d8 c1 3e
       0.1549618 0.06209826 0.06599041 0.37860405
000030 2c 27 b4 3e f6 f2 06 bd 48 3e 99 3e f8 85 fd be
       0.35186136 -0.03294655 0.2993033 -0.49516273

network.2.weight f4 [32, 16]
000000 aa cf 0c 3d 1d 37 85 3b fe 24 57 be 2d 93 ef bd
       0.03437773 0.004065408 -0.21010205 -0.116979934
000010 2a 52 2d 3d bb be 12 3e eb 7b c9 bd 91 f0 9a 3e
       0.042314686 0.1433057 -0.098380886 0.30261663
000020 9c da 81 be 28 b1 a1 3d 48 22 af 3d e7 e6 1c 3c
       -0.25362098 0.07895118 0.085514605 0.009576536
000030 5e 45 95 be 10 ce 18 be af 7e 5e 3e 43 6c 7a bd
       -0.29154485 -0.14922357 0.21728013 -0.061138403
000040 7e da 42 bf c5 64 c0 be f8 36 a5 bc be 7b 24 bf
       -0.7611464 -0.3757688 -0.020167813 -0.64251316
000050 25 24 83 3d 12 f3 86 3e 24 50 3b be e4 76 00 bf
       0.064033784 0.26357323 -0.1829229 -0.5018141
000060 3e d7 d8 3d 83 42 2a 3d e4 ae 4d bd a1 5d 1a be
       0.10587929 0.041567337 -0.050215617 -0.15074779
000070 b8 cd 5d 3d 88 8f 14 bf ad 18 21 be d9 0c 4e be
       0.054151267 -0.5803151 -0.1573207 -0.20122088
000080 d8 1a 12 3d 28 ac 7a bd 36 c6 44 be 76 5f 19 be
       0.03567013 -0.061199337 -0.19216236 -0.14977822
000090 80 a5 32 bd f0 c1 8d bc b8 8d 0e be 00 3d ec 3c
       -0.043614864 -0.01730439 -0.13921249 0.02883768
0000a0 50 ee 53 bd f0 a8 ee 3d d0 ae 9f 3c 08 b9 49 3d
       -0.051740944 0.11653316 0.019492537 0.049248725
0000b0 fe 13 5a be b8 f4 3e bd 78 df 3c be d8 18 2d bd
       -0.21296689 -0.0466201 -0.18444622 -0.04226002
0000c0 12 6b b6 3e 11 aa 05 3e 1e 7b a8 bb cd 18 3b 3e
       0.35628563 0.13053156 -0.00514163 0.1827118
0000d0 9e 19 50 3e 8e a6 b1 bc c7 b5 c7 bd 07 87 fa bc
       0.20322272 -0.021685865 -0.09751468 -0.030581964
0000e0 5c 49 1c 3d 17 22 ce bd 21 86 0d 3e bb 85 98 be
       0.0381559 -0.10065096 0.13820697 -0.29789528
0000f0 ff 4c 95 bd b1 4e fd bd 1a 68 50 3d 35 3b a6 bd
       -0.072900765 -0.12368525 0.05088053 -0.081167616
000100 5a f9 a7 bd f0 c1 a9 be 67 da 6a be d0 9f 8e 3e
       -0.08201857 -0.33155775 -0.22934876 0.27856302
000110 5e 7c 3b 3c 65 79 c6 bd 0d 70 d1 3b 53 c6 d3 be
       0.011443226 -0.09691123 0.0063915313 -0.41362247
000120 3e a3 6e 3d 6a 04 7d 3e a5 df 3b bd 90 1c bd bc
       0.05826115 0.24708715 -0.04586758 -0.023084909
000130 21 48 79 be 6a 23 ed bd 6b 0e 3d 3e 9b ca 79 3e
       -0.24343921 -0.1157902 0.18462531 0.24393694
000140 aa 96 7a bf 8c ad 5b 3d 69 f2 86 3e e4 fe 88 bd
       -0.97886145 0.053632304 0.2635682 -0.066892415
000150 1a 60 b3 3e 35 4a e7 be 14 84 c6 be 50 43 e9 bd
       0.35034257 -0.45173803 -0.38772643 -0.11389792
000160 c4 a5 05 bf f6 fc 2b be b4 b9 11 3e 87 84 66 3e
       -0.52206063 -0.16795716 0.14230996 0.22511493
000170 8a d0 43 3d 88 2c 1d 3e b7 91 0f 3e 9e 92 24 3e
       0.0478063 0.15349019 0.1402043 0.16071555
000180 41 2a 21 bf 6c 42 b4 3d b6 d3 55 be cb 5b cf 3e
       -0.629551 0.088017315 -0.20881543 0.4049972
000190 fc 09 66 be 54 33 9b bd 36 03 ca 3e d5 da d0 bd
       -0.22464746 -0.075781494 0.39455575 -0.10197989
0001a0 cd 96 3c bd c2 f1 77 be 0e 36 4a 3e 30 48 74 3e
       -0.046042252 -0.24213317 0.19747183 0.23855662
0001b0 d6 62 f8 3d 67 3c 8f be 14 01 d1 3d d7 24 13 be
       0.121282265 -0.2797577 0.10205284 -0.14369522
0001c0 2f 71 1d 3f bf a3 96 be 7f a8 91 3d 64 b8 61 3e
       0.6150083 -0.29421803 0.07112216 0.22042996
0001d0 c0 50 d0 3d a5 3d 92 3d b4 59 cb 3d c3 00 15 3e
       0.10171652 0.07140664 0.09929219 0.14551072
0001e0 c8 73 20 bd 49 b2 ac 3c 41 44 7f 3e bf 52 af bc
       -0.039172918 0.021081107 0.2492838 -0.021401761
0001f0 a1 1d 99 bd 6c d5 a0 bd 3e b6 86 be 79 28 9c be
       -0.074763544 -0.07853207 -0.26310915 -0.30499628
000200 d6 89 b2 3e a5 f8 bc 3c c0 10 91 3e 8a 93 fe bd
       0.34870785 0.023067782 0.28333092 -0.124304846
000210 9a bc 60 3e 72 fa ab 3d d7 6e 84 3e 72 b1 24 3e
       0.21946946 0.08397378 0.25865814 0.16083315
000220 9b 84 c6 3e ff 7b d0 be cd 45 68 3e d1 52 57 3e
       0.38773045 -0.40719602 0.22682877 0.21027686
000230 db e6 b9 3e 79 cf 44 be 96 18 d4 be 72 a6 28 be
       0.3630894 -0.1921977 -0.41425008 -0.16469744
000240 b3 c1 93 3e 27 d8 53 bd c8 4f 95 3d 3b f4 77 bd
       0.28858718 -0.05171981 0.07290608 -0.06053565
000250 cf 8c a6 3e 4f 0c 22 be 7c 23 b9 be ab 8d 11 3e
       0.32529303 -0.15825008 -0.36159885 0.14214198
000260 84 6e 0f 3e c6 8f 26 3e e4 28 50 3e 9d 40 db bd
       0.14007002 0.16265783 0.20328099 -0.107056834
000270 cb c6 5a 3e 12 65 47 3d 15 74 7c 3e 2f 95 ad 3c
       0.21364896 0.048680373 0.24653657 0.0211893
000280 1f d3 07 bf 71 f5 24 bf b1 71 94 bd d3 83 3f 3e
       -0.5305652 -0.64437014 -0.072482474 0.1870263
000290 40 15 1b 3c ad 28 da 3d f4 65 10 3e 75 7c a1 bd
       0.009465516 0.106522895 0.14101392 -0.078850664
0002a0 32 04 a5 be d6 f4 08 3e 7c bb f6 bd 91 25 be bd
       -0.32229763 0.13374647 -0.120474786 -0.09284509
0002b0 b0 d6 46 bd 5a 78 ea be 47 98 df 3d d7 1d c4 3e
       -0.048544586 -0.45794946 0.109177165 0.38304016
0002c0 44 22 9e 3b 8d ed 29 3e 52 96 d0 3e 17 ef 92 3d
       0.004825862 0.16594525 0.40739685 0.07174509
0002d0 57 f2 1c 3e 55 f2 ae bd 95 f2 ed 3c 24 a1 e5 bb
       0.1532682 -0.08542315 0.029046336 -0.007007735
0002e0 45 19 38 be df cc 47 3e 05 82 71 bd 6e 17 ab bd
       -0.1797839 0.19511746 -0.058961887 -0.08354078
0002f0 1c 75 b2 38 b8 d8 b5 bd 1c 37 62 be 8f 17 2b 3f
       8.509515e-05 -0.088792264 -0.22091335 0.6683282
000300 4d b6 31 3e 64 4e ba 3c 14 be 48 3e 6b 5c 8b be
       0.17354698 0.022742458 0.19603759 -0.27218947
000310 1a 95 18 be a6 7b d5 bd 68 3f 95 3e 2f 0c 4a be
       -0.14900628 -0.10423975 0.29149938 -0.1973121
000320 51 c8 38 3e 56 fe 0c be fd 10 93 bc f0 de 65 be
       0.18045165 -0.13768896 -0.017952437 -0.22448325
000330 fb d1 92 be 32 f7 ba 3c 12 45 d3 3d bc 27 57 3d
       -0.28675827 0.02282295 0.103159085 0.052528128
000340 90 60 ad 3e ec 69 6a be cb 82 23 be 0a ba 1f bc
       0.33862734 -0.22891968 -0.15967862 -0.009748945
000350 91 7d 4f bd 92 1c 1d be 5c 23 9e 3e 9b 85 f2 3d
       -0.05065686 -0.1534293 0.30886352 0.118418895
000360 9b 89 29 bb f0 bf 06 3e 84 9c 8c bb c5 8e ce 3d
       -0.0025869373 0.13159156 -0.004291119 0.10085825
000370 b9 a4 cf be 54 f3 aa be d7 b3 6f 3e 40 12 d0 3e
       -0.4055536 -0.3338877 0.23408447 0.40638924
000380 67 1b 9b 3e 3a bd e8 3d e4 97 c9 bd 1c 80 86 bd
       0.30294344 0.11364217 -0.09843424 -0.06567404
000390 bf 96 44 bd 9e 34 2b 3e 40 e1 78 3e f8 c4 6a 3e
       -0.047995325 0.1671929 0.24304676 0.229267
0003a0 58 2d eb bd e5 3d 68 3d cc 72 61 3e 72 91 b1 3d
       -0.11483258 0.056699652 0.22016448 0.086703196
0003b0 95 df d0 bc cb 80 02 3e 13 cf 66 bd 30 17 83 bc
       -0.025497237 0.12744443 -0.056349825 -0.016002268
0003c0 03 81 ad 3e a1 23 6e 3d 9a bd 15 3e 81 3e 86 3d
       0.3388749 0.058139447 0.14623109 0.065548904
0003d0 ee 2f 62 bf 3e 23 d1 bd cc 11 a2 3e d2 cc 9f bc
       -0.88354385 -0.102118 0.31654203 -0.019506846
0003e0 de 3a 11 3e 7c 9e 9a bc ae 13 51 3e bf eb 2a be
       0.14182612 -0.0188744 0.20417663 -0.16691492
0003f0 f9 52 5c 3e 5e 5e e5 3e 85 c3 ef bd e9 d7 ca be
       0.21516027 0.4479856 -0.11707214 -0.3961785

network.2.bias f4 [32]
000000 f1 49 8d 3e 4a 26 72 3e a6 83 57 be 50 5b 58 3e
       0.27595475 0.23647419 -0.21046314 0.21128583
000010 1a c1 67 3e 0a db 39 bd a6 7b 2d 3e 29 d8 1f be
       0.22632256 -0.045374908 0.169417 -0.15609802
000020 c2 47 08 be bf 69 62 3d fe e2 db 3d 02 b9 35 3e
       -0.13308623 0.05527663 0.10736655 0.17746356
000030 33 ed a5 3e 82 e1 2e be 68 88 b6 3e 33 2d 2b be
       0.3240753 -0.17078212 0.35650945 -0.16716461
000040 c0 89 a4 3d 0e 20 45 be 86 af 98 be 51 7e 3e 3e
       0.08034086 -0.19250509 -0.29821414 0.18602873
000050 07 5f db bd af ed b4 3d 82 11 60 3e 0a 16 20 3e
       -0.107114844 0.08834397 0.21881679 0.15633407
000060 f1 44 4a be 92 51 91 bd 9b 17 6f be 67 b2 3e 3e
       -0.19752862 -0.070956364 -0.23348849 0.18622743
000070 e6 b9 97 bd 49 4e 16 3e b2 ef bb 3e 1b 64 83 3e
       -0.07408504 0.14678301 0.3670631 0.25662312

network.4.weight f4 [64, 32]
000000 08 ce 83 3e 21 ed 32 be 75 36 05 bd 0a d4 ad bd
       0.25743127 -0.1747327 -0.032522637 -0.08487709
000010 70 c7 f4 bc b3 d1 4b 3e bf f9 18 be 10 c1 32 3e
       -0.029880255 0.19904213 -0.1493902 0.1745646
000020 05 4d 0d be 62 5e 08 bd 75 a7 61 3e 0b 5f cc bd
       -0.13798912 -0.033293135 0.22036536 -0.099790655
000030 b9 55 9f bd 41 8c c6 bd 7a c0 0e 3e fa 48 49 3d
       -0.07780022 -0.0969472 0.13940611 0.04914186
000040 98 24 b2 3d 95 b4 62 3d ef 92 28 bd 2d 5d ea 3d
       0.08698386 0.055347998 -0.04115575 0.11443553
000050 59 e3 ba ba a0 34 cd 3d 30 06 91 3e 08 66 04 3e
       -0.0014258429 0.10019803 0.28325033 0.12929547
000060 0c 5a 04 3e b2 c6 9c bd 4d b9 e8 bc 08 21 18 be
       0.12924975 -0.076550856 -0.02840867 -0.1485635
000070 49 ee a8 be 36 68 45 3c 42 0b 33 3e 8b 4c 33 bb
       -0.32994297 0.012048772 0.17484763 -0.0027358856
000080 d3 ac 15 3e 5e af 12 3e fc 10 bb 3b 45 cc b6 bd
       0.14616708 0.1432471 0.005708812 -0.0892568
000090 3c 9f 2c 3d 72 a1 18 3e 84 39 5b bd 4d a9 1f be
       0.042144045 0.14905336 -0.053521648 -0.15591927
0000a0 87 ae eb bd 21 e5 06 3e cf 27 03 be 83 22 b6 bd
       -0.11507898 0.13173343 -0.12808155 -0.08893301
0000b0 51 57 00 be 83 31 86 bd f3 e8 ae bd cc a7 09 3e
       -0.12533309 -0.06552412 -0.08540525 0.13442916
0000c0 28 6c 11 3e 3b c3 eb 3c 35 a5 0b be 60 41 fa bd
       0.14201415 0.028779617 -0.1363724 -0.122195005
0000d0 e8 21 d3 3d 62 fa 97 bd 9c 4c 0f bc 92 cc 10 be
       0.103092015 -0.074208036 -0.008746292 -0.14140537
0000e0 ce 43 33 bd 37 99 06 be 77 d1 01 3d c0 d6 76 bd
       -0.043765835 -0.13144384 0.031693902 -0.060263395
0000f0 b4 e5 20 3e 6f f3 a8 3d ab 6a e6 bd d4 58 0b bd
       0.15712625 0.08249556 -0.11250814 -0.03402026
000100 30 23 fc bc 9f 2e 4f be 4e da e0 bd 1a 7d 32 3c
       -0.030778497 -0.20232628 -0.10979138 0.010894084
000110 52 42 17 bd 26 18 c6 3e 8a fb cf bd 52 bd a3 3e
       -0.036928482 0.386903 -0.10155399 0.31980377
000120 1b b2 50 3e f6 10 68 3e 0b 5b a7 3e c7 18 b8 3d
       0.20380442 0.2266272 0.32686648 0.08989101
000130 47 f2 e8 bc 71 df c7 be d8 49 a5 bd 7d 63 9d 3e
       -0.02843584 -0.3903766 -0.08070725 0.30739966
000140 4c 84 51 3d 10 26 05 be 9e b0 76 bc e4 fb c9 3d
       0.05115156 -0.13002801 -0.015056757 0.098624974
000150 de dc 45 be ac 3e 08 bb 39 60 8b 3d 0e de 6e bd
       -0.19322535 -0.0020789308 0.068054624 -0.058317237
000160 78 83 8c 3e 67 7b af 3d 8c e7 f3 bd 26 cf 03 3d
       0.27444053 0.08568459 -0.119093984 0.032179974
000170 f6 67 03 bf a1 03 41 3d 13 4b 47 3e 4d f9 7a 3d
       -0.51330507 0.0471226 0.19462232 0.061272908
000180 94 64 2d 3e 04 94 a0 be 9e 03 0c bd af 9c a2 3d
       0.16932899 -0.31362927 -0.034183137 0.07940041
000190 0f 04 ae 3d fd 2d 96 3e 7f a9 a6 bd 56 fe ad 3e
       0.08496868 0.2933196 -0.081377976 0.33983105
0001a0 e3 fe 31 3e 1d fe 12 3c df c9 06 3f f6 e9 82 3d
       0.17382388 0.008971718 0.5265178 0.06392281
0001b0 ca 25 77 bc 98 ef 9a be 9d 37 15 3c 6d df 1b 3e
       -0.015084693 -0.3026092 0.0091074975 0.15221949
0001c0 a8 ac 50 3e 52 e0 ff 3d 86 bc 25 be 46 da 23 3e
       0.20378363 0.124939576 -0.16185197 0.16001233
0001d0 4f 86 61 be fe 1e 45 3d 1d c9 9b 3d 34 4f b2 3d
       -0.22023891 0.04812526 0.07606719 0.08706513
0001e0 e9 af f3 3d 2c 4c 41 3d 0e 59 30 bd a7 40 4e 3d
       0.118987866 0.047191784 -0.04305368 0.050354626
0001f0 e9 11 64 be 49 8e 3f 3c 00 73 05 3a dc e2 ff bc
       -0.22272457 0.011691638 0.00050906837 -0.031236105
000200 37 01 ca bc cb c3 89 3d b9 b0 22 bd 7b 35 08 3e
       -0.024658782 0.06726798 -0.039719317 0.13301651
000210 78 a5 e0 3c 6f 33 92 bd 64 c1 e4 3c fb 92 7b bd
       0.027422652 -0.071387164 0.027924247 -0.06141947
000220 3e ae c7 bd a0 38 b6 bb 7a d7 09 be e7 75 2e be
       -0.09750031 -0.0055609494 -0.13461104 -0.17037164
000230 bc 46 97 bd 69 c8 79 bd 61 8d 14 3e ee a6 0d be
       -0.073865384 -0.06098214 0.14507057 -0.1383321
000240 50 f4 b4 3c 16 97 f7 bd 50 b7 07 be bb 4e f9 3d
       0.022089154 -0.12089364 -0.13253522 0.1217322
000250 50 33 19 be bb a3 2a 3c a4 cb 36 be 60 6a 35 bd
       -0.1496098 0.010415013 -0.1785112 -0.0442909
000260 c4 52 c3 bc 18 a2 ba bd 0f 2e d4 bc 71 66 3c be
       -0.023843177 -0.09112948 -0.025900869 -0.18398453
000270 6b 13 84 bd e3 16 b2 3d 91 ae fa bd f9 83 6a 3d
       -0.06449016 0.086957715 -0.12240327 0.057254765
000280 ec da 92 3e c7 22 38 bc 4b 58 bf bc 3a de b6 3c
       0.2868265 -0.01123876 -0.023357531 0.022322763
000290 9c 96 ec bd 15 7d 7c 3e 36 d4 1d be 01 88 5a 3e
       -0.11552164 0.2465709 -0.15412983 0.21340944
0002a0 c6 fc b3 3d bf f3 6d 3e ff ff cf 3e 80 69 0f 3e
       0.08788447 0.23237513 0.40624997 0.14005089
0002b0 98 ae 4a 3e 36 02 5f be bc 20 b3 bd 0a 77 2d bc
       0.19793165 -0.21778187 -0.08746478 -0.010587463
0002c0 28 a9 be bc b5 27 fa bd 10 26 01 be 08 e5 f2 3d
       -0.02327402 -0.12214605 -0.12612176 0.118600905
0002d0 e6 5a 51 be 70 59 86 3e 64 3c 9b 3d d4 9e 27 bd
       -0.20444831 0.2624011 0.07579878 -0.040922955
0002e0 70 b7 15 3e 7b e4 ea 3d 15 58 a6 be 8b ab d8 bd
       0.14620757 0.114693604 -0.32489076 -0.10579594
0002f0 e7 b7 ea bd a0 2d 00 3e e2 e1 08 3e 75 42 00 3e
       -0.11460858 0.12517405 0.13367417 0.12525351
000300 ce e1 fa bd 7c 90 42 bf 6d 50 2a 3e a5 72 e9 3d
       -0.122501 -0.76001716 0.16632243 0.1139882
000310 5d 25 08 be 58 0d 7a 3e fc 5d bf 3d 62 67 2b 3e
       -0.13295503 0.24419153 0.09344098 0.16738656
000320 9d 5c df 3d 8a ad 6d be 7c 72 cd 3e c8 66 e5 bd
       0.109063365 -0.23210731 0.40126407 -0.112012446
000330 69 80 ee bd 72 76 59 be be c6 4d 3e 4d a0 c9 3d
       -0.11645586 -0.2123659 0.20095345 0.09845028
000340 52 47 44 bd 3a fa 2d bd 08 5c ff 3e 31 16 00 be
       -0.04791958 -0.042474963 0.49874902 -0.12508465
000350 cd b8 a1 bc 92 9e b6 3e a4 de 10 be 8e c0 b3 bd
       -0.01974144 0.35667855 -0.1414743 -0.08776961
000360 b5 3a be be 88 41 88 bd 0e 98 94 be 76 fd 64 be
       -0.37154165 -0.06653124 -0.2902226 -0.22362313
000370 70 7c bc bd c5 cd 0b 3e f6 61 df bd d3 d5 d1 bd
       -0.09203422 0.13652714 -0.109073564 -0.10245862
000380 d0 f8 5a 3e 49 c1 76 3e 07 a2 11 3c e0 de 9d 3d
       0.21383977 0.2409717 0.008888728 0.07708526
000390 bd bd d4 3c 21 22 cf bd 57 aa af 3e 34 79 85 bc
       0.02596938 -0.101139314 0.34309646 -0.016293146
0003a0 b4 1e 3e bf 68 97 44 3c 9c 6f aa be cb 33 c5 3e
       -0.742656 0.011998989 -0.33288276 0.38516077
0003b0 ff af 3a be ce 9f 3e bf d4 93 b2 bb 33 af 9e be
       -0.182312 -0.7446259 -0.0054497514 -0.3099304
0003c0 91 df 61 be 4e db 76 3d b0 a5 09 3f a6 35 84 3e
       -0.2205794 0.06026774 0.53768444 0.2582218
0003d0 5b e8 23 3f 6d a2 4a bf a7 00 83 be 67 75 03 be
       0.6402642 -0.7915409 -0.25586435 -0.12837754
0003e0 37 f7 b3 be e3 23 03 bf 58 58 fe 3e 48 92 d2 3c
       -0.35149547 -0.51226634 0.49676776 0.025704518
0003f0 3c e2 3e be 93 ec 79 3d 57 df c2 bd ce 1a 26 3d
       -0.18640989 0.06101663 -0.09515255 0.040552907

network.4.bias f4 [64]
000000 60 95 95 bd 49 6b f3 bc 89 2c 26 3e 79 61 be 3c
       -0.07303882 -0.029714243 0.16227926 0.023239838
000010 9d fd 90 bd aa 80 3c 3e cf 7e 4b 3e 34 36 87 3e
       -0.07079623 0.18408456 0.19872592 0.2640854
000020 24 69 2d 3e a0 fa 0d bd be 07 8d be 38 b7 c0 3d
       0.16934639 -0.034662843 -0.2754497 0.09409946
000030 c4 be f5 bd 1a 8c 93 3d ed 99 80 3d 0d 25 88 3e
       -0.11999276 0.072044566 0.06279359 0.26590768
000040 d2 59 12 bd 99 ff ce bd 5b 5d 53 3e e7 65 17 3e
       -0.03573019 -0.10107345 0.20641081 0.14784966
000050 be bb 0d be a0 fc f2 3c ba f5 ba 3c cc d7 55 3e
       -0.13841149 0.029661477 0.02282225 0.20883101
000060 c7 f8 f4 bd 91 f7 ba 3c 1d 83 9e 3e 01 1c fa 3d
       -0.11961513 0.022823127 0.30959406 0.122123726
000070 3b 3a 93 3e 87 ea 6b bd 9f 74 23 3e f8 31 13 3e
       0.28755364 -0.05759671 0.15962456 0.1437453
000080 28 43 8a 3e 20 fa 6b 3e b6 d1 01 3e a3 7b 34 3c
       0.2700436 0.23044634 0.12677655 0.011015805
000090 4a 3e ad 3e b3 93 bc 3d 10 ad 9d 3c ec 49 26 3e
       0.33836585 0.09207859 0.019247562 0.16239136
0000a0 27 a2 84 3e 47 25 8a 3c 76 20 a1 3d de 8f 57 be
       0.25904962 0.016863478 0.078675196 -0.21050975
0000b0 d3 9e ed 3d 06 31 9a 3e 3f f4 f1 bc eb 08 35 bd
       0.11602559 0.30115527 -0.02953541 -0.044197958
0000c0 51 f2 9e 3c 72 79 ab 3c 6a 79 1a 3e b5 db 96 3e
       0.019402655 0.020931933 0.15085378 0.29464498
0000d0 d6 dd a2 3d 5d a2 a4 3e 32 27 e2 3c f0 ae 86 bc
       0.07952468 0.32155123 0.02760658 -0.016440839
0000e0 b3 94 33 bb 12 ae d3 3d 9c d0 82 bd ed d9 fb bd
       -0.0027401864 0.10335936 -0.06387445 -0.122974254
0000f0 f1 89 a5 3e f1 28 30 3e 6f 58 a8 3e 6e 37 6c 3e
       0.32331803 0.17203118 0.3287997 0.2306802

network.6.weight f4 [64, 64]
000000 ff d9 09 bd d0 82 81 bc 82 e4 35 3e 21 76 8d 3d
       -0.033655163 -0.015809447 0.1776295 0.06907297
000010 56 e2 85 3d b9 dd 7a 3c 2f 71 a3 3e d7 0e 10 bf
       0.06537311 0.015311652 0.3192229 -0.56272644
000020 fd 1d 43 3e ed 0b 63 bd b0 35 e5 be 70 52 2a 3e
       0.19054408 -0.055431295 -0.44767523 0.1663301
000030 e2 70 59 3b 90 a2 69 3e 97 9b 91 3e 8b 0d 77 3e
       0.0033178856 0.22815919 0.28439018 0.2412626
000040 63 61 a3 3d 38 bc 9d bc b5 48 5e 3d e4 da fe b9
       0.079775594 -0.019254789 0.054268558 -0.00048609741
000050 a6 86 53 bd 3d bd 29 3e 2d 27 6f 3e 42 a0 29 3d
       -0.051642083 0.16576095 0.23354788 0.0414126
000060 70 4d 86 3c f0 a9 39 bd 64 02 63 3e 64 0f a8 3e
       0.016394347 -0.04532808 0.2216888 0.32824242
000070 a6 ba d1 3d 57 fc 7a 3e 54 47 88 bc a3 83 43 3e
       0.102406785 0.24510323 -0.016635574 0.19093184
000080 7d ce 41 3e 68 9c 4e 3e 87 63 20 3e 8f 6d 14 bf
       0.18926425 0.20176852 0.15662967 -0.57979673
000090 45 4d 80 3e 19 ae 3c 3e de 35 2f 3e 82 0d 94 bc
       0.25058952 0.18425788 0.17110392 -0.018072847
0000a0 a3 12 95 3d d3 f7 4f bf 51 1a 9b 3d 81 26 0b bc
       0.07278945 -0.81237525 0.07573379 -0.008493067
0000b0 6b 87 51 3b e4 df ac 3d cf 19 ba 3d 77 48 24 3e
       0.0031971585 0.08441141 0.09086954 0.16043268
0000c0 38 42 2e 3f 58 a2 0a 3e a4 c4 3e 3e 18 a1 33 3e
       0.6806979 0.13538492 0.186297 0.17541921
0000d0 e8 9e 8c 3d 34 6c f0 3d 72 91 03 bc 34 98 11 3e
       0.068662465 0.11739388 -0.008030282 0.14218217
0000e0 97 2e 42 3d f6 c3 17 3e 17 99 55 bc a6 49 87 3d
       0.047407713 0.14820847 -0.013036988 0.06605844
0000f0 55 91 0c 3e d1 1f 3c 3d 68 9d 35 3e b3 e5 8c 3c
       0.13727315 0.04592878 0.17735827 0.017199373
000100 f9 fd 62 3d 78 9f 41 3d ae cc 00 3e 09 14 b1 3d
       0.05541799 0.047271222 0.12578079 0.086463995
000110 7f 8c b0 bd 04 fa 3a 3d 3c 1f 54 3c 31 74 46 bf
       -0.086205475 0.04564859 0.0129469 -0.77521044
000120 8a 52 fa 3d 40 94 31 3c 6d 78 a8 be 75 ae eb 3d
       0.12222774 0.010838568 -0.32904378 0.115078844
000130 d7 a1 21 3d 36 d5 04 3d 88 24 b8 3e c3 46 40 3b
       0.039460983 0.032429896 0.3596537 0.0029339052
000140 ee 47 06 be 60 e5 c1 3c e1 8b be 3c 1e 46 18 bd
       -0.13113376 0.023668945 0.023260059 -0.037176244
000150 b3 e0 cc 3d 47 b0 5e bb 89 16 fc 3e c6 9d c9 3d
       0.100037955 -0.0033979581 0.49235943 0.09844546
000160 b9 8a fa bc 02 cc 05 be e9 3a 9b bc 4e 94 c1 3e
       -0.030583726 -0.13066104 -0.018948989 0.3780846
000170 d2 20 ab 3d 04 6a ce 3d 3b 9a 03 bc ef 36 cf 3d
       0.08355869 0.100788146 -0.008032377 0.101178996
000180 b1 a6 84 bb 71 a6 df 3d d6 04 d8 3c a3 a1 e4 be
       -0.0040481915 0.10920418 0.026369493 -0.4465457
000190 1b 86 56 3e 71 fc 4d bc b0 fb 3b 3e f3 bb 4a 3e
       0.20949595 -0.012572394 0.1835773 0.1979826
0001a0 66 0c 42 3e d4 c8 3c bf f8 4a 58 bc 60 91 15 bd
       0.18950042 -0.7374394 -0.013201468 -0.036515594
0001b0 f6 30 42 3d 00 74 ea 3c 7e ff 7d 3d e0 66 fe 3d
       0.047409974 0.028619766 0.062011234 0.124219656
0001c0 05 9d 46 3f 2e 50 40 3d 17 36 cf 3d 36 4a 3c 3e
       0.7758334 0.046951465 0.10117739 0.18387684
0001d0 f6 0e fa 3d 27 66 e8 bb 94 62 b4 bd 60 71 09 3e
       0.12209885 -0.0070922556 -0.08807865 0.13422155
0001e0 29 52 24 3e a3 51 fd bc 25 7f 05 bd 3c 78 c5 3d
       0.16046967 -0.030922716 -0.032591958 0.096420735
0001f0 32 a6 0a 3e e4 26 3d 3e 59 8c 96 3d f2 3d 5e b9
       0.13539961 0.18471867 0.07350988 -0.00021194646
000200 49 5a 90 bd ac c9 72 bd f0 fd 06 3e 08 11 ed 3c
       -0.070484705 -0.05927436 0.13182807 0.028938785
000210 71 fb 02 3e ac dc 36 3e 04 bd a5 3e 89 9b 1d bf
       0.1279123 0.17857617 0.3237077 -0.6156545
000220 0d b4 06 3e cf 56 1b 3e fe 02 9b be 3f 2f 31 3e
       0.13154621 0.15169834 -0.3027572 0.17303179
000230 1e 40 5b bd 52 b7 80 3e 8e c2 e9 3e e1 34 64 3e
       -0.053527944 0.25139862 0.45656246 0.22285797
000240 8f c0 c2 bd 8e 71 af 3d c0 80 2a 3e 22 fd 48 3d
       -0.09509384 0.08566581 0.16650677 0.04906953
000250 aa e2 55 bd c4 72 00 3d e3 46 99 3e 0a 05 be ba
       -0.052218117 0.03135945 0.29936895 -0.0014497351
000260 70 49 09 3e 11 7f 69 3d 1d cf 52 3d 9b e2 8a 3e
       0.1340692 0.057005946 0.05146705 0.2712601
000270 80 27 59 3e ec 5a 95 3e 89 f1 0e 3d 51 43 25 3e
       0.21206474 0.2917093 0.034898315 0.1613896
000280 2a e1 02 3e 93 69 bd 3d 5c 99 02 3e f0 63 37 bf
       0.12781206 0.09248652 0.12753814 -0.7163687
000290 a3 d5 f0 3e 19 aa 2c 3e 43 05 8c bc d1 b0 6a 3e
       0.47037992 0.16861762 -0.017092353 0.22919013
0002a0 c3 c5 e3 3c 9b 7a 41 bf 43 30 65 3e aa dc 94 bd
       0.027804261 -0.75577706 0.22381692 -0.07268651
0002b0 ab 03 18 3e c5 89 58 3e 67 58 a4 bd b9 b6 61 3e
       0.14845149 0.21146305 -0.08024674 0.2204236
0002c0 6f 4a 15 3f 9a 43 7a 3d a7 93 36 3e 35 f8 13 3d
       0.583167 0.061099626 0.17829762 0.03612538
0002d0 2d fe d6 3c 3c 17 ab 3d c9 f7 74 3d b7 4e 0b 3e
       0.026244247 0.08354041 0.05980662 0.13604246
0002e0 df 13 2b 3e 80 08 d8 3b 24 17 01 bd 14 c9 4c bd
       0.16706799 0.00659281 -0.03151621 -0.04999645
0002f0 f8 b3 97 3d 54 4a ce 3d a2 ae 54 3d a6 7a b3 3d
       0.07407373 0.10072771 0.051924355 0.08763628
000300 46 28 8f bd 8a 52 b5 3d 04 a3 06 3d 8d a5 9b 3d
       -0.069901034 0.08853634 0.032870308 0.07599936
000310 60 e8 02 3b 2e 86 e1 3d 9c 18 89 3d c5 68 25 bf
       0.0019974932 0.11011921 0.06694147 -0.6461299
000320 a3 ea 74 3d fd e6 34 3d 09 b8 a0 be df 15 d6 3d
       0.05979408 0.0441656 -0.31390408 0.1045339
000330 0d ec 38 3d af ec 37 3d 5f 88 99 3e 7f 35 d2 3d
       0.04514699 0.044903453 0.29986855 0.1026411
000340 51 48 43 bd 98 06 f5 bc 63 5a 8f 3d 02 47 9d 3d
       -0.04767639 -0.02991037 0.06999662 0.07679559
000350 84 90 bd bc 91 33 b5 bd b5 ee 12 3f 8b cd 52 3d
       -0.0231402 -0.08847726 0.5739549 0.051465552
000360 e8 47 90 3d 57 ef c8 bd 86 1b ef 3d f9 68 8f 3e
       0.07044965 -0.098112755 0.116751716 0.28009775
000370 43 a2 e2 3d 36 dd 39 3e 4a 40 09 bd 8c 55 02 3d
       0.11066105 0.18150792 -0.033508576 0.031819865
000380 7f e7 c7 3c ff f7 11 3d 5c 96 9e 3d 91 55 db be
       0.024402378 0.035636898 0.077435225 -0.4283872
000390 87 1d 2d 3e 9b bb f6 39 77 74 1c bd be c6 60 bd
       0.16905795 0.00047060553 -0.038197007 -0.054877035
0003a0 f8 9b 15 bd 76 2b 3d bf 5f ad 12 3e 93 2a c7 3d
       -0.036525697 -0.7389444 0.14323948 0.09724917
0003b0 fd 02 90 3c a9 48 9d 3d cd 79 e5 bd 4a a1 11 3e
       0.01757955 0.076798744 -0.11204872 0.14221683
0003c0 3d ac f6 3e b1 b0 af 3c ce b0 64 bd 90 35 21 3e
       0.48178282 0.021446558 -0.055832677 0.15743089
0003d0 b4 65 39 3d 46 10 e6 3d ea 97 d4 3d 71 cc 0c 3e
       0.045263007 0.11233573 0.10380538 0.13749863
0003e0 53 ae 7a 3d b5 dc 87 3c 7a f1 08 3d 96 b6 91 3b
       0.061201405 0.016584734 0.033433415 0.004446815
0003f0 89 9b 0d 3e a3 57 df bb 39 7d e1 bc 7d 3c 54 bd
       0.13828863 -0.006815867 -0.027525531 -0.0518155

network.6.bias f4 [64]
000000 64 7a 6d 3e 12 c2 96 3e 7c 4a 64 3e 19 cd 59 3e
       0.2319122 0.2944494 0.22294039 0.21269645
000010 0e 72 51 3d 1f df 88 3e 5a df c7 bc 53 20 5b 3e
       0.05113416 0.26732728 -0.024398495 0.2139905
000020 de ea 9b bd 56 24 b5 bc 4d 25 80 3e 89 11 6e bd
       -0.07613157 -0.022112053 0.25028458 -0.05812219
000030 42 ee f9 bd 80 cd 19 3b 64 2f 95 3d 4b ca cf 3d
       -0.12203647 0.0023468435 0.0728443 0.10146006
000040 18 1c b3 bd e5 e4 70 3e 0a d4 02 3e c1 ad 2d 3e
       -0.08745593 0.23524816 0.12776199 0.16960813
000050 be 7d 9a bd e4 b2 96 bc 9d ba 3b 3d 42 51 9e 3e
       -0.07543515 -0.018395849 0.045832265 0.3092137
000060 72 ec 49 3e 2d 94 06 3d 93 01 b7 bc 61 7e 36 bd
       0.19719103 0.032856155 -0.022339618 -0.044554118
000070 aa 91 66 3e 53 57 49 bd 52 d6 cc 3d 7c b5 e5 bd
       0.22516504 -0.049155544 0.10001816 -0.11216256
000080 b2 ec 69 3e 3a f3 f5 bd 83 33 5a 3e ce 42 d9 bb
       0.22844198 -0.120092824 0.21308713 -0.006630278
000090 68 f2 6b bd 2d a0 c1 3d 85 8a a0 3e 9e b6 40 3e
       -0.057604223 0.09454379 0.31355682 0.18819663
0000a0 b4 3d ac bd 2a 2c 7f 3e 13 56 7d 3e c0 0e 8b 3e
       -0.084102064 0.24919191 0.24739866 0.2715969
0000b0 eb 75 ab bd 80 a6 70 bc 33 87 0d 3d 90 12 f6 bd
       -0.083721004 -0.014688134 0.034552764 -0.12015259
0000c0 43 49 a3 bd c3 35 e1 bd b3 7b e7 3d 6d b2 42 3e
       -0.07972958 -0.10996582 0.11302891 0.19013377
0000d0 60 2b 6f 3e 2e 4b 4d 3e 46 c8 61 3e a0 fd bc 3d
       0.2335639 0.2004821 0.22049055 0.09228063
0000e0 23 7c 41 bd 28 7a 22 3d bb ac 60 3c 0a 7a 4d 3e
       -0.047237527 0.03966728 0.013713057 0.20066085
0000f0 40 a8 ed bd 42 7a 3d 3c c0 72 65 bd 38 0e d1 bd
       -0.11604357 0.011564793 -0.056017637 -0.1020779

network.8.weight f4 [21, 64]
000000 a9 6b 33 3e 7c 02 63 3e a7 5b a2 ba 87 fd a7 3d
       0.17521538 0.22168916 -0.0012386934 0.082026534
000010 27 c9 60 3d 24 6c 48 3e 40 be c7 bd 2f 5c 46 3e
       0.054879334 0.19572502 -0.09753084 0.19371103
000020 f8 a5 fe bd bb ae 5c bc 73 13 56 3e 02 3e ce bd
       -0.12434 -0.013469393 0.20905857 -0.10070421
000030 a2 63 92 3d dc 78 24 3d 37 e0 58 3d 84 0e 87 3d
       0.0714791 0.040154323 0.052948203 0.065945655
000040 10 3a b4 bd 32 8e b1 bb eb 82 1a 3c b7 06 a6 bd
       -0.08800137 -0.0054185623 0.009430627 -0.081067495
000050 fc 22 0f bd c0 0f 8f bd ba 50 58 3d 97 65 30 3e
       -0.034945473 -0.06985426 0.05281136 0.17226253
000060 a8 bd 30 3e 92 ff 9f bd 20 48 f2 ba db 51 ce bd
       0.17259848 -0.07812418 -0.001848463 -0.100742064
000070 eb 06 3d 3e 43 e8 50 3e 1c 4f 7d bd 57 ff c9 bd
       0.1845967 0.20401101 -0.061843023 -0.09863155
000080 3a 2a f5 3d 8c 22 e3 3d 48 dd 48 3c b9 87 a0 3c
       0.11970945 0.11090574 0.012259789 0.019595968
000090 ae 4d ff bd 3f c5 f3 3c 5b af 80 be df d7 61 3e
       -0.12465988 0.02975714 -0.25133786 0.22055005
0000a0 d0 de a8 bd 96 2b 66 3e 92 2b 14 3e 9d 41 8c 3e
       -0.08245623 0.22477564 0.14469746 0.2739381
0000b0 15 d7 41 bd fc f0 21 3d aa de 3a bc d4 9c 72 3d
       -0.04732426 0.03953646 -0.011405626 0.059231594
0000c0 57 9c 99 bb 92 91 12 3e a4 e9 d1 3d 6e 60 1a 3d
       -0.0046878266 0.14313343 0.102496415 0.03768962
0000d0 d4 e5 12 3e d2 42 d5 3d 36 0b cb 3d 1a e2 2f 3e
       0.14345485 0.104131356 0.09914248 0.17176095
0000e0 c9 88 3b 3d 4f b1 01 bd f9 6b ba bd ef cb 90 3d
       0.045784745 -0.031663235 -0.091026254 0.07070147
0000f0 48 f8 50 3d c6 f7 b9 bd 08 28 2b 3d 7e 61 ba bd
       0.05101803 -0.09080462 0.041786224 -0.091006264
000100 eb 3b 51 3e 1e dd 45 bb f3 70 45 3e 59 4a c1 3d
       0.20433013 -0.003019161 0.19281368 0.09438009
000110 49 31 e7 bc 88 d2 c6 3d e1 45 2a bd fe 40 3a 3e
       -0.028221743 0.097081244 -0.041570548 0.18188855
000120 de 3e a9 3d a4 4c d6 3d 79 4c 27 3e 14 10 22 bd
       0.08263944 0.10463837 0.16337766 -0.039566115
000130 c0 a5 20 bd 32 e8 ab 3d 41 d5 e3 3d 5f 53 06 3d
       -0.03922057 0.08393897 0.11124659 0.032794353
000140 71 55 c8 bd 4d 13 36 3e 8c ae 35 be 90 27 cb bd
       -0.09781922 0.177808 -0.17742366 -0.09919655
000150 da 5c 86 3d d2 f0 89 3d 65 65 b7 3d 73 aa 1f 3e
       0.06560679 0.06735386 0.08954886 0.15592365
000160 a4 51 50 3e 11 06 c0 bd 36 05 a4 bd c2 09 e4 3d
       0.20343643 -0.09376157 -0.080088064 0.11134674
000170 8a aa 72 3e ff e1 c5 3d c5 0c 31 be 56 3c 15 bd
       0.23697868 0.09662246 -0.17290027 -0.036434494
000180 50 22 d8 3d cc 40 1e 3d af e8 6b 3d 08 bd 2d 3d
       0.105534196 0.038636014 0.05759495 0.042416602
000190 a4 8e 99 bd 8c 5d 7e bb 64 4c 93 be 27 09 0f 3e
       -0.0749791 -0.0038813083 -0.2876922 0.13968335
0001a0 b4 45 2a 3d 0d 6b 0b 3d 10 0a 08 3e 63 2e fa 3d
       0.04157038 0.03403764 0.13285089 0.12215879
0001b0 90 48 d0 3d 00 7b 55 3d 76 4b 79 bd 22 e7 53 bc
       0.1017009 0.052119255 -0.06086298 -0.012933524
0001c0 50 d9 79 bc 2d 19 47 3d ed 62 46 3e 1d d9 f5 3d
       -0.015249565 0.048607994 0.19373675 0.12004302
0001d0 93 b3 1a 3d 7c 25 cf 3d 10 df 60 3e aa cf 5c 3e
       0.03776891 0.101145715 0.21960092 0.21563593
0001e0 ce 7d be 3d b6 0f 53 bd b1 21 47 3d c8 d0 38 3e
       0.09301339 -0.051528655 0.048616115 0.18048394
0001f0 28 86 f9 3c ad af 8a be 40 21 52 3b d7 5b 9b 3d
       0.030459478 -0.27087155 0.0032063276 0.075858764
000200 68 ae 46 3e 28 80 7a 3d b8 92 17 3e 6b 44 42 3d
       0.19402468 0.061157376 0.14802063 0.04742853
000210 57 bb 5a 3c 51 f4 c5 3c fb 1e 9f bc 47 9f 2b 3e
       0.013350329 0.02416435 -0.019423952 0.16759978
000220 80 81 b5 3b ce cb 80 bd 5b b1 5f 3e 98 d5 b1 bd
       0.0055391192 -0.06288873 0.21845 -0.08683318
000230 40 8d 43 bb b4 75 3f 3d 92 67 48 3e e2 21 53 be
       -0.002983883 0.04674311 0.19570759 -0.20618394
000240 1a 7c d9 3d 5d ad 87 3d 8a a3 c8 3d 95 94 83 39
       0.106193736 0.06624863 0.097968176 0.0002509697
000250 b0 d7 81 bc 10 0e f8 3d 96 db 23 3e 30 62 53 3d
       -0.015849918 0.12112057 0.16001734 0.05160731
000260 5a 5e 51 3e 33 fe 25 3d b9 75 1b 39 a0 0b ac 3c
       0.20446149 0.040525626 0.00014825807 0.021001637
000270 24 ed 7a 3e 36 20 2b 3e 51 11 ec bd 53 03 16 3d
       0.24504524 0.16711506 -0.1152674 0.036624264
000280 ca dc 1f 3d 68 8c 98 bd ba f3 d4 bb cd b4 3b bb
       0.03902892 -0.07448655 -0.006498781 -0.0028641701
000290 88 c0 8c bd 74 81 82 bc 6a 54 f8 be e2 42 70 3e
       -0.0687266 -0.015930869 -0.48501903 0.23463014
0002a0 56 9d bd bd 1b fd e7 3d 0a 7f 40 3d e4 46 4d 3e
       -0.09258525 0.11327573 0.046996154 0.20046574
0002b0 40 22 9c bb 54 c3 e4 bd 51 78 3c bd 5e 97 fc 3d
       -0.004764825 -0.111700684 -0.04601318 0.123335585
0002c0 23 ee 04 bd 86 6c 8a bd 1d cb 52 3e 20 c1 5e 3e
       -0.032453667 -0.067589805 0.20585294 0.21753359
0002d0 69 e0 fd ba af 8c 21 3e 32 b8 e2 3d 45 27 40 3e
       -0.0019369248 0.15776323 0.11070289 0.1876498
0002e0 25 c4 f5 3c 32 35 d4 3d c4 d8 a3 bd 70 09 94 3d
       0.030000756 0.10361709 -0.08000329 0.072283626
0002f0 88 73 f9 3d 1d eb 69 be 8e 51 f5 bd cb 59 66 3d
       0.12180239 -0.22843595 -0.11978446 0.056237977
000300 59 ba 5d 3e 5e c9 35 3e c1 83 2e 3e b9 df 40 3d
       0.21653117 0.17752597 0.17042448 0.04708836
000310 5f 81 ea 3b 2e 46 e3 3c 0f 03 23 bd 5c 2f 09 3d
       0.0071565355 0.027743425 -0.03979784 0.03349243
000320 2a 95 f8 3d d8 3a f5 bc f7 b8 40 3d 9c 49 0f 3d
       0.12137826 -0.029935285 0.047051396 0.03498231
000330 26 ce bf bd e2 df f1 bd 82 c0 8b bc e0 52 0f be
       -0.093654916 -0.118102804 -0.017059568 -0.13996458
000340 71 b6 db bc 63 6b 5d 3e f3 43 48 3d 29 84 ae 3b
       -0.026820393 0.21622996 0.048892926 0.0053258133
000350 1e bc b2 bd 00 6e ce 3a 06 84 3f 3e ed 73 dd 3d
       -0.08727287 0.0015749335 0.18702707 0.10813127
000360 cc 24 3f 3e 16 71 bd 3d da 41 de 3d ee a3 d5 bd
       0.1866638 0.09250085 0.10852404 -0.10431658
000370 38 f8 1f 3e ce a1 f9 3d 3c 73 15 be 24 ec 00 be
       0.15622032 0.12189065 -0.1459474 -0.1259008
000380 18 e8 00 3e dc 55 0d 3d 8d 07 1a 3e 17 35 27 bd
       0.12588537 0.03450571 0.15041943 -0.040822115
000390 80 a0 e3 3a 51 3a 24 3e eb 1e 8f be 4f 49 51 3e
       0.0017366558 0.16037871 -0.27953276 0.20438121
0003a0 14 ff ec bd c4 ac 05 3e 1b b2 36 3d 98 86 46 3e
       -0.1157209 0.13054186 0.04460345 0.19387281
0003b0 48 9f 6f bd 58 e2 f6 3c 2d 73 d2 bd 0c b3 7b bd
       -0.05850151 0.030137226 -0.10275874 -0.06145005
0003c0 54 f1 21 3d 36 6f 87 3d b5 33 b5 3d da 18 1e 3e
       0.03953679 0.06613009 0.08847753 0.15439168
0003d0 87 04 0b 3e 8c 98 2c 3e 5a 09 80 3e 89 88 bf 3d
       0.13575946 0.16855067 0.25007135 0.09352214
0003e0 46 c4 b5 3d ca 49 d4 3d 7c 80 6c 3c 21 30 ab 3b
       0.08875327 0.10365637 0.01443493 0.0052242433
0003f0 8e 23 82 bd 10 73 16 be 90 ee d9 3c 72 29 42 3a
       -0.06354438 -0.1469233 0.026603013 0.00074066885

network.8.bias f4 [21]
000000 5b 90 07 3e 4a 2c 9b 3d e4 0b 22 3e b3 5d f6 3d
       0.13238661 0.07576807 0.15824848 0.120295905
000010 54 67 3e 3e 66 0f 38 3e 0b f9 f2 3d 58 4b 4f 3e
       0.18594104 0.17974624 0.118639074 0.20243585
000020 19 8a e6 3d f9 89 dc 3d 32 02 3a 3e e7 fb 0d 3e
       0.11256809 0.10768504 0.181649 0.13865624
000030 b9 fd dd 3d 75 bf 31 3d d9 8d 23 3e 13 99 ce 3d
       0.108394094 0.04339548 0.1597208 0.1008779
000040 70 ce 74 3e 73 43 04 3e 1c dd 47 3e 73 1d 99 3d
       0.23906875 0.12916355 0.1951794 0.0747632
000050 3f ec 71 3e
       0.23625277
