model/model_303.pth (torch, 35975 bytes, 10 tensors)

network.0.weight f4 [16, 6]
0	0xbec4e284	-0.38454068
1	0xbef530d8	-0.47888827
2	0xbc551f12	-0.013007896
3	0x3d05ff20	0.03271401
4	0xbf51dece	-0.819806
5	0xb9e71fc9	-0.00044083435
6	0xbeec4770	-0.46148252
7	0x3d574797	0.052558508
8	0x3e430efa	0.19048682
9	0x3db66f8e	0.08907996
10	0xbe548b0a	-0.20756164
11	0x3e7514fb	0.23933785
12	0xbed2f7e6	-0.41204756
13	0xbea816a0	-0.32829762
14	0xbddeb823	-0.10874965
15	0xbedea3d9	-0.4348438
16	0x3f18fc35	0.5975984
17	0xbd4cfc9d	-0.0500456
18	0x3d674427	0.05646148
19	0x3f301ce4	0.68794084
20	0x3ecd9760	0.40154552
21	0x3ef6bc78	0.48190665
22	0xbd9e73f5	-0.07736961
23	0x3dd7542f	0.105141036
24	0xbeb49ae2	-0.35274416
25	0x3f6c3f0c	0.922837
26	0xbda9c1a7	-0.082888894
27	0xbed6e5c1	-0.41972163
28	0x3f0cfed6	0.5507635
29	0x3d789061	0.060684565
30	0x3ee6f160	0.4510603
31	0x3f995cb5	1.1981417
32	0x3d0a31f2	0.033739038
33	0xbf1050b1	-0.56373125
34	0x3ed0874c	0.40728223
35	0xbe2539e5	-0.16135366
36	0xbebad52d	-0.36490765
37	0x3ccd0692	0.025027547
38	0xbe5ba184	-0.21448332
39	0xbdf0732c	-0.11740717
40	0xbf681de2	-0.906706
41	0x3e45aaae	0.1930339
42	0x3ee64f38	0.44982314
43	0xbf60b399	-0.87774044
44	0xbdff9a71	-0.12480629
45	0xbdd782af	-0.10522973
46	0xbd157acb	-0.036494058
47	0x3e24f49f	0.1610894
48	0xbf72a769	-0.947867
49	0x3f1ed723	0.6204702
50	0xbdd7c31f	-0.10535263
51	0x3f707d2d	0.93941003
52	0x3f327115	0.697038
53	0xbe6775fb	-0.226036
54	0x3e88f46c	0.2674898
55	0xbf1c125a	-0.609655
56	0x3dc24b48	0.09487015
57	0xbf63024a	-0.8867537
58	0xbdc6dc43	-0.0970998
59	0x3e6619cd	0.2247078
60	0x3e39541e	0.18098494
61	0xbf8e9839	-1.1140205
62	0xbe5113f9	-0.20417775
63	0xbd787406	-0.060657524
64	0x3f202d9d	0.625696
65	0xbcde30c3	-0.02712286
66	0x3ee6429c	0.44972694
67	0xbe2729de	-0.16324565
68	0x3e59053d	0.21193404
69	0x3e257d04	0.16160971
70	0x3f68af4f	0.908925
71	0xbd85afe4	-0.06527689
72	0x3ef308ef	0.47467753
73	0xbfb7b539	-1.435218
74	0xbdd07823	-0.10179164
75	0xbcfeaa1d	-0.031086976
76	0xbf133c55	-0.57513934
77	0xbd7d9cf1	-0.06191725
78	0xbf058d5e	-0.52168834
79	0x3f01ba37	0.50674766
80	0x3e5fc6eb	0.21853225
81	0xbf10b099	-0.56519467
82	0x3e33c075	0.17553885
83	0xbce7223b	-0.028214565
84	0x3ca0fe5c	0.019652538
85	0x3f25fc27	0.6483788
86	0xbdb3fc86	-0.087883994
87	0xbefd0155	-0.4941508
88	0xbf23f41f	-0.64044374
89	0xbe5b58ff	-0.21420668
90	0x3f14ad49	0.5807691
91	0xbf3dd632	-0.7415496
92	0x3c70dafe	0.014700649
93	0x3d2dea15	0.042459566
94	0xbe097067	-0.13421784
95	0xbe6d941f	-0.23201035

network.0.bias f4 [16]
0	0xbe91afe9	-0.2845452
1	0x3e5d1a1a	0.21591988
2	0x3dca9cb3	0.09893169
3	0x3ea4a0ad	0.32153836
4	0xbccd0029	-0.02502449
5	0x3df6df3e	0.12054299
6	0xbf02b7cb	-0.51061696
7	0x3dd68ece	0.104764566
8	0xbd944887	-0.07240396
9	0x3c5dd88e	0.0135404
10	0x3dcff4d0	0.10154116
11	0x3ea1b9ab	0.31586966
12	0x3e89bead	0.26903287
13	0x3d87cf97	0.066313915
14	0x3ea3a616	0.3196265
15	0xbec3c7a7	-0.3823826

network.2.weight f4 [32, 16]
0	0xbd9812d9	-0.0742547
1	0x3ce48878	0.027897105
2	0xbe2a2267	-0.16614686
3	0xbe0155aa	-0.12630334
4	0xbdf51a26	-0.11967878
5	0x3e330150	0.1748097
6	0xbda0233d	-0.07819221
7	0x3ec7e024	0.39038193
8	0xbe311c4d	-0.17295952
9	0x3e0619f9	0.13095845
10	0x3e29e04f	0.16589473
11	0x3d927051	0.07150329
12	0xbeca8f29	-0.39562348
13	0xbe47396b	-0.19455497
14	0x3e8ef063	0.27917776
15	0xbe30d730	-0.17269588
16	0xbfb9f71b	-1.4528536
17	0xbe8090d1	-0.25110486
18	0xbe471b15	-0.19443925
19	0xbf159bb8	-0.5844073
20	0x3e4f0602	0.20217136
21	0x3e990642	0.29887587
22	0x3d8a7194	0.067599446
23	0xbea0cb4e	-0.3140511
24	0x3e2f3860	0.17111349
25	0xbe10d19e	-0.14142463
26	0xbda13895	-0.0787212
27	0xbea6270b	-0.32451662
28	0xbbd5c61f	-0.006523862
29	0xbf780a89	-0.96891075
30	0xbe069145	-0.13141353
31	0xbe040265	-0.12891538
32	0x3d121ad8	0.03567013
33	0xbd7aac28	-0.061199337
34	0xbe44c636	-0.19216236
35	0xbe195f76	-0.14977822
36	0xbd32a580	-0.043614864
37	0xbc8dc1f0	-0.01730439
38	0xbe0e8db8	-0.13921249
39	0x3cec3d00	0.02883768
40	0xbd53ee50	-0.051740944
41	0x3deea8f0	0.11653316
42	0x3c9faed0	0.019492537
43	0x3d49b908	0.049248725
44	0xbe5a13fe	-0.21296689
45	0xbd3ef4b8	-0.0466201
46	0xbe3cdf78	-0.18444622
47	0xbd2d18d8	-0.04226002
48	0x3eee7aa0	0.4657793
49	0x3d46ae77	0.048506226
50	0xbdd56a32	-0.10420646
51	0x3e9d2fd2	0.30700547
52	0x3e649797	0.22323452
53	0xbdb8df1b	-0.09026929
54	0xbe81004e	-0.25195545
55	0xbdbab194	-0.091159016
56	0x3df73a14	0.120716244
57	0x3e2ff09a	0.17181626
58	0x3da6b9cc	0.08140907
59	0xbe54d509	-0.20784391
60	0xbc8d737f	-0.017266987
61	0xbe5baafb	-0.21451943
62	0x3d3255ff	0.043539044
63	0x3c4ba6bb	0.012429888
64	0xbcda2800	-0.026630402
65	0xbe47416b	-0.19458549
66	0xbe22edba	-0.15910998
67	0x3e53bea2	0.2067819
68	0xbda0c16f	-0.078493945
69	0xbde2a8b4	-0.11067334
70	0xbddd5b3c	-0.10808417
71	0xbf76da29	-0.96426636
72	0x3e15d724	0.14632851
73	0x3e53e787	0.2069379
74	0xbe25f3eb	-0.16206329
75	0x3d67df86	0.056609653
76	0x3ce4f8e6	0.027950715
77	0xbe27a5f2	-0.16371897
78	0x3dbbcb2e	0.09169613
79	0x3e01fc5c	0.12693924
80	0xbfa591a3	-1.293507
81	0x3e38e6bf	0.18056773
82	0x3e83114f	0.25599143
83	0xbd898ea7	-0.06716662
84	0x3e893308	0.26796746
85	0xbef7ca1b	-0.48396382
86	0xbe7d52b5	-0.24738581
87	0xbe115c2a	-0.14195314
88	0xbf533328	-0.82499933
89	0xbf02ec60	-0.5114193
90	0x3e3f1745	0.1866122
91	0x3daf8e04	0.08572009
92	0x3db2af9e	0.087249026
93	0x3d3054a4	0.04304947
94	0x3e5afdd5	0.21385892
95	0xbe1697fe	-0.14706418
96	0xbf2d2a85	-0.67643005
97	0x3c8bf980	0.017086744
98	0xbe3ecb69	-0.18632282
99	0x3ed04977	0.4068105
100	0xbece192c	-0.4025358
101	0xbe286b72	-0.16447237
102	0x3e98f700	0.29875946
103	0xbdfec164	-0.1243923
104	0xbdf57481	-0.11985112
105	0xbe8488db	-0.25885662
106	0x3e55a725	0.20864542
107	0x3ef32e05	0.47496048
108	0x3e524a68	0.20536196
109	0xbe226c57	-0.15861641
110	0x3dc802cc	0.097661585
111	0xbe9b4b9d	-0.30331126
112	0x3f26854b	0.6504714
113	0xbe98ae10	-0.298203
114	0xbc62c5c8	-0.0138411
115	0x3e9472a4	0.28993714
116	0x3e8881d8	0.26661563
117	0xbde29e7c	-0.11065385
118	0x3b57ca55	0.0032926996
119	0x3e1efa67	0.15525208
120	0xbe07c102	-0.1325722
121	0x3d167016	0.036727987
122	0x3eda74cd	0.42667237
123	0x3dfac649	0.12244851
124	0xbda47b1c	-0.08031294
125	0x3b772a5b	0.0037714455
126	0xbdc6cdcf	-0.097072236
127	0xbe9f4eb9	-0.31114748
128	0x3ed4afdd	0.41540423
129	0x3dc93b36	0.09825747
130	0x3e368253	0.17823152
131	0xbb7d5a44	-0.0038658539
132	0x3e0e05ae	0.13869354
133	0xbe61dbd5	-0.22056516
134	0x3e9857d8	0.2975452
135	0x3e74f1c3	0.2392035
136	0x3eb6e870	0.3572421
137	0xbef55136	-0.47913522
138	0x3e9cf84a	0.3065818
139	0x3d0d30f5	0.034470517
140	0x3f09c458	0.5381522
141	0xbdc98470	-0.098397136
142	0xbed24f79	-0.41076258
143	0x3d425a2a	0.04744927
144	0xbbaf40dc	-0.005348308
145	0xbeba2046	-0.36352748
146	0x3e3bd0f4	0.18341428
147	0xbc90f16a	-0.01769324
148	0x3eb55be8	0.3542168
149	0xbe043c67	-0.12913667
150	0xbeabf3f8	-0.3358457
151	0x3e8fe066	0.2810089
152	0xbdcb254f	-0.099192254
153	0x3df32801	0.118728645
154	0x3e4afbbb	0.1982259
155	0xbde241dd	-0.11047719
156	0x3eaf1b08	0.3420031
157	0x3e55b4bb	0.20869724
158	0x3e644345	0.22291286
159	0x3dcbe192	0.099551335
160	0xbf69c8ae	-0.9132184
161	0xbf46b693	-0.77622336
162	0x3d7d2665	0.061804194
163	0x3ad10c78	0.001594915
164	0x3d32b9da	0.043634273
165	0x3d5fd866	0.054649733
166	0x3e5ce810	0.215729
167	0xbe050901	-0.12991716
168	0xbdf16e79	-0.11788649
169	0xbdb51267	-0.088414006
170	0xbe901617	-0.28141853
171	0xbe8bc2ec	-0.2729715
172	0x3d688774	0.056769803
173	0xbf137062	-0.5759336
174	0x3e6b4ea4	0.22979218
175	0x3e80700e	0.2508549
176	0x3b25463a	0.002521886
177	0x3e218204	0.15772253
178	0x3edab8ca	0.42719108
179	0x3e0b7718	0.1361965
180	0x3e149597	0.14510189
181	0xbdafbfe2	-0.085815206
182	0x3d714353	0.058902096
183	0xbde0ce2d	-0.10976825
184	0xbe3351b0	-0.1751163
185	0x3e95112b	0.2911466
186	0xbe20ac28	-0.15690672
187	0xbe0472cb	-0.12934415
188	0x3d266c1c	0.040630445
189	0xbe8027f4	-0.25030482
190	0xbdb6128f	-0.088902585
191	0x3f349933	0.70546263
192	0x3dc5161b	0.09623357
193	0x3c9b8b1b	0.01898723
194	0x3e620552	0.22072342
195	0xbef73787	-0.48284552
196	0xbd369806	-0.044578575
197	0xbe8e591a	-0.27802354
198	0x3e7d691f	0.24747132
199	0xbe1b32ea	-0.15156141
200	0x3e85b01d	0.26110926
201	0xbc062152	-0.008186655
202	0xbd89a175	-0.067202486
203	0xbe81a3bb	-0.2532023
204	0xbdb6013d	-0.08886955
205	0xbcb523df	-0.022111831
206	0x3dbf22a1	0.09332777
207	0x3e85995b	0.26093563
208	0x3ea2bfba	0.317869
209	0xbce86508	-0.028368488
210	0x3d3ff070	0.04686016
211	0xbd89798f	-0.067126386
212	0xbdeec827	-0.1165927
213	0xbe87bc4e	-0.26510853
214	0x3ee2ff95	0.4433562
215	0x3d222cbc	0.039593443
216	0x3d9dcd77	0.07705205
217	0x3e49feb2	0.19726065
218	0xbd981b48	-0.074270785
219	0xbe50a981	-0.2037716
220	0xbeceb874	-0.40375102
221	0xbf127945	-0.5721629
222	0x3e82775f	0.25481698
223	0x3ed8d32b	0.42348608
224	0x3e8fce15	0.28086916
225	0x3d915ea3	0.07098129
226	0xbe86fa45	-0.26362815
227	0x3c9f424c	0.019440793
228	0x3dc6b0e7	0.0970171
229	0x3e540219	0.20703925
230	0x3e0ecd63	0.13945536
231	0x3e81c0e7	0.25342485
232	0xbe81fd35	-0.25388494
233	0x3e2dca47	0.16971694
234	0x3e6baa5e	0.23014209
235	0x3e95eb46	0.29281062
236	0x3d4da2c4	0.050204054
237	0x3e656ceb	0.2240483
238	0x3ccf39ae	0.025296059
239	0xbe16cea4	-0.14727265
240	0x3e9cd11e	0.30628294
241	0x3d4d3ec0	0.05010867
242	0xbc9136ba	-0.017726291
243	0x3e339ae1	0.1753955
244	0xbf129a6e	-0.5726689
245	0xbdbc9695	-0.09208409
246	0x3ef9efad	0.4881567
247	0x3ddb2924	0.10701206
248	0x3e4cda17	0.2000507
249	0x3dcb1c43	0.099175
250	0x3da47e4c	0.08031902
251	0xbdfe52df	-0.1241815
252	0x3e81c2db	0.25343975
253	0x3eaa4fd1	0.3326402
254	0xbe9a1aa7	-0.3009846
255	0xbe400129	-0.18750443

network.2.bias f4 [32]
0	0x3e75a31e	0.23988006
1	0x3eb3e9ee	0.35139412
2	0xbe5783a6	-0.21046314
3	0x3c4ae936	0.012384703
4	0x3e903a36	0.2816941
5	0x3e14a718	0.14516866
6	0x3e86189f	0.2619066
7	0xbe7e58a8	-0.24838507
8	0xbe99069d	-0.29887858
9	0xbd61729f	-0.05504095
10	0x3e8707d0	0.26373148
11	0x3df4c55e	0.11951707
12	0x3eb8fb25	0.36129108
13	0xbea575d2	-0.32316452
14	0x3eaa66f2	0.33281666
15	0xbe6f6079	-0.23376645
16	0xbcb7bd99	-0.022429274
17	0xbe45200e	-0.19250509
18	0xbea0242e	-0.31277603
19	0x3e3c8ddb	0.18413489
20	0xbdaa2192	-0.08307184
21	0xbd3eb917	-0.046563234
22	0x3e5bd545	0.21468075
23	0x3dadb24e	0.084812745
24	0xbe747f47	-0.23876677
25	0xbceafca5	-0.028684923
26	0xbea0dd89	-0.31419018
27	0x3e19de5d	0.15026231
28	0xbda475b1	-0.0803026
29	0x3d95a13b	0.07306143
30	0x3ea94536	0.33060616
31	0x3ead9673	0.33903846

network.4.weight f4 [64, 32]
0	0x3eee2ca7	0.46518442
1	0xbf1be3b1	-0.60894305
2	0xbd053675	-0.032522637
3	0xbed93669	-0.42424324
4	0x3e04d92f	0.12973474
5	0x3f2b459f	0.6690311
6	0xbe3f26f1	-0.18667199
7	0x3ef11627	0.47087213
8	0xbeda65b0	-0.42655706
9	0x3e08f378	0.13374126
10	0x3f504a23	0.81363124
11	0xbe06ff64	-0.13183361
12	0xbea7e477	-0.32791492
13	0xbf540aac	-0.82828784
14	0x3dd54b83	0.10414793
15	0x3cb46114	0.022018947
16	0x3dce70fa	0.10080142
17	0x3d62b495	0.055347998
18	0xbec87745	-0.39153495
19	0x3ea0fbf0	0.31442213
20	0xbe87f291	-0.2655225
21	0x3dccb364	0.099951535
22	0x3e7b10b2	0.24518088
23	0x3e61dc0b	0.22056596
24	0x3e9c3279	0.30507258
25	0xbcee9ff2	-0.029129002
26	0x3e288c99	0.16459884
27	0xbe03ca39	-0.1287011
28	0xbf394cc0	-0.72382736
29	0xbdb8b660	-0.0901916
30	0x3e2b2a93	0.1671546
31	0x3e957fdc	0.2919911
32	0x3e15acd3	0.14616708
33	0x3e12af5e	0.1432471
34	0x3bbb10fc	0.005708812
35	0xbdb6cc45	-0.0892568
36	0x3d2c9f3c	0.042144045
37	0x3e18a172	0.14905336
38	0xbd5b3984	-0.053521648
39	0xbe1fa94d	-0.15591927
40	0xbdebae87	-0.11507898
41	0x3e06e521	0.13173343
42	0xbe0327cf	-0.12808155
43	0xbdb62283	-0.08893301
44	0xbe005751	-0.12533309
45	0xbd863183	-0.06552412
46	0xbdaee8f3	-0.08540525
47	0x3e09a7cc	0.13442916
48	0x3e116c28	0.14201415
49	0x3cebc33b	0.028779617
50	0xbe0ba535	-0.1363724
51	0xbdfa4160	-0.122195005
52	0x3dd321e8	0.103092015
53	0xbd97fa62	-0.074208036
54	0xbc0f4c9c	-0.008746292
55	0xbe10cc92	-0.14140537
56	0xbd3343ce	-0.043765835
57	0xbe069937	-0.13144384
58	0x3d01d177	0.031693902
59	0xbd76d6c0	-0.060263395
60	0x3e20e5b4	0.15712625
61	0x3da8f36f	0.08249556
62	0xbde66aab	-0.11250814
63	0xbd0b58d4	-0.03402026
64	0xbdff718a	-0.12472828
65	0xbea78035	-0.32715002
66	0xbde0da4e	-0.10979138
67	0x3d502dba	0.05082486
68	0xbcffdb71	-0.031232568
69	0x3edf4b14	0.43611968
70	0xbce9baac	-0.028531395
71	0x3e451307	0.1924554
72	0x3ea13f34	0.31493533
73	0x3e32fc81	0.17479135
74	0x3f315f57	0.692861
75	0x3d3b9ea8	0.045805603
76	0xbe2f8c7b	-0.17143433
77	0xbf1744ac	-0.5908916
78	0xbe68958e	-0.227133
79	0x3ec597b3	0.385923
80	0x3db91e65	0.090390004
81	0xbe052610	-0.13002801
82	0xbe145f30	-0.14489436
83	0x3e29568a	0.16536918
84	0xbe81b955	-0.2533671
85	0xbdaf222e	-0.08551441
86	0xbce89be7	-0.028394653
87	0xbdba24b7	-0.09089034
88	0x3ea06586	0.31327456
89	0x3e37b199	0.17938842
90	0xbdbdd8c6	-0.09269862
91	0x3d085415	0.033283312
92	0xbf56fb7e	-0.83977497
93	0x3e1f936d	0.15583582
94	0x3e096729	0.13418259
95	0x3b45cdb1	0.0030182416
96	0x3ddc0884	0.10743812
97	0xbeedbe0c	-0.46434057
98	0xbd0c039e	-0.034183137
99	0x3e5da6b9	0.21645631
100	0x3e84bf68	0.2592728
101	0x3e25731d	0.16157193
102	0x3d8f410e	0.0699483
103	0xbced1a06	-0.028943073
104	0x3e95db96	0.29269093
105	0xbdb7b3bb	-0.08969828
106	0x3f660345	0.8984874
107	0xbdf46cc5	-0.11934809
108	0xbe089fbb	-0.13342182
109	0xbf16c4d5	-0.5889409
110	0xbe42164d	-0.1895382
111	0x3e4a4026	0.19751033
112	0x3e08c565	0.1335655
113	0x3dffe052	0.124939576
114	0xbdc6997c	-0.096972436
115	0x3e60e133	0.21960907
116	0xbe94019c	-0.28907478
117	0x3e5a9461	0.21345665
118	0x3c7f1526	0.015569007
119	0x3e0507f6	0.12991318
120	0x3e112c0b	0.14176957
121	0x3e3acbfb	0.18241875
122	0x3e20a37a	0.15687361
123	0x3ddeef90	0.10885537
124	0xbf04ad2e	-0.5182675
125	0x3dfa0760	0.12208438
126	0xbd1a2c07	-0.037639644
127	0x3cb63a1e	0.02224451
128	0xbcca0137	-0.024658782
129	0x3d89c3cb	0.06726798
130	0xbd22b0b9	-0.039719317
131	0x3e08357b	0.13301651
132	0x3ce0a578	0.027422652
133	0xbd92336f	-0.071387164
134	0x3ce4c164	0.027924247
135	0xbd7b92fb	-0.06141947
136	0xbdc7ae3e	-0.09750031
137	0xbbb638a0	-0.0055609494
138	0xbe09d77a	-0.13461104
139	0xbe2e75e7	-0.17037164
140	0xbd9746bc	-0.073865384
141	0xbd79c869	-0.06098214
142	0x3e148d61	0.14507057
143	0xbe0da6ee	-0.1383321
144	0x3cb4f450	0.022089154
145	0xbdf79716	-0.12089364
146	0xbe07b750	-0.13253522
147	0x3df94ebb	0.1217322
148	0xbe193350	-0.1496098
149	0x3c2aa3bb	0.010415013
150	0xbe36cba4	-0.1785112
151	0xbd356a60	-0.0442909
152	0xbcc352c4	-0.023843177
153	0xbdbaa218	-0.09112948
154	0xbcd42e0f	-0.025900869
155	0xbe3c6671	-0.18398453
156	0xbd84136b	-0.06449016
157	0x3db216e3	0.086957715
158	0xbdfaae91	-0.12240327
159	0x3d6a83f9	0.057254765
160	0x3e70b3c2	0.23506072
161	0xbe38ae4e	-0.18035242
162	0xbcbf584b	-0.023357531
163	0xbdd17b70	-0.10228622
164	0xbe284a59	-0.16434611
165	0x3e70f924	0.2353254
166	0xbe59d271	-0.21271683
167	0x3e63e1a9	0.22254051
168	0x3d99c4cd	0.0750824
169	0x3e3c10dc	0.18365806
170	0x3ec32814	0.38116515
171	0x3d535a6d	0.05159991
172	0xbdaec706	-0.085340545
173	0xbe8ae015	-0.27124086
174	0xbe0d7b7c	-0.13816637
175	0x3dc29b93	0.0950233
176	0x3d408980	0.04700613
177	0xbdfa27b5	-0.12214605
178	0xbe729a44	-0.2369166
179	0x3e1943ee	0.1496732
180	0xbead3620	-0.33830357
181	0x3e6a3327	0.22871076
182	0x3e345e8a	0.17614189
183	0xbd0f9b9b	-0.035060506
184	0x3e49c669	0.19704594
185	0x3dfd11b6	0.12356894
186	0x3cf7d2d0	0.03025189
187	0xbd117fce	-0.035522275
188	0xbf06f14f	-0.5271196
189	0x3db31c05	0.08745579
190	0xbc2c3ceb	-0.010512571
191	0x3dbb9fad	0.09161315
192	0xbe572dfe	-0.21013638
193	0xbeb5c226	-0.35499686
194	0x3e2a506d	0.16632243
195	0x3ea969f2	0.33088642
196	0xbedd27fc	-0.43194568
197	0x3f26a179	0.6509014
198	0x3e9027ea	0.28155452
199	0x3e16fc10	0.14744592
200	0x3e569bd6	0.20957884
201	0xbeba7adb	-0.36421856
202	0x3e665aa9	0.22495522
203	0xbdbf8823	-0.09352138
204	0xbe118667	-0.14211427
205	0x3e378a89	0.1792394
206	0x3e56fffe	0.20996091
207	0xbdcc3b60	-0.099722624
208	0x3d8180a9	0.06323368
209	0xbd2dfa3a	-0.042474963
210	0x3ec8a12e	0.3918547
211	0xbedd4c41	-0.4322224
212	0xbe344eb6	-0.17608151
213	0x3ee6ccf8	0.45078254
214	0xbe4e85da	-0.20168248
215	0xbe9753c0	-0.29556084
216	0xbeec9b8b	-0.4621242
217	0xbe9d5dd6	-0.30735654
218	0x3e37c742	0.17947105
219	0xbd052e1c	-0.032514676
220	0xbe2b2b42	-0.1671572
221	0x3e4a679d	0.19766088
222	0xbe21f8c1	-0.15817548
223	0xbe6f4305	-0.2336541
224	0x3dc3e089	0.09564311
225	0x3c4a675e	0.012353746
226	0x3c11a207	0.008888728
227	0xbc8af5d8	-0.01696293
228	0x3daff459	0.085915275
229	0xbf1a75b7	-0.6033587
230	0x3ebfeff2	0.3748775
231	0x3ec1338e	0.37734646
232	0xbf4cb5eb	-0.79965085
233	0xbd8df631	-0.06931723
234	0xbeafd7d6	-0.34344357
235	0x3ef7c498	0.48392177
236	0x3e192c9b	0.14958422
237	0xbe5d7436	-0.21626362
238	0x3d1649b2	0.036691375
239	0xbe7676d1	-0.24068762
240	0xbebee3fe	-0.3728332
241	0x3d76db4e	0.06026774
242	0x3ee86d8e	0.45396084
243	0x3db8fc8a	0.09032543
244	0x3f38aace	0.7213563
245	0xbf69507c	-0.91138434
246	0xbe48e209	-0.19617476
247	0x3c8c0e3e	0.017096635
248	0xbe8b860d	-0.2725071
249	0xbf184456	-0.5947927
250	0x3ecdf85d	0.4022855
251	0x3c7b63f8	0.015343659
252	0xbebe4fd7	-0.37170288
253	0x3e974460	0.29544353
254	0xbe41f050	-0.18939328
255	0xbd75d049	-0.06001309

network.4.bias f4 [64]
0	0xbe06a07a	-0.13147154
1	0xbcf36b49	-0.029714243
2	0x3e0d0698	0.13772047
3	0x3c92f46e	0.017938819
4	0xbd90fd9d	-0.07079623
5	0x3dbd0873	0.09230127
6	0x3e6f0305	0.23340996
7	0x3e43ad18	0.19108999
8	0x3e4be7ff	0.19912718
9	0xbd824e7f	-0.06362628
10	0xbeef6259	-0.4675472
11	0x3e01daf9	0.12681188
12	0xbe1b5d2b	-0.1517226
13	0x3de4149f	0.11136746
14	0x3de5b51c	0.112161845
15	0x3e99dcc0	0.3005123
16	0xbc9d3bf1	-0.019193621
17	0xbdceff99	-0.10107345
18	0x3e6b0225	0.22950037
19	0x3e225706	0.1585351
20	0xbe1e24b7	-0.15443693
21	0xbc8eb35a	-0.017419506
22	0x3dd526e2	0.10407807
23	0x3e649338	0.22321784
24	0xbe1ad1ea	-0.15119138
25	0x3cbaf791	0.022823127
26	0x3eb8f634	0.36125338
27	0x3e62075a	0.22073117
28	0x3eabc9b6	0.3355233
29	0xbd9980b7	-0.074952535
30	0x3e16392d	0.14670248
31	0x3e147eb7	0.14501463
32	0x3e9ccb83	0.30624017
33	0x3e815041	0.2525654
34	0x3e023bde	0.1271815
35	0x3d2f3622	0.042776234
36	0x3ead4cd8	0.3384769
37	0x3e6f92b4	0.23395807
38	0x3d12f1cf	0.035875138
39	0x3e59aa0d	0.21256275
40	0x3e96c69a	0.29448396
41	0x3e2496ba	0.16073123
42	0x3d26751c	0.040639028
43	0xbe578fde	-0.21050975
44	0x3e60ff61	0.2197242
45	0x3eb3ac80	0.35092545
46	0x3e7fd196	0.24982294
47	0x3cd66308	0.026170269
48	0xbd6405e9	-0.0556697
49	0x3d42dfff	0.0475769
50	0x3e30a0ef	0.17248891
51	0x3ead86d3	0.33891925
52	0x3db6c8be	0.08925007
53	0x3ebd78b2	0.37006146
54	0xbc1333d2	-0.008984523
55	0xbd2be528	-0.041966587
56	0x3c68a4b3	0.014199424
57	0x3dfcec45	0.12349752
58	0xbdef1af5	-0.116750635
59	0xbc937904	-0.01800204
60	0x3eb2f8f0	0.3495555
61	0x3e4fe0d7	0.20300613
62	0x3ebd0bbf	0.36923024
63	0x3e88a2ca	0.26686698

network.6.weight f4 [64, 64]
0	0x3dbe2521	0.092844255
1	0xbc8182d0	-0.015809447
2	0x3e39b4b0	0.18135333
3	0x3d1ad196	0.037797533
4	0x3d85e256	0.06537311
5	0xbd02fc55	-0.031978924
6	0x3ee10e0d	0.43956032
7	0xbe53c337	-0.20679937
8	0x3e45543c	0.19270414
9	0xbd716c87	-0.05894139
10	0xbeff7a1b	-0.49897847
11	0x3e295798	0.1653732
12	0x3c809d24	0.01569993
13	0x3e6db826	0.23214778
14	0x3ea15989	0.31513622
15	0x3e61011c	0.2197308
16	0xbcade05e	-0.02122515
17	0xbc9dbc38	-0.019254789
18	0x3d72c70b	0.059271853
19	0x3e225350	0.15852094
20	0xbd0411ea	-0.032243647
21	0x3e1998af	0.1499965
22	0x3ebb378a	0.3656581
23	0x3d2708e0	0.04077995
24	0xbc52f226	-0.0128751155
25	0xbd39a9f0	-0.04532808
26	0x3e75fe67	0.24022828
27	0x3f05755a	0.5213219
28	0x3de4bf18	0.11169261
29	0x3eb2b0d0	0.34900522
30	0xbdc9dfa6	-0.09857111
31	0x3e3ac286	0.18238267
32	0x3e3b52ed	0.18293352
33	0x3e6741d8	0.22583711
34	0x3df44b2c	0.119284004
35	0xbef7bc66	-0.48385924
36	0x3e918350	0.28420496
37	0x3e96fa19	0.29487684
38	0x3e021755	0.12704213
39	0xbc5c2367	-0.013436175
40	0x3d2a3c59	0.04156146
41	0xbf313c1a	-0.6923233
42	0x3d6bb904	0.05754949
43	0xbc0b2681	-0.008493067
44	0x3d0ff1f3	0.03514285
45	0x3ddb120c	0.106968015
46	0xbf2c375b	-0.67271966
47	0x3eabb37e	0.3353538
48	0x3f22ccff	0.6359405
49	0x3df56e16	0.11983888
50	0x3e366442	0.17811683
51	0x3e3884db	0.1801943
52	0x3dac1ca2	0.08403899
53	0x3e1c932a	0.15290514
54	0xbebebfd5	-0.3725573
55	0x3dd09c57	0.101860695
56	0x3b93ed1b	0.004514349
57	0x3e2d6dd3	0.16936426
58	0x3d5e2710	0.05423647
59	0x3f28bde5	0.65914756
60	0x3e1940c5	0.14966114
61	0x3d1596ab	0.03652064
62	0x3e4c7660	0.19967031
63	0x3d0d1a36	0.034448825
64	0x3d8037d2	0.06260647
65	0x3d419f78	0.047271222
66	0x3dacf303	0.08444788
67	0x3c909895	0.017650882
68	0xbdb08c7f	-0.086205475
69	0xbcdb5218	-0.026772544
70	0x3e22b210	0.15888238
71	0xbf067dbc	-0.52535605
72	0x3defa3cf	0.11701166
73	0x3cd04182	0.025421862
74	0xbefa8cc7	-0.4893553
75	0x3dddec3e	0.10836075
76	0x3d4df1c0	0.05027938
77	0x3d112468	0.03543511
78	0x3eb6a9af	0.35676333
79	0x3bb9d2f5	0.0056709
80	0xbe94d854	-0.29071295
81	0x3cc1e560	0.023668945
82	0x3cf5f222	0.030022684
83	0x3dc4a508	0.0960179
84	0x3e00edc2	0.12590697
85	0xbd28cf85	-0.04121353
86	0x3f0b809e	0.5449313
87	0x3dcb2bf5	0.099204935
88	0xbd7912fe	-0.060809128
89	0xbe05cc02	-0.13066104
90	0xbb957a96	-0.0045617325
91	0x3ee52131	0.44751886
92	0x3db9b999	0.09068603
93	0x3e1ae943	0.15128045
94	0xbd74d3b1	-0.059772197
95	0x3d8e4dac	0.069484085
96	0xbd73c371	-0.05951256
97	0x3dd11b66	0.10210304
98	0xba7badd2	-0.00096007914
99	0xbee5bf2a	-0.4487241
100	0x3e5463c6	0.20741186
101	0x3dffd273	0.12491312
102	0x3e220aa3	0.1582437
103	0x3e4ebf38	0.20190132
104	0x3e278bf3	0.1636198
105	0xbf7b806f	-0.9824285
106	0xbd968ac9	-0.0735069
107	0xbd159160	-0.036515594
108	0x3d312585	0.043248672
109	0x3cc97d49	0.024595873
110	0xbf5ad552	-0.8548175
111	0x3e9f7d3f	0.31150243
112	0x3f10e65f	0.5660152
113	0x3ceb7c0c	0.028745674
114	0x3db81cc0	0.089898586
115	0x3e433639	0.19063653
116	0x3dbd7ee3	0.09252717
117	0x3c8212e6	0.015878152
118	0xbef06785	-0.4695398
119	0x3ddad7e8	0.10685712
120	0x3dfd0fdd	0.12356541
121	0xbd029801	-0.031883243
122	0xbbff07e9	-0.0077829254
123	0x3ee8f1da	0.45497018
124	0x3e110417	0.14161716
125	0x3e2bbd74	0.1677149
126	0x3da2d838	0.07951397
127	0x3c8582d0	0.016297728
128	0xbc91d4d1	-0.017801674
129	0xbd72c9ac	-0.05927436
130	0x3e045cf5	0.12926085
131	0xbb2cb590	-0.0026353337
132	0x3e02fb71	0.1279123
133	0x3de80527	0.11329108
134	0x3ed563fa	0.4167784
135	0xbecdd31e	-0.40200132
136	0x3e1bfac9	0.15232386
137	0x3e09ad63	0.13445048
138	0xbec883e1	-0.39163116
139	0x3e3521c1	0.17688657
140	0xbd199e2b	-0.037504356
141	0x3e8a3ff1	0.27001908
142	0x3ef08842	0.46978956
143	0x3e6dd4f3	0.23225765
144	0xbe4bc991	-0.1990111
145	0x3daf718e	0.08566581
146	0x3e2db3ae	0.16963074
147	0x3e542185	0.20715912
148	0xbcd73f75	-0.026275376
149	0xbc39a844	-0.011331622
150	0x3e923a5d	0.28560153
151	0x3cdbe47b	0.026842346
152	0x3dd4f1ee	0.10397707
153	0x3d697f11	0.057005946
154	0x3d90edd6	0.070766136
155	0x3f052429	0.520083
156	0x3e5d5289	0.21613516
157	0x3eb50688	0.35356545
158	0xbd43032c	-0.047610447
159	0x3e28f901	0.16501237
160	0x3d83f925	0.06444005
161	0x3dcac812	0.09901442
162	0x3d9f8444	0.077888995
163	0xbf65e0ba	-0.8979603
164	0x3f05b9e7	0.5223679
165	0x3e65508e	0.2239401
166	0xbd6d6a3b	-0.057962637
167	0x3e847a61	0.25874618
168	0x3c313e4a	0.0108180735
169	0xbf29fc41	-0.66400534
170	0x3e599abd	0.21250434
171	0xbd94dcaa	-0.07268651
172	0x3e0c3a89	0.13694204
173	0x3e6bdac3	0.2303267
174	0xbf4a2898	-0.7896819
175	0x3ed0a505	0.407509
176	0x3f0cf2c7	0.5505795
177	0x3c9f7594	0.019465245
178	0x3e467afa	0.1938285
179	0x3d5d7258	0.054064125
180	0x3c6ead84	0.014567737
181	0x3de55991	0.11198724
182	0xbebe16f7	-0.37126896
183	0x3dd2dc11	0.102958806
184	0x3e07c520	0.13258791
185	0x3ce29825	0.027660439
186	0x3de2e7bd	0.11079357
187	0x3f27d7cb	0.6556365
188	0x3d8ea9e3	0.06965997
189	0x3db7b59e	0.089701876
190	0x3d85897d	0.065203644
191	0x3dd93507	0.10605817
192	0x3ddf25c8	0.10895878
193	0x3db5528a	0.08853634
194	0x3b619040	0.0034418255
195	0x3d1b1b38	0.037867755
196	0x3b02e860	0.0019974932
197	0x3dad262b	0.084545456
198	0x3dda636c	0.106634945
199	0xbe9c113d	-0.30481902
200	0x3d85765a	0.065167144
201	0x3ccf3f5c	0.025298767
202	0xbee508fe	-0.44733423
203	0x3dd720ea	0.10504325
204	0x3d5d6104	0.0540476
205	0x3d3fafe6	0.04679861
206	0x3e992086	0.29907626
207	0x3da49869	0.080368824
208	0xbe3b5b02	-0.18296435
209	0xbcf50698	-0.02991037
210	0x3da95d58	0.08269757
211	0x3e4dfcdd	0.20115991
212	0xbbe7fe3e	-0.0070798686
213	0xbe060218	-0.13086736
214	0x3e9af252	0.30263
215	0x3d0bf19e	0.03416597
216	0x3d2ad624	0.041708127
217	0xbdc8ef57	-0.098112755
218	0x3dcd0825	0.10011319
219	0x3f084644	0.53232217
220	0x3dd9713b	0.106173
221	0x3e1e952d	0.15486594
222	0xbd8c1a5b	-0.068409644
223	0x3cc17038	0.02361308
224	0xbccc322f	-0.024926273
225	0x3ce6bace	0.028165247
226	0x3cfcea5f	0.030873476
227	0xbe9454f1	-0.28971055
228	0x3dca969e	0.09892009
229	0x3d799f1c	0.060942754
230	0xbd96c7b7	-0.07362311
231	0xbd47305b	-0.0486301
232	0xbd684e04	-0.056715026
233	0xbf5f1927	-0.87147754
234	0x3dcbb690	0.099469304
235	0x3dc72a93	0.09724917
236	0x3af8b1f4	0.0018973933
237	0x3d999b0b	0.07500275
238	0xbf5e11f1	-0.86746126
239	0x3ed5d438	0.41763473
240	0x3e65b8ff	0.22433852
241	0xbc1cb578	-0.00956475
242	0xbd8510a9	-0.06497318
243	0x3e155296	0.14582285
244	0x3d01a5a6	0.031652115
245	0x3de09f8d	0.10967932
246	0xbe90a17a	-0.28248197
247	0x3dafbcf1	0.085809596
248	0x3c97e976	0.01854394
249	0x3c798ed2	0.015231805
250	0x3e32870a	0.17434326
251	0x3f10686f	0.56409353
252	0x3e0fb0c2	0.14032272
253	0xbcb1692f	-0.0216566
254	0xbcdbd2f2	-0.026833985
255	0xbd4b2ece	-0.049605183

network.6.bias f4 [64]
0	0x3ea464e8	0.32108235
1	0x3eb7b629	0.35881165
2	0x3e9f5ff4	0.31127894
3	0x3e82fc33	0.25583038
4	0x3d51720e	0.05113416
5	0x3ea9ad71	0.33140138
6	0xbd24ccc1	-0.04023433
7	0x3e93f440	0.28897285
8	0xbd9beade	-0.07613157
9	0xbcf2eae1	-0.029653015
10	0x3ead1670	0.3380618
11	0xbd6e1189	-0.05812219
12	0xbdf9ee42	-0.12203647
13	0x3b19cd80	0.0023468435
14	0x3e0d0d59	0.13774623
15	0x3e5fa714	0.21841079
16	0xbdc7450d	-0.09729967
17	0x3ea71027	0.3262951
18	0x3e917eb2	0.28416973
19	0x3e5f9724	0.21835
20	0xbd9a7dbe	-0.07543515
21	0xbc96b2e4	-0.018395849
22	0x3e06469c	0.13112873
23	0x3ecf9ff3	0.4055172
24	0x3e8b98d5	0.2726504
25	0x3a91a24f	0.0011110994
26	0xbcb70193	-0.022339618
27	0xbd367e61	-0.044554118
28	0x3e945743	0.28972825
29	0xbd5ba43a	-0.053623416
30	0x3e3dcff1	0.18536355
31	0xbde5b57c	-0.11216256
32	0x3e90ac80	0.28256607
33	0xbdf5f33a	-0.120092824
34	0x3e8b3d11	0.27195027
35	0xbd17e55a	-0.03708396
36	0xbdb699bc	-0.08916041
37	0x3e1fa31f	0.1558957
38	0x3ee0afb0	0.4388404
39	0x3e80091a	0.25006944
40	0xbdac3db4	-0.084102064
41	0x3e9ef3b1	0.31045297
42	0x3e9e8a06	0.3096468
43	0x3ea50ccd	0.3223633
44	0xbdab75eb	-0.083721004
45	0xbd3e39a5	-0.046441693
46	0x3b72d711	0.003705446
47	0xbdf61290	-0.12015259
48	0xbdb0bd33	-0.08629837
49	0xbded0a91	-0.11574281
50	0x3e2cacc8	0.16862786
51	0x3e8a53c4	0.27017033
52	0x3e9e40be	0.3090877
53	0x3e8eec18	0.279145
54	0x3e90548b	0.281895
55	0x3e1b8a44	0.15189463
56	0xbd417c23	-0.047237527
57	0x3d227a28	0.03966728
58	0xbc92dca1	-0.01792747
59	0x3e86b001	0.26306155
60	0xbdeda840	-0.11604357
61	0x3e120610	0.14260125
62	0xbdb3c31b	-0.08777448
63	0xbdfeb0d8	-0.12436074

network.8.weight f4 [21, 64]
0	0x3e698743	0.22805505
1	0x3e7bda18	0.24594915
2	0x3d36e982	0.044656284
3	0x3de87cb6	0.11351912
4	0x3d60c927	0.054879334
5	0x3e6b5a50	0.2298367
6	0xbdc7be40	-0.09753084
7	0x3e7d0aa0	0.24711084
8	0xbdfea5f8	-0.12434
9	0xbc97f629	-0.018549995
10	0x3e87ea86	0.26546115
11	0xbdce3e02	-0.10070421
12	0x3d9263a2	0.0714791
13	0x3d2478dc	0.040154323
14	0x3dc29c62	0.09502484
15	0xbcd4b74f	-0.025966315
16	0xbe1d2e51	-0.153497
17	0x3d805d74	0.06267825
18	0xbf0d0a61	-0.5509396
19	0xbd3fbdeb	-0.04681198
20	0xbd0f22fc	-0.034945473
21	0xbd8f0fc0	-0.06985426
22	0x3dda562e	0.10660969
23	0x3e5f9608	0.21834576
24	0x3e61675e	0.22012088
25	0xbd9fff92	-0.07812418
26	0xbaf24820	-0.001848463
27	0xbdce51db	-0.100742064
28	0x3e821e0c	0.2541355
29	0x3e92eb56	0.28695172
30	0xbd6e9cc0	-0.058254957
31	0xbdc9ff57	-0.09863155
32	0x3e2d6613	0.1693347
33	0x3de3228c	0.11090574
34	0x3d195860	0.037437797
35	0xbc47098b	-0.012148271
36	0xbdf75f3b	-0.12078711
37	0x3db17bc3	0.08666184
38	0xbee83bb4	-0.4535805
39	0x3e875b25	0.26436725
40	0xbda8ded0	-0.08245623
41	0x3e8c5392	0.2740751
42	0x3e455b17	0.1927303
43	0x3eae9f94	0.34106123
44	0xbd41d715	-0.04732426
45	0x3c00de93	0.007865566
46	0xbc3adeaa	-0.011405626
47	0x3d729cd4	0.059231594
48	0xbb999c57	-0.0046878266
49	0x3e129192	0.14313343
50	0x3e1f66d9	0.15566577
51	0x3dcc05a4	0.09962013
52	0x3e4a59da	0.19760838
53	0x3e2253d3	0.15852289
54	0x3e2a9db2	0.16661718
55	0x3e64e6bf	0.22353648
56	0x3d3b88c9	0.045784745
57	0xbd01b14f	-0.031663235
58	0xbdba6bf9	-0.091026254
59	0x3ddd3a60	0.1080215
60	0x3d50f848	0.05101803
61	0xbf5575c3	-0.83382815
62	0x3d2b2808	0.041786224
63	0xbd72e3b9	-0.059299204
64	0x3e847250	0.25868464
65	0x3d57024a	0.052492417
66	0x3e754c29	0.23954834
67	0x3dfce546	0.12348418
68	0xbce73149	-0.028221743
69	0x3e137a27	0.14402066
70	0xbd2a45e1	-0.041570548
71	0x3e6e24a1	0.2325616
72	0x3da93ede	0.08263944
73	0x3df27c41	0.11840106
74	0x3e62114a	0.22076908
75	0xbd221014	-0.039566115
76	0xbd20a5c0	-0.03922057
77	0x3dabe832	0.08393897
78	0x3e08a88b	0.13345544
79	0x3f2338c3	0.63758487
80	0xbde89534	-0.11356583
81	0x3e644c6e	0.2229478
82	0xbebe2404	-0.37136853
83	0xbd6693e6	-0.05629339
84	0x3d865cda	0.06560679
85	0x3d89f0d2	0.06735386
86	0x3e10a13f	0.1412401
87	0x3e53f021	0.2069707
88	0x3e740296	0.23829111
89	0xbdc00611	-0.09376157
90	0xbda40536	-0.080088064
91	0x3de409c2	0.11134674
92	0x3e97145b	0.29507717
93	0x3e63762c	0.22213048
94	0xbe1a8efb	-0.15093605
95	0xbd153c56	-0.036434494
96	0x3e111e9a	0.1417183
97	0x3d1e40cc	0.038636014
98	0x3dd5b9fe	0.10435866
99	0xbb114361	-0.0022165405
100	0xbd998ea4	-0.0749791
101	0x3ce8d6cc	0.028422736
102	0xbf1f58fb	-0.6224515
103	0x3e4f25b0	0.2022922
104	0x3d2a45b4	0.04157038
105	0x3d99618e	0.0748931
106	0x3e3c9020	0.18414354
107	0x3e397d28	0.1811415
108	0x3dd04890	0.1017009
109	0x3d557b00	0.052119255
110	0xbd794b76	-0.06086298
111	0xbc53e722	-0.012933524
112	0xbc79d950	-0.015249565
113	0x3d47192d	0.048607994
114	0x3e70b55c	0.23506683
115	0x3e36f726	0.17867717
116	0x3dd3ebb7	0.103476934
117	0x3e22fd85	0.15917023
118	0x3e899064	0.26867974
119	0x3e81dcd9	0.25363806
120	0x3dbe7dce	0.09301339
121	0xbd530fb6	-0.051528655
122	0x3d4721b1	0.048616115
123	0x3e417731	0.18893124
124	0x3cf98628	0.030459478
125	0xbf45c021	-0.7724629
126	0x3b522140	0.0032063276
127	0x3d0460f6	0.03231903
128	0x3e7a446e	0.24440166
129	0x3dc33be4	0.095329076
130	0x3e425b6a	0.18980184
131	0x3de286fe	0.11060904
132	0x3c5abb57	0.013350329
133	0x3d959335	0.07303468
134	0xbc9f1efb	-0.019423952
135	0x3e513cc9	0.20433344
136	0x3bb58180	0.0055391192
137	0xbca3a677	-0.019976838
138	0x3e885292	0.26625496
139	0xbdb1d598	-0.08683318
140	0xbb438d40	-0.002983883
141	0x3d3f75b4	0.04674311
142	0x3e67b0a9	0.22625984
143	0x3e311c62	0.17295983
144	0x3d84f9f3	0.064929865
145	0x3ddb1ba4	0.106986314
146	0xbecb3d7d	-0.3969535
147	0xbbd68a78	-0.0065472685
148	0xbc81d7b0	-0.015849918
149	0x3df80e10	0.12112057
150	0x3e58afaf	0.21160768
151	0x3dcd7b77	0.10033315
152	0x3e733244	0.23749644
153	0x3c12a968	0.008951522
154	0x391b75b9	0.00014825807
155	0x3cac0ba0	0.021001637
156	0x3e9041c9	0.2817519
157	0x3e77cf29	0.24200119
158	0xbd48b225	-0.048998017
159	0x3d160353	0.036624264
160	0x3dca0695	0.09864537
161	0xbd988c68	-0.07448655
162	0x3d17deab	0.037077587
163	0xbd0d07f1	-0.0344314
164	0xbd8cc088	-0.0687266
165	0x3cf20195	0.02954177
166	0xbf05f064	-0.5231993
167	0x3e8a3ea3	0.27000913
168	0xbdbd9d56	-0.09258525
169	0x3e2303fd	0.1591949
170	0x3db97df0	0.09057224
171	0x3e83f055	0.25769296
172	0xbb9c2240	-0.004764825
173	0xbde4c354	-0.111700684
174	0xbd3c7851	-0.04601318
175	0x3dfc975e	0.123335585
176	0xba35006b	-0.00069046643
177	0xbd8a6c86	-0.067589805
178	0x3e8031af	0.25037906
179	0x3e850dd1	0.25987104
180	0x3d502fca	0.050826825
181	0x3e53022b	0.20606296
182	0x3e255c75	0.16148551
183	0x3e742d31	0.23845364
184	0x3cf5c425	0.030000756
185	0x3dd43532	0.10361709
186	0xbda3d8c4	-0.08000329
187	0x3dfe8fbc	0.12429759
188	0x3df97388	0.12180239
189	0xbf40114e	-0.75026405
190	0xbdf5518e	-0.11978446
191	0x3db43281	0.08798695
192	0x3e89ab34	0.2688843
193	0x3e572f17	0.21014057
194	0x3e57e40c	0.21083087
195	0x3deac491	0.11463273
196	0x3bea815f	0.0071565355
197	0x3da31526	0.07963018
198	0xbd23030f	-0.03979784
199	0x3da1874f	0.07887136
200	0x3df8952a	0.12137826
201	0xbc96e061	-0.01841754
202	0x3de4c8c9	0.11171109
203	0x3d0f499c	0.03498231
204	0xbdbfce26	-0.093654916
205	0xbdf1dfe2	-0.118102804
206	0x3d1fad0a	0.038983382
207	0x3ee2469a	0.4419449
208	0x3c87ffd8	0.016601488
209	0x3e79d2e9	0.24396862
210	0xbef4ce12	-0.4781347
211	0xbad4b514	-0.0016228282
212	0xbdb2bc1e	-0.08727287
213	0x3ace6e00	0.0015749335
214	0x3e6c5545	0.23079403
215	0x3e240563	0.1601768
216	0x3e6ed49e	0.23323295
217	0x3dbd7116	0.09250085
218	0x3dde41da	0.10852404
219	0xbdd5a3ee	-0.10431658
220	0x3e658933	0.22415619
221	0x3e358108	0.17725003
222	0xbdee06cd	-0.11622391
223	0xbe00ec24	-0.1259008
224	0x3e1e00f8	0.15430057
225	0x3d0d55dc	0.03450571
226	0x3e48227a	0.19544402
227	0xbc935ff1	-0.017990084
228	0x3ae3a080	0.0017366558
229	0x3e38b475	0.18037589
230	0xbf1ae717	-0.60508865
231	0x3e889ac8	0.2668059
232	0xbdecff14	-0.1157209
233	0x3e43a980	0.19107628
234	0x3db7b97d	0.08970926
235	0x3e84c62e	0.2593245
236	0xbd6f9f48	-0.05850151
237	0x3cf6e258	0.030137226
238	0xbdd2732d	-0.10275874
239	0xbd7bb30c	-0.06145005
240	0x3d21f154	0.03953679
241	0x3d876f36	0.06613009
242	0x3e0dd26c	0.13849801
243	0x3e53ef80	0.20696831
244	0x3e31a80f	0.17349266
245	0x3e5dc417	0.21656834
246	0x3e98ab34	0.29818118
247	0x3e146466	0.14491424
248	0x3db5c446	0.08875327
249	0x3dd449ca	0.10365637
250	0x3c6c807c	0.01443493
251	0x3da75076	0.081696436
252	0xbd82238e	-0.06354438
253	0xbf1a5965	-0.60292655
254	0x3cd9ee90	0.026603013
255	0xbcfd5329	-0.030923443

network.8.bias f4 [21]
0	0x3e4255cb	0.1897804
1	0x3e546b8f	0.20744155
2	0x3e4129bc	0.18863577
3	0x3e76720b	0.24066941
4	0x3e63d930	0.22250819
5	0x3e8f0920	0.2793665
6	0x3e88ee0c	0.26744115
7	0x3e6aab3d	0.22916885
8	0x3e23138f	0.1592543
9	0x3e5bb59d	0.21455999
10	0x3e3db504	0.18526083
11	0x3e5110be	0.20416543
12	0x3e569899	0.20956649
13	0x3e5300aa	0.20605722
14	0x3e2f566d	0.17122813
15	0x3e3afd42	0.18260673
16	0x3e71f0a1	0.23626949
17	0x3e78213a	0.24231425
18	0x3e96af64	0.29430687
19	0x3e352e4b	0.1769344
20	0x3ea998b0	0.33124304
