model/model_7049.pth (torch, 35975 bytes, 10 tensors)

network.0.weight f4 [16, 6]
0	0xbf937139	-1.1518928
1	0x3f5e5177	0.86843055
2	0x3e9dc413	0.30813655
3	0x3d80c708	0.06287962
4	0xbf98397e	-1.1892545
5	0xbd5cd45a	-0.05391345
6	0xbfc1d973	-1.5144485
7	0xbdb9df28	-0.09075767
8	0x3cd4e87b	0.025989762
9	0xbecd2e02	-0.40074164
10	0xbf39d33b	-0.7258794
11	0x3e2e3d7f	0.17015646
12	0xbfac60b6	-1.3467014
13	0x3d1580e2	0.036499865
14	0x3e292749	0.16518892
15	0xbe422f86	-0.18963441
16	0x3fb98919	1.4494964
17	0x3e031f21	0.12804843
18	0x3e441a42	0.19150642
19	0x400ec374	2.2306795
20	0x3f34b40c	0.7058723
21	0x3e64b0ac	0.2233302
22	0x3f299387	0.66240734
23	0x3e767c52	0.24070862
24	0xbf602108	-0.875504
25	0x3e02660b	0.12734239
26	0xbf05d459	-0.5227714
27	0xbea2a876	-0.3176915
28	0xbe8abdc4	-0.27097905
29	0xbd7b1dd4	-0.061307743
30	0x3f6017db	0.875364
31	0x3f3c8836	0.7364534
32	0xbeea55ac	-0.45768487
33	0x3ceb797d	0.028744454
34	0x3f2543af	0.645564
35	0xbe759d43	-0.23985772
36	0x38934546	7.0224094e-05
37	0xbff44771	-1.9084302
38	0xbf2c987d	-0.6742018
39	0x3ea8e076	0.3298375
40	0xbf494aa2	-0.78629506
41	0xbe88c124	-0.26709855
42	0xbdad5442	-0.084633365
43	0xc00a5216	-2.1612601
44	0xbe63789e	-0.2221398
45	0xbeaeab78	-0.34115195
46	0xbf8f4810	-1.1193867
47	0x3d694ae6	0.056956194
48	0xbfb38c19	-1.402713
49	0x3e3ab9ca	0.18234935
50	0xbe39f33a	-0.1815919
51	0x3f559bfd	0.83441144
52	0x3ee4be3b	0.44676384
53	0xbe662768	-0.2247597
54	0x3f3d8ad7	0.7403998
55	0xbf361f4c	-0.71141505
56	0x3dab106d	0.08352742
57	0xbfdca82d	-1.7238823
58	0xbe818aed	-0.25301304
59	0x3e7954f5	0.24348815
60	0xbebb94e5	-0.36637035
61	0xc000355a	-2.0032563
62	0xbef44a47	-0.4771292
63	0xbee2ecac	-0.4432119
64	0x3edc39b0	0.43012762
65	0xbd52e005	-0.051483173
66	0x3f3f0125	0.7461112
67	0x3f0cfb32	0.55070794
68	0x3f12dcc8	0.57368135
69	0xbe4ac04d	-0.1979992
70	0x3fb5f0fb	1.4214166
71	0x3eb64b7b	0.35604462
72	0x3eb7a37c	0.35866916
73	0x3e1bc68e	0.15212461
74	0x3ebb818f	0.36622283
75	0xbdac0d87	-0.08401018
76	0xbf1d0455	-0.61334735
77	0xbd07e044	-0.03317286
78	0xbf072b0c	-0.5280006
79	0x3fcc8f5b	1.5981249
80	0x3e8f5276	0.279926
81	0xbf555d55	-0.8334554
82	0x3f451309	0.7698217
83	0x3ddc91a9	0.1076997
84	0x3e85c5fb	0.2612761
85	0x3ea60c00	0.3243103
86	0xbe4bff2e	-0.19921562
87	0xbfbbe4e5	-1.4679228
88	0xbf82bca8	-1.0213823
89	0xbe954605	-0.29154983
90	0x3ef42729	0.47686127
91	0x3f138f65	0.5764068
92	0x3e1ce087	0.15320025
93	0xbfb6609e	-1.4248235
94	0x3f8cada4	1.0990491
95	0xbea2252c	-0.31668985

network.0.bias f4 [16]
0	0xbdd6456d	-0.10462461
1	0x3f302149	0.6880079
2	0x3e8614b9	0.26187685
3	0x3e51b05d	0.20477434
4	0x3dfc8350	0.12329733
5	0xbfbc5735	-1.4714113
6	0xbecd260b	-0.40068087
7	0xbefa76b1	-0.4891868
8	0x3e5f20b9	0.21789826
9	0x3ddb7862	0.107163206
10	0x3f156af1	0.58366305
11	0x3ec85770	0.3912921
12	0x3f749a11	0.95547587
13	0x3f40665d	0.75156194
14	0x3f70b584	0.9402697
15	0xbf2528e3	-0.64515513

network.2.weight f4 [32, 16]
0	0xbeab6b63	-0.33480367
1	0x3d7925a2	0.060826905
2	0xbeaef0d1	-0.34168103
3	0xbf2d9c23	-0.6781637
4	0xbf3f02eb	-0.7461383
5	0xbe806153	-0.25074252
6	0xbf2aa3c0	-0.6665611
7	0x3f2c1883	0.672249
8	0xbed09f3b	-0.40746483
9	0x3c97cdb9	0.018530713
10	0x3f298091	0.662118
11	0x3f5684c7	0.8379635
12	0xbf73e6da	-0.95274127
13	0xbd747f98	-0.059691995
14	0x3f85db7b	1.0457605
15	0xbf154028	-0.5830102
16	0xbeff4283	-0.49855432
17	0xbf1fa20f	-0.62356657
18	0x3e99188e	0.29901546
19	0xbff40054	-1.90626
20	0xbdc14d8f	-0.09438621
21	0x3f2fbedf	0.6865062
22	0xbe7c31c2	-0.24628356
23	0xbe317d12	-0.17332867
24	0xbeb5b97a	-0.3549307
25	0xbdc04c4e	-0.09389554
26	0x3ef89e32	0.48558193
27	0xbf09ed14	-0.5387738
28	0x3e6658c2	0.22494796
29	0xbf4fba26	-0.81143415
30	0x3cfc0503	0.030764109
31	0xbf629082	-0.8850175
32	0x3d121ad8	0.03567013
33	0xbdbe6452	-0.09296478
34	0xbe654d0a	-0.2239267
35	0xbe39e688	-0.18154347
36	0xbd9a60bc	-0.07537982
37	0xbd48f931	-0.049065772
38	0xbe0e8db8	-0.13921249
39	0xbb3fe334	-0.002927971
40	0xbd53ee50	-0.051740944
41	0x3dad9a90	0.08476746
42	0xbc49148c	-0.012272965
43	0x3c8f38c4	0.017483123
44	0xbe7a9ac9	-0.24473108
45	0xbd3ef4b8	-0.0466201
46	0xbe3cdf78	-0.18444622
47	0xbd2d18d8	-0.04226002
48	0x3f220fac	0.63305163
49	0xbdc95eb5	-0.09832517
50	0xbc8195fd	-0.01581859
51	0x3f3da046	0.7407268
52	0xbc190d71	-0.009341584
53	0xbf05a167	-0.52199405
54	0xbf2125a3	-0.62948054
55	0xbecaeea2	-0.39635187
56	0xbde0660b	-0.10956963
57	0xbe353f43	-0.17699914
58	0x3f85b4a3	1.0445751
59	0xbf343235	-0.7038911
60	0x3f0971a2	0.53689015
61	0xbe16419b	-0.14673464
62	0x3eeb8bb3	0.4600502
63	0xbf8003ee	-1.0001199
64	0xbf33db50	-0.7025652
65	0xbe99c4b2	-0.3003288
66	0x3c1ddd5b	0.009635295
67	0x3ebc5669	0.36784676
68	0x3ec642ae	0.38722748
69	0xbf5f30ba	-0.87183726
70	0xbe6e7618	-0.23287237
71	0xbfaee925	-1.36649
72	0x3ed18a97	0.40926048
73	0x3ed36496	0.41287678
74	0xbf33f576	-0.7029642
75	0x3dd6f108	0.10495192
76	0x3df88a13	0.121357106
77	0x3ce8f1d3	0.028435623
78	0x3ef17a83	0.47163782
79	0xbe35ded6	-0.17760786
80	0xbfa6a657	-1.3019513
81	0xbf56aeef	-0.8386068
82	0x3e42679b	0.18984835
83	0xbf5c6a5a	-0.8609978
84	0x3e6c9b6e	0.23106167
85	0xbf40e9a8	-0.7535653
86	0xbf041487	-0.5159382
87	0xbf6c11b0	-0.9221449
88	0xbfd5a242	-1.6690142
89	0xbfa7626c	-1.3076911
90	0x3ef5a80a	0.47979766
91	0x3eef63c6	0.4675581
92	0xbf48c170	-0.7842016
93	0x3e889e4f	0.2668328
94	0xbe2dd553	-0.16975908
95	0x3f20b5e4	0.62777543
96	0xbe8f8116	-0.28028172
97	0x3e946158	0.28980517
98	0x3e0fce0b	0.14043443
99	0x3f7e3bbf	0.99309915
100	0xbd201d24	-0.03909029
101	0x3e601cac	0.21885937
102	0xbf84b53e	-1.0367811
103	0xbe168311	-0.14698435
104	0x3e098b67	0.13432084
105	0xbf3626a3	-0.71152705
106	0xbda22609	-0.07917411
107	0x3f2c1f74	0.67235494
108	0xbd906cfc	-0.07052037
109	0xbf86deee	-1.0536783
110	0x3ebf430a	0.37355834
111	0x3ee80629	0.453172
112	0x3fa55513	1.2916588
113	0xbe461ef3	-0.19347744
114	0xbf0db850	-0.55359364
115	0xbc381eb1	-0.011237786
116	0x3e68804e	0.22705194
117	0x3ec2972d	0.38005963
118	0xbeb6ee0b	-0.35728487
119	0x3ea5ad57	0.3235881
120	0xbf36a05c	-0.7133844
121	0xbf37e962	-0.7184049
122	0x3f4cd4ea	0.8001238
123	0x3f75db23	0.960375
124	0x3e0eb9d2	0.13938072
125	0xbef67cca	-0.48142081
126	0xbeab368e	-0.3344006
127	0xbf5f45cc	-0.87215877
128	0xbe07abef	-0.13249181
129	0x3f79e59c	0.9761598
130	0x3f21eaff	0.632492
131	0xbf7f2dde	-0.9967936
132	0xbf88c360	-1.0684624
133	0x3f1db2fd	0.6160124
134	0x3f125962	0.5716764
135	0x3e6c6d7f	0.23088644
136	0x3e8cd1a6	0.275037
137	0xbe524b14	-0.20536453
138	0x3f218e5c	0.6310785
139	0xbf2bb24f	-0.6706895
140	0x3e43ed19	0.19133414
141	0x3f020947	0.50795406
142	0xbf15152b	-0.58235425
143	0xbdb7ee3d	-0.08980987
144	0xbda5c403	-0.08094027
145	0xbeb02386	-0.34402102
146	0x3f708571	0.93953615
147	0xbf2b1d23	-0.66841334
148	0xbf1c8bc6	-0.6115078
149	0xbf10c7fb	-0.56555146
150	0xbf39528d	-0.7239159
151	0xbe7be55b	-0.24599211
152	0xbe0977ff	-0.13424681
153	0xbf18f9a4	-0.5975592
154	0x3e715406	0.23567209
155	0xbf0dbad8	-0.55363226
156	0x3eb598e6	0.35468215
157	0xbe319bb9	-0.1734456
158	0x3f6a2b83	0.91472644
159	0xbf86d227	-1.0532883
160	0xbfb469e2	-1.4094813
161	0xbf0d6561	-0.55232817
162	0x3f590667	0.84775394
163	0x3e933182	0.2874871
164	0x3e9a86b0	0.30180883
165	0x3e783c05	0.24241646
166	0x3f8862d9	1.0655166
167	0x3e1dea40	0.1542139
168	0xbce373b2	-0.027765129
169	0xbfb17e83	-1.3866733
170	0xbf3c0a90	-0.7345362
171	0xbf97fa67	-1.1873292
172	0x3f9846f1	1.189665
173	0xbed2230f	-0.41042373
174	0x3ed81d92	0.4221006
175	0x3ec0f2a4	0.3768512
176	0x3e69856d	0.22804804
177	0x3e17fc2c	0.1484229
178	0x3f5683bf	0.8379478
179	0x3ea95a7b	0.33076844
180	0x3f446e32	0.76730645
181	0xbe4860ad	-0.19568129
182	0x3ddd5aa6	0.108083054
183	0xbf0d8acc	-0.5528991
184	0xbf443bfe	-0.7665404
185	0x3f0e5521	0.55598646
186	0xbe9d86bf	-0.30766866
187	0xbebe64a0	-0.37186146
188	0x3f484141	0.7822457
189	0xbf3e1a69	-0.7425905
190	0xbeab497c	-0.33454502
191	0x3f4fe22a	0.81204474
192	0xbe91a796	-0.2844817
193	0x3e355675	0.17708762
194	0x3f00af16	0.5026716
195	0xbf92b467	-1.1461304
196	0xbe99fe33	-0.3007675
197	0xbf4a0509	-0.78913933
198	0x3ea90efa	0.3301924
199	0xbeceefe2	-0.4041739
200	0x3f465dcf	0.7748689
201	0x3e8d4f68	0.27599645
202	0x3c1d09b5	0.009584834
203	0xbf0e2063	-0.5551817
204	0xbe445f6d	-0.19177027
205	0xbe5750a6	-0.21026859
206	0xbb3d8435	-0.0028917913
207	0xbf6b2477	-0.91852516
208	0xbe1e2c22	-0.15446523
209	0xbf4212f9	-0.758102
210	0xbe081ff2	-0.13293436
211	0xbfc94023	-1.5722698
212	0x3e19c7d1	0.1501763
213	0xbe0307c4	-0.12795931
214	0x3f5092d3	0.81474036
215	0xbef53089	-0.47888592
216	0x3e790b9f	0.2432084
217	0x3fb8df53	1.4443153
218	0x3e37cb20	0.1794858
219	0x3f29e8b1	0.66370684
220	0xbf19d47c	-0.6008985
221	0xbf1e2949	-0.61781746
222	0xbe0d8761	-0.13821174
223	0xbfbaa309	-1.4581004
224	0x3f011214	0.5041821
225	0x3eb37d3f	0.35056493
226	0xbeeec50c	-0.4663471
227	0x3e229473	0.15876941
228	0x3f2535c9	0.64535195
229	0x3f2062df	0.62650865
230	0xbeb57a47	-0.35444853
231	0x3f4e152a	0.80501044
232	0xbf01cde1	-0.5070477
233	0x3ee77236	0.45204324
234	0xbec1c1e5	-0.37843242
235	0x3f300a6d	0.6876591
236	0xbf11e035	-0.5698274
237	0xbeb07423	-0.34463605
238	0xbf5899b9	-0.8460956
239	0x3e880e76	0.26573533
240	0xbdcaadc8	-0.098964274
241	0xbe5af602	-0.21382907
242	0xbf160650	-0.5860338
243	0x3f7aa0e2	0.9790174
244	0x3e977d8e	0.29587978
245	0xbbc8f174	-0.006132299
246	0x3f023a21	0.5086995
247	0x3fa12983	1.2590793
248	0xbe34661d	-0.17617078
249	0xbeab424b	-0.33449015
250	0xbf07ed48	-0.5309644
251	0x3e881960	0.2658186
252	0xbe2872c9	-0.16450037
253	0x3f248b90	0.64275455
254	0x3dc50662	0.09620358
255	0x3f076820	0.5289326

network.2.bias f4 [32]
0	0x3efea0ff	0.49732205
1	0x3ffe2c9a	1.9857361
2	0xbe780ace	-0.24222872
3	0xbf8e18d5	-1.1101328
4	0x3edd729f	0.4325151
5	0x3fa2c5fe	1.2716672
6	0xbef6bd63	-0.48191366
7	0xbf4b0128	-0.7929864
8	0x3e4ebaa8	0.20188391
9	0x3f88c7b1	1.0685941
10	0xbf97c91e	-1.1858251
11	0xbf26e671	-0.65195376
12	0x3f63021b	0.8867509
13	0xbe7a2052	-0.24426392
14	0x3ee5f79c	0.44915473
15	0xbf58806c	-0.84570956
16	0xbe93c7a5	-0.28863254
17	0xbe65a6d4	-0.22426921
18	0x3e908a7e	0.2823066
19	0xbe7dddf7	-0.24791704
20	0x3f4ebd26	0.8075737
21	0xbf2089df	-0.62710375
22	0xbf20e5b5	-0.62850505
23	0xbedba519	-0.42899397
24	0xbf1ead5f	-0.61983293
25	0x3e7da078	0.24768245
26	0xbe45a089	-0.1929952
27	0xbe8e4416	-0.2778632
28	0x3f52508f	0.8215417
29	0xbfca3f11	-1.5800496
30	0x3f95d531	1.1705686
31	0xbe330389	-0.17481817

network.4.weight f4 [64, 32]
0	0x3f72a4fb	0.9478299
1	0xbf918d22	-1.1371195
2	0xbd83a3c6	-0.06427722
3	0xbf468bab	-0.77556866
4	0x3d3507c8	0.044196874
5	0x3fa90573	1.3204788
6	0xbf668216	-0.90042245
7	0x3f0e9c53	0.5570728
8	0x3f111542	0.5667306
9	0x3f37d73c	0.71812797
10	0x3f2386e4	0.638777
11	0xbd078680	-0.033087254
12	0xbf082832	-0.53186333
13	0xc0214174	-2.51962
14	0x3eb68720	0.35649967
15	0x3eff5a99	0.49873808
16	0x3f3974f9	0.7244411
17	0x3cc3183d	0.023815269
18	0xbf0c3766	-0.5477203
19	0xbf48b23a	-0.7839695
20	0xbf30a00f	-0.6899423
21	0xbd159b03	-0.036524784
22	0xbeb64ac8	-0.3560393
23	0x3e76494c	0.24051398
24	0x3d5d248e	0.05398994
25	0xbeef2c60	-0.46713543
26	0x3e4e6099	0.20154037
27	0x3f201368	0.6252961
28	0xbee29c70	-0.44259977
29	0xc0319203	-2.7745368
30	0x3b7c5641	0.003850356
31	0x3f46ad20	0.7760792
32	0x3de18b3f	0.11012887
33	0x3dad0521	0.08448244
34	0x3bbb10fc	0.005708812
35	0xbe15c403	-0.14625554
36	0x3cd8671a	0.02641635
37	0x3dc4a1f4	0.096012026
38	0xbdefb4aa	-0.11704381
39	0xbe5fe69f	-0.21865319
40	0xbe3abe5d	-0.1823668
41	0x3dabe777	0.08393758
42	0xbe23d5ac	-0.15999478
43	0xbe07802e	-0.1323249
44	0xbe26f00b	-0.16302507
45	0xbdc73cb2	-0.097283736
46	0xbe0bd93b	-0.13657086
47	0x3dd242ff	0.10266685
48	0x3daff512	0.08591665
49	0x3cebc33b	0.028779617
50	0xbe2c1536	-0.16804966
51	0xbdfa4a53	-0.122212075
52	0x3d48d04e	0.04902678
53	0xbd97fa62	-0.074208036
54	0xbcfda5b6	-0.030962806
55	0xbe4371cc	-0.19086379
56	0xbd912ff5	-0.07089225
57	0xbe338bc1	-0.1753378
58	0x3a7a8370	0.0009556329
59	0xbd98ea03	-0.07466509
60	0x3db4bc37	0.08824962
61	0x3d341b74	0.043971494
62	0xbe259ee7	-0.16173898
63	0xbd1f6778	-0.038917035
64	0x3ef629ec	0.4807886
65	0xbf172cec	-0.5905292
66	0xbde0da4e	-0.10979138
67	0xbf8ce1b7	-1.1006383
68	0x3efbc15b	0.49170956
69	0xbe97c9c1	-0.29646114
70	0x3e9b552c	0.30338418
71	0xbf43b2c6	-0.7644466
72	0x3f95be0c	1.1698623
73	0xbf1dcc0f	-0.61639494
74	0xbeef5514	-0.46744597
75	0xbe86e8c5	-0.26349464
76	0xbf9dc5b9	-1.2325965
77	0xbef69f71	-0.4816852
78	0x3ed79cbf	0.42111775
79	0x3de5249f	0.111886255
80	0xbdf79831	-0.12089575
81	0xbdcacdb3	-0.09902515
82	0xc0065da7	-2.099466
83	0xbfb44bae	-1.4085596
84	0xbf3ae6e3	-0.73008555
85	0x3df8cf7e	0.12148951
86	0xbeb19477	-0.34683582
87	0xbed75d0f	-0.42063186
88	0x3ed67e91	0.41893438
89	0xbe9d29a4	-0.30695832
90	0x3ced61b4	0.028977253
91	0xbe76de95	-0.24108346
92	0x3dd2f99a	0.10301514
93	0xbdf318c2	-0.118699566
94	0x3ed864ea	0.4226449
95	0x3f2c4c44	0.6730387
96	0x3dbeda75	0.09319011
97	0x3f37094c	0.7149856
98	0xbd0c039e	-0.034183137
99	0x3eb6bba5	0.35690036
100	0x3f542559	0.8286949
101	0x3e90d322	0.28286082
102	0x3f079a62	0.52969944
103	0x3ed90936	0.4238984
104	0x3d84ce4f	0.06484663
105	0x3f8d5676	1.1042011
106	0x3f5964a4	0.8491919
107	0xbca6413b	-0.020294776
108	0xbeacc58d	-0.3374447
109	0x3ea5b161	0.32361892
110	0xbf657c81	-0.896431
111	0xbf32b629	-0.69809204
112	0x3fbe81b2	1.488333
113	0x3e1fa093	0.15588598
114	0xc00b2a36	-2.1744514
115	0xbf979745	-1.1843039
116	0xbf165a48	-0.5873151
117	0xbc88f600	-0.016718864
118	0xbe5f0d7d	-0.21782489
119	0x3ebb6f2f	0.36608264
120	0x3d29abd8	0.04142365
121	0x3d23119c	0.039811715
122	0x3ede6d0b	0.43442568
123	0x3e53a200	0.20667267
124	0xbf43fcd4	-0.7655766
125	0x3e39557b	0.18099014
126	0xbfb7e21f	-1.4365882
127	0x3e260ddb	0.16216223
128	0xbc321c87	-0.010871059
129	0x3e90a76e	0.2825274
130	0xbd22b0b9	-0.039719317
131	0xbd4ba631	-0.04971904
132	0xbeebb21e	-0.4603433
133	0xbec79717	-0.3898246
134	0x3e99b21d	0.30018702
135	0x3ca7713d	0.020439738
136	0x3e89de08	0.2692721
137	0xbdc80855	-0.09767214
138	0xbf1b4034	-0.6064484
139	0xbd8a3353	-0.067480706
140	0xbe112140	-0.1417284
141	0xbe0241a0	-0.12720346
142	0x3db8c79b	0.09022447
143	0xbe85de10	-0.26145983
144	0xbf91d768	-1.1393862
145	0xbdf79716	-0.12089364
146	0xbe0cbc78	-0.1374377
147	0xbd7a9fcf	-0.06118756
148	0xbf8e1203	-1.1099247
149	0x3efba6cf	0.49150702
150	0xbee7245d	-0.4514493
151	0x3e6097cd	0.21932907
152	0xbf08f5f7	-0.5350031
153	0xbece06da	-0.40239602
154	0xbecc436b	-0.39895186
155	0xbefc4d6c	-0.49277818
156	0xbeabd7ec	-0.33563173
157	0xbf03a5ed	-0.5142506
158	0xbf16af0c	-0.5886085
159	0x3ee2037e	0.4414329
160	0x3eb1a3e0	0.3469534
161	0x3f19e973	0.6012184
162	0xbd61aeb3	-0.055098247
163	0xbf971fd7	-1.1806592
164	0xbf17efab	-0.5935008
165	0x3f8a5cda	1.0809586
166	0xbf49521b	-0.7864091
167	0x3cf6f046	0.030143868
168	0x3d9d9738	0.07694858
169	0x3f95567d	1.1667019
170	0x3dd7290f	0.10505878
171	0x3f31a265	0.6938842
172	0xbf4397df	-0.7640361
173	0x3e86d6cc	0.26335752
174	0x3de97b02	0.11400415
175	0xbf079779	-0.52965504
176	0xbf3316fc	-0.69956946
177	0xbdfa27b5	-0.12214605
178	0xbf5ea41f	-0.8696918
179	0xbf3a6cb7	-0.72822136
180	0x3f905c02	1.1278079
181	0x3e3695fe	0.17830655
182	0x3f0caf64	0.54955125
183	0x3d1be8e8	0.038063914
184	0x3f7dd14c	0.99147487
185	0x3e31bc64	0.17357022
186	0xbfbe1f90	-1.4853382
187	0xbc0db477	-0.008648983
188	0xbf503db0	-0.8134413
189	0xbefdf029	-0.4959729
190	0xbe77cb1c	-0.24198574
191	0x3de51637	0.11185878
192	0xbf09d57b	-0.5384137
193	0xbf809024	-1.0043988
194	0x3e2a506d	0.16632243
195	0x3fca2cf0	1.5794964
196	0xbf2ba12a	-0.6704279
197	0x3f4456ea	0.7669512
198	0x3e98004a	0.2968772
199	0x3f146ff6	0.5798334
200	0x3e44bca0	0.1921258
201	0xbe9c0495	-0.30472246
202	0x3f28b159	0.6589561
203	0xbe9d4d1a	-0.30722886
204	0xbfb77b6e	-1.4334543
205	0x3e58755f	0.21138524
206	0x3f31508d	0.69263536
207	0xbfa6ede6	-1.3041351
208	0xbfc5d46f	-1.5455455
209	0xbd977ee4	-0.07397249
210	0x3e0a228d	0.13489743
211	0x3d85f2d8	0.065404594
212	0xc00d9c30	-2.212658
213	0x3ed09870	0.407413
214	0xbe893185	-0.26795593
215	0xbd8a6b34	-0.067587286
216	0xbf9cc774	-1.2248368
217	0xbe97190f	-0.29511306
218	0x3f633184	0.8874743
219	0x3e3adcef	0.18248342
220	0xbf9e6141	-1.237343
221	0xbfa67f22	-1.3007548
222	0x3f06d3cb	0.5266692
223	0x3b213a33	0.002460134
224	0x3ebdd71c	0.37078178
225	0xbe917ebd	-0.28417006
226	0x3d267fbc	0.04064916
227	0xbf37424d	-0.7158554
228	0xbdb3841a	-0.08765431
229	0x3ea5e928	0.32404447
230	0xbeeaa4db	-0.458289
231	0x3f0f2838	0.55920744
232	0xbf58184d	-0.8441208
233	0xbea3c977	-0.31989643
234	0x3f6c6983	0.923485
235	0xbd30580f	-0.04305273
236	0x3f8656ba	1.0495217
237	0xbf6e844f	-0.93170637
238	0x3d8153a9	0.06314785
239	0xbf654c6f	-0.89569753
240	0x3ee965db	0.45585522
241	0x3d76db4e	0.06026774
242	0x3f6b3854	0.91882825
243	0x3efe3c3c	0.4965533
244	0x3e077217	0.13227116
245	0x3ee1d1ad	0.44105282
246	0xbeef4189	-0.46729687
247	0xbedc3669	-0.43010262
248	0x3e629911	0.22128703
249	0xbe0218b3	-0.12704735
250	0xbf0a922c	-0.5412929
251	0x3e81df80	0.2536583
252	0xbf295b9e	-0.6615542
253	0x3ea5b6e5	0.323661
254	0xbdb4971d	-0.08817885
255	0x3d155133	0.03645439

network.4.bias f4 [64]
0	0xbfb12f13	-1.3842491
1	0xbdbb0a4d	-0.09132824
2	0xbeb52434	-0.35379183
3	0xbfe5be15	-1.7948633
4	0xbc770d53	-0.01507886
5	0xbe0c9e4a	-0.13732257
6	0xbe3a3316	-0.1818355
7	0x3f667ad9	0.900312
8	0x3f67f028	0.90600824
9	0xbdc347e7	-0.09535199
10	0xbfdee071	-1.7412244
11	0x3d859176	0.06521885
12	0x3d1480c6	0.03625562
13	0xbd1342a6	-0.035952233
14	0x3f46fec4	0.7773249
15	0x3e034827	0.12820493
16	0x3f3931cf	0.72341627
17	0xbea9744e	-0.33096546
18	0x3e0cbf27	0.13744794
19	0xbf243b35	-0.6415284
20	0xbec52acc	-0.38509214
21	0xbf2d7472	-0.67755806
22	0xbe18a3c7	-0.14906226
23	0x3f8d0e97	1.1020077
24	0xbe85a72b	-0.26104102
25	0x3f8f2c72	1.1185439
26	0x3f1898c4	0.596081
27	0x3f520f44	0.82054543
28	0x3f965a03	1.1746219
29	0xc001040d	-2.0158722
30	0x3e55c167	0.20874558
31	0x3cdc208d	0.02687099
32	0x3f5dfda4	0.8671515
33	0xbe3d796e	-0.18503353
34	0x3e96088f	0.29303405
35	0x3fcbc29c	1.5918765
36	0x3e6d6680	0.23183632
37	0x3f165ac4	0.5873225
38	0xbf08b3f4	-0.53399587
39	0xbc620a02	-0.013796331
40	0x3e259721	0.16170932
41	0x3f89db10	1.0769978
42	0x3e4bae7d	0.19890781
43	0xbe965233	-0.29359588
44	0xbfcdf931	-1.6091672
45	0x3fbfddb3	1.4989532
46	0x3fb5d3c5	1.4205252
47	0x3e4a76e9	0.19771923
48	0xbf859ebd	-1.0439068
49	0xbf32018b	-0.69533604
50	0xbeaf6f0c	-0.3426441
51	0xbe0b6271	-0.13611771
52	0x3fd44f5e	1.6586721
53	0x3f43d6f6	0.7649988
54	0x3f7fb4b0	0.9988508
55	0xc01abba2	-2.4177022
56	0x3eaf6e9b	0.34264073
57	0x3f493130	0.7859068
58	0xbf9e9a9c	-1.2390933
59	0x3ede37c7	0.4340193
60	0x3f9d71af	1.2300318
61	0xbf776c81	-0.9664994
62	0x3f4d103a	0.80102885
63	0xbec58745	-0.38579765

network.6.weight f4 [64, 64]
0	0xbd0cfdc5	-0.0344217
1	0xbcf5ffc2	-0.030029181
2	0x3d84512a	0.06460793
3	0x3c9b183c	0.018932454
4	0xbed32d5d	-0.41245547
5	0x3cbb74cd	0.022882843
6	0x3ecc3499	0.3988388
7	0x3da8253f	0.08210229
8	0xbea5a304	-0.32350934
9	0xbdb83f4b	-0.08996447
10	0x3e45138f	0.19245742
11	0x3dde4379	0.10852713
12	0x3d9758e2	0.0739
13	0x3e16abf1	0.14714028
14	0x3e8d21bf	0.2756481
15	0x3e2223c2	0.15833953
16	0xbe8aa0cf	-0.27075812
17	0xbee7799e	-0.45209974
18	0x3db49bb8	0.088187635
19	0x3eb776e1	0.35832885
20	0x3e1b2034	0.15149003
21	0x3e599789	0.21249212
22	0xbe6def1a	-0.23235741
23	0xbda022c4	-0.07819131
24	0xbc13f30a	-0.009030113
25	0xbb381445	-0.0028088253
26	0x3ea3a3c7	0.3196089
27	0x3e1d515d	0.15363069
28	0xbe0d0f6c	-0.13775414
29	0x3e3544eb	0.17702071
30	0xbe35d772	-0.17757967
31	0x3e945dfb	0.2897795
32	0x3dee6a78	0.11641401
33	0x3eac82aa	0.3369344
34	0x3d78edad	0.06077354
35	0x3e97b074	0.2962681
36	0x3daf343a	0.08554883
37	0x3ec1a526	0.3782131
38	0x3e9311f4	0.28724635
39	0xbe0da8e1	-0.13833953
40	0x3e038ca2	0.12846616
41	0xbe89f983	-0.26948175
42	0x3ddbe063	0.10736158
43	0xbcb15970	-0.021649092
44	0x3ea0dcf2	0.31418568
45	0xbe7277af	-0.23678468
46	0x3d81e67a	0.06342788
47	0x3e277834	0.16354448
48	0x3db2155d	0.08695481
49	0x3c1e16a3	0.009648952
50	0x3e0f5472	0.13997057
51	0xbec98dbd	-0.3936595
52	0x3c831e40	0.016005635
53	0x3ea8048e	0.32815975
54	0xbe6b90c0	-0.23004436
55	0x3e2ed09d	0.17071767
56	0xbe15bb52	-0.14622238
57	0x3d545059	0.051834438
58	0xbdb30296	-0.087407276
59	0x3e83e742	0.25762373
60	0xbe8eaad7	-0.27864715
61	0x3eebc822	0.46051127
62	0xbe48a580	-0.19594383
63	0x3d9651f7	0.07339852
64	0xbf2126a0	-0.6294956
65	0x3d6787e5	0.056526083
66	0x3f0c2d8b	0.54756993
67	0xbf1c1226	-0.6096519
68	0x3f444513	0.766679
69	0xbf2218d3	-0.6331913
70	0x3d4e0eb8	0.050307006
71	0x3ee748ac	0.45172632
72	0xbf340373	-0.70317763
73	0xbbb75337	-0.005594637
74	0x3f66e55f	0.9019374
75	0x3e1cfe9d	0.15331502
76	0x3ea81c05	0.32833877
77	0xbd731491	-0.059345786
78	0x3e53e338	0.20692146
79	0xbf350daf	-0.70724005
80	0xbe806167	-0.25074312
81	0x3f823c04	1.0174565
82	0xbc085680	-0.008321404
83	0x3e322216	0.17395815
84	0x3d7d2861	0.061806086
85	0x3f25010f	0.6445474
86	0x3d7f2c33	0.06229801
87	0x3e96dead	0.29466763
88	0xbdd43a2f	-0.1036266
89	0xbed9b8f6	-0.42523926
90	0xbf138e27	-0.5763878
91	0x3f1ff318	0.62480307
92	0xbe99f184	-0.30067074
93	0xbf9e493c	-1.2366099
94	0xbef299e0	-0.47383022
95	0x3e1d2b3b	0.15348522
96	0xbd4ac791	-0.049506728
97	0x3f174d89	0.59102684
98	0x3f3a2163	0.72707194
99	0xbe986508	-0.2976458
100	0xbe749026	-0.23883113
101	0xbee09e2f	-0.43870685
102	0xbeff7d7a	-0.4990042
103	0x3d58e1af	0.052949604
104	0xbdabbc8a	-0.0838557
105	0x3f407372	0.75176156
106	0x3df3d67b	0.11906143
107	0xbd733c09	-0.059383426
108	0xbe8c322b	-0.27382025
109	0x3ee3f116	0.4451987
110	0xbd4b0011	-0.04956061
111	0xbf7cecdb	-0.9879891
112	0xbe49d316	-0.19709429
113	0xbf02af4f	-0.5104875
114	0xbd62920f	-0.055315074
115	0xbf5edf1e	-0.870592
116	0x3ec0f359	0.3768566
117	0xbe358d03	-0.17729573
118	0xbed79b5a	-0.4211071
119	0xbddd99ab	-0.108203255
120	0xbfccb8b3	-1.5993866
121	0x3ed68f60	0.4190626
122	0xbdcf1bad	-0.101127006
123	0xc0410727	-3.0160615
124	0x3ecd016e	0.40040153
125	0x3e0616d2	0.13094643
126	0x3e630650	0.22170377
127	0xbf1d7691	-0.6150904
128	0xbec0d204	-0.3766023
129	0xbdb284c4	-0.08716729
130	0x3edb99ba	0.42890722
131	0xbe626e8a	-0.2211248
132	0x3ef8f3c9	0.48623493
133	0xbb5b32b1	-0.0033446962
134	0xc03d9d44	-2.9627237
135	0x3f3500a0	0.7070408
136	0xbe7aa748	-0.24477875
137	0x3e09ad63	0.13445048
138	0xbed4cfee	-0.41564888
139	0xbf3a025e	-0.7265986
140	0x3ed32da3	0.41245756
141	0xbc8c93d0	-0.017160326
142	0x3d9ae339	0.075628705
143	0x3da0fee2	0.07861115
144	0xbf049769	-0.51793534
145	0x3e6400f1	0.22265984
146	0xbe7126ec	-0.23550004
147	0x3ef16ce0	0.47153378
148	0xbf3b400c	-0.731446
149	0x3d6e76fc	0.05821894
150	0xbf11738c	-0.56816936
151	0xbf28aaa5	-0.6588538
152	0x3dc0f2d8	0.09421319
153	0x3f4bc66c	0.7959964
154	0xbe20417f	-0.15649985
155	0xbfb4ad9d	-1.4115483
156	0xbf2885ed	-0.65829355
157	0x3f11f4c8	0.5701413
158	0xbe02e4dc	-0.12782615
159	0xbe197573	-0.1498621
160	0xbe18b149	-0.14911379
161	0xbd8ca1e7	-0.06866818
162	0x3e998941	0.2998753
163	0xbec07f79	-0.37597254
164	0x3ef1db1b	0.47237477
165	0xbf17b6cd	-0.59263307
166	0xbc53e5c0	-0.012933195
167	0xbf80e765	-1.0070616
168	0x3cfc1544	0.030771859
169	0xbe22c005	-0.15893562
170	0xbe28a232	-0.16468123
171	0xbd599a64	-0.053125754
172	0x3d0119b0	0.031518638
173	0x3e80150e	0.25016063
174	0x3def2333	0.116766356
175	0xbea91fb0	-0.33031988
176	0x3f6b9e9d	0.920389
177	0x3e5a1175	0.21295722
178	0x3dfa8002	0.12231447
179	0x3f8703dd	1.0548054
180	0xbe5287b9	-0.20559587
181	0xbd855cb9	-0.06511826
182	0x3eb9027a	0.36134702
183	0xbe32a5c8	-0.17446053
184	0x3f132ff1	0.5749503
185	0xbf1ed4a4	-0.62043214
186	0x3e42b48e	0.19014189
187	0xbe72bcac	-0.23704785
188	0x3f120787	0.57042736
189	0xbf14d8f6	-0.58143556
190	0x3ecd74ef	0.40128276
191	0x3ebb77c4	0.3661481
192	0xbf778b8c	-0.96697307
193	0x3d8a75ae	0.06760727
194	0xbf42fed7	-0.76170105
195	0xbef494ed	-0.4776987
196	0xbf208a0f	-0.6271066
197	0x3f212b06	0.62956274
198	0x3f3b865b	0.73251885
199	0xbf2b319f	-0.6687259
200	0xbdd2ca33	-0.10292473
201	0x3ccf3f5c	0.025298767
202	0xbeadbde1	-0.3393393
203	0xbf5a9aad	-0.85392267
204	0xbf570815	-0.8399671
205	0xbdde2480	-0.108468056
206	0xbf54dbf9	-0.8314815
207	0xbe91bcf6	-0.28464478
208	0x3f3871c5	0.720486
209	0xbef9634c	-0.4870857
210	0xbdf280b4	-0.118409544
211	0xbf844059	-1.0332137
212	0x3f67f80b	0.9061286
213	0x3ecd5df0	0.4011073
214	0x3f0d03f8	0.5508418
215	0xbdf99a3c	-0.12187621
216	0x3d7b336e	0.061328344
217	0x3ba35440	0.0049844086
218	0x3edac3fd	0.42727652
219	0xbf885237	-1.065009
220	0xbf9d5d96	-1.2294185
221	0xbeb78f0b	-0.3585132
222	0x3c82f56c	0.015986167
223	0xbdd475fb	-0.103740655
224	0x3e6fc7ef	0.23416112
225	0x3ecc9bd0	0.39962626
226	0xbf9b80c2	-1.2148669
227	0xc090b14e	-4.5216436
228	0xbec64543	-0.38724717
229	0x3e741e71	0.23839737
230	0xbf5500b0	-0.83204174
231	0xbe9c8ada	-0.30574685
232	0x3e907aa6	0.28218573
233	0xbfd5e375	-1.6710039
234	0xbe354104	-0.17700583
235	0x3db93dad	0.09044967
236	0xbf3ce096	-0.7378019
237	0xbd2e295b	-0.04251991
238	0xc05e342b	-3.471934
239	0x3feda637	1.856635
240	0xc041483d	-3.020034
241	0xbf8c24c8	-1.0948725
242	0xbfe73375	-1.8062578
243	0x3ec23446	0.37930506
244	0xbe4894c5	-0.19588001
245	0xbea3095e	-0.31843084
246	0xc04a3c23	-3.1599205
247	0xbe0dc737	-0.13845526
248	0xbfe63857	-1.7985944
249	0xbe12778e	-0.14303419
250	0xbf17b146	-0.5925487
251	0xbd8757ac	-0.06608519
252	0xbf19980f	-0.5999765
253	0xbffb1b36	-1.9617679
254	0xbeb2d50e	-0.34928173
255	0xbea3c0f7	-0.31983158

network.6.bias f4 [64]
0	0x3f8446a2	1.0334055
1	0x3f9b11a3	1.2114757
2	0x3f92f332	1.1480467
3	0x3fc2a48e	1.5206468
4	0xbc4a9fad	-0.012367171
5	0x3f894d0b	1.0726637
6	0xbdd46e5e	-0.10372613
7	0x3fd15baa	1.6356099
8	0xbe0eb5c2	-0.13936523
9	0xbde93f3c	-0.11389014
10	0x3f9f0b58	1.2425337
11	0x3d1380c2	0.036011465
12	0xbe47591f	-0.19467591
13	0xbee248bb	-0.44196114
14	0x3f9b15a1	1.2115976
15	0xbe58c4b3	-0.21168785
16	0x3dd4d94b	0.10393008
17	0x3fd06f42	1.6283953
18	0xbec7734c	-0.38955152
19	0x3f12e8f7	0.57386726
20	0xbe2e5d15	-0.17027695
21	0xbe040aa5	-0.12894686
22	0x400222ce	2.0333743
23	0x3fab88ad	1.3401085
24	0x401e9d51	2.4783518
25	0xbd7fa598	-0.062413782
26	0xbdab5b31	-0.08367003
27	0xbddbcaf7	-0.10732072
28	0x3f1036be	0.5633353
29	0x3f9bdaf8	1.2176199
30	0x3f165196	0.5871824
31	0xbea9d531	-0.33170465
32	0x3ffd0717	1.9767789
33	0xbe506eb5	-0.20354731
34	0x3f5566f3	0.83360213
35	0xbdaf0400	-0.08545685
36	0xbe1bd15d	-0.15216585
37	0x3e6936ac	0.22774762
38	0x3fe25082	1.7680819
39	0x3f756b33	0.958667
40	0x3e92363d	0.28557006
41	0x3e842d6d	0.25815907
42	0x3f478c3c	0.77948356
43	0x3f77db19	0.9681869
44	0xbec4ce6d	-0.3843874
45	0xbde10f94	-0.109892994
46	0xbce5c608	-0.02804853
47	0x3eae10e9	0.33997276
48	0xbdeb6e42	-0.114956394
49	0xbe378acc	-0.1792404
50	0x3f589396	0.846002
51	0x3fc55f1d	1.5419651
52	0x3eb70f3e	0.35753816
53	0x3f85e37a	1.0460045
54	0x3f5516c1	0.83237845
55	0x3f7895ef	0.9710378
56	0x3d8f6f89	0.070036955
57	0xbd637d2c	-0.055539295
58	0xbd87f8a1	-0.06639219
59	0x3f9c3053	1.2202247
60	0xbe454d25	-0.1926771
61	0x3f9a7b48	1.2068872
62	0xbe292901	-0.16519548
63	0xbea74b98	-0.3267486

network.8.weight f4 [21, 64]
0	0x3e9f70db	0.3114079
1	0x3e2ef07a	0.17083922
2	0x3e2650ce	0.16241762
3	0x3ee6a949	0.4505103
4	0x3d60c927	0.054879334
5	0x3e4207f0	0.1894834
6	0xbdc7be40	-0.09753084
7	0x3e8c4b58	0.27401233
8	0xbdfea5f8	-0.12434
9	0xba366dc4	-0.00069591054
10	0x3e8959bd	0.26826277
11	0xbdec83b4	-0.11548558
12	0x3be0fba1	0.006865934
13	0xbe61cbe4	-0.22050434
14	0x3e61574c	0.22005957
15	0xbe81035e	-0.2519788
16	0xbe7168ec	-0.23575181
17	0x3e28117b	0.16412918
18	0xbe7a43e8	-0.24439967
19	0xbf03f01d	-0.5153826
20	0xbb62ef04	-0.0034627328
21	0x3f262666	0.6490234
22	0x3e7a9cdc	0.244739
23	0x3eaf0291	0.34181646
24	0x3e87484d	0.2642235
25	0xbd3de9f5	-0.046365697
26	0xbbe8bb9c	-0.007102443
27	0xbd4fe16f	-0.0507521
28	0x3eb15b12	0.34639794
29	0x3daec7f3	0.08534231
30	0xbb67f5fa	-0.0035394416
31	0x3f05fbe1	0.5233746
32	0x3ed470dd	0.41492358
33	0x3da2185d	0.07914803
34	0x3e47b35a	0.19502011
35	0x3c9fae01	0.019492151
36	0xbdc1fed9	-0.094724365
37	0x3de47a23	0.11156108
38	0xbe9db60f	-0.30802962
39	0x3fec0d37	1.8441533
40	0xbeb2c618	-0.3491676
41	0x3e7b2902	0.24527362
42	0x3eb59590	0.3546567
43	0x3f0ba90f	0.5455484
44	0x3f13f0ff	0.57789606
45	0x3bf85db7	0.007579531
46	0xbc3adeaa	-0.011405626
47	0xbe8efcc8	-0.27927232
48	0xbb999c57	-0.0046878266
49	0x3e129192	0.14313343
50	0xbdb22f84	-0.08700469
51	0x3e5bb8d1	0.2145722
52	0x3e2c6c14	0.16838104
53	0xbe8090f6	-0.25110596
54	0x3ecc80e9	0.399421
55	0x3e6eeac9	0.23331751
56	0xbf06681e	-0.5250262
57	0xbcdedc27	-0.027204586
58	0xbdba6bf9	-0.091026254
59	0x3e56baea	0.2096974
60	0x3caad192	0.020851884
61	0xbebfa593	-0.3743101
62	0x3c2455c4	0.010030214
63	0xbed59d4f	-0.4172158
64	0x3e88afdf	0.2669668
65	0x3e2a60ae	0.16638443
66	0x3e10e50a	0.14149871
67	0x3f19ecdf	0.6012706
68	0xbce73149	-0.028221743
69	0x3e510519	0.20412101
70	0xbd2a45e1	-0.041570548
71	0x3e89af41	0.2689152
72	0x3da93ede	0.08263944
73	0x3df27c41	0.11840106
74	0x3e9b7f96	0.30370778
75	0xba7850b8	-0.0009472477
76	0x3cc88152	0.024475727
77	0xbe803629	-0.2504132
78	0x3e7fec17	0.24992405
79	0x3e4559e5	0.19272573
80	0xbe60d684	-0.21956831
81	0x3e1cd5f0	0.15315986
82	0xbe7c59fe	-0.24643704
83	0xbf079758	-0.5296531
84	0x3d865cda	0.06560679
85	0x3f1b8349	0.607472
86	0x3e83989d	0.25702372
87	0x3e854801	0.26031497
88	0x3e83e65d	0.2576169
89	0xbd7e075b	-0.062018733
90	0xbde51133	-0.11184921
91	0x3da30c3b	0.07961317
92	0x3e92495f	0.28571603
93	0x3da4f2c4	0.08054116
94	0xbbd51502	-0.0065027485
95	0x3ee4e845	0.44708458
96	0x3ec55c4b	0.38546976
97	0x3d1e40cc	0.038636014
98	0x3e02d802	0.12777713
99	0xbd0a7370	-0.033801496
100	0xbd596b19	-0.053080652
101	0x3e5d86a6	0.21633396
102	0xbeacdab9	-0.33760622
103	0x403f0f32	2.9853024
104	0xbec4956f	-0.3839526
105	0x3e380992	0.17972401
106	0x3eb5614c	0.35425794
107	0x3f004705	0.5010837
108	0x3f0a45fa	0.54013026
109	0x3d557b00	0.052119255
110	0xbd794b76	-0.06086298
111	0xbe8d3e21	-0.27586463
112	0xbd4004ca	-0.046879567
113	0x3d47192d	0.048607994
114	0xbdd6d117	-0.104890995
115	0x3e5bb6e0	0.2145648
116	0x3ddc1c3c	0.10747573
117	0xbe0715e3	-0.13191943
118	0x3ee34692	0.44389778
119	0x3e816a38	0.2527635
120	0x3d9a722a	0.07541306
121	0xbca6905d	-0.02033251
122	0x3d4721b1	0.048616115
123	0x3e70b0e9	0.23504986
124	0x3cf98628	0.030459478
125	0xbeb0333b	-0.34414086
126	0x3cf2ecfe	0.029654022
127	0xbf08de4d	-0.53464204
128	0x3e82d6cb	0.255545
129	0x3e452996	0.19254145
130	0x3e46b9b7	0.19406782
131	0x3f1e4d7a	0.6183697
132	0x3c5abb57	0.013350329
133	0x3e46c007	0.1940919
134	0x3c447390	0.011990443
135	0x3e87a382	0.26491934
136	0x3bb58180	0.0055391192
137	0xbca3a677	-0.019976838
138	0x3ea29762	0.3175612
139	0xbccd4073	-0.025055146
140	0x3cad68ef	0.0211682
141	0xbeb69f87	-0.35668585
142	0x3e74b0a5	0.2389551
143	0x3f174acd	0.5909851
144	0xbe492bc8	-0.19645607
145	0x3e283152	0.16425064
146	0xbe6febdd	-0.23429818
147	0xbf07737d	-0.52910596
148	0x3c81d496	0.01584844
149	0x3ef797cb	0.48357996
150	0x3e88798f	0.26655242
151	0x3ea0034c	0.31252515
152	0x3e8bb688	0.27287698
153	0x3c12a968	0.008951522
154	0xbd013f24	-0.031554356
155	0x3cac0ba0	0.021001637
156	0x3e9a6f21	0.3016291
157	0x3c6b093f	0.014345466
158	0x3c636a01	0.013880254
159	0xbe31a18e	-0.17346784
160	0x3ecb2ed6	0.3968417
161	0xbd988c68	-0.07448655
162	0x3e234f89	0.15948309
163	0xbd0d07f1	-0.0344314
164	0xbd925faf	-0.071471564
165	0x3e732059	0.23742808
166	0xbeb71d99	-0.3576477
167	0x40321f2c	2.7831526
168	0xbeb5937e	-0.3546409
169	0x3e763901	0.24045183
170	0x3eabd25c	0.3355893
171	0x3ef81ab5	0.48457876
172	0x3f0ec9aa	0.55776465
173	0xbde4c354	-0.111700684
174	0xbd3c7851	-0.04601318
175	0xbe7d564a	-0.24739948
176	0xbd03cc66	-0.03217735
177	0xbd8a6c86	-0.067589805
178	0xbde32a04	-0.11091998
179	0x3e6193f1	0.22029091
180	0x3e4ec65e	0.20192859
181	0xbda82b03	-0.08211329
182	0x3ec9d736	0.39422005
183	0x3e7333af	0.23750184
184	0xbd9656d8	-0.07340783
185	0x3e49bacb	0.19700162
186	0xbda3d8c4	-0.08000329
187	0x3e809b68	0.25118566
188	0x3df97388	0.12180239
189	0xbeaf6b54	-0.34261572
190	0xbe0eba8f	-0.13938354
191	0xbe9c7ead	-0.30565396
192	0x3e88da84	0.26729214
193	0x3e4401ba	0.19141284
194	0x3e3fda77	0.18735681
195	0x3ea99181	0.33118823
196	0x3bea815f	0.0071565355
197	0x3e3fb3b5	0.18720897
198	0xbd23030f	-0.03979784
199	0x3e8d6e1b	0.27623066
200	0x3df8952a	0.12137826
201	0xbc96e061	-0.01841754
202	0x3eb35af7	0.35030338
203	0xbdeede9d	-0.11663554
204	0x3d0383ec	0.032108232
205	0xbefcf72e	-0.49407333
206	0x3e851f3a	0.26000386
207	0x3f14ccd6	0.58125055
208	0xbe4d4a04	-0.20047766
209	0x3e3f7896	0.18698344
210	0xbe63503b	-0.22198574
211	0xbee81b4b	-0.45333323
212	0xbdb2bc1e	-0.08727287
213	0x3ee55f26	0.44799155
214	0x3e9a50e7	0.3013985
215	0x3e905968	0.28193212
216	0x3e9a1f34	0.3010193
217	0x3dbd7116	0.09250085
218	0x3d9d3849	0.07676751
219	0xbdd5a3ee	-0.10431658
220	0x3ecb0466	0.39651793
221	0xbc7b20d4	-0.015327651
222	0x3c8a56c1	0.01688707
223	0x3e497070	0.19671798
224	0x3ec8ecc8	0.3924315
225	0x3d0d55dc	0.03450571
226	0x3e5b0db5	0.21391948
227	0xbc935ff1	-0.017990084
228	0x3cef54f2	0.02921531
229	0x3e9780be	0.2959041
230	0xbeae760a	-0.34074432
231	0x3fbd5e11	1.4794332
232	0xbea9d9e9	-0.33174065
233	0x3e75f55c	0.24019378
234	0x3ea43704	0.32073224
235	0x3eec6f30	0.4617858
236	0x3f316f78	0.6931071
237	0x3cf6e258	0.030137226
238	0xbdd2732d	-0.10275874
239	0xbea13f3f	-0.31493565
240	0x3d21f154	0.03953679
241	0x3d876f36	0.06613009
242	0xbddb6595	-0.107127346
243	0x3e52645e	0.205461
244	0x3e28ab8c	0.1647169
245	0xbd9183eb	-0.071052395
246	0x3ecc7acd	0.3993744
247	0x3e530b55	0.20609792
248	0x3f1b8ebb	0.60764664
249	0x3e245ad0	0.16050267
250	0x3c6c807c	0.01443493
251	0x3e66a16b	0.22522514
252	0xbd9e76c6	-0.07737498
253	0xbeaa2093	-0.33227977
254	0x3cc40783	0.023929363
255	0xbef37c28	-0.4755566

network.8.bias f4 [21]
0	0x3fb3b757	1.4040326
1	0x3fbb4597	1.4630612
2	0x3fb7dfe6	1.4365203
3	0x3fb8f1e2	1.4448817
4	0x3fb79aa0	1.4344063
5	0x3fbe33d5	1.4859568
6	0x3fba4252	1.4551489
7	0x3fc47c51	1.5350438
8	0x3fbcdf5a	1.4755661
9	0x3fc3dd57	1.5301923
10	0x3fb10905	1.3830878
11	0x3fb4244e	1.4073579
12	0x3fafd368	1.3736391
13	0x3fbbb5b5	1.4664828
14	0x3fc01b59	1.5008346
15	0x3fb9808f	1.4492358
16	0x3fc2eebf	1.522911
17	0x3faf1e50	1.3681126
18	0x3fbed77e	1.4909513
19	0x3fb3f9a7	1.4060563
20	0x3fb1c7ca	1.3889096
