model/model_4396.pth (torch, 35975 bytes, 10 tensors)

network.0.weight f4 [16, 6]
-0.97209275 0.52772444 0.2572384 0.06522704 -1.1127152 -0.06441642 -1.233941 -0.03167867
0.07504297 -0.23618975 -0.6433599 0.1717295 -1.2178442 -0.09561576 0.123356596 -0.28980792
1.2065248 0.09162389 0.09598329 1.864568 0.5622818 0.21847062 0.5146426 0.17028928
-0.7435033 0.49702218 -0.35335284 -0.31454742 -0.10945767 0.025927812 0.87916255 0.7122989
-0.39655688 -0.04716075 0.5323902 -0.21053116 -0.085694045 -1.6293877 -0.5694738 0.22142532
-0.8698055 -0.18437396 -0.08061506 -1.7667745 -0.2702494 -0.17436932 -0.6714309 0.07060144
-1.1733401 0.25102058 -0.16225234 0.87833446 0.52227783 -0.20888525 0.44112357 -0.6402551
0.09551574 -1.7372541 -0.095724575 0.22046688 -0.16956785 -1.6488439 -0.36981985 -0.5067346
0.48203006 -0.0003037317 0.5737472 0.5284211 0.54977494 -0.16832966 1.3115655 0.32747972
0.34450454 -0.3926275 0.227056 0.019673169 -0.66552055 -0.08921956 -0.578266 1.3836293
0.23533943 -0.7792648 0.6795157 0.07063682 0.33788586 0.44049832 -0.16875577 -1.2812761
-0.78495103 -0.30184647 0.3392896 0.55630076 0.1538734 -1.316736 0.96295524 -0.31716257
00000000: 12db 78bf f318 073f c0b4 833e c195 853d
00000010: 746d 8ebf c2ec 83bd c7f1 9dbf 7ec1 01bd
00000020: 21b0 993d badb 71be 3cb3 24bf dcd9 2f3e
00000030: 52e2 9bbf 32d2 c3bd 62a2 fc3d b461 94be
00000040: 686f 9a3f 4ea5 bb3d e392 c43d 2aaa ee3f
00000050: b3f1 0f3f c3b6 5f3e 9ebf 033f 5060 2e3e
00000060: 3b56 3ebf b179 fe3e aaea b4be 5c0c a1be
00000070: 582b e0bd 9066 d43c cc10 613f 3959 363f
00000080: 8109 cbbe a12b 41bd b94a 083f 7b95 57be
00000090: 5c80 afbd c78f d0bf 09c9 11bf 52bd 623e
000000a0: 93ab 5ebf 87cc 3cbe 8219 a5bd ab25 e2bf
000000b0: 215e 8abe df8d 32be e5e2 2bbf 7d97 903d
000000c0: 0230 96bf c585 803e 7a25 26be 87da 603f
000000d0: 00b4 053f 04e6 55be f3da e13e c2e7 23bf
000000e0: c29d c33d 585e debf 3f0b c4bd 12c2 613e
000000f0: 32a3 2dbe 510d d3bf 0759 bdbe 5cb9 01bf
00000100: a5cc f63e 2e3e 9fb9 19e1 123f 9b46 073f
00000110: 0dbe 0c3f 9c5e 2cbe 61e1 a73f 6cab a73e
00000120: e662 b03e 7906 c9be 5e81 683e a029 a13c
00000130: 8e5f 2abf bfb8 b6bd 3e09 14bf c41a b13f
00000140: d2fc 703e e67d 47bf bef4 2d3f 09aa 903d
00000150: 60ff ac3e ff88 e13e 50ce 2cbe db00 a4bf
00000160: 8df2 48bf 9f8b 9abe 5eb7 ad3e ba69 0e3f
00000170: fd90 1d3e ce8a a8bf 3c84 763f 2263 a2be

network.0.bias f4 [16]
-0.05915367 0.54915875 0.43631956 0.26427752 0.11738329 -1.2078961 -0.3272934 -0.32222226
0.08379121 -0.022357702 0.5141624 0.4264536 0.73202723 0.56034863 0.8731092 -0.8126361
00000000: 1e4b 72bd ab95 0c3f 4765 df3e 624f 873e
00000010: a666 f03d 579c 9abf 0093 a7be 51fa a4be
00000020: ba9a ab3d 8027 b7bc 26a0 033f 2058 da3e
00000030: 2366 3b3f 0273 0f3f 1684 5f3f eb08 50bf

network.2.weight f4 [32, 16]
-0.34009925 0.12559462 -0.56325245 -0.77027833 -0.3948119 -0.031379 -0.751492 0.6161305
-0.1767223 -0.14193799 0.60868466 0.65713453 -0.734713 -0.049979895 0.7461231 -0.58391434
-0.7442082 -0.6331171 0.25772363 -1.8183953 -0.17177701 0.48848522 -0.33308867 0.041368738
0.009451058 -0.42638704 0.6060496 -0.45461378 0.14003298 -0.8993222 0.2921359 -1.2281306
0.03567013 -0.09296478 -0.2239267 -0.18154347 -0.07537982 -0.049065772 -0.13921249 -0.002927971
-0.051740944 0.08476746 -0.012272965 0.017483123 -0.24473108 -0.0466201 -0.18444622 -0.04226002
0.64469457 0.0016134025 0.27440903 0.6506439 0.13513848 -0.531105 -0.6985938 -0.5550837
-0.081170306 -0.38482583 1.0226278 -0.56649256 0.31770724 -0.47575927 0.42654046 -0.73059946
-0.3522674 -0.32503355 0.058319796 0.45144868 0.19008665 -0.7429013 -0.18172064 -1.068108
0.20592639 0.35028434 -0.47510546 0.15619606 -0.09615206 -0.04389135 0.38668266 0.1088194
-1.3964893 -0.38333535 0.3812856 -0.7953961 0.39541367 -0.4416742 0.12880483 -1.2105771
-1.7215093 -0.68532586 0.46996468 0.19768351 -0.6518632 -0.092828736 -0.4720672 0.8098865
-0.26887572 0.2409823 0.22389491 0.87326014 -0.23100895 0.17873241 -0.66111785 -0.25337142
-0.13482948 -0.5703899 -0.056604695 0.56066346 0.08075337 -0.84205323 0.27196124 0.36187685
1.1211641 -0.42324993 -0.49192357 0.123389825 0.497431 0.6644589 -0.2582043 0.5196371
-0.9306535 -0.40359825 0.6233527 0.8301536 0.0029300887 -0.3389812 -0.19355369 -0.41914922
-0.26393527 0.76677305 0.6147165 -0.75558305 -0.7584304 0.68088835 0.69628173 0.20346488
0.17782897 -0.13835755 0.3715809 -0.70726204 0.3434101 0.45286542 -0.66539747 0.06692971
0.04760856 -0.34549916 0.8386601 -0.2941091 -0.34663975 -0.77263254 -0.5223343 -0.028786007
-0.47881764 -0.6638343 0.15351956 -0.5951635 0.16937692 -0.04725321 0.6510379 -1.0348862
-1.0834167 -0.48306632 0.7222096 0.4899274 0.11151892 0.0641529 0.99541223 -0.18596718
-0.07804134 -0.52064174 -0.6677497 -0.86239135 0.8471597 -0.88741505 0.5821921 -0.0068352236
0.1822426 0.058711216 0.7082269 0.23270532 0.58035105 -0.37219432 0.14862615 -0.2937034
-0.5856658 0.8189809 -0.17933056 -0.39245227 0.5704005 -0.49468178 -0.27843755 0.8646635
-0.39634258 0.3114804 0.6056143 -1.0390133 -0.21161449 -0.63849896 0.499878 -0.42701304
0.6638798 0.06540726 -0.1579038 -0.59656614 -0.047867417 0.06911056 -0.0434724 -0.7697463
0.38679257 -0.49705064 -0.17077962 -0.9704622 0.19555357 0.16354981 0.64399487 -0.28833607
0.26175085 1.1772857 0.1480356 0.43581077 -0.44963044 -0.8951359 -0.17448728 -1.1155082
0.484294 0.13831475 -0.48534435 -0.03057788 0.310168 0.5289425 -0.092893325 0.46345836
-0.13068135 0.56711656 -0.019693622 0.536868 -0.40312046 -0.2723738 -0.75625443 0.7004084
-0.024375303 0.10639087 -0.5636831 0.86922306 0.23015256 -0.0020156996 0.62319356 0.8443515
-0.0848206 -0.3431041 -0.54308194 0.20946696 -0.0032339112 0.50456816 -0.070393585 0.47019175
00000000: 7d21 aebe e09b 003e 5031 10bf f630 45bf
00000010: c924 cabe 4487 00bd c861 40bf baba 1d3f
00000020: b1f6 34be 3158 11be c2d2 1b3f f839 283f
00000030: 2716 3cbf b8b7 4cbd ec01 3f3f 697b 15bf
00000040: 6e84 3ebf f613 22bf 5af4 833e 2dc1 e8bf
00000050: 50e6 2fbe bc1a fa3e 998a aabe 4472 293d
00000060: 9cd8 1a3c 674f dabe 1126 1b3f 23c3 e8be
00000070: ce64 0f3e fb39 66bf d692 953e 6233 9dbf
00000080: d81a 123d 5264 bebd 0a4d 65be 88e6 39be
00000090: bc60 9abd 31f9 48bd b88d 0ebe 34e3 3fbb
000000a0: 50ee 53bd 909a ad3d 8c14 49bc c438 8f3c
000000b0: c99a 7abe b8f4 3ebd 78df 3cbe d818 2dbd
000000c0: b40a 253f ce78 d33a 577f 8c3e 9990 263f
000000d0: be61 0a3e 7ff6 07bf 0bd7 32bf f719 0ebf
000000e0: 9e3c a6bd e407 c5be 78e5 823f a805 11bf
000000f0: 86aa a23e b896 f3be 8363 da3e 9108 3bbf
00000100: 655c b4be cc6a a6be bde0 6e3d 4824 e73e
00000110: 13a6 423e c82e 3ebf fa14 3abe c3b7 88bf
00000120: 5ede 523e 7858 b33e 0641 f3be dcf1 1f3e
00000130: 5feb c4bd 6bc7 33bd 45fb c53e b5dc de3d
00000140: 29c0 b2bf 8844 c4be de37 c33e 149f 4bbf
00000150: a973 ca3e 1f23 e2be 6ae5 033e 31f4 9abf
00000160: 6b5a dcbf 8471 2fbf 369f f03e 8c6d 4a3e
00000170: 82e0 26bf fe1c bebd cbb2 f1be b954 4f3f
00000180: 14aa 89be 10c4 763e b544 653e fa8d 5f3f
00000190: 9c8d 6cbe a105 373e 053f 29bf e6b9 81be
000001a0: bd10 0abe 1305 12bf 53da 67bd a487 0f3f
000001b0: 0662 a53d cd90 57bf 813e 8b3e ec47 b93e
000001c0: 4e82 8f3f 37b4 d8be 68dd fbbe ceb3 fc3d
000001d0: 47af fe3e fa19 2a3f 5b33 84be f006 053f
000001e0: 4f3f 6ebf 6ea4 cebe 0b94 1f3f f284 543f
000001f0: bb06 403b f28e adbe f032 46be ba9a d6be
00000200: 8622 87be 3d4b 443f 0f5e 1d3f e46d 41bf
00000210: 7f28 42bf b34e 2e3f 853f 323f 1959 503e
00000220: cc18 363e 9aad 0dbe da3f be3e 200f 35bf
00000230: 73d3 af3e fadd e73e 7d57 2abf 7212 893d
00000240: 3201 433d 44e5 b0be 6eb2 563f 7895 96be
00000250: c47a b1be 3fcb 45bf b3b7 05bf a2d0 ebbc
00000260: 9627 f5be 0bf1 29bf 3b34 1d3e a35c 18bf
00000270: 2571 2d3e 958c 41bd 6baa 263f 2777 84bf
00000280: 66ad 8abf 7854 f7be bae2 383f c4d7 fa3e
00000290: 0864 e43d 9862 833d 56d3 7e3f 2e6e 3ebe
000002a0: 23d4 9fbd c748 05bf a5f1 2abf aec5 5cbf
000002b0: 75df 583f a22d 63bf 8b0a 153f 03fa dfbb
000002c0: ce9d 3a3e 2c7b 703d 5c4e 353f 4e4a 6e3e
000002d0: e391 143f 4190 bebe 7431 183e 4b60 96be
000002e0: 32ee 15bf bba8 513f 6ea2 37be 81ef c8be
000002f0: c405 123f ee46 fdbe 5e8f 8ebe 965a 5d3f
00000300: 6aed cabe 5c7a 9f3e 8a09 1b3f 63fe 84bf
00000310: 78b1 58be ab74 23bf 02f0 ff3e 74a1 dabe
00000320: 07f4 293f 3ef4 853d 89b1 21be 8fb8 18bf
00000330: a010 44bd d689 8d3d 1e10 32bd 180e 45bf
00000340: ad09 c63e 6c7d febe dae0 2ebe 3670 78bf
00000350: 323f 483e 9a79 273e d9dc 243f c9a0 93be
00000360: 3504 863e 4cb1 963f a596 173e 9722 df3e
00000370: f635 e6be a027 65bf cbac 32be f9c8 8ebf
00000380: 62f5 f73e 62a2 0d3e 0e7f f8be 767e fabc
00000390: 57ce 9e3e c768 073f db3e bebd 6a4a ed3e
000003a0: 55d1 05be 8d2e 113f 8554 a1bc 2e70 093f
000003b0: ce65 cebe 9474 8bbe e499 41bf f74d 333f
000003c0: b7ae c7bc 75e3 d93d 894d 10bf 6785 5e3f
000003d0: 1dad 6b3e d419 04bb 9d89 1f3f 6b27 583f
000003e0: 6cb6 adbd 57ab afbe 6b07 0bbf 827e 563e
000003f0: 07f0 53bb 612b 013f 832a 90bd f9bc f03e

network.2.bias f4 [32]
0.48453915 1.3258344 -0.24222872 -0.7273871 0.4038821 0.88373256 -0.091129996 -0.50785345
0.31047362 1.0648521 -0.62808776 -0.27657154 0.7502955 -0.37777367 0.26523483 -0.6550447
-0.004554 -0.22426921 0.11525926 -0.1342526 0.46126905 -0.29123634 -0.29530734 -0.32867348
-0.47947174 -0.3483399 -0.27397034 -0.10168413 1.0849038 -1.0790856 1.4043376 0.087763056
00000000: 8415 f83e f1b4 a93f ce0a 78be 0a36 3abf
00000010: a2c9 ce3e 4c3c 623f 5da2 babd af02 02bf
00000020: 66f6 9e3e 134d 883f 5cca 20bf c99a 8dbe
00000030: 5e13 403f 8d6b c1be dccc 873e 02b1 27bf
00000040: b939 95bb d4a6 65be 0c0d ec3d 8379 09be
00000050: 752b ec3e ee1c 95be 8632 97be e447 a8be
00000060: 527d f5be 9b59 b2be d745 8cbe c53f d0bd
00000070: 21de 8a3f 7a1f 8abf 56c1 b33f 1ebd b33d

network.4.weight f4 [64, 32]
1.0687251 -0.77731675 -0.06427722 -0.8059772 -0.1730326 1.3643551 -0.6062507 0.3268527
-0.13669631 0.9100121 0.362859 -0.28480652 -0.86739206 -0.8617566 0.21931972 0.20641978
0.51519245 0.023815269 -0.24232285 -0.5001428 -0.64494675 -0.40728128 -0.0027718116 0.46139702
0.61124355 0.20789899 -0.00075749663 0.7984355 -0.4657128 -2.7081168 0.2893127 0.57076263
0.11012887 0.08448244 0.005708812 -0.14625554 0.02641635 0.096012026 -0.11704381 -0.21865319
-0.1823668 0.08393758 -0.15999478 -0.1323249 -0.16302507 -0.097283736 -0.13657086 0.10266685
0.08591665 0.028779617 -0.16804966 -0.122212075 0.04902678 -0.074208036 -0.030962806 -0.19086379
-0.07089225 -0.1753378 0.0009556329 -0.07466509 0.08824962 0.043971494 -0.16173898 -0.038917035
0.42153633 -0.91901153 -0.10979138 -0.39970183 0.45814472 -0.5676895 0.19759165 -0.9438185
1.2781217 0.0771793 -0.055752326 -0.28376925 -0.44911128 -0.82055694 0.17175592 0.007738566
-0.05028955 -0.09902515 -1.0519248 -0.93171185 -0.35457182 -0.377415 -0.3526622 0.065285005
0.64535385 0.16179605 0.021156976 0.22779521 -0.36992392 -0.24098739 0.33905643 0.1354199
-0.2523467 0.4940086 -0.034183137 0.59283584 0.41483834 0.8416675 0.33920416 0.39123598
0.04116752 0.9096599 1.0642387 -0.21016647 -0.38333958 0.38075593 -0.60446924 -0.647955
1.2220231 0.15588598 -1.3558862 -1.0920508 -0.39831713 0.208062 -0.26355702 0.61071455
-0.16680628 0.28782704 0.2530728 0.13701402 -0.35979664 0.41734242 -1.4443609 -0.13436426
-0.056368 0.06726798 -0.039719317 0.13301651 0.027422652 -0.071387164 -0.0036917436 -0.09280574
-0.09750031 -0.037242204 -0.13461104 -0.20188847 -0.073865384 -0.06098214 0.11333877 -0.1383321
-0.009539566 -0.12089364 -0.13253522 0.09006535 -0.1496098 -0.02124553 -0.1785112 -0.07599809
-0.055449463 -0.09112948 -0.025900869 -0.21543716 -0.06449016 0.086957715 -0.15410292 0.025637457
0.4777538 0.5625156 -0.055098247 -0.8827547 -0.41977504 1.190685 -0.64532304 0.036568254
0.20325215 1.0416522 -0.66918355 0.6347346 -0.828893 0.14806564 -0.24722572 -0.1891621
-0.6285998 -0.12214605 -0.15831009 -0.36351553 1.012354 0.072995655 0.63203704 0.022992412
0.7070474 0.06432056 -1.3345419 0.12858191 -0.67352873 -0.16868491 0.16039452 0.005300076
-0.3291805 -0.4829933 0.16632243 1.6525447 -0.39135662 -0.48998135 0.3082709 0.1307567
0.72326213 -0.10252426 0.37702122 -0.3966427 -2.4829085 0.56437486 0.53992826 -0.86831707
-0.5075403 -0.07397249 -0.39464483 -0.029119598 -0.9510345 0.2721426 -0.26536822 -0.3285791
-1.5755012 -0.25018418 1.1399038 0.605839 -2.0802279 -0.9915649 0.102709055 -0.050486427
0.5637034 -0.43362668 0.04064916 -0.036729265 0.29868627 0.7281838 -0.51709694 0.827052
-0.6771656 -0.60340977 0.714947 0.12592243 0.8496055 -0.9943384 -0.24336499 -0.505277
0.1530613 0.06026774 0.94574493 0.77849895 0.010015597 0.6101918 -0.563368 -0.4453846
-0.16778982 -0.041179027 -0.70391035 0.17186151 -0.8065745 0.5425681 0.0991592 -0.02494449
00000000: fccb 883f 3bfe 46bf c6a3 83bd 8654 4ebf
00000010: 752f 31be 30a3 ae3f 3f33 1bbf 3d59 a73e
00000020: 1efa 0bbe 8ef6 683f a8c8 b93e 29d2 91be
00000030: 680d 5ebf 159c 5cbf 5995 603e b55f 533e
00000040: a7e3 033f 3d18 c33c 7b23 78be 5c09 00bf
00000050: 3b1b 25bf 2c87 d0be 48a7 35bb 3b3c ec3e
00000060: 757a 1c3f 79e3 543e bd92 46ba 4566 4c3f
00000070: e871 eebe c951 2dc0 cb20 943e 801d 123f
00000080: 3f8b e13d 2105 ad3d fc10 bb3b 03c4 15be
00000090: 1a67 d83c f4a1 c43d aab4 efbd 9fe6 5fbe
000000a0: 5dbe 3abe 77e7 ab3d acd5 23be 2e80 07be
000000b0: 0bf0 26be b23c c7bd 3bd9 0bbe ff42 d23d
000000c0: 12f5 af3d 3bc3 eb3c 3615 2cbe 534a fabd
000000d0: 4ed0 483d 62fa 97bd b6a5 fdbc cc71 43be
000000e0: f52f 91bd c18b 33be 7083 7a3a 03ea 98bd
000000f0: 37bc b43d 741b 343d e79e 25be 7867 1fbd
00000100: 9cd3 d73e 5744 6bbf 4eda e0bd b8a5 ccbe
00000110: f291 ea3e 1954 11bf 7755 4a3e 179e 71bf
00000120: 7e99 a33f 2e10 9e3d 8d5c 64bd 344a 91be
00000130: eaf1 e5be 0510 52bf c9e0 2f3e cc93 fd3b
00000140: 6afc 4dbd b3cd cabd 79a5 86bf ab84 6ebf
00000150: 708a b5be 8a3c c1be 2490 b4be 25b4 853d
00000160: e935 253f ddad 253e 6551 ad3c 2643 693e
00000170: ab66 bdbe 66c5 76be ce98 ad3e 84ab 0a3e
00000180: 9633 81be b2ee fc3e 9e03 0cbd 17c4 173f
00000190: b165 d43e 8577 573f 2bac ad3e 1550 c83e
000001a0: 469f 283d 79df 683f f938 883f e135 57be
000001b0: 1645 c4be 71f2 c23e 7fbe 1abf 61e0 25bf
000001c0: 416b 9c3f 93a0 1f3e ae8d adbf 52c8 8bbf
000001d0: 39f0 cbbe 340e 553e f2f0 86be ca57 1c3f
000001e0: 44cf 2abe 115e 933e c292 813e 674d 0c3e
000001f0: 4437 b8be e8ad d53e d1e0 b8bf c996 09be
00000200: 22e2 66bd cbc3 893d b9b0 22bd 7b35 083e
00000210: 78a5 e03c 6f33 92bd 2ef1 71bb f010 bebd
00000220: 3eae c7bd 488b 18bd 7ad7 09be dabb 4ebe
00000230: bc46 97bd 69c8 79bd 281e e83d eea6 0dbe
00000240: d74b 1cbc 1697 f7bd 50b7 07be 2f74 b83d
00000250: 5033 19be 1b0b aebc a4cb 36be e3a4 9bbd
00000260: fa1e 63bd 18a2 babd 0f2e d4bc 8f9b 5cbe
00000270: 6b13 84bd e316 b23d 28cd 1dbe a505 d23c
00000280: 259c f43e 0601 103f b3ae 61bd 36fc 61bf
00000290: c1ec d6be 5e68 983f e433 25bf 98c8 153d
000002a0: 5521 503e dc54 853f 9d4f 2bbf f77d 223f
000002b0: 5532 54bf 859e 173e bd28 7dbe b6b3 41be
000002c0: ebeb 20bf b527 fabd 0a1c 22be b51e babe
000002d0: d194 813f bf7e 953d 2ecd 213f 955a bc3c
000002e0: 0f01 353f 7fba 833d 45d2 aabf faaa 033e
000002f0: 616c 2cbf bdbb 2cbe 763e 243e 43ac ad3b
00000300: 598a a8be e64a f7be 6d50 2a3e 9686 d33f
00000310: e55f c8be d6de fabe afd5 9d3e 16e5 053e
00000320: b527 393f 3df8 d1bd ed08 c13e c114 cbbe
00000330: f9e7 1ec0 df7a 103f bd38 0a3f 074a 5ebf
00000340: 29ee 01bf e47e 97bd e30e cabe 398c eebc
00000350: ff76 73bf 4656 8b3e 58de 87be 853b a8be
00000360: 06aa c9bf 2418 80be 5ee8 913f 4418 1b3f
00000370: 7422 05c0 33d7 7dbf 2059 d23d dbca 4ebd
00000380: de4e 103f 5104 debe bc7f 263d 6d71 16bd
00000390: 68ed 983e 416a 3a3f 7760 04bf aeb9 533f
000003a0: ba5a 2dbf 1079 1abf c406 373f cff1 003e
000003b0: bf7f 593f f68c 7ebf ac34 79be d559 01bf
000003c0: 1abc 1c3e 4edb 763d 571c 723f b54b 473f
000003d0: 7518 243c 8835 1c3f e338 10bf 7309 e4be
000003e0: 18d1 2bbe 57ab 28bd 7833 34bf 77fc 2f3e
000003f0: ab7b 4ebf bee5 0a3f fb13 cb3d 6358 ccbc

network.4.bias f4 [64]
-0.92640966 -0.09132824 -0.46114752 -1.5415614 -0.10251466 0.14675781 -0.3775861 0.6862328
0.88566434 -0.09535199 -1.3085651 0.011179458 -0.18348037 -0.10673168 0.36402366 0.32421866
0.20720193 -0.067262076 0.1109016 0.10166774 -0.1971675 -0.5230197 -0.17747663 1.1739599
-0.19752453 0.71080387 0.41545105 0.3469832 0.43401155 -1.2702469 0.37134606 0.043144252
0.5711653 0.07704269 0.1599617 0.80219805 0.29745594 0.44131297 -0.13144292 0.16770951
-0.046391513 0.65532464 -0.017503606 -0.24185935 -1.0013498 0.9119825 1.1494453 0.15779017
-0.8097124 -0.35350156 -0.18012822 0.2579306 1.3537385 0.5643599 0.78161234 -1.6246301
0.3062631 0.5671079 -0.8550711 0.2973705 0.9863959 -0.42215788 0.15364468 0.21743388
00000000: 2f29 6dbf 4d0a bbbd 871b ecbe e251 c5bf
00000010: 35f3 d1bd ae47 163e f752 c1be f4ac 2f3f
00000020: e6ba 623f e747 c3bd 107f a7bf 0c2a 373c
00000030: 47e2 3bbe 2496 dabd 4f61 ba3e fdff a53e
00000040: be2c 543e b3c0 89bd 6120 e33d 2d37 d03d
00000050: 47e6 49be 9ee4 05bf 6fbc 35be 5144 963f
00000060: df43 4abe 3ef7 353f 00b6 d43e c8a7 b13e
00000070: c336 de3e 7397 a2bf 1221 be3e 07b8 303d
00000080: e437 123f 8fc8 9d3d 00cd 233e da5c 4d3f
00000090: 254c 983e c6f3 e13e f998 06be 0bbc 2b3e
000000a0: 0705 3ebd 5bc3 273f b963 8fbc faa9 77be
000000b0: 3b2c 80bf af77 693f 0621 933f bf93 213e
000000c0: 5049 4fbf 28fe b4be 8873 38be 7b0f 843e
000000d0: 4e47 ad3f e479 103f bf17 483f e1f3 cfbf
000000e0: 84ce 9c3e fc2d 113f f1e5 5abf f240 983e
000000f0: 7184 7c3f 1425 d8be 0855 1d3e fda6 5e3e

network.6.weight f4 [64, 64]
0.059686173 -0.030029181 0.061631117 0.05003282 0.033833634 0.023465877 0.053518347 0.07110895
-0.13154821 -0.08996447 0.22415684 0.113751195 -0.015460324 0.2911592 -0.056556128 0.21772541
-0.041310105 -0.83340025 0.060202572 0.30111542 -0.05972986 0.10080099 -0.026962655 -0.13208234
-0.008509608 0.091119654 0.47064057 0.018734895 0.034930374 0.1813173 -0.05243325 0.27568892
0.24430797 0.11533042 -0.07746583 -0.06446502 0.3214855 0.43995562 0.070474625 0.19530737
0.102509335 -0.427159 0.08098281 -0.015479589 0.22803545 0.11760119 -0.040182415 0.34029952
0.38276914 -0.007212102 0.16507828 -0.019924304 -0.3501435 0.27907884 -0.6619712 -0.032714605
0.22894081 -0.15967144 -0.047460057 -0.054264367 0.032276675 0.19465886 0.030607114 0.1014676
-0.530564 0.056526083 0.32956672 -0.20108588 -0.11776042 -0.23841722 0.47928476 0.47644418
-0.97846943 -0.005594637 0.4618873 0.1702776 0.019215463 0.08022174 0.036991987 -0.67822635
-0.2523661 -0.47475797 -0.13926302 0.44414535 0.04966069 0.53240925 0.77073437 0.2442343
-0.103042476 -0.064538315 -0.4182115 0.66416943 -0.66505337 -0.73479086 -0.7949637 -0.20789692
-0.074728325 0.255386 0.7911371 -0.000100157704 0.040606685 -0.7217002 0.19932145 -0.28821695
0.21135068 0.91083 -0.08251538 -0.04445331 -0.188456 0.280012 0.2830725 -0.84211344
0.084116645 -0.29296052 0.03950049 0.44965976 0.23911034 -0.261239 -0.33423257 -0.37061238
-1.461357 0.35865465 -0.54338294 -2.1479177 0.19746144 0.07646908 0.3904432 -0.38859373
-0.285321 -0.08716729 0.075855106 -0.057676096 0.0963582 -0.08174987 -0.26970872 0.18546653
0.10146997 0.13445048 -0.19242293 -0.15369472 -0.06886065 -0.17468564 0.39154536 0.15246613
-0.60516965 0.18075028 -0.0054053953 0.005450579 -0.057957485 -0.10166834 -0.74973625 -0.43520898
0.09421319 0.3902588 -0.2556381 -0.44610432 0.020591618 0.32588872 -0.093783274 -0.02593907
0.09739886 -0.3842535 -0.050436866 -0.67748684 0.14649108 0.052659653 -0.20271315 -0.27305815
0.12507647 -0.24230818 -0.101051204 -0.082889415 -0.074702464 0.8137717 0.03340084 0.12712881
0.8587782 0.21728522 0.31417695 -0.46433422 -0.43515852 0.19262236 0.31276694 -0.26782158
0.3467159 -0.041931897 0.46326765 0.37540075 0.29146034 -0.116404645 0.36515433 0.25413787
-0.032131337 0.06760727 -0.9241586 -0.9926471 -0.029494999 0.62975276 0.36343363 -0.6241814
0.0009647408 0.025298767 -0.28495944 -0.84999907 0.0540476 -0.24487963 -1.1100336 0.14551656
1.0377039 0.83500856 -0.41681853 -0.00013706277 -0.038750686 0.32317898 0.097455345 -0.15856096
0.061328344 -0.7506539 -0.084768586 0.12967977 -0.4481031 -0.16744968 0.4849002 0.2347556
0.29161444 0.33783755 0.1364047 -2.4504993 -0.50260234 0.2951234 -0.7077619 -0.06919611
0.25108114 -1.184914 -0.1468556 0.09044967 -0.6757423 -0.0703685 -1.4221846 1.4858537
-0.69310766 -1.4919201 -0.53212523 -0.6916397 -0.6079551 0.5810674 -2.4054017 0.03995818
-0.8635395 0.3753971 -0.16638482 -0.16742325 -0.7029411 -1.0353489 -0.1276273 -0.11491314
00000000: 7d79 743d c2ff f5bc e970 7c3d 37ef 4c3d
00000010: 2395 0a3d 833b c03c 0e36 5b3d 92a1 913d
00000020: 93b4 06be 4b3f b8bd 5f89 653e 63f6 e83d
00000030: 4c4d 7dbc d212 953e 66a7 67bd 69f3 5e3e
00000040: c934 29bd b859 55bf f996 763d cd2b 9a3e
00000050: 4ca7 74bd c070 ce3d c9e0 dcbc 9840 07be
00000060: e26b 0bbc f19c ba3d cdf7 f03e ec79 993c
00000070: 2713 0f3d 3eab 393e 3fc4 56bd 1927 8d3e
00000080: de2b 7a3e 5b32 ec3d 68a6 9ebd 3d06 84bd
00000090: bf99 a43e dd41 e13e 0055 903d a8fe 473e
000000a0: 6af0 d13d 96b4 dabe 51da a53d 1a9e 7dbc
000000b0: 2082 693e e5d8 f03d 5196 24bd bd3b ae3e
000000c0: 51fa c33e 7f53 ecbb 480a 293e 4b38 a3bc
000000d0: 0246 b3be 6ce3 8e3e f276 29bf c0ff 05bd
000000e0: 766f 6a3e e980 23be 7a65 42bd 5044 5ebd
000000f0: 8c34 043d a754 473e c5bb fa3c 3fce cf3d
00000100: 0bd3 07bf e587 673d f8bc a83e 75e9 4dbe
00000110: 602c f1bd a523 74be d064 f53e 7ef0 f33e
00000120: f97c 7abf 3753 b7bb 7e7c ec3e 405d 2e3e
00000130: bf69 9d3c 4c4b a43d e984 173d 3ea0 2dbf
00000140: 2136 81be 7a13 f3be f79a 0ebe 0567 e33e
00000150: 0269 4b3d f94b 083f d94e 453f 8e18 7a3e
00000160: ef07 d3bd aa2c 84bd d11f d6be 0207 2a3f
00000170: f040 2abf 411b 3cbf be82 4bbf eee2 54be
00000180: 2a0b 99bd f4c1 823e f687 4a3f c20b d2b8
00000190: 3253 263d 58c1 38bf ec1a 4c3e 2c91 93be
000001a0: 506c 583e 282c 693f d3fd a8bd ad14 36bd
000001b0: 9cfa 40be bc5d 8f3e e1ee 903e bf94 57bf
000001c0: 5945 ac3d ecfe 95be 44cb 213d ce39 e63e
000001d0: 57d9 743e 1ec1 85be 8820 abbe e8c0 bdbe
000001e0: bf0d bbbf 95a1 b73e 251b 0bbf 7c77 09c0
000001f0: 5533 4a3e d29b 9c3d 2ce8 c73e c2f5 c6be
00000200: 9815 92be c484 b2bd ec59 9b3d c53d 6cbd
00000210: 7357 c53d 7a6c a7bd 4317 8abe f0ea 3d3e
00000220: 7dcf cf3d 63ad 093e 840a 45be 2662 1dbe
00000230: d006 8dbd cbe0 32be a278 c83e 1520 1c3e
00000240: 66ec 1abf 9a16 393e be1f b1bb c59a b23b
00000250: d464 6dbd 7e37 d0bd b7ee 3fbf b6d3 debe
00000260: d8f2 c03d 00d0 c73e ffe2 82be c967 e4be
00000270: c1af a83c e3da a63e 7211 c0bd 2c7e d4bc
00000280: 0e79 c73d e0bc c4be e396 4ebd c76f 2dbf
00000290: c201 163e a6b1 573d 0994 4fbe 47ce 8bbe
000002a0: 0c14 003e a31f 78be eff3 cebd edc1 a9bd
000002b0: 9bfd 98bd 5853 503f 52cf 083d 0e2e 023e
000002c0: e3d8 5b3f 0480 5e3e cddb a03e 37bd edbe
000002d0: 19cd debe cc3e 453e fd22 a03e e91f 89be
000002e0: bf84 b13e c8c0 2bbd 6b31 ed3e 8734 c03e
000002f0: 4a3a 953e 8f65 eebd 82f5 ba3e 5c1e 823e
00000300: 269c 03bd ae75 8a3d a895 6cbf 1f1e 7ebf
00000310: 7f9f f1bc 7a37 213f f913 ba3e 5aca 1fbf
00000320: a9e6 7c3a 5c3f cf3c 34e6 91be 8a99 59bf
00000330: 0461 5d3d bac1 7abe 9515 8ebf 4b02 153e
00000340: 7bd3 843f 1fc3 553f 3d69 d5be 82b8 0fb9
00000350: 0ab9 1ebd b777 a53e ab96 c73d ce5d 22be
00000360: 6e33 7b3d db2a 40bf 279b adbd c6ca 043e
00000370: c56d e5be ee77 2bbe d744 f83e c663 703e
00000380: 7d4e 953e 0bf9 ac3e acad 0b3e fbd4 1cc0
00000390: 8caa 00bf 6a1a 973e e22f 35bf b1b6 8dbd
000003a0: b58d 803e 43ab 97bf 5061 16be ad3d b93d
000003b0: 73fd 2cbf 5c1d 90bd 250a b6bf 7430 be3f
000003c0: 816f 31bf 3df7 bebf 5c39 08bf 4d0f 31bf
000003d0: f2a2 1bbf d5c0 143f 1af2 19c0 30ab 233d
000003e0: ed10 5dbf 0c34 c03e c860 2abe 0071 2bbe
000003f0: f3f3 33bf 5086 84bf bbb0 02be 9557 ebbd

network.6.bias f4 [64]
1.106569 1.1935736 0.8539582 1.1789213 -0.012367171 0.87119824 -0.10372613 1.0282372
-0.13936523 -0.093172 1.1691589 -0.11147022 -0.19467591 -0.06117508 0.88762325 0.030385964
0.072171085 1.2536455 -0.31759006 0.35016656 -0.17027695 0.20471478 1.498376 1.0762262
1.8885942 -0.030652022 -0.08367003 -0.10732072 0.49585313 0.39703345 1.1315303 -0.19523494
1.4096346 -0.20354731 0.9592905 -0.053815484 -0.15216585 0.24563222 1.0528935 0.69483614
0.19281574 0.52949125 0.6546334 1.0758934 0.04054167 -0.109892994 -0.02804853 0.020197656
-0.114956394 -0.1792404 0.7509663 1.1168987 1.0230869 0.9920791 1.1655724 1.1065105
-0.14251357 -0.055539295 -0.06639219 1.278944 -0.14779326 0.4495299 -0.11952965 -0.56094617
00000000: 0ea4 8d3f 05c7 983f 019d 5a3f e5e6 963f
00000010: ad9f 4abc d906 5f3f 5e6e d4bd 479d 833f
00000020: c2b5 0ebe f6d0 bebd 00a7 953f 804a e4bd
00000030: 1f59 47be b892 7abd 473b 633f fceb f83c
00000040: 6fce 933d 7577 a03f 2a9b a2be 0849 b33e
00000050: 155d 2ebe c0a0 513e c9ca bf3f c8c1 893f
00000060: 74bd f13f f319 fbbc 315b abbd f7ca dbbd
00000070: 76e0 fd3e f847 cb3e fcd5 903f abeb 47be
00000080: e86e b43f b56e 50be 1094 753f a06d 5cbd
00000090: 5dd1 1bbe 0387 7b3e 37c5 863f c8e0 313f
000000a0: 7d71 453e bd8c 073f 0e96 273f e0b6 893f
000000b0: 060f 263d 940f e1bd 08c6 e5bc 8e75 a53c
000000c0: 426e ebbd cc8a 37be 543f 403f 89f6 8e3f
000000d0: 83f4 823f e5f8 7d3f 7a31 953f 23a2 8d3f
000000e0: 14ef 11be 2c7d 63bd a1f8 87bd 70b4 a33f
000000f0: 1e57 17be c828 e63e f6cb f4bd 2b9a 0fbf

network.8.weight f4 [21, 64]
0.3370927 0.21422817 0.16953959 0.63559896 0.054879334 0.13023655 -0.09753084 0.28271222
-0.12434 0.013199527 0.40132734 -0.037249 0.006865934 0.00857277 0.19349425 0.08386149
-0.036212176 0.2379151 -0.35575312 -0.49136192 -0.0034627328 0.65746504 0.27511486 0.42086324
0.147284 -0.046365697 -0.007102443 -0.0507521 0.5190098 0.33426642 -0.046333455 -0.09939705
0.58653516 0.07914803 0.14011161 -0.012148271 -0.094724365 0.11815976 -0.3554076 2.0258586
-0.5058769 0.36744934 0.37177363 0.52172333 -0.143735 0.007579531 -0.011405626 -0.36042488
-0.0046878266 0.14313343 -0.19158867 0.1717412 0.29028317 -0.029599525 0.71866685 0.37313524
0.045784745 -0.027204586 -0.091026254 0.26108608 0.05101803 -0.37064174 0.041786224 -0.78121066
0.32924542 0.23633955 0.15943943 0.54688376 -0.028221743 0.15046078 -0.041570548 0.2858013
0.08263944 0.11840106 0.3422484 -0.039566115 0.024475727 0.05218478 0.20117956 0.41302198
-0.008589787 0.26111245 -0.3612188 -0.41571116 0.06560679 0.58165777 0.29877168 0.3095602
0.1496516 -0.09376157 -0.11184921 0.07961317 0.46460533 0.2587109 -0.038930334 -0.036434494
0.5277312 0.038636014 0.10123195 -0.033801496 -0.053080652 0.20586495 -0.3794626 1.5471245
-0.5311195 0.36900905 0.37898603 0.53428775 0.45895118 0.052119255 -0.06086298 -0.35804373
-0.046879567 0.048607994 -0.18778475 0.21720953 0.26758054 0.032999102 0.7183763 0.33303338
0.09301339 -0.02033251 0.048616115 0.27277306 0.030459478 -0.36232576 0.0032063276 -0.79828244
0.36555064 0.22755507 0.157658 0.46493796 0.013350329 0.14960109 0.011990443 0.31484205
0.0055391192 -0.019976838 0.30955666 -0.08683318 0.0211682 0.04674311 0.22637933 0.79607254
-0.122224964 0.2730936 -0.3462531 -0.37525362 0.01584844 0.5507848 0.21930851 0.45285228
0.28701532 0.008951522 -0.031554356 0.021001637 0.3940539 0.19068055 -0.0075569595 0.036624264
0.5090418 -0.07448655 0.19557454 -0.0344314 -0.071471564 0.22924489 -0.37776032 0.7380234
-0.5296803 0.329944 0.4204084 0.53394675 0.24764697 -0.111700684 -0.04601318 -0.3799595
-0.03217735 -0.067589805 -0.190754 0.21127303 0.28291276 0.08873742 0.61038816 0.3508399
0.030000756 0.19700162 -0.08000329 0.2920743 0.12180239 -0.34808868 -0.11978446 -0.7522021
0.31525812 0.25433764 0.15753664 0.47919482 0.0071565355 0.15374249 -0.03979784 0.27147147
0.12137826 -0.01841754 0.39652932 0.03498231 0.032108232 -0.118102804 0.23676807 0.8425472
-0.03209537 0.2606582 -0.3206691 -0.37416247 -0.08727287 0.8751538 0.25246117 0.38271466
0.22813241 0.09250085 0.07676751 -0.10431658 0.43519452 0.16532019 0.017790163 -0.1259008
0.48625594 0.03450571 0.13437732 -0.017990084 0.02921531 0.13228993 -0.39322168 1.2503315
-0.50760126 0.3301883 0.31938505 0.48164174 0.13136695 0.030137226 -0.10275874 -0.38702762
0.03953679 0.06613009 -0.16327219 0.20135726 0.28822938 0.12589678 0.7171558 0.3392716
0.08875327 0.16050267 0.01443493 0.29254177 -0.06354438 -0.36378062 0.026603013 -0.12259795
00000000: 6a97 ac3e a15e 5b3e c99b 2d3e 9db6 223f
00000010: 27c9 603d bb5c 053e 40be c7bd a8bf 903e
00000020: f8a5 febd d442 583c c77a cd3e 6892 18bd
00000030: a1fb e03b ce74 0c3c 5b23 463e 93bf ab3d
00000040: 3853 14bd 04a0 733e 4625 b6be ca93 fbbe
00000050: 04ef 62bb a14f 283f dbdb 8c3e 637b d73e
00000060: 9ed1 163e f5e9 3dbd 9cbb e8bb 6fe1 4fbd
00000070: d4dd 043f f824 ab3e 26c8 3dbd ae90 cbbd
00000080: 2b27 163f 5d18 a23d 6b79 0f3e 8b09 47bc
00000090: d9fe c1bd bffd f13d fcf7 b5be aba7 0140
000000a0: 2681 01bf 5222 bc3e 1d59 be3e a98f 053f
000000b0: 452f 13be b75d f83b aade 3abc 9c89 b8be
000000c0: 579c 99bb 9291 123e d22f 44be eddc 2f3e
000000d0: ff9f 943e b47a f2bc 8dfa 373f 950b bf3e
000000e0: c988 3b3d 27dc debc f96b babd 13ad 853e
000000f0: 48f8 503d c1c4 bdbe 0828 2b3d 6cfd 47bf
00000100: db92 a83e ff02 723e 1744 233e 9300 0c3f
00000110: 4931 e7bc 6412 1a3e e145 2abd 8c54 923e
00000120: de3e a93d 417c f23d 2f3b af3e 1410 22bd
00000130: 5281 c83c b5bf 553d 0402 4e3e 9e77 d33e
00000140: 2ebc 0cbc 88b0 853e acf1 b8be 18d8 d4be
00000150: da5c 863d 86e7 143f 9af8 983e ad7e 9e3e
00000160: 453e 193e 1106 c0bd 3311 e5bd 3b0c a33d
00000170: c0e0 ed3e c175 843e 6a75 1fbd 563c 15bd
00000180: 6419 073f cc40 1e3d b252 cf3d 7073 0abd
00000190: 196b 59bd 43ce 523e ec48 c2be 2d08 c63f
000001a0: 73f7 07bf c1ee bc3e 750a c23e 15c7 083f
000001b0: a6fb ea3e 007b 553d 764b 79bd 8251 b7be
000001c0: ca04 40bd 2d19 473d a54a 40be 2d6c 5e3e
000001d0: 5100 893e 112a 073d 82e7 373f 5a83 aa3e
000001e0: ce7d be3d 5d90 a6bc b121 473d e9a8 8b3e
000001f0: 2886 f93c c382 b9be 4021 523b 3d5c 4cbf
00000200: 7429 bb3e 3204 693e 1971 213e 590c ee3e
00000210: 57bb 5a3c 0731 193e 9073 443c fa32 a13e
00000220: 8081 b53b 77a6 a3bc 367e 9e3e 98d5 b1bd
00000230: ef68 ad3c b475 3f3d fccf 673e 69cb 4b3f
00000240: 1551 fabd edd2 8b3e 1648 b1be 3e21 c0be
00000250: 96d4 813c 3c00 0d3f 6992 603e 41dc e73e
00000260: acf3 923e 68a9 123c 243f 01bd a00b ac3c
00000270: 6fc1 c93e c341 433e 5fa0 f7bb 5303 163d
00000280: 9050 023f 688c 98bd b144 483e f107 0dbd
00000290: af5f 92bd 2cbf 6a3e cd69 c1be 1aef 3c3f
000002a0: 2199 07bf 6cee a83e c53f d73e bcb0 083f
000002b0: 2b97 7d3e 54c3 e4bd 5178 3cbd 0d8a c2be
000002c0: 66cc 03bd 866c 8abd 0455 43be f557 583e
000002d0: f1d9 903e f7bb b53d 6642 1c3f 4aa1 b33e
000002e0: 25c4 f53c cbba 493e c4d8 a3bd c38a 953e
000002f0: 8873 f93d ae38 b2be 8e51 f5bd 5190 40bf
00000300: 8369 a13e 8b38 823e 4951 213e 0659 f53e
00000310: 5f81 ea3b ac6e 1d3e 0f03 23bd 4ffe 8a3e
00000320: 2a95 f83d 61e0 96bc e405 cb3e 9c49 0f3d
00000330: ec83 033d e2df f1bd 5473 723e 2cb1 573f
00000340: 6f76 03bd fe74 853e be2e a4be 3992 bfbe
00000350: 1ebc b2bd 140a 603f 9742 813e 2df3 c33e
00000360: 8b9b 693e 1671 bd3d 4938 9d3d eea3 d5bd
00000370: d1d1 de3e b249 293e adbc 913c 24ec 00be
00000380: 8af6 f83e dc55 0d3d 359a 093e f15f 93bc
00000390: f254 ef3c 0377 073e 5a54 c9be dd0a a03f
000003a0: 28f2 01bf 710e a93e 7086 a33e bf99 f63e
000003b0: 0f85 063e 58e2 f63c 2d73 d2bd 7c28 c6be
000003c0: 54f1 213d 366f 873d d330 27be 9930 4e3e
000003d0: cd92 933e 16eb 003e 8697 373f 02b5 ad3e
000003e0: 46c4 b53d d05a 243e 7c80 6c3c 09c8 953e
000003f0: 8e23 82bd 7441 babe 90ee d93c a214 fbbd

network.8.bias f4 [21]
1.1814355 1.2194937 1.1766005 1.196852 1.091726 1.1814702 1.1224504 1.1526722
1.1355543 1.0645012 1.0621684 1.0898309 1.1217988 1.0549775 1.1740575 1.0573789
1.1252906 1.1365293 1.1594037 1.1704724 1.1171669
00000000: 4739 973f 5f18 9c3f d89a 963f 7232 993f
00000010: adbd 8b3f 6a3a 973f 74ac 8f3f c38a 933f
00000020: d859 913f 9341 883f 22f5 873f 947f 8b3f
00000030: 1a97 8f3f 8109 873f 8447 963f 3158 873f
00000040: 8609 903f cb79 913f 5767 943f 0ad2 953f
00000050: 53ff 8e3f
