model/model_81.pth (torch, 35975 bytes, 10 tensors)

network.0.weight f4 [16, 6]
-0.22954427 -0.38326693 0.042379223 0.22944076 -0.5871193 0.025412498 -0.42969838 -0.21445073
0.2504027 -0.08496552 0.099382125 0.24886613 -0.30371138 -0.5031828 -0.172017 -0.4757252
0.57933444 -0.108229496 0.09412404 -0.3524395 0.50971085 0.26557222 -0.2963605 0.07988536
-0.46396595 0.96157634 0.07789338 -0.40870905 0.23780447 -0.0039081285 0.27900204 1.0893775
0.268756 -0.46261847 0.112842605 -0.20331486 -0.1134581 0.5990259 -0.19212984 0.2354457
-0.35611963 0.22730358 0.2343155 -0.5988639 0.014455835 -0.2291934 0.14214478 0.2592564
-0.8813946 0.6748055 -0.0046302117 0.838663 0.56313235 -0.27210802 0.18445145 -0.13145824
0.11353491 -0.490456 -0.0009456668 0.21566887 0.014991852 -0.8280924 -0.18095997 -0.14693508
0.48131216 -0.044957716 0.3610246 -0.19266514 0.20238295 0.12661855 0.5594818 -0.120311774
0.44877025 -1.1338602 -0.25033095 -0.1307528 -0.21848443 -0.019973036 -0.27482077 -0.27322614
0.19853412 -0.5067083 -0.33580455 -0.014387445 -0.35904315 0.3978579 0.02422388 -0.39795667
-0.5517677 -0.19982107 0.47513568 -0.6625123 -0.021984058 0.38625193 -0.49052277 -0.15561152
00000000: a70d 6bbe 903b c4be d695 2d3d 85f2 6a3e
00000010: 734d 16bf df2d d03c 6d01 dcbe f998 5bbe
00000020: c834 803e 6702 aebd db88 cb3d c3d6 7e3e
00000030: 0f80 9bbe 97d0 00bf 3925 30be 4192 f3be
00000040: 434f 143f 6da7 ddbd 1bc4 c03d f372 b4be
00000050: 697c 023f 15f9 873e 90bc 97be f09a a33d
00000060: f28c edbe de29 763f 9086 9f3d 5042 d1be
00000070: 0483 733e c20f 80bb 5bd9 8e3e b970 8b3f
00000080: 639a 893e 54dc ecbe 061a e73d c531 50be
00000090: b85c e8bd c359 193f afbd 44be ad18 713e
000000a0: 5055 b6be 45c2 683e 67f0 6f3e 254f 19bf
000000b0: 2bd8 6c3c adb1 6abe 678e 113e 41bd 843e
000000c0: 14a3 61bf 0ec0 2c3f 08b9 97bb 9eb2 563f
000000d0: 7129 103f be51 8bbe d7e0 3c3e fd9c 06be
000000e0: fe84 e83d 0d1d fbbe a0e6 77ba 4dd8 5c3e
000000f0: 63a0 753c ddfd 53bf 924d 39be 2676 16be
00000100: 8c6e f63e 9525 38bd 37d8 b83e 034a 45be
00000110: 7a3d 4f3e 4ba8 013e 333a 0f3f 0566 f6bd
00000120: 37c5 e53e 5522 91bf 612b 80be 10e4 05be
00000130: 62ba 5fbe 7e9e a3bc 4fb5 8cbe 4ce4 8bbe
00000140: 874c 4b3e a3b7 01bf 93ee abbe 51b9 6bbc
00000150: 81d4 b7be 08b4 cb3e 2971 c63c fac0 cbbe
00000160: a640 0dbf e59d 4cbe fc44 f33e 689a 29bf
00000170: e917 b4bc d0c2 c53e cd25 fbbe a058 1fbe

network.0.bias f4 [16]
-0.3702139 0.24449308 0.07016309 0.16591795 0.014042553 0.20176138 -0.24841651 0.0488478
0.22559224 -0.048952486 0.066141956 0.39780048 0.26336497 0.0331818 0.30940336 -0.44749492
00000000: ad8c bdbe 655c 7a3e abb1 8f3d 65e6 293e
00000010: bc12 663c 899a 4e3e e660 7ebe a114 483d
00000020: a701 673e 6782 48bd 6f75 873d 81ac cb3e
00000030: c6d7 863e a4e9 073d 1e6a 9e3e 0e1e e5be

network.2.weight f4 [32, 16]
0.073747605 -0.039009437 -0.23836541 -0.18130144 0.15655199 0.15050328 -0.110145494 0.2775225
-0.24217664 0.07882615 0.037321523 0.052276764 -0.18157458 -0.12910725 0.210824 0.048750617
-0.5020721 -0.3250896 0.12713137 -0.5373194 0.11448663 0.21538143 -0.4237175 -0.5004509
0.09537043 -0.08974238 -0.06302471 -0.14666955 0.035144992 -0.37907308 -0.21066366 -0.17749113
0.03567013 -0.061199337 -0.19216236 -0.14977822 -0.043614864 -0.01730439 -0.13921249 0.02883768
-0.051740944 0.11653316 0.019492537 0.049248725 -0.21296689 -0.0466201 -0.18444622 -0.04226002
0.40292412 0.15171812 0.06180857 0.17360738 0.20060912 -0.08165906 -0.104740396 -0.018675614
0.017950255 -0.075882964 0.1834216 -0.24369112 -0.064877726 -0.08041655 0.009614194 -0.07370235
-0.0024993327 -0.27048382 -0.16644731 0.2251092 -0.026627295 -0.0805812 -0.27461988 -0.3533904
0.02401195 0.1364018 -0.13221763 -0.020933036 -0.35692742 -0.17287047 0.18013427 0.27754185
-0.72655994 -0.0037016033 0.29819155 -0.04155763 0.3737316 -0.36631677 -0.37334567 -0.088608414
-0.39913374 -0.07308879 0.12987168 0.16908322 0.08329147 0.21712591 0.009573563 0.19109076
-0.50082576 0.061381135 -0.19042276 0.35628077 -0.19577815 -0.0347316 0.35265934 -0.04248171
-0.04271129 -0.12813753 0.14149043 0.30097166 0.01621743 -0.24389768 0.15829895 -0.08748914
0.56418484 -0.25406215 0.0385889 0.26288083 0.123166755 0.10397814 0.0343232 0.16649847
-0.037293974 -0.010093486 0.21659093 -0.03049047 -0.0075771515 -0.06076554 -0.21019413 -0.3560666
0.40979266 -0.007097248 0.29990083 -0.1507522 0.14785881 0.11749032 0.28190628 0.16850778
0.38671294 -0.37925935 0.23794013 0.17874128 0.31847566 -0.2827141 -0.28346556 -0.16326685
0.27944604 -0.0119266845 0.12966251 -0.05039428 0.2860744 -0.19351572 -0.24503379 0.20720488
0.14336771 0.14314336 0.2113525 -0.096397415 0.1848798 -0.0290239 0.20059726 0.033958904
-0.29208803 -0.6584511 -0.14829433 0.16695257 0.06761215 0.11144698 0.09659831 0.045644928
-0.21115573 -0.08815328 0.009345421 -0.06799579 0.013164909 -0.45740607 0.09869375 0.4582277
0.031987794 0.124700375 0.44486102 0.023438627 0.06945589 -0.18264908 0.04848808 -0.0049172277
-0.12357684 0.16153266 -0.02865039 0.0729621 -0.06778482 -0.0366495 -0.18030477 0.33306646
0.13316372 0.035275448 0.20034644 -0.22134332 -0.16084614 -0.090312555 0.3097708 -0.21979983
0.18531057 -0.13094707 0.011152996 -0.13258485 -0.30391848 0.10145015 0.17379056 -0.026996009
-0.041717663 -0.26214448 -0.2976554 0.18417093 -0.013957946 -0.13218392 0.28533018 0.13507652
-0.19798188 -0.060841933 0.119580194 0.011699497 -0.48491344 -0.19520427 0.1885282 0.32405403
0.3281542 0.12599364 -0.027799783 -0.047014866 -0.044561505 0.15144232 0.21731652 0.26162922
-0.112792045 0.10762792 0.2240922 0.12560754 -0.060259044 0.15877925 -0.056677997 0.0026746232
0.22397399 0.06990747 0.1710914 0.049539667 -0.7558426 -0.13921218 0.29904458 -0.007994628
-0.002027959 -0.06436328 0.13122644 -0.13488123 0.16792372 0.3225041 -0.14557257 -0.31421405
00000000: fc08 973d 5cc8 1fbd 1016 74be 16a7 39be
00000010: 2a4f 203e 881d 1a3e f693 e1bd 6e17 8e3e
00000020: 27fd 77be 9b6f a13d 74de 183d 2920 563d
00000030: b0ee 39be b134 04be 3fe2 573e baae 473d
00000040: cc87 00bf 2572 a6be ba2e 023e c48d 09bf
00000050: f777 ea3d f38c 5c3e 80f1 d8be 8d1d 00bf
00000060: 9251 c33d daca b7bd 1913 81bd 8b30 16be
00000070: 32f4 0f3d de15 c2be 37b8 57be 3cc0 35be
00000080: d81a 123d 28ac 7abd 36c6 44be 765f 19be
00000090: 80a5 32bd f0c1 8dbc b88d 0ebe 003d ec3c
000000a0: 50ee 53bd f0a8 ee3d d0ae 9f3c 08b9 493d
000000b0: fe13 5abe b8f4 3ebd 78df 3cbe d818 2dbd
000000c0: 124c ce3e ff5b 1b3e fc2a 7d3d 22c6 313e
000000d0: 7a6c 4d3e de3c a7bd 2282 d6bd 9afd 98bc
000000e0: 6a0c 933c 8768 9bbd dfd2 3b3e 2a8a 79be
000000f0: 9dde 84bd 6fb1 a4bd da84 1d3c 42f1 96bd
00000100: d8cb 23bb db7c 8abe 2a71 2abe 0783 663e
00000110: 7c21 dabc c207 a5bd fa9a 8cbe 96ef b4be
00000120: b5b4 c43c eaac 0b3e 0f64 07be c27b abbc
00000130: 31bf b6be f504 31be 1e75 383e f719 8e3e
00000140: d5ff 39bf 9996 72bb 90ac 983e 5538 2abd
00000150: c059 bf3e df8d bbbe 2a27 bfbe 5478 b5bd
00000160: 425b ccbe 93af 95bd 15fd 043e 2724 2d3e
00000170: b894 aa3d 4156 5e3e 6fda 1c3c 4cad 433e
00000180: 1e36 00bf c96a 7b3d 2ffe 42be 6f6a b63e
00000190: 117a 48be b942 0ebd c48f b43e 4d01 2ebd
000001a0: 09f2 2ebd 7c36 03be dee2 103e f518 9a3e
000001b0: 6ada 843c 50c0 79be 1f19 223e 822d b3bd
000001c0: 6b6e 103f 6f14 82be 650f 1e3d 5198 863e
000001d0: da3e fc3d 7ef2 d43d 7c96 0c3d 937e 2a3e
000001e0: 91c1 18bd 265f 25bc 03ca 5d3e 26c7 f9bc
000001f0: c149 f8bb 49e5 78bd 213d 57be 5d4e b6be
00000200: 58d0 d13e 0890 e8bb 9a8c 993e c95e 1abe
00000210: 4d68 173e c49e f03d 0556 903e 4e8d 2c3e
00000220: 3dff c53e 482e c2be 94a6 733e f407 373e
00000230: 3e0f a33e e7bf 90be 6622 91be 6d2f 27be
00000240: 8d13 8f3e 2468 43bc 40c6 043e 3c6a 4ebd
00000250: 5878 923e fc28 46be 23ea 7abe 842d 543e
00000260: fcce 123e 2c94 123e ca6c 583e 026c c5bd
00000270: 2151 3d3e 88c3 edbc 5e69 4d3e 7e18 0b3d
00000280: 908c 95be 4090 28bf 78da 17be 9df5 2a3e
00000290: 3d78 8a3d 503e e43d 56d5 c53d 2df6 3a3d
000002a0: 3539 58be b589 b4bd 891d 193c 6041 8bbd
000002b0: a1b1 573c 2131 eabe f31f ca3d d29c ea3e
000002c0: a205 033d e962 ff3d d3c4 e33e 5d02 c03c
000002d0: e43e 8e3d 5c08 3bbe 709b 463d b220 a1bb
000002e0: db15 fdbd d168 253e 39b4 eabc 276d 953d
000002f0: c5d2 8abd c91d 16bd d0a1 38be b087 aa3e
00000300: 125c 083e fd7c 103d 9e27 4d3e d3a7 62be
00000310: dab4 24be caf5 b8bd 479a 9e3e 3513 61be
00000320: 0ec2 3d3e fd16 06be 0ebb 363c 53c4 07be
00000330: 349b 9bbe 19c5 cf3d 27f6 313e bc26 ddbc
00000340: 24e0 2abd cd37 86be 4a66 98be 4e97 3c3e
00000350: deaf 64bc 395b 07be cc16 923e 8051 0a3e
00000360: c3bb 4abe 6435 79bd 76e6 f43d 3faf 3f3c
00000370: 9346 f8be a1e3 47be 890d 413e 69ea a53e
00000380: d403 a83e 7a04 013e 5fbc e3bc a992 40bd
00000390: 2086 36bd b213 1b3e 3988 5e3e 44f4 853e
000003a0: 84ff e6bd 076c dc3d 6d78 653e 439f 003e
000003b0: 30d2 76bd 0797 223e 3027 68bd bb48 2f3b
000003c0: 7059 653e a62b 8f3d 9532 2f3e 1bea 4a3d
000003d0: e77e 41bf a38d 0ebe 5f1c 993e e6fb 02bc
000003e0: 82e7 04bb e5d0 83bd 3960 063e 4e1e 0abe
000003f0: 32f4 2b3e 421f a53e fa10 15be aae0 a0be

network.2.bias f4 [32]
0.24460948 0.140581 -0.21046314 0.20634967 0.22316936 -0.15607478 0.054168228 -0.13727133
-0.118557796 0.07689798 0.036685362 0.15705562 0.31628805 -0.1626558 0.33611584 -0.1388136
0.10287946 -0.19250509 -0.32680514 0.21256775 -0.12861949 0.030915212 0.2203351 0.15245886
-0.12984161 -0.12964328 -0.24107806 0.17513743 -0.22428675 0.114560165 0.3295875 0.24925554
00000000: e87a 7a3e 77f4 0f3e a683 57be 544d 533e
00000010: 8286 643e 11d2 1fbe 81df 5d3d db90 0cbe
00000020: 6ece f2bd b07c 9d3d 6443 163d 30d3 203e
00000030: 82f0 a13e 3e8f 26be 6017 ac3e 2725 0ebe
00000040: 77b2 d23d 0e20 45be 0153 a7be 5cab 593e
00000050: d4b4 03be e641 fd3c 869f 613e 2d1e 1c3e
00000060: 33f5 04be 35c1 04be 2bdd 76be 3a57 333e
00000070: 6dab 65be 859e ea3d b1bf a83e d83c 7f3e

network.4.weight f4 [64, 32]
0.29702267 -0.015424516 -0.032522637 -0.048498534 -0.0024772852 0.1010579 -0.11823717 0.13033321
-0.11868372 -0.024036197 0.11015924 -0.12885527 -0.009169541 -0.017686537 0.17621103 0.054587808
0.1232843 0.055347998 -0.13591735 0.14547756 0.046711612 0.10726871 0.27354932 0.15591875
0.14254387 -0.087322354 -0.083125055 -0.11538068 -0.3299268 0.033957247 0.15501177 0.014701493
0.14616708 0.1432471 0.005708812 -0.0892568 0.042144045 0.14905336 -0.053521648 -0.15591927
-0.11507898 0.13173343 -0.12808155 -0.08893301 -0.12533309 -0.06552412 -0.08540525 0.13442916
0.14201415 0.028779617 -0.1363724 -0.122195005 0.103092015 -0.074208036 -0.008746292 -0.14140537
-0.043765835 -0.13144384 0.031693902 -0.060263395 0.15712625 0.08249556 -0.11250814 -0.03402026
-0.0036493777 -0.0912917 -0.10979138 0.027775614 -0.0614898 0.31016326 -0.12446929 0.26653925
0.18466057 0.20670727 0.28057814 0.060969915 -0.028802883 -0.33740106 -0.082515836 0.25212985
0.060627915 -0.13002801 -0.06739615 0.09490494 -0.18970163 0.0002120917 0.060081538 -0.06737499
0.23989147 0.068793066 -0.13641423 0.02482167 -0.6761346 0.04585971 0.16358772 0.06506136
0.1961417 -0.21025273 -0.034183137 0.11351412 0.070155986 0.2379998 -0.09507257 0.32617164
0.15458895 0.002361047 0.48830497 0.037070345 -0.015517566 -0.2784718 0.009123034 0.11269214
0.22105 0.124939576 -0.21353018 0.15295571 -0.20853703 0.0659345 0.08998999 0.086218156
0.09619116 0.031051086 -0.05376049 0.06206976 -0.38023704 0.019692065 -0.01788897 -0.014243956
-0.024658782 0.06726798 -0.039719317 0.13301651 0.027422652 -0.071387164 0.027924247 -0.06141947
-0.09750031 -0.0055609494 -0.13461104 -0.17037164 -0.073865384 -0.06098214 0.14507057 -0.1383321
0.022089154 -0.12089364 -0.13253522 0.1217322 -0.1496098 0.010415013 -0.1785112 -0.0442909
-0.023843177 -0.09112948 -0.025900869 -0.18398453 -0.06449016 0.086957715 -0.12240327 0.057254765
0.27727464 0.02284077 -0.023357531 0.049704242 -0.13190861 0.19805914 -0.14441183 0.2291194
0.091797784 0.23166865 0.3274407 0.11498664 0.20384593 -0.223674 -0.09502611 -0.026294801
0.007835648 -0.12214605 -0.16816553 0.090175815 -0.20336004 0.23627454 0.056750093 -0.040195793
0.12940994 0.08967752 -0.37681302 -0.1112317 -0.20351489 0.12642533 0.12977922 0.12722485
-0.005141437 -0.8368042 0.16632243 0.111456126 0.010857727 -0.10867522 0.04038068 0.15647721
0.08643965 -0.15921439 0.20162868 -0.06426828 -0.20234452 -0.36639148 0.19149432 0.040121064
-0.04219781 -0.042474963 0.4496503 -0.0801094 -0.048274644 0.3946742 -0.07510306 -0.0060531553
-0.24775963 0.045418974 -0.40804198 -0.17348151 -0.07755852 0.1678046 -0.08646839 -0.06994172
0.17552559 0.22249506 0.008888728 0.025948571 -0.14898878 -0.00065685186 0.31091017 0.0005335075
-0.6021793 -0.0117880395 -0.2154424 0.35965538 -0.21421424 -0.4575522 -0.03560118 -0.22513635
-0.230033 0.06026774 0.56423616 0.2895976 0.6117822 -0.34145227 -0.30651483 -0.1812022
-0.44106197 -0.2735093 0.45688382 -0.015258542 -0.092197254 0.04002983 -0.08761599 -0.014266239
00000000: 5b13 983e 1cb7 7cbc 7536 05bd 66a6 46bd
00000010: f359 22bb 72f7 ce3d 5426 f2bd 1276 053e
00000020: 7310 f3bd 8fe7 c4bc 2b9b e13d a3f2 03be
00000030: d83b 16bc 5be3 90bc aa70 343e 7797 5f3d
00000040: 7b7c fc3d 95b4 623d eb2d 0bbe 12f8 143e
00000050: ad54 3f3d b3af db3d a80e 8c3e 2aa9 1f3e
00000060: 05f7 113e 10d6 b2bd 783d aabd b54c ecbd
00000070: 2aec a8be c116 0b3d 68bb 1e3e 88de 703c
00000080: d3ac 153e 5eaf 123e fc10 bb3b 45cc b6bd
00000090: 3c9f 2c3d 72a1 183e 8439 5bbd 4da9 1fbe
000000a0: 87ae ebbd 21e5 063e cf27 03be 8322 b6bd
000000b0: 5157 00be 8331 86bd f3e8 aebd cca7 093e
000000c0: 286c 113e 3bc3 eb3c 35a5 0bbe 6041 fabd
000000d0: e821 d33d 62fa 97bd 9c4c 0fbc 92cc 10be
000000e0: ce43 33bd 3799 06be 77d1 013d c0d6 76bd
000000f0: b4e5 203e 6ff3 a83d ab6a e6bd d458 0bbd
00000100: 662a 6fbb 25f7 babd 4eda e0bd af89 e33c
00000110: bbdc 7bbd b8cd 9e3e c1e9 febd d577 883e
00000120: a917 3d3e 12ab 533e f0a7 8f3e 97bb 793d
00000130: 06f4 ebbc d5bf acbe 10fe a8bd 2a17 813e
00000140: fa54 783d 1026 05be fe06 8abd 855d c23d
00000150: 2541 42be ef64 5e39 0f18 763d e6fb 89bd
00000160: 1ca6 753e 61e3 8c3d 2cb0 0bbe d156 cb3c
00000170: 2817 2dbf 64d7 3b3d 8a83 273e e43e 853d
00000180: 5fd9 483e 7e4c 57be 9e03 0cbd 177a e83d
00000190: f1ad 8f3d 38b6 733e 68b5 c2bd f8ff a63e
000001a0: 914c 1e3e ccbb 1a3b 1c03 fa3e 13d7 173d
000001b0: 643d 7ebc db93 8ebe c778 153c 23cb e63d
000001c0: ee5a 623e 52e0 ff3d a8a7 5abe 6ca0 1c3e
000001d0: bb8a 55be ab08 873d ac4c b83d 2593 b03d
000001e0: dfff c43d d95e fe3c f633 5cbd dc3c 7e3d
000001f0: 6eae c2be 4151 a13c e48b 92bc 7b5f 69bc
00000200: 3701 cabc cbc3 893d b9b0 22bd 7b35 083e
00000210: 78a5 e03c 6f33 92bd 64c1 e43c fb92 7bbd
00000220: 3eae c7bd a038 b6bb 7ad7 09be e775 2ebe
00000230: bc46 97bd 69c8 79bd 618d 143e eea6 0dbe
00000240: 50f4 b43c 1697 f7bd 50b7 07be bb4e f93d
00000250: 5033 19be bba3 2a3c a4cb 36be 606a 35bd
00000260: c452 c3bc 18a2 babd 0f2e d4bc 7166 3cbe
00000270: 6b13 84bd e316 b23d 91ae fabd f983 6a3d
00000280: f1f6 8d3e 911c bb3c 4b58 bfbc ad96 4b3d
00000290: 0d13 07be 04d0 4a3e b2e0 13be 479e 6a3e
000002a0: 7a00 bc3d 8c3a 6d3e 4fa6 a73e 1e7e eb3d
000002b0: fdbc 503e cc0a 65be 0d9d c2bd 3268 d7bc
000002c0: 1761 003c b527 fabd 9633 2cbe 19ae b83d
000002d0: 9d3d 50be f4f1 713e c972 683d 58a4 24bd
000002e0: 0a84 043e d9a8 b73d a3ed c0be 72cd e3bd
000002f0: 3566 50be a475 013e d8e4 043e 3b47 023e
00000300: 8079 a8bb cd38 56bf 6d50 2a3e 1c43 e43d
00000310: 9ce4 313c 1d91 debd 3666 253d 903b 203e
00000320: 4507 b13d 1909 23be c077 4e3e 179f 83bd
00000330: 6733 4fbe aa97 bbbe 1617 443e fc55 243d
00000340: 9cd7 2cbd 3afa 2dbd 9038 e63e 6610 a4bd
00000350: a2bb 45bd bd12 ca3e a2cf 99bd 8c59 c6bb
00000360: b3b4 7dbe 3f09 3a3d e1ea d0be 23a5 31be
00000370: 00d7 9ebd f8d4 2b3e 5716 b1bd 9b3d 8fbd
00000380: fbbc 333e bfd5 633e 07a2 113c 1992 d43c
00000390: 8490 18be 9530 2cba 9e2f 9f3e 15db 0b3a
000003a0: 6c28 1abf 9f22 41bc ef9c 5cbe c024 b83e
000003b0: fa5a 5bbe 4844 eabe 8bd2 11bd 258a 66be
000003c0: c58d 6bbe 4edb 763d c871 103f 2346 943e
000003d0: c29d 1c3f d5d2 aebe 83ef 9cbe 128d 39be
000003e0: e0d2 e1be 6909 8cbe adec e93e f7fe 79bc
000003f0: ead1 bcbd 52f6 233d 0370 b3bd f1bc 69bc

network.4.bias f4 [64]
-0.06000633 -0.029714243 0.14226404 0.009290254 -0.07079623 0.1717101 0.11424172 0.21720214
0.14430429 -0.034655154 -0.19740246 0.06721119 -0.11999276 0.043539334 -0.007632804 0.23990507
-0.11625922 -0.10107345 0.18207966 0.12361117 -0.13841149 0.015260714 0.015072898 0.20088364
-0.11961513 0.052921657 0.28074506 0.10706973 0.25824305 -0.035184637 0.13512155 0.12298873
0.26758966 0.2041743 0.10609472 -0.0018880244 0.29317805 0.06403671 -0.0067507564 0.13297397
0.23125452 -0.02256545 0.062492702 -0.21050975 0.10921596 0.2701079 -0.02953541 -0.041026235
-0.03004495 -0.006577869 0.12302079 0.26740232 0.059321254 0.2922929 0.041207157 -0.033669673
-0.026540138 0.07947175 -0.045611847 -0.122974254 0.29902086 0.14458568 0.3002518 0.20315933
00000000: 33c9 75bd 496b f3bc aaad 113e 2636 183c
00000010: 9dfd 90bd c6d4 2f3e 90f7 e93d 3d6a 5e3e
00000020: 81c4 133e 90f2 0dbd df23 4abe 05a6 893d
00000030: c4be f5bd 4d56 323d 9a1c fabb ada9 753e
00000040: 5019 eebd 99ff cebd 1773 3a3e da27 fd3d
00000050: bebb 0dbe 1308 7a3c 51f4 763c 71b4 4d3e
00000060: c7f8 f4bd 61c4 583d d1bd 8f3e 6047 db3d
00000070: 6f38 843e c41d 10bd 4e5d 0a3e 84e1 fb3d
00000080: 8301 893e 1113 513e 3048 d93d 9677 f7ba
00000090: 6f1b 963e ae25 833d 7335 ddbb 542a 083e
000000a0: fccd 6c3e 2edb b8bc 59f8 7f3d de8f 57be
000000b0: 9eac df3d 954b 8a3e 3ff4 f1bc 200b 28bd
000000c0: d420 f6bc 2a8b d7bb 53f2 fb3d f5e8 883e
000000d0: d8fa 723d 6aa7 953e d6c8 283d 36e9 09bd
000000e0: b46a d9bc 16c2 a23d 7dd3 3abd edd9 fbbd
000000f0: 4319 993e 450e 143e 9bba 993e 0009 503e

network.6.weight f4 [64, 64]
-0.029615957 -0.015809447 0.15421341 0.07223259 0.06537311 0.0067429575 0.14718014 -0.51507676
0.18467815 -0.05543244 -0.28317803 0.16042705 0.0033178856 0.21865761 0.037108287 0.23281232
0.023140728 -0.019254789 0.048814245 -0.031109348 -0.051642083 0.16049585 0.17291142 0.024189342
0.016394347 -0.0141144935 0.21428342 0.3821602 0.1031072 0.15730047 -0.015960077 0.1822517
0.18298867 0.18540768 0.15978323 -0.4791842 0.19896522 0.15563776 0.17539276 -0.01707331
0.07818199 -0.46124908 0.061601356 -0.008493067 0.009994056 0.067108855 0.09086954 -0.03902165
0.40695384 0.14469649 0.17567348 0.16479875 0.04722405 0.105124444 -0.009763819 0.13083732
0.049216542 0.13673314 -0.00097651413 0.06605844 0.12491132 0.038645245 0.16613093 0.008255591
0.072462335 0.047271222 0.11733907 0.09432438 -0.086205475 0.042816665 -0.05802098 -0.6322711
0.109680966 0.010836902 -0.17661895 0.10837894 0.039460983 0.014300536 0.07708178 -0.013648839
-0.1653466 0.023668945 0.020814126 -0.057751544 0.100037955 0.0010858809 0.37573013 0.08011206
-0.030583726 -0.09932205 -0.027935177 0.4808148 0.092407845 0.07102704 -0.021097658 0.09234596
0.0053073787 0.09675599 0.024594983 -0.49464807 0.18540564 -0.031721182 0.18045412 0.1838297
0.18935682 -0.4805565 -0.018904854 -0.036515594 0.07533716 0.012136882 0.062011234 -0.040669464
0.55057406 0.053798027 0.091268145 0.17375669 0.11626995 -0.016033161 -0.090641424 0.13129333
0.15980324 -0.03693059 0.0076683913 0.096420735 0.12616326 0.1769607 0.06573722 -0.013724896
-0.058258917 -0.05927436 0.1360991 0.037274074 0.1279123 0.18551591 0.20601235 -0.5396336
0.12160672 0.15169631 -0.061613806 0.16399929 -0.053527944 0.22864866 0.1904977 0.1970298
-0.096532516 0.08566581 0.16111983 0.02873268 -0.052218117 0.020919368 0.23675531 -0.021292008
0.1340692 0.047459252 0.03947455 0.3051364 0.19952671 0.18112513 0.03726747 0.15347193
0.13174477 0.08343394 0.10968751 -0.5768359 0.403934 0.1591629 -0.02417569 0.21570598
0.022900904 -0.4531121 0.21914117 -0.07268651 0.16064493 0.19380675 -0.08024674 -0.041440204
0.5303663 0.046639837 0.17278598 0.018386656 0.01699175 0.06596926 0.058435664 0.12972702
0.16327322 -0.002849387 -0.022085838 -0.04999645 0.065945975 0.092263356 0.031972762 0.073830165
-0.04647888 0.08853634 0.052891105 0.0999658 0.0019974932 0.12497128 -0.032722898 -0.5223988
0.06445791 0.04416577 -0.12024841 0.10537463 0.04514699 0.047845237 0.074642815 0.09980679
-0.054014932 -0.02991037 0.070147716 0.064437136 -0.0231402 -0.08579171 0.4163647 0.058440566
0.07044965 -0.067528464 0.11223344 0.33159065 0.10391581 0.052167464 -0.029997228 0.039094865
0.01626677 0.037402418 0.07808747 -0.4740486 0.11452054 -0.034017183 -0.034951415 -0.06367876
-0.03310475 -0.43945423 0.16249405 0.09724917 0.007815382 0.075468965 -0.11204872 0.030289326
0.3393877 0.022542303 -0.045808144 0.15082975 0.043138523 0.102031685 0.10490836 0.14512554
0.06755948 0.016441615 0.027140703 0.004446815 0.14448136 -0.0069113197 -0.039306615 -0.062138326
00000000: 2a9d f2bc d082 81bc 1fea 1d3e aeee 933d
00000010: 56e2 853d 07f4 dc3b 64b6 163e 12dc 03bf
00000020: 451c 3d3e 200d 63bd b6fc 90be fd46 243e
00000030: e270 593b c8e7 5f3e dcfe 173d 5a66 6e3e
00000040: a091 bd3c 38bc 9dbc 72f1 473d 08d9 febc
00000050: a686 53bd 0659 243e b10f 313e ba28 c63c
00000060: 704d 863c 7a40 67bc 1d6d 5b3e 80aa c33e
00000070: de29 d33d 6013 213e b5be 82bc 31a0 3a3e
00000080: 6261 3b3e 83db 3d3e 379e 233e a257 f5be
00000090: 8abd 4b3e 815f 1f3e 299a 333e 54dd 8bbc
000000a0: e11d a03d d728 ecbe b451 7c3d 8126 0bbc
000000b0: 1cbe 233c 5e70 893d cf19 ba3d 2ad5 1fbd
000000c0: 415c d03e 512b 143e c0e3 333e 01c1 283e
000000d0: 016e 413d 7c4b d73d 6df8 1fbc 38fa 053e
000000e0: 4997 493d c603 0c3e c1fc 7fba a649 873d
000000f0: 82d1 ff3d 7a4a 1e3d 3a1e 2a3e 7542 073c
00000100: 2267 943d 789f 413d 774f f03d 242d c13d
00000110: 7f8c b0bd 8760 2f3d 68a7 6dbd 85dc 21bf
00000120: 6aa0 e03d 438d 313c 99db 34be c7f5 dd3d
00000130: d7a1 213d cc4c 6a3c 0ddd 9d3d 619f 5fbc
00000140: 9e50 29be 60e5 c13c 6382 aa3c e28c 6cbd
00000150: b3e0 cc3d 1e54 8e3a b35f c03e cb11 a43d
00000160: b98a fabc 5c69 cbbd 50d8 e4bc 5c2d f63e
00000170: 5340 bd3d a076 913d ffd4 acbc e11f bd3d
00000180: 85e9 ad3b 0128 c63d 6b7b c93c 8342 fdbe
00000190: fada 3d3e 12ee 01bd f7c8 383e da3d 3c3e
000001a0: c1e6 413e 800b f6be 5ade 9abc 6091 15bd
000001b0: 5e4a 9a3d c6d9 463c 7eff 7d3d 0695 26bd
000001c0: 6cf2 0c3f 525b 5c3d cbea ba3d 46ed 313e
000001d0: f11e ee3d fa57 83bc 36a2 b9bd c271 063e
000001e0: 76a3 233e 8844 17bd 2147 fb3b 3c78 c53d
000001f0: f130 013e 3035 353e 3ca1 863d 63de 60bc
00000200: e7a0 6ebd acc9 72bd 905d 0b3e b3ac 183d
00000210: 71fb 023e e2f7 3d3e e7f4 523e 6d25 0abf
00000220: f20c f93d 4756 1b3e c25e 7cbd 6eef 273e
00000230: 1e40 5bbd e022 6a3e d411 433e 2ec2 493e
00000240: d7b2 c5bd 8e71 af3d 99fc 243e cc60 eb3c
00000250: aae2 55bd 185f ab3c fc6f 723e 946c aebc
00000260: 7049 093e a264 423d 11b0 213d d73a 9c3e
00000270: bb50 4c3e de78 393e c6a5 183d bf27 1d3e
00000280: 1ae8 063e 6adf aa3d d8a3 e03d 84ab 13bf
00000290: 70d0 ce3e 99fb 223e 190c c6bc 07e2 5c3e
000002a0: ad9a bb3c 4ffe e7be 8b66 603e aadc 94bd
000002b0: 1b80 243e 4775 463e 6758 a4bd 34bd 29bd
000002c0: 16c6 073f 6a09 3f3d cfee 303e 9d9f 963c
000002d0: 4832 8b3c e41a 873d 3c5a 6f3d 29d7 043e
000002e0: 1831 273e c8bc 3abb 5ced b4bc 14c9 4cbd
000002f0: af0e 873d 92f4 bc3d dff5 023d 4534 973d
00000300: a360 3ebd 8a52 b53d 58a4 583d dfba cc3d
00000310: 60e8 023b f1f0 ff3d 7208 06bd eebb 05bf
00000320: 8202 843d 2be7 343d cc44 f6bd a7ce d73d
00000330: 0dec 383d 5ef9 433d 55de 983d 8167 cc3d
00000340: c33e 5dbd 9806 f5bc 9ba9 8f3d 9ef7 833d
00000350: 8490 bdbc 90b3 afbd c12d d53e 605f 6f3d
00000360: e847 903d 5d4c 8abd a5da e53d 40c6 a93e
00000370: d0d1 d43d 8dad 553d bfbc f5bc f021 203d
00000380: e441 853c 4733 193d 53ec 9f3d 80b6 f2be
00000390: bf89 ea3d 9a55 0bbd 3729 0fbd 026a 82bd
000003a0: d998 07bd 2500 e1be d764 263e 932a c73d
000003b0: 170c 003c 798f 9a3d cd79 e5bd 5221 f83c
000003c0: 3ac4 ad3e a3aa b83c 52a1 3bbd 1d73 1a3e
000003d0: 05b2 303d fdf5 d03d 32da d63d ca9b 143e
000003e0: a05c 8a3d 91b0 863c 2e56 de3c 96b6 913b
000003f0: ecf2 133e 5a78 e2bb f9ff 20bd c284 7ebd

network.6.bias f4 [64]
0.19895622 0.25187907 0.18647397 0.18224208 0.05113416 0.23448086 -0.024398495 0.18127532
-0.07613157 -0.022112053 0.207151 -0.05812219 -0.12203647 0.0023468435 0.03967385 0.105044514
-0.08745593 0.19933605 0.057812274 0.13779522 -0.07543515 -0.018395849 0.013359222 0.26654398
0.17125183 0.032856155 -0.022339618 -0.044554118 0.19869086 -0.09130202 0.072283484 -0.11216256
0.18177964 -0.120092824 0.17479749 -0.006630278 -0.057604223 0.06387002 0.27468848 0.15390508
-0.084102064 0.20868273 0.21207377 0.24085563 -0.083721004 -0.014688134 0.034552764 -0.12015259
-0.07972958 -0.10996582 0.08115082 0.14622116 0.20636362 0.16749117 0.2021514 0.063887246
-0.047237527 0.03966728 0.013713057 0.18723224 -0.11604357 -0.07322768 -0.056017637 -0.1020779
00000000: 2ebb 4b3e 4bf6 803e 08f3 3e3e ab9d 3a3e
00000010: 0e72 513d c01b 703e 5adf c7bc 3da0 393e
00000020: deea 9bbd 5624 b5bc 641f 543e 8911 6ebd
00000030: 42ee f9bd 80cd 193b 0c81 223d 9421 d73d
00000040: 181c b3bd c01e 4c3e 90cc 6c3d 311a 0d3e
00000050: be7d 9abd e4b2 96bc a3e0 5a3c 7478 883e
00000060: a45c 2f3e 2d94 063d 9301 b7bc 617e 36bd
00000070: 9e75 4b3e 8efc babd 5d09 943d 7cb5 e5bd
00000080: 7124 3a3e 3af3 f5bd 1dfe 323e ce42 d9bb
00000090: 68f2 6bbd 49ce 823d f8a3 8c3e 4b99 1d3e
000000a0: b43d acbd edb0 553e de29 593e dca2 763e
000000b0: eb75 abbd 80a6 70bc 3387 0d3d 9012 f6bd
000000c0: 4349 a3bd c335 e1bd 6732 a63d 00bb 153e
000000d0: fc50 533e ce82 2b3e c700 4f3e 51d7 823d
000000e0: 237c 41bd 287a 223d bbac 603c cfb9 3f3e
000000f0: 40a8 edbd 65f8 95bd c072 65bd 380e d1bd

network.8.weight f4 [21, 64]
0.15354067 0.20476158 -0.019770049 0.06630607 0.054879334 0.17769139 -0.09753084 0.17073429
-0.12434 -0.013469393 0.18627536 -0.10070421 0.0714791 0.040154323 0.03840811 0.06135151
-0.08800137 -0.026241232 -0.074316785 -0.08701359 -0.034945473 -0.06985426 0.032329585 0.16065867
0.15426473 -0.07812418 -0.001848463 -0.100742064 0.1617339 0.1851998 -0.038783234 -0.09863155
0.094655916 0.11090574 -0.00755241 0.019595968 -0.12465988 0.015836222 -0.20414425 0.19571231
-0.08245623 0.21322852 0.12658308 0.25003308 -0.04732426 0.03953646 -0.011405626 0.059231594
-0.0046878266 0.14313343 0.08564579 0.015883971 0.1223386 0.08359703 0.061633173 0.15285149
0.045784745 -0.031663235 -0.091026254 0.046678953 0.05101803 0.13288523 0.041786224 -0.091006264
0.17968273 -0.016019061 0.17330141 0.07572942 -0.028221743 0.079186 -0.041570548 0.1589473
0.08263944 0.10463837 0.14261955 -0.039566115 -0.03922057 0.08393897 0.09585365 0.005742435
-0.09781922 0.1645257 -0.00017785747 -0.11349794 0.06560679 0.06735386 0.0720588 0.14283776
0.18313786 -0.09376157 -0.080088064 0.11134674 0.20514691 0.056023628 -0.15045872 -0.036434494
0.08529332 0.038636014 0.045909047 0.042416602 -0.0749791 -0.01593637 -0.17019235 0.1137557
0.04157038 0.014775101 0.11523319 0.094290495 0.1017009 0.052119255 -0.06086298 -0.012933524
-0.015249565 0.048607994 0.17359439 0.10191579 0.01379899 0.07856096 0.1840904 0.18383549
0.09301339 -0.051528655 0.048616115 0.15806246 0.030459478 -0.15397434 0.0032063276 0.075858764
0.17883292 0.04154846 0.12845959 0.022065686 0.013350329 -0.0005085494 -0.019423952 0.14424038
0.0055391192 -0.06288873 0.2006233 -0.08683318 -0.002983883 0.04674311 0.18227859 -0.11590399
0.106193736 0.049756557 0.10504433 -0.027302835 -0.015849918 0.12112057 0.14600873 0.03278347
0.1747021 0.040525626 0.00014825807 0.021001637 0.21588103 0.09161241 -0.09956285 0.036624264
0.024044538 -0.07448655 -0.03193071 -0.0028641701 -0.0687266 -0.04185173 -0.25466514 0.21193327
-0.09258525 0.09433722 0.031976372 0.16969323 -0.004764825 -0.111700684 -0.04601318 0.123335585
-0.032453667 -0.067589805 0.18536806 0.201458 -0.02444981 0.13627504 0.08176399 0.14139132
0.030000756 0.10361709 -0.08000329 0.048809007 0.12180239 -0.05262921 -0.11978446 0.056237977
0.20024967 0.16064292 0.14731695 0.021385796 0.0071565355 0.00998883 -0.03979784 0.0065972568
0.12137826 -0.029935285 0.025554523 0.03498231 -0.093654916 -0.118102804 -0.032018937 -0.25921652
-0.026820393 0.20321047 0.08976565 -0.006692509 -0.08727287 0.0015749335 0.17043008 0.087602876
0.15913245 0.09250085 0.10852404 -0.10431658 0.12096374 0.0048225694 -0.12541763 -0.1259008
0.10599393 0.03450571 0.13509761 -0.040822115 0.0017366558 0.14488764 -0.09666505 0.18105526
-0.1157209 0.11050984 0.026861474 0.16249712 -0.05850151 0.030137226 -0.10275874 -0.06145005
0.03953679 0.06613009 0.06609922 0.13501468 0.11108275 0.14841273 0.22235689 0.04665458
0.08875327 0.10365637 0.01443493 -0.018071525 -0.06354438 0.02989021 0.026603013 0.00074066885
00000000: c439 1d3e 05ad 513e ccf4 a1bc 7acb 873d
00000010: 27c9 603d bbf4 353e 40be c7bd f8d4 2e3e
00000020: f8a5 febd bbae 5cbc f8be 3e3e 023e cebd
00000030: a263 923d dc78 243d d351 1d3d b94b 7b3d
00000040: 103a b4bd daf7 d6bc 6633 98bd 2e34 b2bd
00000050: fc22 0fbd c00f 8fbd 076c 043d b583 243e
00000060: 93f7 1d3e 92ff 9fbd 2048 f2ba db51 cebd
00000070: 929d 253e 04a5 3d3e 2bdb 1ebd 57ff c9bd
00000080: f6da c13d 8c22 e33d 357a f7bb b987 a03c
00000090: ae4d ffbd f7ba 813c 310b 51be cf68 483e
000000a0: d0de a8bd 9458 5a3e ff9e 013e 5604 803e
000000b0: 15d7 41bd fcf0 213d aade 3abc d49c 723d
000000c0: 579c 99bb 9291 123e 0f67 af3d 1a1f 823c
000000d0: a98c fa3d eb34 ab3d 1173 7c3d 1a85 1c3e
000000e0: c988 3b3d 4fb1 01bd f96b babd 6e32 3f3d
000000f0: 48f8 503d 1113 083e 0828 2b3d 7e61 babd
00000100: c0fe 373e 683a 83bc ed75 313e 0718 9b3d
00000110: 4931 e7bc 452c a23d e145 2abd 15c3 223e
00000120: de3e a93d a44c d63d dc0a 123e 1410 22bd
00000130: c0a5 20bd 32e8 ab3d eb4e c43d 092b bc3b
00000140: 7155 c8bd 6d79 283e 407f 3ab9 9c71 e8bd
00000150: da5c 863d d2f0 893d 9093 933d 1044 123e
00000160: 7e88 3b3e 1106 c0bd 3605 a4bd c209 e43d
00000170: 0812 523e 0879 653d da11 1abe 563c 15bd
00000180: 44ae ae3d cc40 1e3d 200b 3c3d 08bd 2d3d
00000190: a48e 99bd fd8c 82bc e746 2ebe c0f8 e83d
000001a0: b445 2a3d 4413 723c 61ff eb3d 601b c13d
000001b0: 9048 d03d 007b 553d 764b 79bd 22e7 53bc
000001c0: 50d9 79bc 2d19 473d bac2 313e 3ab9 d03d
000001d0: 2915 623c 92e4 a03d 3282 3c3e 5f3f 3c3e
000001e0: ce7d be3d b60f 53bd b121 473d 20db 213e
000001f0: 2886 f93c 73ab 1dbe 4021 523b d75b 9b3d
00000200: fa1f 373e b82e 2a3d e98a 033e 19c3 b43c
00000210: 57bb 5a3c 2c50 05ba fb1e 9fbc c0b3 133e
00000220: 8081 b53b cecb 80bd 3270 4d3e 98d5 b1bd
00000230: 408d 43bb b475 3f3d 3da7 3a3e 125f edbd
00000240: 1a7c d93d 88cd 4b3d 7b21 d73d 32aa dfbc
00000250: b0d7 81bc 100e f83d 5083 153e f647 063d
00000260: 1be5 323e 33fe 253d b975 1b39 a00b ac3c
00000270: eb0f 5d3e 4a9f bb3d 9ce7 cbbd 5303 163d
00000280: 0df9 c43c 688c 98bd c7c9 02bd cdb4 3bbb
00000290: 88c0 8cbd b86c 2bbd 7863 82be 0905 593e
000002a0: 569d bdbd df33 c13d a8f9 023d 10c4 2d3e
000002b0: 4022 9cbb 54c3 e4bd 5178 3cbd 5e97 fc3d
000002c0: 23ee 04bd 866c 8abd 20d1 3d3e 024b 4e3e
000002d0: f84a c8bc af8b 0b3e e173 a73d e3c8 103e
000002e0: 25c4 f53c 3235 d43d c4d8 a3bd f4eb 473d
000002f0: 8873 f93d ba91 57bd 8e51 f5bd cb59 663d
00000300: 400e 4d3e 947f 243e 41da 163e 4431 af3c
00000310: 5f81 ea3b 31a8 233c 0f03 23bd cd2d d83b
00000320: 2a95 f83d d83a f5bc b857 d13c 9c49 0f3d
00000330: 26ce bfbd e2df f1bd 4a26 03bd 07b8 84be
00000340: 71b6 dbbc 6816 503e 0ed7 b73d d64c dbbb
00000350: 1ebc b2bd 006e ce3a 3985 2e3e 2369 b33d
00000360: 9ef3 223e 1671 bd3d da41 de3d eea3 d5bd
00000370: d6bb f73d a506 9e3b 7b6d 00be 24ec 00be
00000380: 5813 d93d dc55 0d3d 0757 0a3e 1735 27bd
00000390: 80a0 e33a 6d5d 143e 53f8 c5bd 8d66 393e
000003a0: 14ff ecbd fc52 e23d 980c dc3c a565 263e
000003b0: 489f 6fbd 58e2 f63c 2d73 d2bd 0cb3 7bbd
000003c0: 54f1 213d 366f 873d 075f 873d 4a41 0a3e
000003d0: 5a7f e33d 82f9 173e 86b1 633e df18 3f3d
000003e0: 46c4 b53d ca49 d43d 7c80 6c3c bc0a 94bc
000003f0: 8e23 82bd 50dc f43c 90ee d93c 7229 423a

network.8.bias f4 [21]
0.0911838 0.06835101 0.13328941 0.10014098 0.1507035 0.17348337 0.06895639 0.1673829
0.10312581 0.08145836 0.17420283 0.11537023 0.051785726 0.024995323 0.13298182 0.09957834
0.1708835 0.102594815 0.13349567 0.0824499 0.18722941
00000000: 92be ba3d 9dfb 8b3d 057d 083e b716 cd3d
00000010: 0552 1a3e a0a5 313e 0239 8d3d 6c66 2b3e
00000020: a033 d33d a4d3 a63d 3a62 323e 3a47 ec3d
00000030: 451d 543d fec2 cc3c 632c 083e bbef cb3d
00000040: 16fc 2e3e 3b1d d23d 17b3 083e 7edb a83d
00000050: 11b9 3f3e
