model/model_144.pth (torch, 35975 bytes, 10 tensors)

network.0.weight f4 [16, 6]
00000000: 6fa7 94be 7a34 f3be abea 063d 3a12 073d
00000010: b614 41bf 4d1e dc3c 27e1 c5be c3b6 ecbd
00000020: 76be 313e abb9 0f3d 3ab3 083d 4111 9b3e
00000030: 9583 9abe 9998 dfbe 3b27 1ebe b922 b8be
00000040: cb90 053f 4a71 dcbd 53e5 f23c 39f1 fb3d
00000050: 876c ec3e 9b5a e53e a138 bcbe 9619 5e3d
00000060: 8e2b e4be 3a3f 4c3f 0c16 44bc 7c2f fdbe
00000070: ef14 0e3f f844 923c cd5a c73e 3d5d 883f
00000080: f4ab 0a3e 88a8 edbe bfda 9e3e 3d45 6bbe
00000090: bcc7 a4be 74f0 d03e 5486 1cbe d197 edbd
000000a0: bba2 37bf 0db8 8c3e 39ee 903e 8e06 34bf
000000b0: ae27 c2bd a00d 44be 5554 dd3d 3931 683e
000000c0: 737a 5ebf 12e3 123f bdc3 23bd 8e2c 6e3f
000000d0: 4696 3d3f 8e07 8cbe 11f9 6c3e cd59 a8be
000000e0: 41b3 003d 4e02 4abf 086c 92bd bf1d 4c3e
000000f0: 8f4f 433e 43eb 66bf 01da 2abe e56b 24be
00000100: 887c 173f f3b1 a8bc f6a6 f43e 420e 9ebe
00000110: 2ff7 103e 944c 353d 7912 443f 9617 11be
00000120: fe27 ff3e f476 a3bf 1aff 2abe ec3b 87be
00000130: dfaa 17bf de7b 44bd 4120 debe 1279 a53d
00000140: 24fb 673e a997 1ebf 3461 4ebe 6dc2 8ebd
00000150: 1c2e 51be 9b20 233f a633 543c 5f4a d9be
00000160: 4683 29bf 7477 51be 8f74 0c3f e773 46bf
00000170: 8e7f 82bc 13a9 8a3d 03aa abbe face 3ebe
-0.29033992 -0.47500974 0.03293864 0.032976367 -0.7542223 0.026869917 -0.3864834 -0.115582965
0.17357811 0.035089176 0.03337405 0.302866 -0.30178514 -0.4367111 -0.15444653 -0.3596399
0.5217406 -0.10763796 0.029650366 0.12301869 0.4617655 0.4479569 -0.36761954 0.05422362
-0.4456448 0.79783976 -0.011968147 -0.4945029 0.5550069 0.017855152 0.38936463 1.0653454
0.13542157 -0.46417642 0.31026265 -0.22975631 -0.32183635 0.4080845 -0.15285617 -0.11601222
-0.7173268 0.2748417 0.2830675 -0.703225 -0.094802245 -0.19145823 0.10807101 0.22675027
-0.8690559 0.5737773 -0.039981592 0.93036735 0.74057424 -0.27349514 0.23141886 -0.32881013
0.03142095 -0.78909767 -0.071495116 0.19933222 0.19073318 -0.9020273 -0.16684724 -0.16056783
0.59174395 -0.020592665 0.4778363 -0.30870253 0.14156793 0.044262484 0.7659069 -0.14169154
0.498352 -1.2770677 -0.16698876 -0.26412904 -0.59245104 -0.04796969 -0.43383983 0.08079733
0.22654396 -0.61950165 -0.20154268 -0.069706775 -0.20427746 0.63721627 0.012951767 -0.42439553
-0.6621593 -0.20455724 0.54865354 -0.775206 -0.015929963 0.067705296 -0.33528146 -0.18633643

network.0.bias f4 [16]
00000000: aa3d 96be 358a 363e 798b 1e3d bf13 7e3e
00000010: cf00 53bc 2677 0a3e 50e0 94be bff7 d43d
00000020: 2f03 793d 4c68 0b3d 2e48 c93d 0b68 a63e
00000030: 8abf af3e 70ce a93d 7352 9f3e ea73 f6be
-0.2934392 0.1782616 0.03870723 0.2481222 -0.012878611 0.13522014 -0.29077387 0.10398816
0.06079405 0.034035012 0.0982822 0.32501253 0.3432582 0.08291328 0.3111759 -0.4813531

network.2.weight f4 [32, 16]
00000000: 8348 0d3d b039 edbb 7f65 33be 38e7 bfbd
00000010: b357 e6bc 7ef0 033e 424a 1dbe bf7a aa3e
00000020: 1251 87be f76a c83d e105 073e 09fd ac3c
00000030: f7ee 9cbe 1e84 14be 3686 823e 83bf 8dbd
00000040: 2297 49bf 5743 a0be 4e11 30be 8bb7 12bf
00000050: 35b1 ec3c 2304 973e 3ceb 23be 02a9 96be
00000060: f530 023e b134 ce3d 38e1 14be 65e5 5abe
00000070: cf94 e53d 2520 26bf f4ce 0bbe 4c59 72be
00000080: d81a 123d 28ac 7abd 36c6 44be 765f 19be
00000090: 80a5 32bd f0c1 8dbc b88d 0ebe 003d ec3c
000000a0: 50ee 53bd f0a8 ee3d d0ae 9f3c 08b9 493d
000000b0: fe13 5abe b8f4 3ebd 78df 3cbe d818 2dbd
000000c0: 7a2c ae3e 7450 9e3d d334 68bb 5b08 4f3e
000000d0: 0d59 843e d713 ee3b 4399 e7bd 27bc 49bd
000000e0: eda6 993d 8ce8 d7bd 6907 d13d 471b 88be
000000f0: 9b78 11be ae08 35be 5734 5e3d 6412 fcbd
00000100: 58b7 18be 3a0d 6ebe bc5e 2dbe 5a7c 9f3e
00000110: ac62 74bc 5956 0ebe ce97 e2bc b247 11bf
00000120: d011 d53d 6d2c 643e 78e4 d3bc af5f ee3b
00000130: 6e1d 74be 0479 1fbe 5bb1 1a3e 91e0 393e
00000140: 3867 8dbf c262 a83d eb6a 5d3e 4d1c f1bc
00000150: 8724 c33e 015c f7be 8398 80be 8354 11be
00000160: 9b1d 1dbf 85d6 74be 1262 ef3d d09e 5b3e
00000170: 85fd 1abc a289 ad3d 796e 5b3e 231b 873d
00000180: 8a95 1dbf db91 fa3c 36b8 52be f52f d33e
00000190: c177 53be bb1d 98bd 1452 b73e 3032 07be
000001a0: c974 1cbd 1e40 55be 8c5c 6d3e aceb 9b3e
000001b0: 7422 493e 4730 88be 630c b63d 3594 61be
000001c0: fad3 273f 3c16 93be 6c30 143d a6fd 553e
000001d0: ec02 573e 77b7 b23c 7b17 ee3d a4cd 133e
000001e0: 94e6 66bd 6a59 9ebc b860 983e a608 943a
000001f0: 00b8 b1bd 471a 5ebd 323d 5dbe d7c9 83be
00000200: 180e ab3e 5b0f ab3d a39b 853e b8f0 d0bd
00000210: 33a9 8b3e 9748 f3bd 71ba 883e 6ebf 1e3e
00000220: 8cbd bc3e 1eb1 efbe efda 813e debc 123e
00000230: 5bca ca3e 5aaf c7bd 6ac6 0abf dcad 87bd
00000240: a560 803e e4c7 f6bd bb49 a43d b8df 7cbd
00000250: f8e4 a03e 9b7b 12be 5415 dbbe 56bb 833d
00000260: 819e e63d a0fd 073e 819d 733e f0b5 dabd
00000270: 88bc 503e ab41 c83d 0ed2 843e 2783 cc3d
00000280: e7bd 2fbf 174e 43bf 6dd7 bebd 1216 e63d
00000290: da4b 0fbe 03cc d63d c73c 363e cc5a efbd
000002a0: 2040 7abe 8951 a23e 68ca 15be 27d2 0ebe
000002b0: fcd3 42bd d8eb f0be 1d55 463e aa5f c63e
000002c0: faa8 9b3c 2d2c 303e 9a5b c33e 66cd d13d
000002d0: 0f0b 0c3e fa71 d2bd 50cc 053d b843 94ba
000002e0: c813 03be 8caf 953e 2e16 91bd de7a 1dbe
000002f0: ace5 123c 1757 08be 90e7 07be c544 2c3f
00000300: 3767 503e 44cb c13c ee7a 4c3e dbd9 8ebe
00000310: 88fd eebd 6f8e 0fbe 21be 8e3e 280f 2ebe
00000320: 2407 3a3e 2f5a fbbd 7517 5a3c 026d 72be
00000330: a00f 8ebe 5a8e f4bc adc5 853d f1e8 2c3e
00000340: b5cc a93e fd9d 45be f4c0 50bc 95f5 8fbc
00000350: 6a05 0fbe 9504 3fbe 69f7 a73e 8b1e b53d
00000360: 3fa0 273d e0a1 143e 42c8 6d3d 49ff 3abd
00000370: a98e d7be 29bd cabe 4957 8b3e 7f46 b03e
00000380: ce45 ab3e 3622 a33d cbf9 19be a983 a6bd
00000390: 93e7 6dbc 63ab 203e d9ca 703e 3ea4 5a3e
000003a0: b8e8 01be 9494 883d 7b73 353e 4611 cd3d
000003b0: 0e6c 9ab9 fda9 103e 80ec 3dbd 2027 5cbd
000003c0: ecad 8f3e c851 9b3d b6d8 c73d 89cb 9d3d
000003d0: 9200 59bf 5bd5 d2bd 8366 ad3e a9e8 bcbc
000003e0: 4789 913e 5d01 253d 93d0 903d 2d5a 60be
000003f0: ffd7 463e 86e6 dc3e d307 2dbe 74fe ebbe
0.03449298 -0.007239543 -0.17519186 -0.09370273 -0.02811799 0.12884709 -0.15360358 0.33296773
-0.2642904 0.09786027 0.13185836 0.02111675 -0.30651066 -0.14503524 0.2549302 -0.069212936
-0.78746235 -0.31301376 -0.17194101 -0.57311314 0.028893093 0.29495344 -0.16007704 -0.29425818
0.12713988 0.10068644 -0.14539039 -0.2137657 0.112100236 -0.648928 -0.13653165 -0.23666877
0.03567013 -0.061199337 -0.19216236 -0.14977822 -0.043614864 -0.01730439 -0.13921249 0.02883768
-0.051740944 0.11653316 0.019492537 0.049248725 -0.21296689 -0.0466201 -0.18444622 -0.04226002
0.34018308 0.07730189 -0.0035431876 0.20218031 0.2584919 0.0072655487 -0.11308529 -0.0492517
0.07502542 -0.10542402 0.102064915 -0.2658331 -0.14206164 -0.17679092 0.054249134 -0.12308195
-0.1491369 -0.23247233 -0.1693067 0.3114956 -0.014916103 -0.13900127 -0.027660277 -0.56750023
0.10403788 0.22282572 -0.025865778 0.00727459 -0.23839352 -0.15573508 0.15106718 0.18152072
-1.1047125 0.082219616 0.21622817 -0.02943244 0.38113806 -0.4831238 -0.25116357 -0.14192395
-0.613733 -0.23909958 0.11688627 0.21447301 -0.009459858 0.08473517 0.2142886 0.06596973
-0.61556304 0.030587127 -0.20578083 0.41247526 -0.20651151 -0.07427546 0.35804808 -0.13202739
-0.038197313 -0.2082524 0.23179835 0.3045324 0.19642049 -0.26599333 0.08889081 -0.22029193
0.65557826 -0.287279 0.03617899 0.2089754 0.20997208 0.021815998 0.11625572 0.14433914
-0.05637224 -0.019329745 0.2976129 0.0011294081 -0.08677673 -0.05422428 -0.21605375 -0.2573993
0.3340919 0.08352538 0.26095304 -0.102021635 0.27277526 -0.1187908 0.26704744 0.15502712
0.36863363 -0.46814817 0.25362346 0.1432986 0.3960751 -0.097502425 -0.54209006 -0.06624958
0.25073734 -0.12049845 0.080218755 -0.061736792 0.3142469 -0.14304964 -0.4278971 0.06432216
0.11260701 0.13280344 0.23790552 -0.10679233 0.20384419 0.0977815 0.2594151 0.09985953
-0.68649143 -0.7629103 -0.09318433 0.11234678 -0.13993779 0.10488131 0.17796622 -0.1168724
-0.24438524 0.3170283 -0.14627993 -0.13947354 -0.047565445 -0.47054935 0.19368406 0.3874486
0.019001473 0.17204352 0.38155824 0.10244255 0.13676094 -0.102756456 0.03266555 -0.0011311686
-0.12800515 0.29235494 -0.070843086 -0.15378901 0.008965891 -0.13314472 -0.13271928 0.67292434
0.20351873 0.023656495 0.19968769 -0.27900586 -0.11669451 -0.14019178 0.27879432 -0.16997969
0.18166786 -0.122730605 0.013311257 -0.23674396 -0.27746296 -0.029853035 0.06531844 0.16885735
0.33163992 -0.19298549 -0.012741316 -0.017573157 -0.13966909 -0.18654092 0.32805946 0.08843716
0.040924307 0.14514875 0.05805231 -0.045653615 -0.4210103 -0.39597443 0.2721503 0.34428784
0.33451694 0.079655096 -0.15036695 -0.08130581 -0.014520544 0.15690379 0.2351488 0.21351716
-0.12686431 0.06668964 0.17719834 0.1001306 -0.00029453676 0.14127345 -0.046368122 -0.05374825
0.2806238 0.07583958 0.09758131 0.07704837 -0.84766495 -0.102946006 0.33867273 -0.02306016
0.28425047 0.040284503 0.070710324 -0.219094 0.19418333 0.43144625 -0.16897516 -0.4609257

network.2.bias f4 [32]
00000000: e66e 8a3e c6e7 8d3e a683 57be 95b6 523e
00000010: f0a7 743e 7589 d83b d159 583e 4d4a 15be
00000020: 684c 20be 727c f93c f5a5 1f3e a0b7 383e
00000030: 60c6 b13e ccbb 3fbe 7781 b73e f8bf 59be
00000040: 9c8b 533d 0e20 45be b03b 97be 9623 473e
00000050: 9900 04be fff4 a93d 08bd 653e b570 153e
00000060: f406 73be da8d 92bd 0945 80be 3bea 1f3e
00000070: 054a 9ebd 3b75 e13d 472f b63e f435 813e
0.27037734 0.27715892 -0.21046314 0.20577462 0.23892188 0.006608183 0.21128012 -0.14579125
-0.15654147 0.030454848 0.15590651 0.18038797 0.3472166 -0.18723983 0.3584096 -0.21264637
0.051646814 -0.19250509 -0.29537725 0.19447169 -0.12890853 0.082986824 0.22435391 0.14593776
-0.23733121 -0.07155962 -0.2505267 0.15616696 -0.07728962 0.11008688 0.35582945 0.25236475

network.4.weight f4 [64, 32]
00000000: 9e89 8e3e dd15 59be 7536 05bd 46ca c9bd
00000010: a0bb ddbb 1d64 933e 6185 19be 5040 2b3e
00000020: 4536 6bbe b272 5b3c 6eb9 ed3e eae9 3cbe
00000030: f92c 30be 3ae3 23be 3227 c13d 04e8 27bc
00000040: d379 763d 95b4 623d ebdc a2bd b38a 253e
00000050: ca0b 4bbe c407 ef3d 465c 8d3e 1ec3 003e
00000060: 4009 f53d 4dc1 88bd e002 123c f1ea e7bd
00000070: 94cf 8fbe 17c0 323c 2eea 3e3e f59f 983c
00000080: d3ac 153e 5eaf 123e fc10 bb3b 45cc b6bd
00000090: 3c9f 2c3d 72a1 183e 8439 5bbd 4da9 1fbe
000000a0: 87ae ebbd 21e5 063e cf27 03be 8322 b6bd
000000b0: 5157 00be 8331 86bd f3e8 aebd cca7 093e
000000c0: 286c 113e 3bc3 eb3c 35a5 0bbe 6041 fabd
000000d0: e821 d33d 62fa 97bd 9c4c 0fbc 92cc 10be
000000e0: ce43 33bd 3799 06be 77d1 013d c0d6 76bd
000000f0: b4e5 203e 6ff3 a83d ab6a e6bd d458 0bbd
00000100: 1be8 fcbc 6c27 82be 4eda e0bd 3599 733c
00000110: 9bd7 f5bc 537a e83e 04d4 86bd 90be 9b3e
00000120: 16d6 673e bc02 563e 9563 f93e bf8d 873d
00000130: ba6e 1ebd f22f ebbe 08b0 d3bd 0303 aa3e
00000140: 3b6d 533d 1026 05be a02c ffbc 0edc 183e
00000150: da41 8bbe eb5b 44bc c1b7 933d fa54 67bd
00000160: 2dac 8d3e 2a1c 9e3d 6c53 f1bd 8976 2d3d
00000170: fd35 18bf c36d 633d 358d 3e3e b237 bd3c
00000180: aaf4 1d3e fcb1 b2be 9e03 0cbd b0c7 a63d
00000190: b097 e73d 66c6 a33e f15c 6fbd 2fcb 963e
000001a0: 67c0 3f3e 7d96 89bc 38e2 283f 8aba ad3c
000001b0: d042 dbbc e051 cbbe 1aaf f0bc ae23 2c3e
000001c0: 861a 503e 52e0 ff3d 87ae 4ebe c11c 443e
000001d0: c565 a1be b36b 313d 9683 803d 7d84 bb3d
000001e0: 1637 f53d da55 e43c ca13 d3bc 2f41 4f3d
000001f0: 175b 88be f08d 443c 8f3c 2ebc 977d b9bd
00000200: 3701 cabc cbc3 893d b9b0 22bd 7b35 083e
00000210: 78a5 e03c 6f33 92bd 64c1 e43c fb92 7bbd
00000220: 3eae c7bd a038 b6bb 7ad7 09be e775 2ebe
00000230: bc46 97bd 69c8 79bd 618d 143e eea6 0dbe
00000240: 50f4 b43c 1697 f7bd 50b7 07be bb4e f93d
00000250: 5033 19be bba3 2a3c a4cb 36be 606a 35bd
00000260: c452 c3bc 18a2 babd 0f2e d4bc 7166 3cbe
00000270: 6b13 84bd e316 b23d 91ae fabd f983 6a3d
00000280: 7581 903e 0fa4 99bc 4b58 bfbc 1f7d a63b
00000290: 5a36 febd e7d2 7e3e f270 32be b4bd 4f3e
000002a0: 68d2 b23d 7285 563e 1f02 ef3e 083b f73d
000002b0: 6a4c 293e 481f 8abe 1ad5 c9bd 766f 953b
000002c0: c59d 68bc b527 fabd c260 29be 9df0 4f3e
000002d0: 21d3 a5be 7280 863e 10f7 d23d 8129 24bd
000002e0: 9839 193e 0183 be3d 6a1c 93be 4e53 9fbd
000002f0: f6bd 36be 8038 ea3d 0f7e e03d deeb c83d
00000300: 082a e2bd 6e74 16bf 6d50 2a3e 8a19 3d3e
00000310: 9aac 9dbe 5c69 c03e 594a ba3d a3a9 3d3e
00000320: b079 123e db47 b3be 075f fd3e 7ce3 b9bd
00000330: 2d2e 58bd 333f 6abd b6fb 6b3e 2bcf f93d
00000340: 7c09 0f3c 3afa 2dbd f3c0 d43e a799 c2bd
00000350: a8ad 453c 4921 a43e c165 c4bd a6d1 08be
00000360: dc04 cdbe 05a1 41be 498f 46be 5135 07be
00000370: 1bce 9ebd afdb 093e 842f 22be 4834 0dbe
00000380: 2606 8b3e 2037 893e 07a2 113c 217e 033d
00000390: 37d3 7e3d 2a06 24be 5202 a93e 63ff bcbd
000003a0: 4cd2 48bf de2a 0ebd dc6d d8be 5993 c33e
000003b0: ae4c 3ebd 0236 9cbe 4814 f43c 1c26 b8be
000003c0: 4d38 92be 4edb 763d d2cb e43e bf26 6f3e
000003d0: 9574 203f 36f7 52bf af8a 8abe 73c3 e7bd
000003e0: 3c21 cabe ba32 0abf fb6a d03e d56a 77bc
000003f0: 80ec 59be 2275 9e3d 29df cbbd b49f 993d
0.2783937 -0.21199746 -0.032522637 -0.09853034 -0.0067667514 0.28787318 -0.14992286 0.16723752
-0.22969921 0.013394045 0.46430534 -0.18448606 -0.17204656 -0.16004649 0.09431304 -0.010248188
0.060174774 0.055347998 -0.07952293 0.16166191 -0.19828716 0.11671403 0.27609462 0.12574431
0.11964655 -0.06677494 0.008911818 -0.113241084 -0.28088057 0.010910056 0.1864402 0.018630961
0.14616708 0.1432471 0.005708812 -0.0892568 0.042144045 0.14905336 -0.053521648 -0.15591927
-0.11507898 0.13173343 -0.12808155 -0.08893301 -0.12533309 -0.06552412 -0.08540525 0.13442916
0.14201415 0.028779617 -0.1363724 -0.122195005 0.103092015 -0.074208036 -0.008746292 -0.14140537
-0.043765835 -0.13144384 0.031693902 -0.060263395 0.15712625 0.08249556 -0.11250814 -0.03402026
-0.030872395 -0.25420702 -0.10979138 0.01486807 -0.030010035 0.45405826 -0.065834075 0.30418825
0.22640261 0.2089948 0.48708788 0.06618833 -0.038679816 -0.45935017 -0.1033631 0.33205423
0.051617842 -0.13002801 -0.031149209 0.14927694 -0.27198678 -0.011984806 0.07212783 -0.056477524
0.27670422 0.077202156 -0.117834896 0.042349372 -0.5945738 0.0555246 0.18608554 0.023097847
0.15425363 -0.34901416 -0.034183137 0.08143556 0.11308229 0.31987303 -0.058438245 0.29451892
0.1872574 -0.016795391 0.6597018 0.021207113 -0.026765257 -0.39710903 -0.02938037 0.16810486
0.20322618 0.124939576 -0.20183764 0.19151594 -0.31522956 0.0433156 0.06275098 0.091561295
0.119733974 0.027872968 -0.025766272 0.050599273 -0.26631996 0.011996731 -0.0106345555 -0.090571575
-0.024658782 0.06726798 -0.039719317 0.13301651 0.027422652 -0.071387164 0.027924247 -0.06141947
-0.09750031 -0.0055609494 -0.13461104 -0.17037164 -0.073865384 -0.06098214 0.14507057 -0.1383321
0.022089154 -0.12089364 -0.13253522 0.1217322 -0.1496098 0.010415013 -0.1785112 -0.0442909
-0.023843177 -0.09112948 -0.025900869 -0.18398453 -0.06449016 0.086957715 -0.12240327 0.057254765
0.28223768 -0.018754987 -0.023357531 0.0050808336 -0.124127105 0.2488514 -0.17425898 0.2028721
0.08731538 0.20949343 0.46681306 0.12071806 0.16533056 -0.2697699 -0.09855099 0.0045604063
-0.014197771 -0.12214605 -0.16540816 0.2030663 -0.3238764 0.2626987 0.1030103 -0.040078644
0.14963377 0.09302331 -0.28732616 -0.07779561 -0.17845902 0.11436558 0.10961544 0.09810613
-0.11043173 -0.5877141 0.16632243 0.18466774 -0.30795747 0.37580383 0.09096212 0.18521743
0.14304233 -0.3501576 0.49486563 -0.09076592 -0.05277841 -0.057189178 0.23045239 0.12197717
0.008730289 -0.042474963 0.4155346 -0.09501963 0.012065329 0.32056645 -0.095897205 -0.13361225
-0.4004277 -0.1890908 -0.19390596 -0.13203932 -0.07754155 0.13462709 -0.15838438 -0.13789475
0.27153128 0.2679987 0.008888728 0.032102708 0.06221315 -0.16017976 0.33009583 -0.09228399
-0.7844589 -0.03470885 -0.42271316 0.38198355 -0.046459846 -0.30509955 0.029794827 -0.35966575
-0.2855858 0.06026774 0.44686753 0.23354624 0.6267789 -0.82408464 -0.27058932 -0.11316576
-0.3947848 -0.5398365 0.4070662 -0.015101154 -0.21281624 0.07737185 -0.09954674 0.07501164

network.4.bias f4 [64]
00000000: a621 9bbd 496b f3bc d78e 2c3e 8f4a c03c
00000010: 9dfd 90bd 0f75 363e 269e 763e 643f 7f3e
00000020: 6f8f 2f3e a0fa 0dbd 2d96 aabe 23a7 be3d
00000030: c4be f5bd c89e 9d3d f185 913d 62a6 893e
00000040: 7f58 6fbd 99ff cebd 7560 523e 361e 053e
00000050: b724 1ebe 0345 ef3c 62db 7a3c 2468 5b3e
00000060: ead1 1abe 91f7 ba3c 146a 9f3e af0d 0e3e
00000070: 3b9d 953e 2ff0 78bd e722 253e 67a8 113e
00000080: e461 8e3e c7cc 6e3e 7d7c 033e 7a8c 263c
00000090: 6368 ac3e d8ce d63d 8e6a 983c ec98 303e
000000a0: 9656 863e 5b39 5d3d 6710 aa3d de8f 57be
000000b0: 7052 0a3e 03ed 9b3e 57b3 fe3c 19db febc
000000c0: 8bd0 983c 5ad8 d23c 3deb 1e3e ab10 983e
000000d0: 020a a53d 4c7c a63e 07b0 b43d 452b a8bc
000000e0: d303 283a 9f32 d73d acc5 91bd 0f29 d8bd
000000f0: 7ed9 a33e 4cf9 333e d80e a83e 7c64 6e3e
-0.07574777 -0.029714243 0.16851364 0.023473052 -0.07079623 0.17818092 0.24083766 0.24926525
0.1714456 -0.034662843 -0.333177 0.093092225 -0.11999276 0.07696301 0.071056254 0.26884753
-0.058434006 -0.10107345 0.20544608 0.12999806 -0.15443693 0.029207712 0.015311094 0.21426445
-0.15119138 0.022823127 0.3113562 0.13872407 0.2922152 -0.060775932 0.16126595 0.14224397
0.2780906 0.23320304 0.12840457 0.010165328 0.3367339 0.10488671 0.018605497 0.17245835
0.26237935 0.054009777 0.0830391 -0.21050975 0.1350801 0.30454263 0.031091375 -0.031110333
0.018654129 0.02573793 0.15519424 0.29700217 0.080585495 0.32516706 0.08822637 -0.020528445
0.0006409261 0.10507702 -0.07117781 -0.10554706 0.3200187 0.17575568 0.32823825 0.23280519

network.6.weight f4 [64, 64]
00000000: 59f3 33bd d082 81bc dd90 453e 23c0 a53d
00000010: 56e2 853d f816 453c 7ddc ce3e 93e2 00bf
00000020: 3f63 3f3e ed0b 63bd cca8 efbe 06c4 273e
00000030: e270 593b 3c6a 693e 8153 a63e a2a8 773e
00000040: cd91 3b3d 38bc 9dbc df3d 5e3d 34d1 113b
00000050: ea11 04bd e0b9 313e b51a b93e cfbc 2e3d
00000060: 26f2 52bc f0a9 39bd 957b 613e 5547 b83e
00000070: 55c8 c93d 0146 783e 00f3 abbc aa75 433e
00000080: ac7b 483e 725a 553e 2c9f 213e 43c9 1cbf
00000090: ec79 823e d7b0 6e3e f514 303e 0fc9 b8bc
000000a0: 60d3 973d d5d5 7fbf b137 ad3d 8126 0bbc
000000b0: 5202 0c3c ffb2 b63d 3154 a4bc 6b45 943e
000000c0: f526 283f f3c0 103e 89e1 3f3e a9f0 313e
000000d0: 7e90 973d 7ecf fa3d 4d8e afbd abf3 0e3e
000000e0: d050 483d 595f 193e e497 3ebc ff97 2f3e
000000f0: 9b0b 133e a7a6 503d 8096 393e 589b a03c
00000100: 86f3 6e3d 789f 413d 7457 f43d b192 a13d
00000110: 7f8c b0bd 496d 163d 5ef7 c83d 4bd4 41bf
00000120: d686 013e 4094 313c a2b8 b0be 26fb ed3d
00000130: d7a1 213d 7154 1c3d 5613 c53e 655e c63b
00000140: 850c 34be 60e5 c13c 2015 bd3c 7bce 38bd
00000150: c2ed 003e 6b6d 72bb 9d56 113f a286 cf3d
00000160: fe12 79bd 02cc 05be 2edf aabc a526 d43e
00000170: baec a63d 2825 c43d 3d17 b6bc 4b06 d13d
00000180: 18f8 78bc 4017 e13d 27c0 973c 1a2e ecbe
00000190: ee76 543e 2eef 9a3c 28fc 3b3e d556 463e
000001a0: 548c 453e 5a08 70bf 2afd 1cbc 6091 15bd
000001b0: f928 3b3d e0bc fa3c 30b1 bfbc 6c57 5e3e
000001c0: 56e7 443f c578 403d e663 db3d 7dcb 3b3e
000001d0: 7064 ea3d 80d8 7ebb 387a aebe 49ee 053e
000001e0: efe1 273e 6847 f5bc 757b 24bd df39 5f3e
000001f0: 4a7c 0c3e 238b 3e3e cdc3 903d 6e62 bdba
00000200: 22a6 95bd acc9 72bd 0843 0f3e 88e6 f63c
00000210: 71fb 023e 0b05 383e 7968 b83e 027d 16bf
00000220: 910d 0e3e cf56 1b3e c268 a4be 8ea4 303e
00000230: 1e40 5bbd eeae 843e 1b6f 0d3f 4256 673e
00000240: 2410 1abe 8e71 af3d 0c19 293e 2758 6a3d
00000250: 753f d7bc 252b f03c d989 cd3e b319 d93b
00000260: eef1 d43d 117f 693d 3555 683d 7960 a03e
00000270: 0385 533e 4e68 9a3e ed18 ae3c d7f9 2d3e
00000280: af5b f63d e381 d03d ca16 f63d 2687 46bf
00000290: 4918 f03e 69d7 493e 4cf8 b2bc 2840 6b3e
000002a0: 1296 d43c 803c 74bf 30ed 743e aadc 94bd
000002b0: 6281 113e 7c4d 5f3e 15f0 02be 7e75 aa3e
000002c0: 5f65 073f 8b12 733d f635 3f3e edeb 1e3d
000002d0: 1569 cf3c b48b b33d 92e7 c4bd 6857 0a3e
000002e0: ad1a 263e e278 5f3c 35c3 22bd a019 f53d
000002f0: 3742 9e3d d86e cd3d 8542 583d 5e7a b73d
00000300: b612 b4bd 8a52 b53d 70fa b03c c0ef 9e3d
00000310: 60e8 023b d8f2 c63d e148 d03d 1b0d 1bbf
00000320: 9f8a 6e3d fde6 343d 7be0 bfbe 31d0 d73d
00000330: 0dec 383d 7ccc 393d e013 9d3e 6281 d73d
00000340: 3345 d3bd 9806 f5bc 63d5 963d 3a03 7d3d
00000350: 3efe e7bb a78e 9dbd 94ee 1c3f 5704 4b3d
00000360: 24d6 2a3d 57ef c8bd c0ee e53d 8b0c 9d3e
00000370: 9b60 e83d a32d 443e d1e2 14bd bb3d e63c
00000380: 02df ec3c adbd 0e3d d75a a43d 491f fabe
00000390: 08bf 183e f5d7 263d 3711 16bd bca0 6cbd
000003a0: 5d68 fdbc e247 6bbf 4791 093e 932a c73d
000003b0: 18f3 f53c f551 993d 3db1 51be 6b25 693e
000003c0: 8045 d23e 5f8a 013d 7e73 6bbd 5bdb 1d3e
000003d0: 736d 393d bc45 e73d 1f14 f6bd 0558 043e
000003e0: 5268 863d 77f3 413c 7cf3 1b3d 2949 9c3d
000003f0: e788 113e 0291 36b9 913d aebc 5304 50bd
-0.043933246 -0.015809447 0.19293542 0.08093288 0.06537311 0.012029402 0.40402594 -0.50345725
0.18690203 -0.055431295 -0.4680847 0.16383371 0.0033178856 0.22794431 0.32485583 0.24185422
0.045793343 -0.019254789 0.054258224 0.002224994 -0.032243647 0.17356062 0.36153188 0.04266053
-0.0128751155 -0.04532808 0.22019799 0.35991922 0.098526634 0.24245454 -0.020989895 0.19087854
0.19578427 0.20835283 0.15783376 -0.612446 0.25483644 0.23309647 0.17195494 -0.02255681
0.074133635 -0.99935657 0.08457888 -0.008493067 0.008545475 0.089208595 -0.020059677 0.28959212
0.65684444 0.14136104 0.18738379 0.17376961 0.074006066 0.12246607 -0.085720636 0.1396014
0.048905194 0.14977778 -0.011632893 0.17147826 0.14359896 0.050940182 0.18123817 0.019605324
0.05833771 0.047271222 0.11930743 0.07889307 -0.086205475 0.036725316 0.098128065 -0.7571456
0.12649092 0.010838568 -0.34515864 0.116201684 0.039460983 0.038166467 0.38491315 0.006053733
-0.17582901 0.023668945 0.023081362 -0.04511879 0.12590697 -0.0036991488 0.56772786 0.10133101
-0.060809128 -0.13066104 -0.020858373 0.41435733 0.08150621 0.095773995 -0.022227878 0.102062784
-0.015195869 0.10990763 0.018524243 -0.46128923 0.20748493 0.018912878 0.18357909 0.19369061
0.19291812 -0.93762743 -0.009581843 -0.036515594 0.04569337 0.03060764 -0.02339992 0.21713036
0.7691549 0.046990175 0.107124135 0.18339343 0.11444938 -0.0038886368 -0.3407762 0.1307918
0.1639478 -0.029941276 -0.0401568 0.2179942 0.13719288 0.18607764 0.07068596 -0.001444889
-0.07307078 -0.05927436 0.13990414 0.030139223 0.1279123 0.17970674 0.36017206 -0.58784497
0.13872363 0.15169834 -0.32111174 0.17250273 -0.053527944 0.2591471 0.5524766 0.22591498
-0.1504522 0.08566581 0.16513461 0.057212975 -0.026275376 0.029317448 0.40144232 0.006625378
0.10397707 0.057005946 0.056721885 0.31323603 0.20656209 0.30157703 0.02125212 0.16989838
0.12029206 0.10181024 0.120160654 -0.7754997 0.46893528 0.19711079 -0.021846913 0.22973692
0.025950465 -0.95404816 0.23918605 -0.07268651 0.14209512 0.21806902 -0.12786897 0.33292764
0.52889055 0.059343856 0.18672928 0.038799215 0.025318662 0.08766881 -0.09614481 0.13509905
0.16221114 0.013639661 -0.039736945 0.11967778 0.07727473 0.100309074 0.052797813 0.089588866
-0.08792631 0.08853634 0.021603793 0.077605724 0.0019974932 0.097142875 0.101701505 -0.6056687
0.058237668 0.0441656 -0.37475953 0.10537756 0.04514699 0.045361027 0.30679226 0.10522725
-0.10315933 -0.02991037 0.07364919 0.061770655 -0.0070798686 -0.076932244 0.6130154 0.049564686
0.041708127 -0.098112755 0.112271786 0.30673632 0.11346551 0.19158034 -0.03634912 0.028105607
0.028914932 0.034848858 0.08025139 -0.48851994 0.14916623 0.040733296 -0.03663751 -0.057770476
-0.030933553 -0.9190656 0.13434325 0.09724917 0.030023143 0.07486335 -0.20477767 0.2276818
0.4106865 0.0316261 -0.05748319 0.15415709 0.045270395 0.11292598 -0.120155565 0.12924202
0.06562866 0.011837832 0.038074 0.07631142 0.1421238 -0.00017410892 -0.021269592 -0.050785374

network.6.bias f4 [64]
00000000: e4a6 773e 03ea 9a3e 92b4 743e 8e30 5c3e
00000010: 0e72 513d cc59 8c3e c1cc 24bd b8a9 603e
00000020: deea 9bbd 0b66 f0bc 3b8b 873e 8911 6ebd
00000030: 42ee f9bd 80cd 193b a2aa c03d a596 9f3d
00000040: 181c b3bd ddfe 7d3e 1d5f 303e 052e 3a3e
00000050: be7d 9abd e4b2 96bc 3edc 6b3d af14 a53e
00000060: 6e39 503e 2d94 063d 9301 b7bc 617e 36bd
00000070: a779 643e b777 60bd a49f fd3d 7cb5 e5bd
00000080: 5376 6a3e 3af3 f5bd 36cb 663e ce42 d9bb
00000090: 68f2 6bbd d5e6 ce3d b579 a23e a888 403e
000000a0: b43d acbd c1a8 813e 1a30 853e 6867 853e
000000b0: eb75 abbd 80a6 70bc 11d7 723b 9012 f6bd
000000c0: 4349 a3bd c335 e1bd ea66 ff3d 6d2f 533e
000000d0: 4f76 763e 5bab 573e e52f 593e fba0 ba3d
000000e0: 237c 41bd 287a 223d bbac 603c 9e49 573e
000000f0: 40a8 edbd 0c4f 933d c072 65bd 380e d1bd
0.24184757 0.30256662 0.23897007 0.21502897 0.05113416 0.2741226 -0.04023433 0.21939743
-0.07613157 -0.029345533 0.26473412 -0.05812219 -0.12203647 0.0023468435 0.094075456 0.07792405
-0.08745593 0.24804254 0.17223783 0.18181618 -0.07543515 -0.018395849 0.057583086 0.32242343
0.20334408 0.032856155 -0.022339618 -0.044554118 0.22312032 -0.05480167 0.12383965 -0.11216256
0.228967 -0.120092824 0.22538456 -0.006630278 -0.057604223 0.101026215 0.3173348 0.1880213
-0.084102064 0.25324062 0.2601326 0.26055455 -0.083721004 -0.014688134 0.003705446 -0.12015259
-0.07972958 -0.10996582 0.12470801 0.2062356 0.24068569 0.2106146 0.21209677 0.09112736
-0.047237527 0.03966728 0.013713057 0.21024176 -0.11604357 0.07192811 -0.056017637 -0.1020779

network.8.weight f4 [21, 64]
00000000: abf9 3b3e caf8 6c3e 2f39 c83b aff2 b33d
00000010: 27c9 603d e94a 4f3e 40be c7bd 63b3 513e
00000020: f8a5 febd aa88 97bc 3094 5f3e 023e cebd
00000030: a263 923d dc78 243d 3bb6 793d e154 e23c
00000040: 103a b4bd ef2e 983b 0a0b 0bbd f61b 8ebd
00000050: fc22 0fbd c00f 8fbd 0b4b 7e3d 1c96 343e
00000060: 7705 3c3e 92ff 9fbd 2048 f2ba db51 cebd
00000070: f8c1 4b3e 64f7 6f3e af35 a9bd 57ff c9bd
00000080: cfa1 063e 8c22 e33d 0b37 8f3c b987 a03c
00000090: ae4d ffbd 99b3 1b3d ecd2 d1be cf0f 733e
000000a0: d0de a8bd 77d0 6f3e 9f93 1b3e b495 933e
000000b0: 15d7 41bd fcf0 213d aade 3abc d49c 723d
000000c0: 579c 99bb 9291 123e 61f6 e33d 5575 473d
000000d0: d8e6 1b3e e1e0 e53d df46 f43d 7f2b 413e
000000e0: c988 3b3d 4fb1 01bd f96b babd bbe6 aa3d
000000f0: 48f8 503d 6be7 9abe 0828 2b3d 7e61 babd
00000100: a6a0 5a3e b603 ff3b fc06 4e3e da94 d73d
00000110: 4931 e7bc fa57 d83d e145 2abd 4f41 453e
00000120: de3e a93d 9736 f23d bc6d 313e 1410 22bd
00000130: c0a5 20bd 32e8 ab3d 6375 ed3d 963e d73b
00000140: 7155 c8bd e6f3 3e3e 1607 7cbe 6347 a5bd
00000150: da5c 863d d2f0 893d a008 c73d c504 283e
00000160: 294c 583e 1106 c0bd 3605 a4bd c209 e43d
00000170: 5aa6 803e c261 0e3e 78d7 3bbe 563c 15bd
00000180: d177 ec3d cc40 1e3d 3051 803d 08bd 2d3d
00000190: a48e 99bd 953a c33b 7e17 ffbe e26b 193e
000001a0: b445 2a3d 59c4 353d a809 123e 6d9d 0c3e
000001b0: 9048 d03d 007b 553d 764b 79bd 22e7 53bc
000001c0: 50d9 79bc 2d19 473d 290b 4f3e c085 073e
000001d0: d681 4f3d e075 e43d e8c3 703e fde0 6c3e
000001e0: ce7d be3d b60f 53bd b121 473d d17f 3b3e
000001f0: 2886 f93c afa1 a5be 4021 523b d75b 9b3d
00000200: c67e 4f3e 78d6 8e3d fcbd 223e 0c4c 883d
00000210: 57bb 5a3c 0530 1b3d fb1e 9fbc 15da 333e
00000220: 8081 b53b 791b a7bc b881 6a3e 98d5 b1bd
00000230: 408d 43bb b475 3f3d f212 4f3e 62c5 87bd
00000240: 1a7c d93d 909c 993d 1170 693e ac35 a7b9
00000250: b0d7 81bc 100e f83d 9aa3 303e 875e 6f3d
00000260: f470 5c3e 33fe 253d b975 1b39 a00b ac3c
00000270: 2689 823e 0d58 423e 9477 e9bd 5303 163d
00000280: 1e81 523d 688c 98bd 013a c73b cdb4 3bbb
00000290: 88c0 8cbd 6853 473b 0d69 febe 1505 783e
000002a0: 569d bdbd 853c fd3d 4a54 583d caea 583e
000002b0: 4022 9cbb 54c3 e4bd 5178 3cbd 5e97 fc3d
000002c0: 23ee 04bd 866c 8abd 2537 593e 900d 693e
000002d0: b54e b73b 86b1 2b3e bce3 ff3d e0ae 4a3e
000002e0: 25c4 f53c 3235 d43d c4d8 a3bd a52d a03d
000002f0: 8873 f93d 1d5e ccbe 8e51 f5bd cb59 663d
00000300: a17f 643e 050b 3c3e 51b3 373e 1517 703d
00000310: 5f81 ea3b 81c2 0d3d 0f03 23bd 24b4 323d
00000320: 2a95 f83d f9b7 97bc c4ad 6e3d 9c49 0f3d
00000330: 26ce bfbd e2df f1bd e7ad 9fbb 2966 7a3c
00000340: 71b6 dbbc 247e 603e b232 f5bd 9674 a93c
00000350: 1ebc b2bd 006e ce3a d8be 453e be03 f03d
00000360: 7705 493e 1671 bd3d da41 de3d eea3 d5bd
00000370: 34d8 2e3e f524 f93d da7a 07be 24ec 00be
00000380: 13f3 073e dc55 0d3d cdba 203e 1735 27bd
00000390: 80a0 e33a 6966 2f3e 9397 b3be ba53 5f3e
000003a0: 14ff ecbd 2d48 133e 959b 5e3d d63c 553e
000003b0: 489f 6fbd 58e2 f63c 2d73 d2bd 0cb3 7bbd
000003c0: 54f1 213d 366f 873d 550b cf3d 3d22 293e
000003d0: 297c 113e 9de6 343e 1746 863e 6e59 e33d
000003e0: 46c4 b53d ca49 d43d 7c80 6c3c 1d4b e63c
000003f0: 8e23 82bd bfc1 afbe 90ee d93c 7229 423a
0.1835696 0.2314178 0.0061103324 0.087865226 0.054879334 0.2024342 -0.09753084 0.20478587
-0.12434 -0.018497784 0.21833873 -0.10070421 0.0714791 0.040154323 0.060964804 0.027628364
-0.08800137 0.004644267 -0.033946075 -0.06938927 -0.034945473 -0.06985426 0.062083285 0.17635387
0.1836146 -0.07812418 -0.001848463 -0.100742064 0.19898212 0.23434216 -0.082621925 -0.09863155
0.13147663 0.11090574 0.017482301 0.019595968 -0.12465988 0.038013075 -0.40981233 0.23736499
-0.08245623 0.23419367 0.15193032 0.28825152 -0.04732426 0.03953646 -0.011405626 0.059231594
-0.0046878266 0.14313343 0.111309774 0.04869588 0.15224779 0.11224533 0.1192758 0.18864249
0.045784745 -0.031663235 -0.091026254 0.083447896 0.05101803 -0.30254683 0.041786224 -0.091006264
0.21350345 0.007782425 0.20119852 0.10526438 -0.028221743 0.10563655 -0.041570548 0.19263195
0.08263944 0.118268184 0.17327017 -0.039566115 -0.03922057 0.08393897 0.11594655 0.00656874
-0.09781922 0.18647727 -0.24612078 -0.080702566 0.06560679 0.06735386 0.09718442 0.1640807
0.21122803 -0.09376157 -0.080088064 0.11134674 0.25126916 0.13904479 -0.18343914 -0.036434494
0.11546291 0.038636014 0.06265485 0.042416602 -0.0749791 0.0059579113 -0.4982261 0.1498256
0.04157038 0.044376705 0.14261496 0.13731928 0.1017009 0.052119255 -0.06086298 -0.012933524
-0.015249565 0.048607994 0.20219101 0.13234615 0.05066093 0.11155295 0.23512232 0.23132701
0.09301339 -0.051528655 0.048616115 0.18310477 0.030459478 -0.32349917 0.0032063276 0.075858764
0.20263204 0.069745004 0.15892786 0.0665513 0.013350329 0.037887592 -0.019423952 0.1756366
0.0055391192 -0.020398842 0.22901046 -0.08683318 -0.002983883 0.04674311 0.20222071 -0.06629445
0.106193736 0.07500565 0.22796656 -0.0003189271 -0.015849918 0.12112057 0.17249909 0.058439758
0.21527463 0.040525626 0.00014825807 0.021001637 0.2549526 0.18978901 -0.11399761 0.036624264
0.051392667 -0.07448655 0.0060799127 -0.0028641701 -0.0687266 0.0030414704 -0.49689522 0.24220689
-0.09258525 0.12365059 0.05281476 0.21183315 -0.004764825 -0.111700684 -0.04601318 0.123335585
-0.032453667 -0.067589805 0.21212442 0.2275908 0.0055940994 0.16766939 0.12494609 0.19793272
0.030000756 0.10361709 -0.08000329 0.07821206 0.12180239 -0.39915553 -0.11978446 0.056237977
0.22314312 0.18363579 0.17939498 0.058615763 0.0071565355 0.03460932 -0.03979784 0.043628827
0.12137826 -0.018520342 0.058271185 0.03498231 -0.093654916 -0.118102804 -0.0048730257 0.015283146
-0.026820393 0.21923119 -0.1197256 0.020685475 -0.08727287 0.0015749335 0.19311082 0.11719464
0.19630991 0.09250085 0.10852404 -0.10431658 0.17074662 0.12165252 -0.13230458 -0.1259008
0.13276319 0.03450571 0.15696259 -0.040822115 0.0017366558 0.1712891 -0.3507658 0.21809283
-0.1157209 0.14383002 0.054347593 0.20823988 -0.05850151 0.030137226 -0.10275874 -0.06145005
0.03953679 0.06613009 0.10109583 0.16516967 0.1420752 0.17666097 0.2622535 0.11101042
0.08875327 0.10365637 0.01443493 0.028111989 -0.06354438 -0.34327504 0.026603013 0.00074066885

network.8.bias f4 [21]
00000000: 9d2d df3d f90b a73d 9c93 383e bb8f f03d
00000010: 413a 2d3e 9529 463e 8044 093e c55d 483e
00000020: e9da fe3d 21f2 013e 98c4 3f3e f20f 2f3e
00000030: 2ecf da3d 5532 933d 6665 223e c358 f33d
00000040: f29d 823e c66d 1c3e 82a7 6a3e 98cf d93d
00000050: cf46 8b3e
0.10897372 0.081565805 0.18025059 0.117461644 0.16916753 0.193518 0.13405037 0.1956702
0.124440975 0.12690021 0.18727338 0.17095926 0.10684048 0.071873344 0.15858993 0.11882164
0.25511128 0.1527625 0.22915462 0.106352985 0.2720246
