model/model_503.pth (torch, 35975 bytes, 10 tensors)

network.0.weight f4 [16, 6]
00000000: 5f02 07bf 3c93 e3be d54c d83c 6739 e4bb
00000010: a0de 3fbf 838e 0c39 997b efbe 2b8b 133d
00000020: c258 533e 51e3 083e 47b0 76be 637c 673e
00000030: 5c6d 1cbf 96c3 bdbe a83f 7ebd 1729 dcbe
00000040: 86cc 113f d922 8bbc 6a32 2f3e d766 683f
00000050: 68c9 c13e aa8b e43e b816 03be ed57 d33d
00000060: 6c96 d1be e3f6 603f 1a3c dabd 5e9b 93be
00000070: defa ec3e de8e 953d 66db 253f 6819 9e3f
00000080: c928 d5bd 7f46 26bf d206 d33e 9f6a 4cbe
00000090: f4c1 91be 80a2 5abe 431b 81be 7fc5 19be
000000a0: d958 75bf 6f6a 173e 9407 d53e 2142 5cbf
000000b0: 4a03 dabd 7f66 41be 49f0 56be eaec 0b3e
000000c0: 2762 72bf b347 0c3f f4d6 8bbd 0b8c 803f
000000d0: 85bc 143f 0294 36be c795 b43e 1beb 3ebf
000000e0: 7938 c83d b30b 83bf 9f20 87bd 033d 6e3e
000000f0: 0ac3 2a3e 9b0c a0bf 2454 5cbe a964 d83c
00000100: 637c 263f dfb4 b1bc 9bd1 003f acda 16be
00000110: 0ece 863e a24c b43e a836 563f 90db 113d
00000120: 1fbc ee3e 0811 babf 55e1 26bd 1b55 1d3e
00000130: 7c72 bdbe 3234 c1bd f090 22bf 918e 253f
00000140: d9d2 3a3e e8c4 22bf 6f1a 783e 0fc9 bbbc
00000150: 56f3 113e 12f6 023f 3ae4 e7bd 77cb b8be
00000160: a56a 45bf 411a 7cbe c513 1b3f 3660 49bf
00000170: 3383 0c3c 8140 043e 9cb0 b73c de8d 49be
-0.52737993 -0.44448268 0.026403824 -0.0069648507 -0.74949074 0.0001340453 -0.46773985 0.036021393
0.20639327 0.13367964 -0.24090682 0.22606044 -0.6110437 -0.37063283 -0.062072426 -0.430001
0.56952703 -0.01698439 0.17109075 0.9078192 0.37848973 0.44637805 -0.12801635 0.10319505
-0.40935075 0.8787672 -0.10655995 -0.28829473 0.46285146 0.073026404 0.647879 1.2351503
-0.1040817 -0.6495132 0.4121614 -0.19962548 -0.28468287 -0.21351051 -0.25216112 -0.15016745
-0.95838696 0.14786695 0.41607344 -0.86038405 -0.106451586 -0.18886755 -0.20990099 0.13664594
-0.9468102 0.54796904 -0.068281084 1.0042738 0.5810016 -0.17829898 0.3527052 -0.7457749
0.09776396 -1.0237945 -0.06598019 0.23265462 0.16675964 -1.2503847 -0.21516472 0.026415186
0.6503355 -0.021692691 0.5031983 -0.14731854 0.26329082 0.35214716 0.8367715 0.03560978
0.466279 -1.4536448 -0.040742237 0.15364496 -0.37001407 -0.094337836 -0.6350241 0.64670664
0.18244494 -0.63581705 0.24228834 -0.02292302 0.14252982 0.51156723 -0.11322828 -0.3609273
-0.7711585 -0.2461939 0.6057704 -0.7866243 0.008576202 0.12915231 0.022423081 -0.19683024

network.0.bias f4 [16]
00000000: 43d9 a2be 1a5c 693e d9e2 6b3e 9bf7 a43e
00000010: 794d 353d c334 a6bd 1841 01bf 4dbf e93d
00000020: 9efb a7bc d087 8bbd 0d68 423d b85c 063f
00000030: 71f6 613e 82f9 103d 8240 753e c84d b2be
-0.31806383 0.2278904 0.23035754 0.32220158 0.044263337 -0.08115532 -0.5048995 0.11413441
-0.020505723 -0.068130136 0.04746251 0.5248523 0.22066666 0.0353942 0.23950389 -0.34824967

network.2.weight f4 [32, 16]
00000000: 472f 31be 0dd7 1b3d 0450 01be c65b 87be
00000010: dd1b 00be a94e 3d3e eaab 9dbd 907d 863e
00000020: 826a 5ebe 93dc 0c3e 678f 4a3e fc0d 793e
00000030: fbc3 bebe dde0 46be 64b2 a43e 0601 a7be
00000040: a622 36bf 9cde a7be eade 37bd 45f0 53bf
00000050: 0897 883e 7443 eb3e 211d 88bd c060 43be
00000060: 4fd2 1b3e d04a 19be 9b56 273e 47e2 eebe
00000070: 8866 e63d f408 95bf 2a8d 80bd a6ca aabe
00000080: d81a 123d 5264 bebd 0a4d 65be 88e6 39be
00000090: bc60 9abd 31f9 48bd b88d 0ebe 34e3 3fbb
000000a0: 50ee 53bd 909a ad3d 8c14 49bc c438 8f3c
000000b0: c99a 7abe b8f4 3ebd 78df 3cbe d818 2dbd
000000c0: 6fa5 0c3f 8890 c83c 5c69 aebd 6fb6 833e
000000d0: 9c9a 6f3e 95cf 93be 8899 aebe 2855 b8bd
000000e0: 5269 da3d 1df0 603e 0e1d 4a3e 53d6 48be
000000f0: d81b 5fbc 1a0f 7cbe fa4a 083e bbc1 5fbd
00000100: 3d05 923d b11c afbd 16c1 88be 1113 853e
00000110: 9675 2abe 61b4 89bc 26ba 28be 62a8 18bf
00000120: 50d0 1a3e 26b9 503e 6ceb a1bc d208 413c
00000130: 5825 f5bd 9c91 15be 9af3 8a3d 197f 273d
00000140: 049f 95bf 5e97 343e 94f4 bc3e 08ba 39bd
00000150: 37c0 303e adfe febe 3f27 1abe 18fc 86be
00000160: 5fc8 5bbf 32e1 22bf 738f 4d3e 8dfa d23c
00000170: ae30 2bbd 0924 f3bc af40 d63c 53d3 7d3d
00000180: 18a0 23bf bbe9 0d3e 3c3d f0bb 88a1 9d3e
00000190: 65f4 e6be e4a6 87be db6d 993e 477e debd
000001a0: 3412 3dbd 5539 a4be a47a 6c3e 0fb7 063f
000001b0: 0389 883c 1034 33be ebee 8d3d f1b8 2ebe
000001c0: dd69 233f 9c9d aebe 7a7f 0fbe 031c 963e
000001d0: 2a6f ae3e 934e 46be a63f 843d b9b2 1d3e
000001e0: 81b1 1dbe c75a 8b3d de93 f03e f30b 863e
000001f0: e9bc 89bd 9e3f eabc 0282 b33b ad94 a0be
00000200: c42a d53e 118e c33d d94c 983e c5e3 b0bd
00000210: c5b4 7a3d e3df eebd 213f 9c3e f584 9e3e
00000220: 7af2 8c3e ca52 ebbe e97f ca3e ca60 f2bd
00000230: ba45 183f 4a68 0cbc c824 5fbe 53d5 c83d
00000240: 5c2c 6abe 4e88 a4be 93d2 0b3e cfa1 96bc
00000250: 2738 bb3e fc5c a3bd 55c1 d3be 2fcc e13e
00000260: f893 71be e3ba 3dbe 8cff 583e ab03 69be
00000270: 4739 f63e 74fa 8d3e d2cd a03e 054d 1fbe
00000280: 658e 50bf 39c1 66bf d186 833e da15 013e
00000290: aedc 143e fd80 9a3d 694b 593e 14d7 8cbe
000002a0: 091c ebbd 066e b4be 9f4f 8abe f486 a8be
000002b0: 8978 7d3e 4c93 04bf d6ee 5a3e 4179 513e
000002c0: d9c5 a83c 7027 213e 2745 eb3e ded9 5f3e
000002d0: dc13 1d3e a496 94be 8dae d53b a766 52be
000002e0: 0046 61be e4a2 4b3e 56be b7bd 3be7 34be
000002f0: 1986 dd3d 1cf7 9abe 922b cb3d 7f24 393f
00000300: 51a7 dfbd a7fc 173e ed68 723e b414 27bf
00000310: a9f7 66bc 24b3 f3be 5cb5 a83d 2b2a 95bd
00000320: b628 ae3e 3407 54bd 6781 ffbd bfbb 97be
00000330: e6a8 103c 48f5 43bd ed2e 713c 52fb 003d
00000340: 1b36 9d3e 80a7 573c 4188 043e 2bc6 0bbe
00000350: eb94 d6bd 096d 81be a516 fe3e b240 aabd
00000360: ac82 da3d f8d4 ab3e 3b5f 34bd ad67 85be
00000370: 1580 fbbe e674 47bf da1b 983e 8370 c43e
00000380: 7dcf 853e 2876 a83d e394 a5be 3980 5abd
00000390: e217 003e 54a1 593e 02bc 113e 5277 863e
000003a0: e5b4 9abe c8dc 333e f576 953e 048e ee3e
000003b0: 6b37 0abd 4e96 453e 8429 8fbd 819f 2bbe
000003c0: a05f c63e e48a 123d ac90 2fbe 28da 7b3e
000003d0: bdf5 afbe 4765 03be 2cb4 013f a8e8 183e
000003e0: a1b5 7f3e 90d7 2f3d 4241 1d3e a0e7 ccbd
000003f0: 649a 103e 095e b53e fb98 aebe 7f84 24be
-0.17303191 0.038046885 -0.1262818 -0.26437205 -0.12510629 0.18487038 -0.07698806 0.26267672
-0.21720317 0.13756017 0.19781266 0.24321741 -0.37258896 -0.19421716 0.3216735 -0.32617968
-0.7114662 -0.32787025 -0.04489032 -0.827885 0.26677728 0.459499 -0.06646181 -0.19079876
0.15216945 -0.14969945 0.16341631 -0.4665701 0.11250025 -1.1643357 -0.06276925 -0.33357733
0.03567013 -0.09296478 -0.2239267 -0.18154347 -0.07537982 -0.049065772 -0.13921249 -0.002927971
-0.051740944 0.08476746 -0.012272965 0.017483123 -0.24473108 -0.0466201 -0.18444622 -0.04226002
0.5493993 0.02448298 -0.085161895 0.25725123 0.23398823 -0.2886931 -0.3410151 -0.09000617
0.106646195 0.21966596 0.19737646 -0.19613008 -0.013617478 -0.24615136 0.13309851 -0.054628115
0.071299054 -0.08550394 -0.26709813 0.2599111 -0.16646418 -0.016809644 -0.1647726 -0.5963193
0.15118527 0.20383129 -0.019765578 0.011781888 -0.119700134 -0.14606327 0.067847446 0.040892694
-1.1689153 0.17635867 0.36905348 -0.04534343 0.17260824 -0.49803677 -0.15054034 -0.26364207
-0.8585262 -0.6362487 0.20074253 0.025754238 -0.04179447 -0.029680269 0.02615389 0.061969113
-0.6391616 0.13858692 -0.0073315185 0.307873 -0.45108333 -0.26494515 0.29966626 -0.10863929
-0.046159938 -0.3207499 0.23093659 0.52623075 0.016666895 -0.17500329 0.069303356 -0.17062737
0.6383341 -0.3410462 -0.14013472 0.29318246 0.34069186 -0.19365911 0.064574525 0.15400209
-0.15399744 0.06804424 0.46987814 0.26180992 -0.06725485 -0.028594788 0.0054781446 -0.3136343
0.4163419 0.095485814 0.2974613 -0.086371936 0.06120755 -0.11663797 0.30516914 0.30960813
0.27528745 -0.459616 0.39550713 -0.11834867 0.59481394 -0.008569786 -0.21791375 0.09806313
-0.22868484 -0.32135242 0.13654546 -0.018387703 0.36566278 -0.0797672 -0.41358438 0.44101092
-0.23591602 -0.18528323 0.21191233 -0.22755305 0.48090574 0.27730143 0.31407028 -0.15556724
-0.81467277 -0.90138584 0.25688794 0.12605992 0.14537308 0.07544134 0.21220173 -0.27507842
-0.11479957 -0.3524019 -0.2701387 -0.3291546 0.24753012 -0.5178726 0.21380171 0.20456411
0.020602154 0.157377 0.45951197 0.21860453 0.15339607 -0.2902118 0.006521052 -0.20546971
-0.21999359 0.19886357 -0.089718506 -0.17666332 0.10816593 -0.30266654 0.0992042 0.72321314
-0.10920585 0.14842473 0.23672839 -0.65265965 -0.014097133 -0.4759761 0.082377166 -0.072834335
0.34015435 -0.051764682 -0.124758534 -0.29635426 0.008829331 -0.04784134 0.014720661 0.031489678
0.30705342 0.013162494 0.12942602 -0.13649814 -0.104776226 -0.252785 0.4962665 -0.08313121
0.10669455 0.3356092 -0.04403613 -0.2605566 -0.49121156 -0.7791275 0.2970875 0.3836709
0.26134863 0.082256615 -0.32340154 -0.05334494 0.1250911 0.21252948 0.14231876 0.2626291
-0.30216137 0.1756469 0.2919232 0.46592724 -0.033744257 0.19295618 -0.0699034 -0.16760065
0.3874483 0.035776988 -0.17145032 0.24594939 -0.3436717 -0.12831603 0.50665545 0.14932501
0.2497163 0.042930186 0.15356925 -0.100051165 0.14121395 0.35423306 -0.3410109 -0.16066168

network.2.bias f4 [32]
00000000: 9108 b03e 211a b03e ce0a 78be a0e3 dabd
00000010: 0370 9c3e ca80 3a3e 0894 653e ab88 a6be
00000020: a54f 8fbe 5e37 a13d 6719 2e3e 041c b93d
00000030: 5113 c33e 6f84 98be be05 aa3e bc2d 8cbe
00000040: 476c 90bd 0e20 45be 3b8e 8abe 63e4 083e
00000050: db4c 483d 44c1 f1bc f291 9f3e 70a8 a3bc
00000060: 6a4e 70be fa8c 25bd 2087 e2be 0421 113e
00000070: 9cb2 3dbd c09d bc3d 3091 bb3e 2b15 ca3e
0.34381536 0.34394935 -0.24222872 -0.10687947 0.30554208 0.18213192 0.2241975 -0.32526144
-0.2799045 0.078718886 0.17001878 0.09038547 0.38100675 -0.2978854 0.33207506 -0.27378643
-0.07051902 -0.19250509 -0.27061638 0.13368373 0.04890142 -0.029511102 0.31166035 -0.019977778
-0.23467413 -0.04041765 -0.44243717 0.1417275 -0.046312913 0.09209776 0.36634207 0.39469275

network.4.weight f4 [64, 32]
00000000: 22ba 423f 51c2 21bf c6a3 83bd add9 13bf
00000010: ecfc 293d c354 603f bcb6 a0bd af7b 003f
00000020: ba23 a1be 8f6a bc3e fccf 4b3f 3d96 72be
00000030: 36c0 a1be 6ed0 90bf c55a f73d e582 ae3d
00000040: 0ab0 093e 95b4 623d 8057 00bf 8b9d a53e
00000050: 3331 a5be 8300 053e 2489 533e b3fa 733e
00000060: 274e 923e f231 21be 4c07 9d3d 84e0 d0bd
00000070: 169d c1be 14c3 afbe b1a2 b73e 35fb e93e
00000080: 844c 113e e312 ee3d fc10 bb3b c17c eabd
00000090: 1a67 d83c f69c 223e 40a8 aebd b85f 3fbe
000000a0: e403 19be 7f36 0d3e acd5 23be cd7e dabd
000000b0: 6379 0dbe 8331 86bd b94d a6bd ff42 d23d
000000c0: b448 133e 3bc3 eb3c 3615 2cbe a23c b9bd
000000d0: e373 a53d 62fa 97bd 4812 31bc dd8e 12be
000000e0: 9f33 4abd 7e3e 2bbe 0768 e23c 2600 56bd
000000f0: d9c8 f53d fa06 803d 4118 05be f424 8abc
00000100: bec8 66bc cafa 47be 4eda e0bd 540a 043a
00000110: 2ae2 85bd 8755 d33e 238c a83d bb5b 703e
00000120: f91e 9b3e b7bb 613e c973 2a3f a37b d33c
00000130: 3ff6 34be 1b14 21bf d94c 99be 4f6f ae3e
00000140: 021c 023e 1026 05be 846f c8bd fde4 5f3e
00000150: ff3d 9bbd 4a28 aabc 4df9 9dbd 91b7 aabd
00000160: 9fb8 b83e b431 a23e dd9a 24be 348f 92bd
00000170: fdbb 5cbf 466a 3a3e 1b1b 643e 5f2e c43c
00000180: fc20 3f3e bdd6 abbe 9e03 0cbd f6eb 723e
00000190: 21a3 873e 11c4 5c3e c5b5 e83d f59e 5bbe
000001a0: 552c 7b3e d534 f6bd e210 d73e 3090 06be
000001b0: 0bf7 bf3c 07be 6fbf f2ce d4be b5be e5bd
000001c0: 7ea4 813e 52e0 ff3d 25f6 92be 1e95 ec3e
000001d0: 58c2 a1be 65ab b73d 4799 333e 907a 9a3d
000001e0: 42bf d53d 592d ac3e 4b0a 3d3e d6c9 083e
000001f0: 021c 14bf af83 9c3d 0a86 6a3d f577 293e
00000200: 22e2 66bd cbc3 893d b9b0 22bd 7b35 083e
00000210: 78a5 e03c 6f33 92bd 2ef1 71bb f010 bebd
00000220: 3eae c7bd 488b 18bd 7ad7 09be dabb 4ebe
00000230: bc46 97bd 69c8 79bd 281e e83d eea6 0dbe
00000240: d74b 1cbc 1697 f7bd 50b7 07be 2f74 b83d
00000250: 5033 19be 1b0b aebc a4cb 36be e3a4 9bbd
00000260: fa1e 63bd 18a2 babd 0f2e d4bc 8f9b 5cbe
00000270: 6b13 84bd e316 b23d 28cd 1dbe a505 d23c
00000280: 1456 b93e 51c4 2bbe b3ae 61bd f010 87be
00000290: e618 94be 4fac a23e 42eb 50be e1dc 8b3e
000002a0: 40db 133e 47ae cd3e 0e19 253c ffff b13d
000002b0: b7f5 48be 17c0 82be 87f4 39be 6399 193d
000002c0: bad8 56bc b527 fabd 8fc9 6fbe d2ba 74bd
000002d0: 2b27 6c3c 5e63 983e ec46 a83e a772 25be
000002e0: cd16 593e a978 9b3e 736f 83bd b818 1ebe
000002f0: c446 24bf 9671 283d 3407 5a3d ffa7 cc3e
00000300: 5646 aabe 5be6 6abd 6d50 2a3e 324a 8f3e
00000310: 0a7d cebe 4b7b 4d3e 04cb c93e b50f 983d
00000320: 69b9 263e 4d91 fdbe f2fd eb3e d92d a6be
00000330: 97ec 60be 5f18 203d ec40 8c3e ff81 78bc
00000340: f7bd 58bc 3afa 2dbd 6f78 2e3e 0951 56be
00000350: 8820 c9be 5723 1a3f c408 28be 25e4 dabe
00000360: 18b8 92be b2c9 d5be 1c63 873e ce57 f43d
00000370: 5ac0 043e 1b92 0b3e fb9a 0cbd 19a3 48be
00000380: bb20 2d3e a94f d33d bc7f 263d 1a9a a23d
00000390: 578c 063d 5536 84bf b8fd 943e b71e 213f
000003a0: 8c91 50bf 62db c1bd 9eed 513d dcde 063f
000003b0: a52d 273e c0d6 e9be 4503 953d 8cd1 7dbe
000003c0: 41df 80be 4edb 763d b0b6 0c3f 5c78 103f
000003d0: d777 1d3f 7425 4bbf 0f9b 6fbe eaa5 013d
000003e0: 0cb3 74be 82e2 02bf 416e 663e 668f 88bd
000003f0: e25e 19bf 90c1 d43e 5e1d 1ebe 5055 2fbd
0.76065266 -0.6318713 -0.06427722 -0.5775402 0.04150097 0.87629336 -0.07847354 0.50188726
-0.3147257 0.36800048 0.79614234 -0.23690124 -0.31591958 -1.1313608 0.1207786 0.0852106
0.1344606 0.055347998 -0.50133514 0.32346758 -0.322641 0.12988476 0.20657784 0.23826103
0.2857525 -0.15741709 0.076674074 -0.10199073 -0.3781516 -0.3432852 0.3586631 0.45699468
0.14189345 0.11624696 0.005708812 -0.11449576 0.02641635 0.15880188 -0.08528185 -0.18688858
-0.1494289 0.1379032 -0.15999478 -0.106687166 -0.13815837 -0.06552412 -0.08120293 0.10266685
0.14383203 0.028779617 -0.16804966 -0.09044768 0.08078744 -0.074208036 -0.010807581 -0.1431231
-0.049365636 -0.16723058 0.027637495 -0.052246235 0.12001199 0.06251331 -0.12997533 -0.016863324
-0.014085947 -0.19529262 -0.10979138 0.00050369394 -0.06537278 0.4127619 0.08229854 0.23472492
0.30297068 0.22044264 0.66582924 0.02581579 -0.1767206 -0.62921304 -0.29941443 0.34069297
0.12705997 -0.13002801 -0.09786895 0.21864696 -0.07580184 -0.020771164 -0.07713566 -0.08335794
0.36078355 0.31678545 -0.160747 -0.0715622 -0.8622435 0.18204603 0.22275965 0.023947893
0.18664926 -0.3356227 -0.034183137 0.23722824 0.26491645 0.21559168 0.11362795 -0.21447356
0.2452863 -0.12021796 0.42005068 -0.1314094 0.023433229 -0.93649334 -0.41564137 -0.11218015
0.2532081 0.124939576 -0.28703418 0.46207517 -0.31593585 0.08968238 0.1753894 0.07542908
0.1043687 0.33628348 0.18460958 0.13358244 -0.57855237 0.07642304 0.057256736 0.16549666
-0.056368 0.06726798 -0.039719317 0.13301651 0.027422652 -0.071387164 -0.0036917436 -0.09280574
-0.09750031 -0.037242204 -0.13461104 -0.20188847 -0.073865384 -0.06098214 0.11333877 -0.1383321
-0.009539566 -0.12089364 -0.13253522 0.09006535 -0.1496098 -0.02124553 -0.1785112 -0.07599809
-0.055449463 -0.09112948 -0.025900869 -0.21543716 -0.06449016 0.086957715 -0.15410292 0.025637457
0.36198485 -0.16774108 -0.055098247 -0.2638011 -0.28925246 0.31772086 -0.20402244 0.27316955
0.14439106 0.40172026 0.010076774 0.086914055 -0.19624983 -0.25537178 -0.18159686 0.037499797
-0.013113195 -0.12214605 -0.23416732 -0.05974848 0.014413635 0.2976331 0.3286661 -0.16157018
0.21200104 0.30365494 -0.064177416 -0.15439117 -0.6417048 0.04112395 0.053229526 0.3997192
-0.33256787 -0.05734859 0.16632243 0.27986294 -0.40329772 0.20066564 0.394127 0.07424871
0.16281666 -0.49524918 0.46092182 -0.32456854 -0.21965252 0.039085742 0.2739328 -0.015167712
-0.013228885 -0.042474963 0.1703813 -0.2092935 -0.39282632 0.60210174 -0.16409594 -0.42752185
-0.28656077 -0.41755444 0.26442802 0.1193081 0.12964001 0.13629954 -0.03432749 -0.19593467
0.16907017 0.10317928 0.04064916 0.07939549 0.032848682 -1.0329081 0.29099822 0.6293749
-0.81472087 -0.09465672 0.051252 0.52683806 0.16326006 -0.45671654 0.07276014 -0.24786967
-0.2517033 0.06026774 0.5496626 0.56433654 0.61510986 -0.79354024 -0.23398994 0.03165237
-0.23896426 -0.51126873 0.22502996 -0.06667976 -0.59910405 0.41553926 -0.1544089 -0.04280597

network.4.bias f4 [64]
00000000: 026a 36be 78e3 1bbd 5d2e 833d dc96 a8bd
00000010: 35f3 d1bd 7624 76bc 874d 443e 77bd 563e
00000020: f44a 4a3e 7f4e 82bd 1a29 03bf 023c eb3d
00000030: 2b5d 1bbe f469 fe3d 4a80 313e 43fb 9a3e
00000040: 1b66 a63c 1274 f2bd 15d7 5f3e 4b29 463e
00000050: e1aa 3ebe 7629 66be 7941 1b3e 4ec1 593e
00000060: ead1 1abe 91f7 ba3c dfc6 c03e 2290 683e
00000070: 6b38 b33e 74b3 27be 151c 463e da36 8b3d
00000080: e0bd 933e b277 733e aacb 053e 2b3c f53d
00000090: 7a9a c53e 9ba5 843e f3ed 12bd f1fb a33e
000000a0: ca45 8b3e 7b56 1e3e d6fa d5bc faa9 77be
000000b0: 3ad5 863e 68b2 b83e 9ce7 953e 8925 dd3b
000000c0: d0d8 0dbc 3177 a83c 7e5e 243e a5d8 b43e
000000d0: 514e c03c c8b1 c53e 5787 843d 4e1b 51be
000000e0: 7f20 4dbd cf1f e23d af5c 0fbe 06b7 ce3c
000000f0: 81ab ad3e cb97 4a3e 6307 c23e 6399 8b3e
-0.17813876 -0.038058728 0.064053275 -0.08231899 -0.10251466 -0.015023341 0.191702 0.20970713
0.19755155 -0.06362628 -0.5123459 0.11486055 -0.1517226 0.12422553 0.17334095 0.30269822
0.02031236 -0.11838545 0.21859391 0.1935169 -0.18619873 -0.22476754 0.15161695 0.21265146
-0.15119138 0.022823127 0.37651727 0.22711232 0.3500398 -0.1637705 0.1934665 0.067975715
0.288558 0.23776129 0.13065973 0.11974367 0.3859442 0.25907597 -0.035871457 0.32028154
0.27201682 0.15462677 -0.026120584 -0.24185935 0.26334554 0.36073613 0.29278266 0.0067488593
-0.008657649 0.020564647 0.16051671 0.35321537 0.023474844 0.386122 0.064711265 -0.20420572
-0.05007982 0.11041223 -0.140002 0.025233757 0.3391991 0.19784467 0.3789626 0.27265462

network.6.weight f4 [64, 64]
00000000: 6b69 2b3e 3a0d d13b e9a8 4a3e fe72 ab3c
00000010: 2395 0a3d 8f11 063d 630f c23e 3f72 b2bd
00000020: ec80 413e 876c 71bd 8d9d fcbe 5ad4 203e
00000030: 249d 803c b505 743e 8a72 153e d965 703e
00000040: 2c76 393c bfc3 e4ba 8328 883d 1e31 413e
00000050: 6aed 82bd 636e 333e 8e80 9e3e efd0 f33a
00000060: 26f2 52bc f0a9 39bd 8e1e 5f3e 0983 ff3e
00000070: 04e3 d83d 4b04 b43e 7e0e 87be 2538 083e
00000080: dcc6 413e 33bc 613e 3481 d0bd 0233 cfbe
00000090: 8ce1 a03e 918a 8d3e f45c e43d 990e cb3d
000000a0: a536 813c c2ae 96be c3bb 843d 1a9e 7dbc
000000b0: bd82 6f3d 17bf f43d 3518 c4be 67a5 293e
000000c0: fd9b 1f3f 06a3 4d3d 0be5 223e fc12 3a3e
000000d0: d93d a03d e1e0 293e 8ba1 e4be c60f 153e
000000e0: f8f3 7f3c 72e4 373e 033e e93d 9ea5 283f
000000f0: 7869 293e 40fa a03c 6c57 433e dcd2 593d
00000100: ef0f ad3d 9633 7f3d 17a0 dc3d 9862 4bbd
00000110: 602c f1bd 24b5 09bc 4f00 703e c29c 76be
00000120: 744f c63d 8241 d03c 94c7 d6be c84a d03d
00000130: c0f1 4d3d e6ae f43c 3111 453e 7c51 d5ba
00000140: d7f8 84be dc2e 1b3d ece3 9b3c 2e72 c33d
00000150: 2208 c13d f759 97bd bbbf f93e caf7 5f3d
00000160: fe12 79bd 02cc 05be bb97 8abc 309a c53e
00000170: 565c 9f3d 83c5 d33d 4b77 93be 7487 aa3c
00000180: 65e9 e7bc 46eb c83d 1304 44be 546f 13bf
00000190: b8dd 6f3e 8b2b ea3d 98a7 ea3d 03a4 843e
000001a0: 51e2 e33d a34b 17bf f51b 86bd ad14 36bd
000001b0: 64cb be3d d820 933c 2fee 2abf b859 323e
000001c0: f5b5 233f e79c 853b 3501 583d 3dfc 4b3e
000001d0: 6e0d 863d 4e5c 003d 5f32 e8be 2b95 e63d
000001e0: b50d 843d 9e35 5dbc 9839 d03d 102a f23e
000001f0: 5840 073e 4efe 1c3e 9c31 9e3d f601 8b3c
00000200: 7268 4ebc b62a 48bd 0aa9 263e e60d 75bd
00000210: 7357 c53d 9606 293e b985 f23e eacf c7be
00000220: f959 1a3e 63ad 093e 0340 cebe e161 2e3e
00000230: 2b9e 19bd c8c1 8a3e 1a36 a93e f8f0 683e
00000240: 4aa4 0abe e691 cc3d 15b1 303e e35c 613e
00000250: d464 6dbd 2f8d e0bc fa6e 9b3e 6ade 6ebc
00000260: eef1 d43d 117f 693d 0780 7d3d e3e1 063f
00000270: 6fa3 503e fa11 a13e 8700 5dbe 7e1b 083e
00000280: dd9e de3d eba2 e13d ba1e cfbd b815 67bf
00000290: d9aa 003f f02e 613e 83cf 84bd 6638 b13e
000002a0: 6877 88bc 8ca9 26be d4db 663e edc1 a9bd
000002b0: a419 153e 4e5d 723e 3dc8 0dbf 4e42 b33e
000002c0: 0c8c 263f 808f e6bc 4fa1 2b3e 2763 6e3d
000002d0: a9b2 763c d835 023e 1c79 84be c904 b13d
000002e0: f006 fd3d c015 4b3d 5c6f 473e b742 3a3f
000002f0: a93f a73d 5f6c 9b3d 7e3c 733d ce09 ee3d
00000300: 6904 c03d 2407 d33d 8861 493a 8237 85bd
00000310: 7f9f f1bc 0344 023e beba a23c 8190 34be
00000320: 02dc 123d 5c3f cf3c f449 e8be 6492 933d
00000330: 0461 5d3d f86d 963c 84cf 323e 7ed5 493d
00000340: 8ad7 22be 432b 44bc 7b1a 763d 33ba 673e
00000350: 0ab9 1ebd d0a4 f3bd f002 793e 77c2 93bc
00000360: 24d6 2a3d 57ef c8bd 7395 c03d 5aa5 d83e
00000370: 1fd9 8f3d b960 003e 346d 80be 1871 fbbc
00000380: 7697 dbbb b309 313c d72f 22be 3075 a8be
00000390: 3f00 c03d b0ad 603d 41ed eabd 24c2 493d
000003a0: ea92 fdbd 2c42 21bf e222 a83d ad3d b93d
000003b0: 3774 d9bc a1f6 363d 3f34 17bf f265 693e
000003c0: b9b3 593e a8f9 a1bd 2fe1 e6bd 09ae 013e
000003d0: 9b1c 053b 3dc4 d43d a3d2 3cbe d643 413d
000003e0: 4841 81bd ca59 583c c558 6f3e 7e35 0a3f
000003f0: 69e2 de3d 64c2 a6bd 1c15 58bd 3daf 83bd
0.16739433 0.0063797506 0.19790997 0.020928856 0.033833634 0.03273159 0.37902364 -0.08713197
0.18896836 -0.05894139 -0.49338952 0.15706006 0.01569993 0.23830302 0.14594474 0.23476352
0.011319678 -0.0017453356 0.06648352 0.18866393 -0.063929394 0.17522578 0.30957454 0.0018601696
-0.0128751155 -0.04532808 0.21789 0.4990466 0.10590175 0.35159525 -0.26378244 0.13302667
0.18923515 0.22044449 -0.101808935 -0.40468603 0.3142208 0.2764478 0.11150542 0.09914894
0.015773127 -0.29430205 0.06481125 -0.015479589 0.05847429 0.1195051 -0.38299718 0.16567002
0.62347394 0.0502043 0.15907685 0.18171304 0.078242965 0.1658969 -0.44654498 0.14556798
0.0156221315 0.17958239 0.11388781 0.6587771 0.1654414 0.019650578 0.19076318 0.053179607
0.08450305 0.062305056 0.10772722 -0.049654573 -0.11776042 -0.008405004 0.23437618 -0.24083236
0.09683123 0.025421862 -0.4194914 0.101705134 0.05027938 0.029868554 0.19244839 -0.0016274895
-0.259711 0.037886485 0.01902958 0.095432624 0.09425379 -0.07390206 0.4877909 0.05467967
-0.060809128 -0.13066104 -0.016918054 0.38594198 0.077812836 0.10340407 -0.2880195 0.020816542
-0.028309533 0.098105 -0.19142179 -0.5759175 0.23424423 0.114340864 0.11457747 0.2590638
0.11127151 -0.5909979 -0.06548301 -0.04445331 0.093161374 0.017959997 -0.6676969 0.17417037
0.6394952 0.004077542 0.052735526 0.1992044 0.0654553 0.03133803 -0.4535093 0.1125892
0.06447927 -0.013501553 0.10167235 0.47297716 0.13208139 0.15331385 0.07724306 0.016968708
-0.012598144 -0.048868857 0.16275421 -0.059827708 0.0963582 0.16506419 0.47367647 -0.39025813
0.15073384 0.13445048 -0.40283212 0.17029525 -0.037504356 0.27100968 0.3304909 0.22748172
-0.13539234 0.099887654 0.17255051 0.2200809 -0.057957485 -0.027411072 0.30358106 -0.014579395
0.10397707 0.057005946 0.061889675 0.52688426 0.20374845 0.31459028 -0.21582232 0.13291737
0.108701445 0.11017402 -0.101132825 -0.90267515 0.5026069 0.21990561 -0.06484892 0.3461334
-0.0166585 -0.16275615 0.22544795 -0.082889415 0.14560562 0.23668405 -0.55383664 0.35011524
0.65057445 -0.028144598 0.16760753 0.058200028 0.015057244 0.12715852 -0.2587365 0.08643491
0.12354839 0.04958129 0.19476074 0.7275805 0.08166439 0.075890295 0.05938386 0.11622964
0.09375841 0.10304096 0.0007682075 -0.06504728 -0.029494999 0.12721257 0.019864436 -0.17633249
0.035854347 0.025298767 -0.45368922 0.07205656 0.0540476 0.018362984 0.17461973 0.049275868
-0.15902534 -0.011973205 0.060083847 0.22629623 -0.038750686 -0.1189667 0.24317527 -0.018037064
0.041708127 -0.098112755 0.09403505 0.42313653 0.070238344 0.12536897 -0.25083315 -0.030693576
-0.006701405 0.010805535 -0.15838562 -0.32901907 0.09375047 0.05485314 -0.11471034 0.049257413
-0.12381537 -0.62991595 0.08209778 0.09044967 -0.026544673 0.044668797 -0.59064096 0.22792795
0.21259965 -0.07908946 -0.11273419 0.12664045 0.002031124 0.10388992 -0.18439727 0.047183834
-0.063112795 0.013205001 0.23373707 0.5398787 0.10883028 -0.08142546 -0.052754506 -0.064299084

network.6.bias f4 [64]
00000000: 3226 c13e 1f37 cc3e 585f bc3e cebb 923e
00000010: 0e72 513d a41c c23e c1cc 24bd 3409 ac3e
00000020: deea 9bbd e1ea f2bc 4424 c53e 8911 6ebd
00000030: 738d 16be 80cd 193b 8c4b 423e 6762 973e
00000040: 53ac dcbd 1a15 c13e 778e 9b3e 4c46 803e
00000050: be7d 9abd e4b2 96bc afe8 283e ad58 e63e
00000060: 4a5c a23e 4fa2 913a 9301 b7bc 617e 36bd
00000070: e01e a53e 71ec 22be 7b78 4e3e c6df 06be
00000080: 5cac a53e 3af3 f5bd ed06 963e 5ae5 17bd
00000090: bc99 b6bd ca43 1e3e c3ce 083f 3965 8e3e
000000a0: b43d acbd 07ca b23e dbe7 ba3e 5812 ba3e
000000b0: 2607 e3bd a539 3ebd 11d7 723b 9012 f6bd
000000c0: 33bd b0bd 910a edbd 7f18 693e 4316 a13e
000000d0: 8135 b43e 88d3 a53e 4837 993e 2dbc 1f3e
000000e0: 237c 41bd c53c d33b a1dc 92bc 4ca2 9b3e
000000f0: 40a8 edbd fe65 303e 1bc3 b3bd d8b0 febd
0.37724453 0.39885804 0.36791492 0.2865891 0.05113416 0.37912476 -0.04023433 0.3360077
-0.07613157 -0.029653015 0.3850423 -0.05812219 -0.14702396 0.0023468435 0.18974131 0.29567263
-0.10775056 0.37711412 0.3038213 0.25053632 -0.07543515 -0.018395849 0.16495012 0.4498953
0.31711036 0.0011110994 -0.022339618 -0.044554118 0.32250118 -0.15910508 0.20163147 -0.131713
0.32358062 -0.120092824 0.2930216 -0.03708396 -0.08916041 0.15455547 0.53440493 0.27811602
-0.084102064 0.3491976 0.36505017 0.3634212 -0.11085348 -0.046441693 0.003705446 -0.12015259
-0.08629837 -0.11574281 0.22763251 0.31462297 0.3519707 0.32387948 0.2992499 0.15599127
-0.047237527 0.0064464533 -0.01792747 0.3039726 -0.11604357 0.17226407 -0.08777448 -0.12436074

network.8.weight f4 [21, 64]
00000000: 0f9a 863e b037 6e3e 17a2 a13d c15f f43d
00000010: 27c9 603d c13d 713e 40be c7bd 3261 853e
00000020: f8a5 febd 29f6 97bc 0ad5 973e 023e cebd
00000030: a263 923d dc78 243d 3892 013e a812 bc3e
00000040: 512e 1dbe 9134 c73d 7905 34bf 0b9c 6bbd
00000050: fc22 0fbd c00f 8fbd d533 013e 782f 773e
00000060: 137f 653e 92ff 9fbd 2048 f2ba db51 cebd
00000070: a000 8e3e 4ba7 fc3e f965 4fbd 6480 05be
00000080: 9dc1 2f3e 8c22 e33d f7a4 913d 8b09 47bc
00000090: 3b5f f7bd bcfa 2f3d 0d4d e2be a8f9 953e
000000a0: d0de a8bd c1bf 8a3e 9ad1 5d3e 5b30 bb3e
000000b0: 15d7 41bd 93de 003c aade 3abc d49c 723d
000000c0: 579c 99bb 9291 123e f4f3 3f3e 32d9 083e
000000d0: bc72 623e 3124 403e 9d96 413e 7259 453e
000000e0: c988 3b3d b265 14bd f96b babd 0f9b 4b3e
000000f0: 48f8 503d 9142 83bf 0828 2b3d b9e3 72bd
00000100: 3434 8d3e 8031 b93d 4c01 853e 3b71 093e
00000110: 4931 e7bc 874c 2d3e e145 2abd 302a 853e
00000120: de3e a93d 417c f23d b273 853e 1410 22bd
00000130: c0a5 20bd 32e8 ab3d 5ff9 113e 4138 013f
00000140: 24c4 14be 8879 6b3e 142d 26bf 1bb7 10bd
00000150: da5c 863d d2f0 893d 9c61 1d3e 127a 6a3e
00000160: 1acd 813e 1106 c0bd 3605 a4bd c209 e43d
00000170: dfc5 9a3e e1f9 943e 527a ddbd 563c 15bd
00000180: 881b 303e cc40 1e3d ad4b e73d 6143 11bb
00000190: a48e 99bd 9364 243d 26fa fdbe 7683 633e
000001a0: b445 2a3d 92a3 d43d a3c3 563e db8f 4d3e
000001b0: 9048 d03d 007b 553d 764b 79bd 22e7 53bc
000001c0: 50d9 79bc 2d19 473d 422c 823e 869c 4f3e
000001d0: 04c9 003e 00a6 323e 1e80 853e ba48 823e
000001e0: ce7d be3d 9cfe c6bd b121 473d 8538 413e
000001f0: 2886 f93c f4a8 64bf 4021 523b f660 043d
00000200: c143 843e 12e3 043e 5303 573e 9279 e23d
00000210: 57bb 5a3c 8113 e43d fb1e 9fbc 3ab0 6b3e
00000220: 8081 b53b 77a6 a3bc 045f 903e 98d5 b1bd
00000230: 408d 43bb b475 3f3d e85e 6f3e 5815 a43e
00000240: f3f9 843d 9444 023e c1c7 20bf d60b 053d
00000250: b0d7 81bc 100e f83d e8a0 713e aee7 083e
00000260: 1670 803e 68a9 123c b975 1b39 a00b ac3c
00000270: eede 963e 976a ce3e 314f 9c3b 5303 163d
00000280: bc48 073e 688c 98bd ab61 9a3d f107 0dbd
00000290: 88c0 8cbd 23e1 1c3d 3aae f7be 946b 933e
000002a0: 569d bdbd 5af2 333e 781d 003e ff38 8d3e
000002b0: 4022 9cbb 54c3 e4bd 5178 3cbd 5e97 fc3d
000002c0: 6b00 35ba 866c 8abd 800b 8f3e 69b6 933e
000002d0: 2b62 9f3d 43db 623e 44ad 2c3e 2042 8e3e
000002e0: 25c4 f53c 148b f53d c4d8 a3bd 6408 383e
000002f0: 8873 f93d 7a44 5dbf 8e51 f5bd 8132 b43d
00000300: 954b 993e eed1 733e 2593 723e e9e6 e93d
00000310: 5f81 ea3b d390 f03d 0f03 23bd 6a1c f03d
00000320: 2a95 f83d 61e0 96bc b7a8 103e 9c49 0f3d
00000330: 58a6 7dbd e2df f1bd ba2c b93d eed6 933e
00000340: d8ff 873c 26dc 813e b575 2fbf 43ef 53bd
00000350: 1ebc b2bd 006e ce3a d0b4 7b3e e682 4b3e
00000360: 689c 803e 1671 bd3d da41 de3d eea3 d5bd
00000370: 5100 823e 3033 d13e cc16 b7bd 24ec 00be
00000380: 0cf0 3c3e dc55 0d3d 92df 713e f15f 93bc
00000390: 80a0 e33a 7a13 2b3e a688 0cbf be21 8c3e
000003a0: 14ff ecbd 9169 603e 4168 dd3d c650 933e
000003b0: 489f 6fbd 58e2 f63c 2d73 d2bd 0cb3 7bbd
000003c0: 54f1 213d 366f 873d 0b93 353e 0b13 6c3e
000003d0: 738c 573e d452 7a3e 1a04 8e3e 3fda 243e
000003e0: 46c4 b53d 8491 253e 7c80 6c3c 9671 e33d
000003f0: 8e23 82bd b45c 48bf 90ee d93c 2953 fdbc
0.26289412 0.2326343 0.07892244 0.11932326 0.054879334 0.23558713 -0.09753084 0.26050717
-0.12434 -0.018549995 0.29654723 -0.10070421 0.0714791 0.040154323 0.12653434 0.36732984
-0.153497 0.09726823 -0.7032085 -0.05752186 -0.034945473 -0.06985426 0.12617429 0.24139202
0.22411756 -0.07812418 -0.001848463 -0.100742064 0.27734852 0.49346384 -0.050634358 -0.13037258
0.17163701 0.11090574 0.07111543 -0.012148271 -0.12078711 0.04296373 -0.4419941 0.29292035
-0.08245623 0.27099422 0.21661988 0.3656033 -0.04732426 0.007865566 -0.011405626 0.059231594
-0.0046878266 0.14313343 0.18745404 0.13364103 0.2211408 0.18763806 0.1890511 0.19272402
0.045784745 -0.036229797 -0.091026254 0.19883369 0.05101803 -1.025469 0.041786224 -0.059299204
0.2757889 0.090426445 0.25977552 0.134221 -0.028221743 0.16923724 -0.041570548 0.2600875
0.08263944 0.11840106 0.2606483 -0.039566115 -0.03922057 0.08393897 0.14255284 0.5047646
-0.14527947 0.22995579 -0.64912534 -0.035330873 0.06560679 0.06735386 0.15369266 0.22898129
0.25351793 -0.09376157 -0.080088064 0.11134674 0.3022909 0.29096892 -0.108143464 -0.036434494
0.17198002 0.038636014 0.11293731 -0.0022165405 -0.0749791 0.040134978 -0.4960491 0.22218117
0.04157038 0.10382761 0.20973067 0.20074408 0.1017009 0.052119255 -0.06086298 -0.012933524
-0.015249565 0.048607994 0.2542439 0.20274553 0.12576681 0.17446136 0.26074308 0.2544611
0.09301339 -0.09716532 0.048616115 0.18869217 0.030459478 -0.893203 0.0032063276 0.03231903
0.25832942 0.12977245 0.20997362 0.11058344 0.013350329 0.111365326 -0.019423952 0.23016444
0.0055391192 -0.019976838 0.2819749 -0.08683318 -0.002983883 0.04674311 0.23376048 0.32047534
0.064929865 0.12721473 -0.628048 0.03248199 -0.015849918 0.12112057 0.23596537 0.13369629
0.25085515 0.008951522 0.00014825807 0.021001637 0.29466957 0.40315697 0.0047701825 0.036624264
0.1321134 -0.07448655 0.0753816 -0.0344314 -0.0687266 0.038300645 -0.48375112 0.28793013
-0.09258525 0.17572919 0.12511241 0.27582547 -0.004764825 -0.111700684 -0.04601318 0.123335585
-0.00069046643 -0.067589805 0.2793846 0.28850105 0.07782396 0.22153954 0.1686297 0.27784824
0.030000756 0.11989418 -0.08000329 0.17971951 0.12180239 -0.8643261 -0.11978446 0.08798695
0.29940477 0.2381055 0.23688944 0.11420996 0.0071565355 0.11746373 -0.03979784 0.117241696
0.12137826 -0.01841754 0.1412686 0.03498231 -0.061926216 -0.118102804 0.09041734 0.28874916
0.016601488 0.25363272 -0.6853898 -0.05174185 -0.08727287 0.0015749335 0.24580693 0.19874153
0.25119328 0.09250085 0.10852404 -0.10431658 0.25390866 0.40859365 -0.08939895 -0.1259008
0.18450946 0.03450571 0.23620442 -0.017990084 0.0017366558 0.16706648 -0.5489601 0.27369493
-0.1157209 0.2191527 0.108109005 0.28772563 -0.05850151 0.030137226 -0.10275874 -0.06145005
0.03953679 0.06613009 0.17731874 0.2305414 0.21049671 0.24445659 0.27737504 0.1609888
0.08875327 0.16168791 0.01443493 0.11105649 -0.06354438 -0.78266454 0.026603013 -0.030923443

network.8.bias f4 [21]
00000000: eed8 743e 363b 9e3e c27c 483e 814b 963e
00000010: d21d 843e 56a8 a63e 7cb3 843e 99f8 913e
00000020: bf4e 603e 94aa af3e acba a83e 5b9a 7e3e
00000030: 8996 803e 72f4 873e 1131 873e 2c93 8c3e
00000040: 88f0 923e e3c8 8f3e 2b9c bf3e 693c 933e
00000050: 2166 ce3e
0.23910877 0.3090455 0.19578841 0.2935448 0.25804 0.32550305 0.25918186 0.28509977
0.21905039 0.34309828 0.3295492 0.2486357 0.2511485 0.26553684 0.26404622 0.27456033
0.28699136 0.28082952 0.37423834 0.28757027 0.40312293
