model/model.pth (torch, 33095 bytes, 10 tensors)

network.0.weight f4 [16, 2]
0.030042475 -0.25413862 -0.22553758 0.2630458 0.074735016 -0.020545546 0.48687017 0.25380546
0.8031295 0.20428745 0.27867344 0.13557196 -0.42728084 -0.15755333 -0.015458485 -0.02973825
-0.2550499 -0.17536575 -0.20875198 -0.49335092 -0.50038576 0.47715077 -0.48910436 -0.033099633
0.45776224 -0.46027723 0.11499129 -0.14144167 -0.28468266 -0.106297925 0.2700894 0.1812127
00000000: a31b f63c 751e 82be 53f3 66be f0ad 863e
00000010: ac0e 993d 224f a8bc 0c47 f93e caf2 813e
00000020: e599 4d3f bb30 513e 49ae 8e3e 60d3 0a3e
00000030: 8ec4 dabe a955 21be 9645 7dbc a19d f3bc
00000040: e795 82be 1493 33be 14c3 55be 7e98 fcbe
00000050: 4819 00bf 1b4d f43e e36b fabe 7b93 07bd
00000060: d05f ea3e 75a9 ebbe 8e80 eb3d 16d6 10be
00000070: edc1 91be bab2 d9bd 2849 8a3e d28f 393e

network.0.bias f4 [16]
0.13115503 -0.79675674 0.6994762 0.2204573 -0.56188685 0.8484122 0.5567286 0.042930227
0.7364933 0.025016598 0.087108165 0.08028351 -0.06333488 -0.088780925 0.112391986 0.7216535
00000000: 814d 063e 40f8 4bbf df10 333f 8fbf 613e
00000010: d1d7 0fbf 8b31 593f c485 0e3f 9bd7 2f3d
00000020: d38a 3c3f 9cef cc3c c465 b23d ae6b a43d
00000030: b8b5 81bd c6d2 b5bd c52d e63d 49be 383f

network.2.weight f4 [32, 16]
0.01379455 -0.10501053 0.16297743 -0.26954573 0.28124928 -0.38921016 0.26711658 0.136956
-0.007636878 0.20381956 0.07546833 0.20536543 -0.028282562 0.06063047 0.3499626 -0.092609264
0.20100372 -0.13434431 -0.105267726 0.052686468 -0.124308266 0.116198346 0.11734319 -0.2568751
-0.11246859 -0.22968689 0.014311776 -0.012263477 -0.18868598 0.13003671 0.098852515 -0.061260603
-0.054491296 0.047986798 0.29257372 0.03699798 -0.30731896 -0.06592705 -0.4172917 0.0027001328
-0.36606613 -0.36715928 -0.15821281 0.12519692 0.07340124 0.21793725 -0.24761023 0.18809757
0.059304707 0.108189814 0.18023707 0.21916053 -0.06659843 0.15431882 -0.16750222 0.057619162
-0.3765227 -0.05089041 -0.20358458 -0.6507888 0.21565738 0.16914438 -0.8938784 0.1874704
-0.1723442 -0.24036852 -0.12079328 -0.09727845 0.23604265 -0.17429681 -0.33750305 0.10627682
-0.382243 0.155243 0.103059344 0.07955917 0.18343776 -0.20468636 -0.13456273 -0.13508867
-0.1348328 0.110712074 0.058718365 0.17982581 0.2522062 -0.15249106 0.22414522 -0.05659687
-0.13219106 -0.38944903 -0.08182693 0.01764868 -0.24063244 -0.47698167 0.3211129 0.11943771
-0.11521828 -0.14726903 0.2446983 -0.05391213 0.5721168 -0.7177649 0.04479106 0.09849887
-0.0027577975 -0.070256285 0.06547942 0.10498773 0.086190626 0.11012739 -0.15009241 -0.47561136
-0.034571193 -0.03332434 0.06185645 0.04588031 -0.19013388 -0.17792496 -0.054627445 0.14989252
0.122766696 -0.13514876 0.22095507 -0.48330346 -0.04349509 -0.34432736 -0.44563124 0.077548385
0.10534312 0.004111886 0.1530186 -0.09218874 -0.14114131 -0.011404853 -0.00094907667 -0.117249474
-0.14368796 -0.12442792 -0.026485968 -0.2056736 -0.06161891 0.04130328 -0.24978492 -0.13972753
-0.10528027 -0.11693409 -0.24450493 0.22098325 0.3672525 0.3108901 0.28748173 -0.17355351
0.07084114 0.079108536 -0.13741443 0.40171877 -0.025800878 0.07054717 0.21164724 -0.028582387
0.12154782 0.11029896 0.03933613 0.065948345 -0.09319209 -0.07541026 -0.04761661 -0.2300029
0.22940736 -0.15952466 -0.15752673 -0.065794736 0.020485701 -0.0042726863 -0.12139693 -0.05005102
-0.08210406 0.01051462 -0.28159565 -0.53467035 0.15728456 0.35623103 0.12266484 0.06356056
-0.107101746 0.10902988 0.08403036 0.35762185 -0.24479449 -0.15796816 0.32105166 0.3065925
-0.24534175 0.01510039 -0.21995366 0.11294216 0.16063887 -0.21387714 0.0010614991 0.148143
0.027179122 0.060747713 -0.23124531 -0.0834831 -0.10408977 -0.16216809 -0.18067494 -0.14725962
-0.18658529 0.016340375 -0.53283626 -0.023552163 -0.22125688 -0.67683524 0.12747888 0.38710126
-0.008012864 -0.18538082 0.22647989 0.20865639 -0.40538633 0.025676047 0.48253325 -0.2977901
-0.047331274 0.13477546 0.037591785 0.16972226 -0.033626795 -0.11587086 -0.12322584 -0.049167335
0.030474335 -0.15993509 0.004415065 0.02529496 0.031140178 -0.22282287 -0.20927498 -0.21619299
0.19422068 -0.019089123 -0.072537564 0.15502624 0.17570427 0.12878323 -0.41418296 -0.18024498
-0.40451527 -0.24410354 -0.01474108 -0.69315547 0.18462124 -0.041790225 -0.5408552 0.16731739
00000000: 8902 623c c30f d7bd 8ee3 263e e601 8abe
00000010: e8ff 8f3e 8e46 c7be 81c3 883e 323e 0c3e
00000020: c73e fabb 13b6 503e 248f 9a3d 514b 523e
00000030: d5b0 e7bc a857 783d 4c2e b33e eda9 bdbd
00000040: ebd3 4d3e 8e91 09be 9b96 d7bd c4cd 573d
00000050: 5595 febd 66f9 ed3d a051 f03d 2285 83be
00000060: ef55 e6bd 0a33 6bbe f07b 6a3c c0ec 48bc
00000070: e636 41be 5828 053e 3073 ca3d 66ec 7abd
00000080: 4432 5fbd ce8d 443d 39cc 953e 328b 173d
00000090: e958 9dbe c304 87bd 42a7 d5be b6f4 303b
000000a0: 056d bbbe 4dfc bbbe 8a02 22be 9f33 003e
000000b0: 6453 963d f12a 5f3e 898d 7dbe a69c 403e
000000c0: 7ee9 723d 9f92 dd3d 1190 383e 9e6b 603e
000000d0: c264 88bd c105 1e3e b485 2bbe 1202 6c3d
000000e0: 95c7 c0be 7672 50bd 7a78 50be 189a 26bf
000000f0: 4ad5 5c3e 2f34 2d3e 37d5 64bf 3ef8 3f3e
00000100: ff7a 30be 2a23 76be 7862 f7bd ed39 c7bd
00000110: 2ab5 713e dd7a 32be 33cd acbe a9a7 d93d
00000120: 5bb5 c3be 05f8 1e3e c710 d33d ebef a23d
00000130: 1cd7 3b3e 4d99 51be d0ca 09be af54 0abe
00000140: 9c11 0abe 03bd e23d ab82 703d 4224 383e
00000150: 2c21 813e 9e26 1cbe 5386 653e 1fd2 67bd
00000160: 185d 07be dd65 c7be e194 a7bd f793 903c
00000170: 5a68 76be f136 f4be e968 a43e c29b f43d
00000180: 90f7 ebbd b1cd 16be 3192 7a3e f7d2 5cbd
00000190: 3f76 123f 71bf 37bf d576 373d c7b9 c93d
000001a0: 2abc 34bb 87e2 8fbd 131a 863d cf03 d73d
000001b0: b684 b03d 788a e13d d3b1 19be 5583 f3be
000001c0: 869a 0dbd 1a7f 08bd 305d 7d3d feec 3b3d
000001d0: 75b2 42be f631 36be 07c1 5fbd 6d7d 193e
000001e0: 1b6d fb3d 7064 0abe 0c42 623e 8d73 f7be
000001f0: e827 32bd ad4b b0be c729 e4be b0d1 9e3d
00000200: 22be d73d 00bd 863b e8b0 1c3e 73cd bcbd
00000210: 5987 10be 6cdb 3abc 75cb 78ba 7e20 f0bd
00000220: f022 13be 11d4 febd 1af9 d8bc 1a9c 52be
00000230: 1c64 7cbd a12d 293d 9ec7 7fbe bc14 0fbe
00000240: 2f9d d7bd 247b efbd 805f 7abe 6f49 623e
00000250: 8508 bc3e fd2c 9f3e ce30 933e 03b8 31be
00000260: 2915 913d a803 a23d 5eb6 0cbe 15ae cd3e
00000270: 5d5c d3bc 097b 903d 0eba 583e 9c25 eabc
00000280: 10ee f83d 6ce4 e13d ec1e 213d ed0f 873d
00000290: 7fdb bebd b270 9abd a209 43bd e185 6bbe
000002a0: c3e9 6a3e 6f5a 23be b04e 21be 64bf 86bd
000002b0: a1d1 a73c e401 8cbb f49e f8bd 4c02 4dbd
000002c0: 2c26 a8bd 8345 2c3c 4e2d 90be 28e0 08bf
000002d0: 340f 213e ea63 b63e b437 fb3d 0a2c 823d
000002e0: 2958 dbbd 0f4b df3d 1c18 ac3d 361a b73e
000002f0: 68ab 7abe 68c2 21be e260 a43e b1f9 9c3e
00000300: de3a 7bbe a067 773c 883b 61be 384e e73d
00000310: 847e 243e 9c02 5bbe 0022 8b3a ccb2 173e
00000320: c0a6 de3c 98d2 783d 92cb 6cbe 30f9 aabd
00000330: 042d d5bd 640f 26be da02 39be 3acb 16be
00000340: 3710 3fbe 40dc 853c f567 08bf 77f0 c0bc
00000350: 2a91 62be 1345 2dbf d389 023e 2332 c63e
00000360: 6348 03bc 78d4 3dbe 58ea 673e 05aa 553e
00000370: cc8e cfbe 9356 d23c 990e f73e f277 98be
00000380: 70de 41bd 9402 0a3e d8f9 193d accb 2d3e
00000390: 40bc 09bd b44d edbd d45d fcbd b063 49bd
000003a0: 50a5 f93c 06c6 23be 40ac 903b 6037 cf3c
000003b0: b019 ff3c ae2b 64be 2e4c 56be b261 5dbe
000003c0: c9e1 463e cb60 9cbc 938e 94bd 33bf 1e3e
000003d0: d2eb 333e c0df 033e ca0f d4be 2492 38be
000003e0: a01c cfbe 47f6 79be 9284 71bc a372 31bf
000003f0: 5a0d 3d3e 3a2c 2bbd 7d75 0abf 4055 2b3e

network.2.bias f4 [32]
-0.15849064 -0.1231466 0.5862332 -0.14307183 -0.17090468 -0.37249735 0.3806468 0.12040232
0.053583927 -0.33128235 -0.12669581 -0.42650694 -0.17560428 -0.40062094 -0.21740481 0.19107243
0.1948831 -0.34157753 0.15307628 -0.2587368 0.16581571 -0.11987373 -0.24751928 0.17471676
0.10332208 0.24514404 -0.21884829 0.46874973 0.2035346 -0.2730264 0.06938728 -0.03277625
00000000: 5f4b 22be 4934 fcbd 6113 163f 6c81 12be
00000010: a301 2fbe f9b7 bebe 23e4 c23e 7e95 f63d
00000020: d27a 5b3d d79d a9be 8cbc 01be 1e5f dabe
00000030: 9cd1 33be 301e cdbe 5e9f 5ebe 7ea8 433e
00000040: 6f8f 473e 40e3 aebe 07c0 1c3e 2679 84be
00000050: 98cb 293e 5c80 f5bd b275 7dbe f3e8 323e
00000060: 879a d33d 0a07 7b3e c419 60be f7ff ef3e
00000070: 606b 503e 1eca 8bbe eb1a 8e3d 6440 06bd

network.4.weight f4 [64, 32]
0.13249613 0.10317791 0.104516335 0.14264728 0.19539116 -0.25243333 0.048020657 -0.1549203
0.03315071 0.01820377 -0.066833295 -0.1839589 0.13422479 0.19303536 0.0027111592 0.11417757
-0.02476365 -0.17009605 0.033994827 0.11973599 0.0782248 -0.12818824 -0.23296691 -0.07930056
0.18124437 0.2073043 -0.15035167 -0.048710782 -0.05298097 -0.24686547 0.1460346 0.055750478
-0.106013715 -0.11765639 0.08235169 0.08440007 -0.036681313 -0.43982622 0.106713995 0.12020529
-0.100127704 -0.20326553 -0.12475005 -0.11334606 0.15610777 -0.22017536 -0.14267422 -0.13444333
0.1459864 0.24893224 -0.5725337 0.10164985 0.029454472 0.063330464 -0.11202136 -0.10356734
0.028013168 -0.43913418 0.14386411 -0.13521224 0.013014244 -0.3497103 0.02433923 -0.10736233
-0.29325518 0.03312103 0.35805058 -0.19490388 -0.050868098 -0.07211732 -0.014473629 0.15187448
0.0009213748 -0.33628622 0.07681716 -0.07157787 0.12993306 0.19973576 -0.008013338 -0.15806834
0.11117775 -0.18894246 -0.101181574 -0.14998843 -0.15755521 -0.15266883 -0.0034377954 -0.03424553
0.19993407 -0.16660748 0.12763423 -0.16194002 0.15490088 0.068891555 0.03263189 -0.05648074
0.081107974 -0.014438412 -0.104693286 0.11547517 0.004962742 0.110448666 -0.15892866 0.10952152
0.09783158 0.009129383 -0.13092147 -0.023288466 0.12075234 0.2306749 -0.16152695 -0.09574966
-0.0578488 -0.051289424 -0.14591663 0.20950308 0.1698292 -0.12573622 0.10718643 -0.1348228
-0.121714815 0.0074917697 -0.08387752 -0.15231758 0.13972706 -0.24075712 0.14327838 0.08831681
-0.31320158 -0.059361663 0.1403989 -0.865971 0.06307359 -0.1132458 -0.24336718 0.36044326
-0.1250876 -0.27860725 -0.07122086 0.12157298 -0.08201492 0.05697871 0.07273507 -0.13412236
-0.7048375 -0.041356307 -0.09123663 0.108167805 0.11247908 -0.064729 0.007983999 -0.07922442
-0.18797185 -0.017513616 -0.07181606 0.009462506 -0.12292258 -0.09895064 -0.65123886 -0.23206128
0.08536459 -0.042648986 -0.37416282 -0.040807385 0.06406962 0.21645385 -0.0021508436 -0.24418709
0.13579449 0.26814893 0.11183988 0.2653994 -0.068817735 -0.021579687 -0.14018801 -0.16934185
0.070950635 -0.29757884 -0.06798196 0.04305689 0.009828308 -0.056643896 0.04404159 0.117850386
0.33834365 0.11115154 0.13343823 -0.123873614 0.22469558 0.56079847 -0.13418649 -0.019851752
-0.10599912 -0.1387408 0.008385879 -0.116063565 -0.061087005 0.049122024 0.099561505 -0.026691502
0.03770989 -0.12548089 -0.12875773 -0.11374642 0.059734095 0.016012521 0.11678637 0.15120545
-0.15251344 0.14194106 0.10049452 0.062214695 -0.059892125 -0.16028182 0.004947132 -0.14177653
0.17479777 0.08326275 -0.06328986 -0.09471371 0.08514555 -0.29076922 -0.091882534 -0.105949245
0.06504265 -0.15219171 0.2841001 0.12821506 0.12959579 -0.20531268 0.15259601 0.055204313
-0.0004906527 -0.12607913 0.09750781 -0.18198273 0.088192746 -0.09234325 -0.16403797 0.20528476
-0.15435036 -0.8688215 0.2060242 0.16050802 -0.17653316 -0.14444385 -0.035193674 -0.16467403
0.053149432 0.106699504 0.08998773 -0.02610814 -0.18539317 -0.20808865 0.22775543 0.034232814
00000000: 11ad 073e f14e d33d a90c d63d 2112 123e
00000010: 9f14 483e f13e 81be 4fb1 443d 6da3 1ebe
00000020: 0ac9 073d 1320 953c e5df 88bd b95f 3cbe
00000030: 3972 093e 10ab 453e b4ad 313b eed5 e93d
00000040: 23dd cabc a92d 2ebe 293e 0b3d 2538 f53d
00000050: 5334 a03d c743 03be e18e 6ebe 5568 a2bd
00000060: 2098 393e 9447 543e caf5 19be f584 47bd
00000070: 9302 59bd 4dca 7cbe 188a 153e 9d5a 643d
00000080: b81d d9bd d5f5 f0bd 01a8 a83d f2d9 ac3d
00000090: 253f 16bd e730 e1be de8c da3d 312e f63d
000000a0: c10f cdbd d724 50be f47c ffbd fb21 e8bd
000000b0: b7da 1f3e a675 61be 3119 12be 83ab 09be
000000c0: 757d 153e 18e8 7e3e 9291 12bf cc2d d03d
000000d0: 814a f13c 67b3 813d 746b e5bd 1d1b d4bd
000000e0: df7b e53c 32d6 e0be 1d51 133e 1475 0abe
000000f0: b239 553c 3a0d b3be 1163 c73c c8e0 dbbd
00000100: 8b25 96be eba9 073d 6852 b73e e294 47be
00000110: 115b 50bd 3fb2 93bd cd22 6dbc fc84 1b3e
00000120: 6b88 713a b52d acbe 5152 9d3d 6b97 92bd
00000130: 2c0d 053e 8887 4c3e 604a 03bc abdc 21be
00000140: 29b1 e33d 227a 41be 4938 cfbd 9196 19be
00000150: 2756 21be 3855 1cbe a34c 61bb 0a45 0cbd
00000160: 84bb 4c3e 279b 2abe 8cb2 023e 9bd3 25be
00000170: 569e 1e3e 0417 8d3d 04a9 053d 5958 67bd
00000180: f01b a63d 178f 6cbc 6f69 d6bd 3f7e ec3d
00000190: 7f9e a23b e932 e23d 32be 22be d24c e03d
000001a0: ec5b c83d 6893 153c 4710 06be 74c7 bebc
000001b0: 014d f73d 0a36 6c3e 5267 25be 6618 c4bd
000001c0: ddf2 6cbd dc14 52bd 2b6b 15be fa87 563e
000001d0: b5e7 2d3e ffc0 00be 8f84 db3d fd0e 0abe
000001e0: 9e45 f9bd 857d f53b fac7 abbd 24f9 1bbe
000001f0: 9c14 0f3e 0989 76be 91b7 123e 72df b43d
00000200: f55b a0be 3725 73bd bbc4 0f3e 47b0 5dbf
00000210: ba2c 813d 6aed e7bd 3f35 79be 058c b83e
00000220: f716 00be 9ca5 8ebe 3edc 91bd 41fb f83d
00000230: 70f7 a7bd 8262 693d 20f6 943d 5f57 09be
00000240: 3b70 34bf 3b65 29bd 45da babd 1587 dd3d
00000250: 6f5b e63d a390 84bd 52cf 023c 6a40 a2bd
00000260: b17b 40be b778 8fbc 4c14 93bd a008 1b3c
00000270: d5be fbbd a2a6 cabd 97b7 26bf 79a1 6dbe
00000280: a1d3 ae3d b4b0 2ebd 4592 bfbe a525 27bd
00000290: ef36 833d 14a6 5d3e 2bf5 0cbb 2e0c 7abe
000002a0: b60d 0b3e d14a 893e 4f0c e53d 6ee2 873e
000002b0: 50f0 8cbd e2c7 b0bc 728d 0fbe f367 2dbe
000002c0: 914e 913d 415c 98be 203a 8bbd 6c5c 303d
000002d0: e906 213c 6e03 68bd f464 343d 8b5b f13d
000002e0: 613b ad3e 6ba3 e33d 08a4 083e 73b1 fdbd
000002f0: 9916 663e 7d90 0f3f 2f68 09be 24a0 a2bc
00000300: 1116 d9bd 1112 0ebe ed64 093c bcb2 edbd
00000310: 5e36 7abd 2d34 493d e7e6 cb3d 23a8 dabc
00000320: b075 1a3d 107e 00be 11d9 03be e2f3 e8bd
00000330: bdab 743d b12c 833c b12d ef3d 9ad5 1a3e
00000340: 7c2c 1cbe ff58 113e 12d0 cd3d d6d4 7e3d
00000350: 7251 75bd eb20 24be 8d1b a23b de2d 11be
00000360: 30fe 323e a985 aa3d 1d9e 81bd 43f9 c1bd
00000370: ca60 ae3d b4df 94be e92c bcbd ebfb d8bd
00000380: 1535 853d 25d8 1bbe 9175 913e cf4a 033e
00000390: c2b4 043e 7d3d 52be 2142 1c3e eb1d 623d
000003a0: 259f 00ba e31a 01be 2db2 c73d ae59 3abe
000003b0: 669e b43d 751e bdbd 92f9 27be 2b36 523e
000003c0: 050e 1ebe 166b 5ebf 02f8 523e 375c 243e
000003d0: 1cc5 34be 17e9 13be 3e27 10bd 4fa0 28be
000003e0: 38b3 593d 4585 da3d 7d4b b83d bde0 d5bc
000003f0: b5d7 3dbe 3115 55be b838 693e b537 0c3d

network.4.bias f4 [64]
-0.0090984125 0.08656814 0.3763191 -0.027333837 0.009926331 -0.37787145 -0.09495265 0.30029622
0.10306884 0.13051134 0.0055009765 -0.48543942 0.078917585 -0.24089344 0.09181971 0.033189043
0.3531091 0.21646798 -0.1659029 -0.21101418 -0.026435608 0.18969627 0.26006758 0.1934422
-0.02511881 0.4185186 0.2897053 0.25416055 0.13743998 0.20141336 0.01976207 -0.0737779
-0.098789655 0.2248184 0.15232974 0.17868316 -0.032182362 0.19277237 -0.09248103 0.15574682
-0.7046173 0.012469869 -0.05530877 0.19454998 0.0011676869 0.13341348 0.046298083 -0.12362273
0.2918044 0.19585621 -0.018018052 0.072414204 0.059758697 0.05261116 0.3088378 0.19797519
-0.22476986 0.13942035 -0.17699091 -0.047810756 0.027117603 0.31729436 -0.21704589 0.20723306
00000000: 8211 15bc a34a b13d e6ac c03e 36eb dfbc
00000010: 0da2 223c 5e78 c1be 8976 c2bd 6dc0 993e
00000020: c215 d33d c4a4 053e 8941 b43b 848b f8be
00000030: 8b9f a13d c5ac 76be f90b bc3d 3cf1 073d
00000040: b7ca b43e c8a9 5d3e 73e2 29be 1a14 58be
00000050: 7d8f d8bc bd3f 423e 9427 853e b615 463e
00000060: f6c5 cdbc 1248 d63e 4154 943e 5521 823e
00000070: 11bd 0c3e 4e3f 4e3e 11e4 a13c de18 97bd
00000080: 3b52 cabd cb36 663e 54fc 1b3e b8f8 363e
00000090: a7d1 03bd 1f66 453e b266 bdbd 187c 1f3e
000000a0: cd61 34bf 6c4e 4c3c 738b 62bd 1c38 473e
000000b0: 120d 993a 8b9d 083e 0fa3 3d3d ea2d fdbd
000000c0: 6367 953e 888e 483e 989a 93bc e64d 943d
000000d0: 89c5 743d cd7e 573d fd1f 9e3e 02ba 4a3e
000000e0: 122a 66be 35c4 0e3e 1b3d 35be 36d5 43bd
000000f0: bc25 de3c 6874 a23e 4741 5ebe e734 543e

network.6.weight f4 [64, 64]
-0.059534423 -0.085768595 0.057516485 -0.030517742 -0.024847731 -0.12467027 -0.14163159 0.03613168
-0.09987061 0.054780632 -0.05129361 -0.087386295 0.029315174 0.123955354 -0.14728335 -0.067237
0.08553563 0.040027067 -0.031119987 0.046091184 0.07579553 -0.063601434 0.085193396 -0.101148285
-0.00061410666 -0.005457729 -0.12505561 -0.029249612 -0.004068442 -0.049175486 0.002099201 0.1153128
-0.11096884 -0.07923701 0.04000913 -0.019856071 -0.08731781 0.0146561265 -0.06109041 0.065624215
0.01961656 0.046093225 0.078314364 -0.12573782 0.052794248 0.07771835 -0.023050249 -0.116509885
0.046072416 -0.08350531 -0.08268762 -0.023710012 -0.046764165 0.02238971 0.06296399 -0.05111959
-0.034709066 0.065081835 -0.017597243 -0.107154086 -0.09472354 -0.10237776 -0.0740153 -0.05772177
0.100291036 0.10202775 -0.41296133 0.023873404 0.25789064 0.005892982 0.102840245 0.14518613
-0.009887194 0.1036422 -0.082108155 -0.23818907 0.11143961 -0.10496378 0.10742713 0.00064787816
-0.4600416 0.33624086 -0.12645502 -0.0022873508 -0.03400115 0.23248719 -0.13673727 -0.28980973
-0.07856757 -0.4178439 0.11144532 0.23179062 0.1750646 -0.19853608 0.2687534 -0.062758595
-0.017201938 0.16108908 -0.007178405 -0.042956874 -0.044117082 -0.17742956 0.043249983 0.12434493
-0.8292459 0.0814383 0.08961417 0.25527442 0.011402911 0.17865083 0.086011924 -0.0050546527
-0.05912407 0.007357078 -0.06979253 0.04008069 0.042839 0.06505941 0.20406756 -0.032628845
-0.12244434 0.22066236 -0.06446512 0.091117896 0.07779546 0.07056993 0.011358146 0.06673106
0.09329921 -0.14260334 -0.25106946 0.051573858 0.13028093 -0.048346482 0.015485528 0.005193965
0.11069998 -0.04361514 0.012082825 -0.3384991 0.007067202 -0.0837527 0.015709443 -0.041532896
-0.37838018 0.004209548 0.13746725 0.0041257916 0.17639369 0.53521997 -0.033831175 -0.29072437
-0.00050056656 -0.24627106 0.08332628 0.048585292 0.08084234 -0.080826394 0.07109107 -0.028692171
0.050276566 0.045549285 -0.14459753 0.003492691 -0.05651133 -0.12705804 -0.027779644 0.058688514
-0.5835479 0.14494982 -0.09837662 0.03630403 -0.103319384 0.01802316 0.0663876 0.10722053
-0.024344018 0.040543865 -0.08687029 0.1059581 0.11596034 0.124210134 0.09631023 -0.0035487039
0.20672582 0.19742669 0.0068772067 0.033876512 0.12557352 0.15188238 0.024501067 -0.040055405
-0.053863537 -0.030449722 -0.3124399 -0.049543176 0.053639237 -0.05137579 -0.021432353 0.15515652
-0.025691308 -0.13559641 0.0905661 -0.2453853 0.09191103 -0.15580688 0.012522818 -0.04401381
-0.32839283 -0.10355735 -0.022271682 -0.07977186 0.237653 0.20445012 -0.10278366 -0.09822744
-0.025739472 -0.27161846 0.16967197 0.015585032 -0.0046470906 -0.118562184 0.17658176 0.04173125
-0.033745985 0.17032804 0.037413385 0.0009971503 0.06597107 -0.17739081 -0.06592631 0.023654582
-0.69781 0.25669926 0.022846937 0.017281696 0.06569374 -0.018830132 -0.031940755 0.11088002
0.09626242 -0.02330469 0.042283893 0.08004242 0.21662302 0.052134857 -0.00848654 0.1456369
-0.012706741 -0.06404017 0.109884806 -0.050314054 -0.048214596 0.03973872 0.092724934 -0.015155124
00000000: 5eda 73bd 72a7 afbd 6896 6b3d 5800 fabc
00000010: 788d cbbc 2053 ffbd df07 11be d0fe 133d
00000020: f688 ccbd a861 603d 4019 52bd 96f7 b2bd
00000030: 6026 f03c 4edc fd3d 72d1 16be 8db3 89bd
00000040: 4e2d af3d 6cf3 233d 58ef febc 1cca 3c3d
00000050: b03a 9b3d 7841 82bd e079 ae3d d526 cfbd
00000060: 00fc 20ba c0d6 b2bb 940e 00be e29c efbc
00000070: 9150 85bb 3c6c 49bd c092 093b 1e29 ec3d
00000080: a243 e3bd 0347 a2bd 9de0 233d 33a9 a2bc
00000090: aed3 b2bd 4020 703c f039 7abd fd65 863d
000000a0: e8b2 a03c 40cc 3c3d 4863 a03d 6ac1 00be
000000b0: c83e 583d cc2a 9f3d e0d3 bcbc bc9c eebd
000000c0: 6eb6 3c3d d504 abbd 2058 a9bd 803b c2bc
000000d0: c88b 3fbd a06a b73c 44f3 803d c662 51bd
000000e0: 182b 0ebd a049 853d 1828 90bc 9a73 dbbd
000000f0: 6afe c1bd 6eab d1bd 5595 97bd aa6d 6cbd
00000100: 6365 cd3d edf3 d03d ab6f d3be 2892 c33c
00000110: 3e0a 843e ea19 c13b e89d d23d acab 143e
00000120: e6fd 21bc 5d42 d43d 5228 a8bd d6e7 73be
00000130: 733a e43d 40f7 d6bd c102 dc3d 5ed6 293a
00000140: 938a ebbe c327 ac3e 6d7d 01be 61e7 15bb
00000150: ca44 0bbd 1f11 6e3e db04 0cbe f161 94be
00000160: 09e8 a0bd a3ef d5be 723d e43d 855a 6d3e
00000170: 2244 333e 0b4d 4bbe 0c9a 893e 9487 80bd
00000180: 14eb 8cbc 89f4 243e d338 ebbb 8cf3 2fbd
00000190: 1db4 34bd 18b0 35be e526 313d 8ea8 fe3d
000001a0: 7649 54bf 20c9 a63d a287 b73d 54b3 823e
000001b0: 46d3 3a3c 3ef0 363e 0527 b03d 80a1 a5bb
000001c0: 152c 72bd a513 f13b 63ef 8ebd a62b 243d
000001d0: f277 2f3d de3d 853d 16f7 503e d3a5 05bd
000001e0: 19c4 fabd 50f5 613e 4a06 84bd 059c ba3d
000001f0: 3a53 9f3d f886 903d 8417 3a3c 4baa 883d
00000200: a813 bf3d 9c06 12be 2d8c 80be 1c3f 533d
00000210: 5d68 053e f606 46bd 03b7 7d3c 2332 aa3b
00000220: acb6 e23d caa5 32bd 0bf7 453c c14f adbe
00000230: fd93 e73b 8986 abbd 17b1 803c 661e 2abd
00000240: 0cbb c1be 3ff0 893b 37c4 0c3e a631 873b
00000250: 8ca0 343e 2d04 093f 8f92 0abd d3d9 94be
00000260: 7438 03ba 7b2e 7cbe f8a6 aa3d 5f01 473d
00000270: ab90 a53d 4f88 a5bd 3298 913d d80b ebbc
00000280: cdee 4d3d e391 3a3d 6011 14be a2e5 643b
00000290: 6d78 67bd 811b 02be 2392 e3bc 5e63 703d
000002a0: 6563 15bf ba6d 143e ae79 c9bd 89b3 143d
000002b0: 1d99 d3bd 4ea5 933c 39f6 873d 7096 db3d
000002c0: 1b6d c7bc 5311 263d 0de9 b1bd 8f00 d93d
000002d0: 9d7c ed3d e261 fe3d 4c3e c53d 5f91 68bb
000002e0: efaf 533e 392a 4a3e 315a e13b 19c2 0a3d
000002f0: 5896 003e 0e87 1b3e 76b6 c83c 2311 24bd
00000300: 03a0 5cbd b271 f9bc 1ff8 9fbe c9ed 4abd
00000310: d1b4 5b3d 6c6f 52bd e792 afbc 5ae1 1e3e
00000320: 9476 d2bc c9d9 0abe b87a b93d 4946 7bbe
00000330: da3b bc3d d78b 1fbe 812c 4d3c d347 34bd
00000340: 1b23 a8be e015 d4bd 1a73 b6bc 6e5f a3bd
00000350: 4f5b 733e 5f5b 513e 3d80 d2bd 782b c9bd
00000360: 96db d2bc 9311 8bbe 7dbe 2d3e 5d58 7f3c
00000370: 9f46 98bb bbd0 f2bd d9d1 343e 63ee 2a3d
00000380: 3b39 0abd 796a 2e3e c73e 193d d0b2 823a
00000390: d71b 873d f0a5 35be 6004 87bd 41c7 c13c
000003a0: ada3 32bf 166e 833e 8029 bb3c 5892 8d3c
000003b0: 718a 863d a641 9abc 4fd4 02bd 1015 e33d
000003c0: 3b25 c53d 7ae9 bebc e031 2d3d 48ed a33d
000003d0: 6dd2 5d3e 5c8b 553d 210b 0bbc d721 153e
000003e0: ef2f 50bc 7e27 83bd 490b e13d 1c16 4ebd
000003f0: ab7c 45bd 11c5 223d 92e6 bd3d 324d 78bc

network.6.bias f4 [64]
-0.15413104 0.29928517 0.32563487 0.257038 0.01894205 -0.11652188 -0.0561351 -0.14625137
0.16090798 0.192031 0.32443607 -0.053178582 0.01937107 -0.045564547 -0.030305102 -0.021888826
0.106440105 0.38111356 -0.07227331 0.15375543 -0.006135615 -0.1028044 0.043621603 0.23361221
-0.018436749 0.3573609 0.27719665 -0.08281763 0.20619121 0.24652106 -0.10907319 0.14317554
0.028245576 -0.0462144 0.18288822 0.034045495 0.14846294 0.1997851 0.078484625 -0.01509486
0.04995471 -0.05685345 0.36380878 -0.15013362 -0.11056815 -0.09617373 0.07667575 0.28190503
0.3187618 0.22600189 0.17691061 -0.11656876 -0.13338369 0.2681232 -0.022382304 0.19926709
-0.00070022326 0.27426797 -0.022072941 0.3722675 -0.013608844 0.34818405 0.22470723 0.16793832
00000000: 87d4 1dbe e83b 993e 9db9 a63e 7c9a 833e
00000010: 5c2c 9b3c 06a3 eebd ebed 65bd ebc2 15be
00000020: 10c5 243e c6a3 443e 7c1c a63e c9d1 59bd
00000030: 14b0 9e3c e4a1 3abd 6842 f8bc 3250 b3bc
00000040: 45fd d93d 5121 c33e 0704 94bd 1072 1d3e
00000050: 450d c9bb 1d8b d2bd 91ac 323d 0a38 6f3e
00000060: aa08 97bc 02f8 b63e b8ec 8d3e 4a9c a9bd
00000070: ca23 533e 0470 7c3e c461 dfbd 9c9c 123e
00000080: 4463 e73c 504b 3dbd 0d47 3b3e 4a73 0b3d
00000090: ab06 183e 7794 4c3e 8cbc a03d 6f50 77bc
000000a0: 4f9d 4c3d 2adf 68bd 2545 ba3e a1bc 19be
000000b0: 8e71 e2bd bcf6 c4bd 2d08 9d3d db55 903e
000000c0: bf34 a33e 0a6d 673e 0e28 353e 9abb eebd
000000d0: bc95 08be 7247 893e 185b b7bc ac0c 4c3e
000000e0: 308f 37ba da6c 8c3e 50d2 b4bc d999 be3e
000000f0: a1f7 5ebc 2e45 b23e a719 663e 06f8 2b3e

network.8.weight f4 [11, 64]
0.08027509 0.08432696 0.19884285 0.14996453 0.019237397 -0.1149912 -0.018396696 0.07431346
0.038595162 0.14476945 0.19604234 -0.09257567 0.088624865 -0.028956443 0.10962191 -0.09488472
0.07778206 0.17890763 -0.06732997 0.17299013 0.016477725 -0.08566364 0.05719363 0.16105899
-0.05541641 0.24885827 0.20062494 -0.073723786 0.14932826 0.17171732 0.012904391 0.06899462
-0.12825431 -0.0011038777 0.0063745775 0.05924533 0.05790283 0.19650908 0.030438194 0.07245399
0.017133137 -0.043999255 0.20816217 0.070416965 -0.09249687 -0.11298227 0.04728545 0.1116203
0.017550996 0.10805077 0.04722883 0.09756599 -0.040518254 0.1684961 0.04907749 0.09795844
-0.43698442 0.16107069 -0.097645506 0.1969761 -0.048031963 0.17539519 0.19903131 0.08088625
0.03162296 0.13235939 0.18038884 0.17141974 -0.06824502 0.09000784 -0.0023487955 0.0019770009
0.072900124 0.16445826 0.20008704 0.08720115 0.12436485 -0.10544872 0.016336858 0.085770145
0.048714265 0.23335756 0.080175504 0.20098351 -0.0899696 -0.020897277 0.08600199 0.17977662
-0.104532294 0.18052414 0.197956 0.07831751 0.06995393 0.20449263 0.055129066 0.046243764
-0.12761392 -0.066362984 0.020411268 0.067585334 0.10991449 0.15692121 0.019539839 -0.070757665
0.10008717 -0.11571826 0.1366933 0.00011058226 0.018198207 0.09271775 -0.087774076 0.14170064
0.025355507 0.09892649 0.09481606 0.029391557 -0.010339841 0.11316015 -0.04515694 0.07614044
-0.3846832 0.14370549 0.03573343 0.22608382 -0.007558672 0.18876284 0.17758977 0.12326089
-0.0029040128 0.13510014 0.10737719 0.1774053 -0.06578661 0.06273165 0.07345616 -0.06119844
0.060303695 0.16895506 0.2236379 -0.013325706 -0.04187575 -0.059453234 -0.04263732 -0.021147639
0.08136884 0.21002136 0.08351524 0.18242005 -0.03647531 -0.014798784 0.03331814 0.13886805
0.06142406 0.22757445 0.16754416 0.10019778 0.14134905 0.18008094 0.006756276 0.09506556
-0.14212334 0.087664194 0.00882736 0.085396245 0.0739614 0.15270308 0.036244743 -0.041745123
-0.021550167 -0.090040565 0.14953701 0.015343811 -0.048542574 -0.043734312 0.063089974 0.16448171
0.027094223 0.15223345 0.05430859 0.11188382 0.027044207 0.09215548 -0.017862514 0.09334261
-0.4528769 0.16999245 -0.0647112 0.17617197 0.08113399 0.2641376 0.10292466 0.1444536
-0.020684972 0.1831572 0.17053455 0.18542959 -0.05499846 -0.118071854 0.069169745 -0.020741366
0.06608583 0.17199832 0.19544943 -0.0666872 0.041016616 0.0016538352 0.11699295 0.094473675
0.042086016 0.13371111 0.030798027 0.13971762 -0.057422783 0.02645015 0.09269666 0.14640492
-0.0050398353 0.2313543 0.19835882 0.1390062 0.08579429 0.15882023 0.12337835 0.15157029
-0.14289488 0.123564675 0.02205935 -0.045625083 0.08655919 0.18508312 0.024148513 -0.058504388
-0.020350626 0.08106637 0.08880639 0.08758744 0.055023834 0.034452423 -0.07904368 0.13731425
0.0015191598 0.0726583 0.10971872 -0.08793163 -0.11047217 0.17124031 0.004821368 0.069518656
-0.40077016 0.12534088 0.071628675 0.23819199 -0.11347115 0.24352318 0.13343085 0.078935206
00000000: 4467 a43d 9db3 ac3d 769d 4b3e 4d90 193e
00000010: bf97 9d3c 8280 ebbd abb4 96bc a831 983d
00000020: f615 1e3d 713e 143e 53bf 483e 5098 bdbd
00000030: f480 b53d 1036 edbc 7481 e03d ec52 c2bd
00000040: 334c 9f3d 9033 373e 4ce4 89bd 5324 313e
00000050: 4bfc 863c 6b70 afbd de43 6a3d a6ec 243e
00000060: 51fc 62bd b4d4 7e3e a070 4d3e 7ffc 96bd
00000070: 82e9 183e aad6 2f3e f06c 533c 0d4d 8d3d
00000080: 1955 03be fdaf 90ba d5e1 d03b 3bab 723d
00000090: 852b 6d3d ad39 493e 8559 f93c c262 943d
000000a0: cb5a 8c3c 9038 34bd 7728 553e c536 903d
000000b0: 006f bdbd 4063 e7bd 63ae 413d 2f99 e43d
000000c0: 1bc7 8f3c b949 dd3d 0573 413d aed0 c73d
000000d0: 78f6 25bd 3e8a 2c3e 7a05 493d 6f9e c83d
000000e0: 6cbc dfbe b7ef 243e 5efa c7bd 1ab4 493e
000000f0: 2abd 44bd cc9a 333e ddce 4b3e b1a7 a53d
00000100: 1487 013d 3889 073e dab7 383e a888 2f3e
00000110: 0cc4 8bbd 0856 b83d 40ee 19bb 9290 013b
00000120: a94c 953d bf67 283e 9ee3 4c3e 8496 b23d
00000130: 00b3 fe3d 80f5 d7bd e0d4 853c 42a8 af3d
00000140: 9c88 473d 49f5 6e3e 0e33 a43d 9fce 4d3e
00000150: fb41 b8bd c430 abbc d021 b03d 5d17 383e
00000160: 0715 d6bd 52db 383e fab4 4a3e ee64 a03d
00000170: 0244 8f3d 8466 513e 04cf 613d 1a6a 3d3d
00000180: 39ad 02be 51e9 87bd 8835 a73c 2e6a 8a3d
00000190: d91a e13d f4af 203e 0312 a03c 65e9 90bd
000001a0: 81fa cc3d b2fd ecbd 54f9 0b3e 66e8 e738
000001b0: 6814 953c cee2 bd3d e5c2 b3bd f919 113e
000001c0: 5ab6 cf3c f999 ca3d ec2e c23d 90c6 f03c
000001d0: 7068 29bc 82c0 e73d 7cf6 38bd 85ef 9b3d
000001e0: 32f5 c4be 8827 133e 385d 123d 8482 673e
000001f0: bdae f7bb 0c4b 413e 18da 353e 3570 fc3d
00000200: 4051 3ebb b157 0a3e 92e8 db3d bca9 353e
00000210: 21bb 86bd 7479 803d 2f70 963d 37ab 7abd
00000220: 0201 773d 8e02 2d3e 5501 653e 1054 5abc
00000230: e885 2bbd 3c85 73bd 78a4 2ebd d03d adbc
00000240: b5a4 a63d d70f 573e 0a0a ab3d 52cc 3a3e
00000250: 2267 15bd 9976 72bc 9a78 083d 6d33 0e3e
00000260: cc97 7b3d 4709 693e b290 2b3e 7e34 cd3d
00000270: cebd 103e 2367 383e c063 dd3b bbb1 c23d
00000280: c888 11be 4989 b33d a2a0 103c 3ae4 ae3d
00000290: 1379 973d 325e 1c3e 5e75 143d effc 2abd
000002a0: fa89 b0bc 3067 b8bd 3b20 193e 9c64 7b3c
000002b0: 94d4 46bd c022 33bd 5135 813d e56d 283e
000002c0: b4f4 dd3c 16e3 1b3e af72 5e3d 5823 e53d
000002d0: d08b dd3c 03bc bc3d 6854 92bc 692a bf3d
000002e0: 7bdf e7be 8012 2e3e 4e87 84bd 6d66 343e
000002f0: 9429 a63d 0b3d 873e 2aca d23d a5eb 133e
00000300: 8873 a9bc 908d 3b3e 9ca0 2e3e 41e1 3d3e
00000310: 1146 61bd a8cf f1bd dea8 8d3d cce9 a9bc
00000320: 0258 873d 5420 303e e523 483e 4c93 88bd
00000330: 0a01 283d 80c5 d83a 009a ef3d 6a7b c13d
00000340: 6362 2c3d 91eb 083e 254c fc3c 2312 0f3e
00000350: 2734 6bbd fcad d83c bfd7 bd3d 2ceb 153e
00000360: 3425 a5bb 24e8 6c3e 931e 4b3e a457 0e3e
00000370: ebb4 af3d c5a1 223e caad fc3d 3e35 1b3e
00000380: 0953 12be 7a0f fd3d cfb5 b43c 5ee1 3abd
00000390: f245 b13d 6e86 3d3e 1ad3 c53c 4ca2 6fbd
000003a0: 5bb6 a6bc 2006 a63d 20e0 b53d 0b61 b33d
000003b0: ac60 613d fc1d 0d3d a7e1 a1bd 1b9c 0c3e
000003c0: 8b1e c73a e0cd 943d 35b4 e03d 8015 b4bd
000003d0: 3c3f e2bd 9f59 2f3e 91fc 9d3b cc5f 8e3d
000003e0: bf31 cdbe 5c59 003e 0eb2 923d 9ae8 733e
000003f0: 9063 e8bd 245e 793e 19a2 083e c8a8 a13d

network.8.bias f4 [11]
-0.00059733447 -0.013604991 -0.013718338 -0.004537619 0.044732854 0.12070637 0.1922878 0.25532675
0.2699556 0.25822812 0.26290384
00000000: 7096 1cba 78e7 5ebc e1c2 60bc 4fb0 94bb
00000010: cc39 373d e734 f73d 18e7 443e 30ba 823e
00000020: 9f37 8a3e 7a36 843e 559b 863e
