model/model_145.pth (torch, 35975 bytes, 10 tensors)

network.0.weight f4 [16, 6]
0	0xbe9ae580	-0.3025322
1	0xbef381b6	-0.475599
2	0x3d009741	0.031394247
3	0x3d0206d1	0.031744782
4	0xbf4132c6	-0.754681
5	0x3ce2fd8d	0.027708793
6	0xbeca4547	-0.3950598
7	0xbde5efa4	-0.112273484
8	0x3e26734f	0.16254924
9	0x3d18d0ec	0.03730862
10	0x3cf7e228	0.030259207
11	0x3e9c321d	0.30506983
12	0xbe9aaca2	-0.30209833
13	0xbee06f6e	-0.43835014
14	0xbe1d67cc	-0.15371627
15	0xbebd36a6	-0.36955756
16	0x3f053900	0.520401
17	0xbde0b81c	-0.10972616
18	0x3d068b8a	0.03284792
19	0x3df9b6b1	0.12193049
20	0x3eeb94f5	0.46012083
21	0x3ee69c9f	0.45041367
22	0xbeba004a	-0.36328346
23	0x3d4dce4e	0.050245576
24	0xbee2fcc6	-0.44333476
25	0x3f4c70c7	0.79859585
26	0xbc5ff942	-0.013670268
27	0xbeff457f	-0.4985771
28	0x3f0d256d	0.5513523
29	0x3ca7c836	0.02048121
30	0x3ec0dfbb	0.37670693
31	0x3f891445	1.0709311
32	0x3e0fd014	0.1404422
33	0xbeee8999	-0.46589354
34	0x3e9b3da8	0.30320477
35	0xbe6cc47b	-0.23121826
36	0xbea59faa	-0.32348377
37	0x3ec6980b	0.38787875
38	0xbe2b79ef	-0.16745733
39	0xbe012c33	-0.12614517
40	0xbf3675e5	-0.7127364
41	0x3e8d8ccd	0.27646485
42	0x3e95c4b9	0.2925165
43	0xbf327d76	-0.6972269
44	0xbdcf27b5	-0.101149954
45	0xbe449b43	-0.19199853
46	0x3dd9a146	0.106264636
47	0x3e681731	0.22665097
48	0xbf5e55a1	-0.8684941
49	0x3f15d03c	0.58520865
50	0xbd244c29	-0.040111694
51	0x3f6e6843	0.9312784
52	0x3f3cf29d	0.738077
53	0xbe8df6a6	-0.2772724
54	0x3e73d2f6	0.23810944
55	0xbea81938	-0.3283174
56	0x3cfe3d5d	0.03103512
57	0xbf477bda	-0.7792336
58	0xbda174b7	-0.0788359
59	0x3e51b50a	0.20479217
60	0x3e45c8d1	0.19314887
61	0xbf6791ae	-0.90456665
62	0xbe21c5ca	-0.15798107
63	0xbe2e667f	-0.17031287
64	0x3f176761	0.5914212
65	0xbcb436c4	-0.02199877
66	0x3ef2623b	0.4734057
67	0xbe9d69a2	-0.30744654
68	0x3e1108dc	0.14163536
69	0x3d397b22	0.045283444
70	0x3f421d76	0.75826204
71	0xbe170e5e	-0.14751574
72	0x3f00be31	0.5029021
73	0xbfa36260	-1.2764397
74	0xbe296670	-0.16542983
75	0xbe8b9ebe	-0.27269548
76	0xbf141834	-0.5784943
77	0xbd36b4d6	-0.044606052
78	0xbedc934a	-0.43081123
79	0x3dc75a59	0.09734029
80	0x3e6751e2	0.2258983
81	0xbf1e52da	-0.6184517
82	0xbe467361	-0.19379951
83	0xbd98cdd0	-0.074611306
84	0xbe4a376e	-0.19747707
85	0x3f2424b9	0.64118534
86	0x3bf7b8ad	0.007559857
87	0xbedbadc8	-0.42906022
88	0xbf2acab4	-0.6671555
89	0xbe4ebc48	-0.20189011
90	0x3f0d47b2	0.55187523
91	0xbf44234c	-0.7661636
92	0xbc28f971	-0.010313378
93	0x3d8c1beb	0.068412624
94	0xbeb122ee	-0.34596962
95	0xbe445fe1	-0.191772

network.0.bias f4 [16]
0	0xbe949b3e	-0.2902469
1	0x3e3a4b2d	0.1819274
2	0x3d214cba	0.039379813
3	0x3e7dbbf9	0.24778737
4	0xbc600f9e	-0.013675598
5	0x3e0f57d0	0.13998342
6	0xbe996601	-0.29960635
7	0x3ddd0a4f	0.10792982
8	0x3d79b373	0.06096215
9	0x3d080993	0.033212256
10	0x3dca19ae	0.09868179
11	0x3ea0f32b	0.31435522
12	0x3eae633b	0.34060082
13	0x3dadc6da	0.084851936
14	0x3e9eafbe	0.30993456
15	0xbef61fd4	-0.48071158

network.2.weight f4 [32, 16]
0	0x3cec7226	0.028863024
1	0xbc4dc8b9	-0.012560063
2	0xbe321c54	-0.17393619
3	0xbdc09dea	-0.0940512
4	0xbd09bc39	-0.03362677
5	0x3e081cf4	0.13292295
6	0xbe204c55	-0.15654118
7	0x3eaa381c	0.33245933
8	0xbe86f53d	-0.26358977
9	0x3dc510cf	0.096223466
10	0x3e0909c0	0.13382626
11	0x3cc71883	0.02430368
12	0xbe9de158	-0.30835986
13	0xbe174bfa	-0.14775077
14	0x3e84a4f7	0.25907108
15	0xbd94f125	-0.07272557
16	0xbf4f65f2	-0.8101493
17	0xbea2c6a2	-0.3179217
18	0xbe373f43	-0.17895226
19	0xbf0c855c	-0.5489099
20	0x3d0a0428	0.03369537
21	0x3e992332	0.29909664
22	0xbe2e15e3	-0.17000537
23	0xbe946cee	-0.28989357
24	0x3e069096	0.13141093
25	0x3dd8d6d4	0.1058785
26	0xbe206e89	-0.15667166
27	0xbe5c2ed2	-0.21502236
28	0x3de37a74	0.111073405
29	0xbf251560	-0.6448574
30	0xbe0d3eb8	-0.13793457
31	0xbe740be1	-0.23832656
32	0x3d121ad8	0.03567013
33	0xbd7aac28	-0.061199337
34	0xbe44c636	-0.19216236
35	0xbe195f76	-0.14977822
36	0xbd32a580	-0.043614864
37	0xbc8dc1f0	-0.01730439
38	0xbe0e8db8	-0.13921249
39	0x3cec3d00	0.02883768
40	0xbd53ee50	-0.051740944
41	0x3deea8f0	0.11653316
42	0x3c9faed0	0.019492537
43	0x3d49b908	0.049248725
44	0xbe5a13fe	-0.21296689
45	0xbd3ef4b8	-0.0466201
46	0xbe3cdf78	-0.18444622
47	0xbd2d18d8	-0.04226002
48	0x3eadd81c	0.3395394
49	0x3d96d631	0.073650725
50	0x3b00c4d1	0.0019648562
51	0x3e42b712	0.19015148
52	0x3e84c253	0.25929508
53	0x3bac1434	0.005251432
54	0xbdf340fe	-0.11877631
55	0xbd41a82b	-0.047279518
56	0x3d9a4670	0.07532966
57	0xbdcdd009	-0.10049445
58	0x3dd8fa7d	0.10594652
59	0xbe86f730	-0.26360464
60	0xbe0ec04f	-0.13940547
61	0xbe3beb3f	-0.18351458
62	0x3d4e9240	0.050432444
63	0xbe0fab34	-0.14030153
64	0xbe1befaa	-0.15228143
65	0xbe758c0e	-0.23979208
66	0xbe2c9784	-0.16854674
67	0x3e9eaa69	0.30989388
68	0xbc9348c3	-0.017979031
69	0xbe0b13fc	-0.13581842
70	0xbcf7acce	-0.030233767
71	0xbf160d62	-0.5861417
72	0x3dd53656	0.104107544
73	0x3e606daa	0.21916834
74	0xbce52bf6	-0.027975064
75	0x3c01d39f	0.00792399
76	0xbe80c646	-0.2515127
77	0xbe223577	-0.15840708
78	0x3e1c53d1	0.15266348
79	0x3e322c74	0.1739977
80	0xbf8f2bdf	-1.1185263
81	0x3da5a7c0	0.080886364
82	0x3e5d247f	0.21595953
83	0xbd118300	-0.035525322
84	0x3ec1e9a5	0.3787357
85	0xbefa088d	-0.4883465
86	0xbe7c376b	-0.24630515
87	0xbe0e98ff	-0.13925551
88	0xbf1feb2a	-0.62468207
89	0xbe77f590	-0.24214768
90	0x3df5f372	0.12009324
91	0x3e52f2fe	0.20600507
92	0xbba8edc8	-0.005155299
93	0x3d9b4e23	0.07583263
94	0x3e58876a	0.21145406
95	0x3d82f168	0.06393701
96	0xbf1c6ca0	-0.6110325
97	0x3cf26a60	0.02959174
98	0xbe4f26f7	-0.20229708
99	0x3ed3791b	0.41303334
100	0xbe4c2947	-0.19937621
101	0xbd8f7c76	-0.07006161
102	0x3eb8e718	0.3611381
103	0xbe06eab8	-0.13175476
104	0xbd23f01a	-0.0400239
105	0xbe514837	-0.20437704
106	0x3e6a83bc	0.22901815
107	0x3e9e607a	0.3093298
108	0x3e502ea3	0.2033029
109	0xbe859280	-0.26088333
110	0x3dc02a17	0.09383028
111	0xbe71339d	-0.23554845
112	0x3f283c57	0.6571707
113	0xbe92b3cf	-0.28652808
114	0x3d063c84	0.032772556
115	0x3e56cccb	0.2097656
116	0x3e59ab94	0.21256858
117	0x3cad3aa6	0.02114613
118	0x3df5acc3	0.11995842
119	0x3e15bea2	0.14623502
120	0xbd687073	-0.056747865
121	0xbc7911a0	-0.015201956
122	0x3e97a329	0.2961667
123	0x3b3d7672	0.002890971
124	0xbdb62378	-0.08893484
125	0xbd51eaef	-0.05124944
126	0xbe567cda	-0.20946065
127	0xbe868dee	-0.2628016
128	0x3eab5b86	0.33468264
129	0x3db108fd	0.086442925
130	0x3e863eef	0.2621989
131	0xbdd44e22	-0.10366465
132	0x3e8bac89	0.2728007
133	0xbdf2b715	-0.118513264
134	0x3e8981af	0.26856753
135	0x3e22b796	0.15890345
136	0x3ebc9f8d	0.36840478
137	0xbeedbfb4	-0.4643532
138	0x3e850db0	0.25987005
139	0x3e13b82e	0.14425728
140	0x3ecb20f3	0.39673576
141	0xbdc850e7	-0.09781056
142	0xbf0a260b	-0.539643
143	0xbd82fde3	-0.06396081
144	0x3e7bc1d8	0.24585664
145	0xbdf93302	-0.12167932
146	0x3da47504	0.080301315
147	0xbd72232e	-0.05911558
148	0x3e9ec051	0.310061
149	0xbe123a14	-0.14279968
150	0xbee03ec0	-0.43797874
151	0x3d815f23	0.06316974
152	0x3de02b16	0.10945718
153	0x3e057711	0.13033701
154	0x3e7643ae	0.24049255
155	0xbddda86f	-0.10823142
156	0x3e4e8769	0.20168842
157	0x3dcc2e6e	0.09969793
158	0x3e84d8f7	0.2594678
159	0x3dc5dda0	0.09661412
160	0xbf332a45	-0.69986373
161	0xbf43c4a5	-0.7647193
162	0xbdaf7f33	-0.08569183
163	0x3de46e0a	0.11153801
164	0xbe149190	-0.14508653
165	0x3dcbed2d	0.09957347
166	0x3e2eb551	0.17061354
167	0xbdd42d4a	-0.10360201
168	0xbe7eef8d	-0.24896069
169	0x3ea73cb2	0.32663494
170	0xbe05fb10	-0.13084054
171	0xbe16cbaa	-0.14726129
172	0xbd1769fb	-0.036966305
173	0xbeee69ad	-0.46565
174	0x3e46df82	0.19421199
175	0x3ec88701	0.391655
176	0x3c9b95d0	0.018992335
177	0x3e31a7c8	0.1734916
178	0x3ec40b56	0.382899
179	0x3ddf917a	0.10916419
180	0x3e1274c0	0.14302349
181	0xbdd71cfb	-0.105035745
182	0x3d043ca7	0.032284405
183	0xbab44bc1	-0.0013755487
184	0xbe025f91	-0.12731768
185	0x3e95879e	0.2920503
186	0xbd95fb58	-0.07323331
187	0xbe197f74	-0.14990026
188	0x3c2fa286	0.010719901
189	0xbe09780a	-0.13424698
190	0xbe0bc9a2	-0.13651136
191	0x3f298a01	0.662262
192	0x3e5272cc	0.20551604
193	0x3ca7f88c	0.020504259
194	0x3e4ea62d	0.20180579
195	0xbe920b36	-0.28524178
196	0xbdf429fb	-0.1192207
197	0xbe115c37	-0.14195333
198	0x3e8ddd99	0.27708128
199	0xbe2cdedc	-0.16881889
200	0x3e37151d	0.17879148
201	0xbdf60b5e	-0.12013887
202	0x3c76bdae	0.015059872
203	0xbe728117	-0.23682056
204	0xbe8a3fb8	-0.2700174
205	0xbcd4d408	-0.02598001
206	0x3d8c74db	0.06858226
207	0x3e2c904d	0.16851921
208	0x3eadf944	0.33979237
209	0xbe432f1b	-0.19060938
210	0xbc145b53	-0.0090549765
211	0xbc22d083	-0.009937408
212	0xbe102e40	-0.14080143
213	0xbe42e8a5	-0.1903406
214	0x3ea8d103	0.32971963
215	0x3daef2a9	0.085423775
216	0x3d3c7c42	0.04601694
217	0x3e12a4b5	0.14320643
218	0x3d836a28	0.06416732
219	0xbd358dd6	-0.04432472
220	0xbed6380c	-0.41839635
221	0xbec80071	-0.39062837
222	0x3e8cdc96	0.27512044
223	0x3eb3595f	0.35029122
224	0x3eac9cb8	0.33713317
225	0x3da03863	0.07823255
226	0xbe1be3d5	-0.1522363
227	0xbdaabc08	-0.08336645
228	0xbc75453c	-0.01497012
229	0x3e1d57f4	0.15365583
230	0x3e6ef5f7	0.23336016
231	0x3e5a4400	0.21315002
232	0xbe031191	-0.1279967
233	0x3d88dade	0.066823706
234	0x3e322082	0.17395213
235	0x3dd1117f	0.10208415
236	0x3b068fb8	0.002053244
237	0x3e1003a5	0.1406389
238	0xbd3f64cd	-0.04672699
239	0xbd792e38	-0.060835093
240	0x3e8eaf9c	0.27868354
241	0x3d9f394a	0.07774599
242	0x3dc987c7	0.098403506
243	0x3da74165	0.0816677
244	0xbf5834ea	-0.8445574
245	0xbdbeb033	-0.09310951
246	0x3eadd5e2	0.33952242
247	0xbc95d92c	-0.018292032
248	0x3e936c19	0.2879341
249	0x3d2e4b33	0.042552184
250	0x3d93d6ed	0.07218728
251	0xbe5c997b	-0.21542923
252	0x3e48a9f4	0.19596082
253	0x3ede3187	0.4339716
254	0xbe2a8051	-0.16650511
255	0xbeea9438	-0.45816207

network.2.bias f4 [32]
0	0x3e88c525	0.2671291
1	0x3e8ed084	0.2789346
2	0xbe5783a6	-0.21046314
3	0x3e4efa78	0.20212734
4	0x3e74257c	0.23842424
5	0x3bafccd4	0.0053649936
6	0x3e5dbd72	0.21654299
7	0xbe15bc28	-0.14622557
8	0xbe205f5d	-0.15661378
9	0x3cea431f	0.028596459
10	0x3e1deda0	0.15422678
11	0x3e3983b0	0.18116641
12	0x3eb18385	0.34670654
13	0xbe3bd0af	-0.18341325
14	0x3eb70cd1	0.35751966
15	0xbe589f8f	-0.21154617
16	0x3d5cf870	0.053947866
17	0xbe45200e	-0.19250509
18	0xbe974062	-0.29541308
19	0x3e451a45	0.19248302
20	0xbe059c78	-0.1304797
21	0x3da9f91f	0.08299469
22	0x3e641c60	0.22276449
23	0x3e14a2a4	0.14515167
24	0xbe71281e	-0.2355046
25	0xbd8c31ab	-0.06845411
26	0xbe827ed1	-0.25487378
27	0x3e1d673c	0.15371412
28	0xbda35f43	-0.07977154
29	0x3dd6a3df	0.10480475
30	0x3eb66d17	0.35630104
31	0x3e80ed93	0.25181255

network.4.weight f4 [64, 32]
0	0x3e94c798	0.29058528
1	0xbe65b3a5	-0.2243181
2	0xbd053675	-0.032522637
3	0xbdcfd555	-0.10148112
4	0xbc0faaa4	-0.008768711
5	0x3e959a55	0.29219308
6	0xbe119607	-0.14217387
7	0x3e3d9ab1	0.18516041
8	0xbe71d3b2	-0.23615912
9	0x3c466745	0.012109582
10	0x3ef33b30	0.47506094
11	0xbe37a572	-0.17934206
12	0xbe2f9341	-0.17146017
13	0xbe2346fa	-0.15945044
14	0x3dd6fcdd	0.104974486
15	0x3ae6b322	0.0017600993
16	0x3d78bf36	0.060729228
17	0x3d62b495	0.055347998
18	0xbda2af20	-0.07943559
19	0x3e29ae2a	0.16570345
20	0xbe54cc25	-0.20781
21	0x3ddc7a1e	0.107654795
22	0x3e927f67	0.28612825
23	0x3e03be4b	0.1286556
24	0x3dfd5b73	0.12370958
25	0xbd9184b6	-0.07105391
26	0x3c932067	0.017959787
27	0xbdce949f	-0.10086941
28	0xbe8fdb6b	-0.2809709
29	0x3ba03dab	0.004890164
30	0x3e3dbc23	0.185288
31	0x3ce359ef	0.027752845
32	0x3e15acd3	0.14616708
33	0x3e12af5e	0.1432471
34	0x3bbb10fc	0.005708812
35	0xbdb6cc45	-0.0892568
36	0x3d2c9f3c	0.042144045
37	0x3e18a172	0.14905336
38	0xbd5b3984	-0.053521648
39	0xbe1fa94d	-0.15591927
40	0xbdebae87	-0.11507898
41	0x3e06e521	0.13173343
42	0xbe0327cf	-0.12808155
43	0xbdb62283	-0.08893301
44	0xbe005751	-0.12533309
45	0xbd863183	-0.06552412
46	0xbdaee8f3	-0.08540525
47	0x3e09a7cc	0.13442916
48	0x3e116c28	0.14201415
49	0x3cebc33b	0.028779617
50	0xbe0ba535	-0.1363724
51	0xbdfa4160	-0.122195005
52	0x3dd321e8	0.103092015
53	0xbd97fa62	-0.074208036
54	0xbc0f4c9c	-0.008746292
55	0xbe10cc92	-0.14140537
56	0xbd3343ce	-0.043765835
57	0xbe069937	-0.13144384
58	0x3d01d177	0.031693902
59	0xbd76d6c0	-0.060263395
60	0x3e20e5b4	0.15712625
61	0x3da8f36f	0.08249556
62	0xbde66aab	-0.11250814
63	0xbd0b58d4	-0.03402026
64	0xbcdaada5	-0.026694128
65	0xbe84846e	-0.25882286
66	0xbde0da4e	-0.10979138
67	0x3c57deba	0.013175661
68	0xbce46cc9	-0.027883904
69	0x3ee9c2be	0.4565639
70	0xbd8701bc	-0.06592128
71	0x3e9d1f91	0.30688146
72	0x3e664b39	0.22489633
73	0x3e5501b3	0.2080143
74	0x3efc81f2	0.4931789
75	0x3d81aef9	0.063322015
76	0xbd2ac9b0	-0.04169625
77	0xbeeb21c9	-0.45924214
78	0xbdd4f8a8	-0.1039899
79	0x3ea98a6f	0.3311343
80	0x3d56ae89	0.052412543
81	0xbe052610	-0.13002801
82	0xbca99129	-0.0206991
83	0x3e15d0de	0.14630458
84	0xbe8d4f77	-0.2759969
85	0xbc553def	-0.013015254
86	0x3d96fb18	0.07372111
87	0xbd6169a1	-0.055032376
88	0x3e8e6b89	0.27816418
89	0x3d9f24f2	0.07770719
90	0xbde3018e	-0.11084281
91	0x3d3c17de	0.0459212
92	0xbf164703	-0.58702105
93	0x3d5bffa9	0.053710613
94	0x3e3e073a	0.18557444
95	0x3ccc4f62	0.024940196
96	0x3e214d71	0.15752198
97	0xbeb56808	-0.35430932
98	0xbd0c039e	-0.034183137
99	0x3da4cf9d	0.080474116
100	0x3debb656	0.11509387
101	0x3ea3e103	0.32007608
102	0xbd735c7b	-0.059414368
103	0x3e9811f5	0.297012
104	0x3e3d12ef	0.18464254
105	0xbc96d47a	-0.018411864
106	0x3f29c18b	0.6631095
107	0x3c9acf72	0.018897746
108	0xbd070edb	-0.03297315
109	0xbecebc15	-0.4037787
110	0xbcfe6785	-0.031055221
111	0x3e2a8b7f	0.16654776
112	0x3e500d9b	0.2031769
113	0x3dffe052	0.124939576
114	0xbe4534e3	-0.19258456
115	0x3e416833	0.18887405
116	0xbea1f1b4	-0.31629717
117	0x3d2c8154	0.042115524
118	0x3d87897c	0.0661802
119	0x3dbccd92	0.09218897
120	0x3df550f2	0.1197833
121	0x3ce194e7	0.027536822
122	0xbc922fcb	-0.017845055
123	0x3d5e644e	0.054294877
124	0xbe87fd07	-0.26560232
125	0x3c0e3164	0.008678768
126	0xbc4cfab2	-0.012510942
127	0xbdb8548f	-0.09000503
128	0xbcca0137	-0.024658782
129	0x3d89c3cb	0.06726798
130	0xbd22b0b9	-0.039719317
131	0x3e08357b	0.13301651
132	0x3ce0a578	0.027422652
133	0xbd92336f	-0.071387164
134	0x3ce4c164	0.027924247
135	0xbd7b92fb	-0.06141947
136	0xbdc7ae3e	-0.09750031
137	0xbbb638a0	-0.0055609494
138	0xbe09d77a	-0.13461104
139	0xbe2e75e7	-0.17037164
140	0xbd9746bc	-0.073865384
141	0xbd79c869	-0.06098214
142	0x3e148d61	0.14507057
143	0xbe0da6ee	-0.1383321
144	0x3cb4f450	0.022089154
145	0xbdf79716	-0.12089364
146	0xbe07b750	-0.13253522
147	0x3df94ebb	0.1217322
148	0xbe193350	-0.1496098
149	0x3c2aa3bb	0.010415013
150	0xbe36cba4	-0.1785112
151	0xbd356a60	-0.0442909
152	0xbcc352c4	-0.023843177
153	0xbdbaa218	-0.09112948
154	0xbcd42e0f	-0.025900869
155	0xbe3c6671	-0.18398453
156	0xbd84136b	-0.06449016
157	0x3db216e3	0.086957715
158	0xbdfaae91	-0.12240327
159	0x3d6a83f9	0.057254765
160	0x3e9158cb	0.28388056
161	0xbcb11b5a	-0.021619488
162	0xbcbf584b	-0.023357531
163	0x3a9d529c	0.0012002769
164	0xbe017162	-0.12640908
165	0x3e800771	0.25005677
166	0xbe36c7ad	-0.17849608
167	0x3e535415	0.20637543
168	0x3daf668c	0.08564481
169	0x3e554529	0.20827164
170	0x3ef18d29	0.4717801
171	0x3df0566c	0.11735234
172	0x3e24844b	0.16066091
173	0xbe8a8e2b	-0.2706159
174	0xbdcc0e3e	-0.09963654
175	0x3b7747c0	0.0037731975
176	0xbc558e16	-0.013034364
177	0xbdfa27b5	-0.12214605
178	0xbe1fbe3c	-0.15599912
179	0x3e4a8758	0.19778192
180	0xbeabdf8e	-0.33568996
181	0x3e862ce6	0.2620613
182	0x3dd69f91	0.104796536
183	0xbd231e61	-0.039823893
184	0x3e1a1a63	0.15049128
185	0x3dc32175	0.09527866
186	0xbe8e0d5e	-0.27744573
187	0xbd9b968b	-0.07597073
188	0xbe312564	-0.1729942
189	0x3de790e6	0.11306934
190	0x3ddd63a8	0.108100235
191	0x3dcbe8f8	0.09956545
192	0xbde2b7f8	-0.110702455
193	0xbf15b742	-0.58482754
194	0x3e2a506d	0.16632243
195	0x3e3c8626	0.18410549
196	0xbea0b5ae	-0.3138861
197	0x3ec39eab	0.38206992
198	0x3db0e1a1	0.08636785
199	0x3e40e549	0.18837465
200	0x3e1691db	0.14704077
201	0xbeb44e78	-0.35216117
202	0x3efb56fd	0.49089804
203	0xbdb64e4b	-0.08901652
204	0xbd6347d5	-0.055488426
205	0xbd51ad32	-0.051190563
206	0x3e6d30db	0.23163168
207	0x3dfe4dc5	0.12417177
208	0x3c9ab8b3	0.0188869
209	0xbd2dfa3a	-0.042474963
210	0x3ecf71c6	0.4051649
211	0xbdc477c8	-0.09593159
212	0x3c291c74	0.010321725
213	0x3ea0bc63	0.31393728
214	0xbdc52caf	-0.09627663
215	0xbe0b4361	-0.13599922
216	0xbeca7528	-0.39542508
217	0xbe3f01c4	-0.18653017
218	0xbe413b87	-0.18870364
219	0xbe02c9c2	-0.12772277
220	0xbdb49c7c	-0.088189095
221	0x3e0a23c5	0.13490207
222	0xbe22d45c	-0.15901321
223	0xbe0da016	-0.13830599
224	0x3e86bf37	0.2631776
225	0x3e88a329	0.2668698
226	0x3c11a207	0.008888728
227	0x3ceaf0c8	0.028679267
228	0x3d47d0a8	0.048782974
229	0xbe20cf0d	-0.15703984
230	0x3ea793b7	0.32729885
231	0xbdbc1c14	-0.09185043
232	0xbf497978	-0.7870097
233	0xbd37d0a9	-0.04487673
234	0xbed65fae	-0.41869873
235	0x3ec48d68	0.38389134
236	0xbd29e8eb	-0.041481894
237	0xbe977506	-0.2958147
238	0x3ce813f0	0.02832982
239	0xbeb85f90	-0.36010408
240	0xbe92c7d1	-0.28668073
241	0x3d76db4e	0.06026774
242	0x3ee2bba1	0.44283774
243	0x3e6b349f	0.22969292
244	0x3f1f942d	0.62335473
245	0xbf539743	-0.8265268
246	0xbe8a5cf1	-0.27024034
247	0xbdf2cee6	-0.11855869
248	0xbecd2f50	-0.4007516
249	0xbf0a5733	-0.54039305
250	0x3ecece44	0.40391743
251	0xbc7e89cb	-0.015535782
252	0xbe622ef5	-0.22088225
253	0x3da17539	0.078836866
254	0xbddb71b5	-0.10715047
255	0x3d93f95a	0.072252944

network.4.bias f4 [64]
0	0xbd95e47b	-0.0731897
1	0xbcf36b49	-0.029714243
2	0x3e2b3a99	0.16721572
3	0x3cadda9b	0.021222403
4	0xbd90fd9d	-0.07079623
5	0x3e33756e	0.17525265
6	0x3e7561ec	0.23963135
7	0x3e7cd112	0.24689129
8	0x3e2e9398	0.1704849
9	0xbd0dfaa0	-0.034662843
10	0xbeaa7f6b	-0.33300337
11	0x3dbdbde3	0.09264734
12	0xbdf5bec4	-0.11999276
13	0x3d9c6cf7	0.07637971
14	0x3d8bf0e9	0.06833059
15	0x3e895470	0.26822233
16	0xbd6962d8	-0.05697903
17	0xbdceff99	-0.10107345
18	0x3e515b63	0.20445018
19	0x3e043c82	0.12913707
20	0xbe1e24b7	-0.15443693
21	0x3ce4e738	0.027942285
22	0x3c5e9c70	0.013587102
23	0x3e5af9d8	0.2138437
24	0xbe1ad1ea	-0.15119138
25	0x3cbaf791	0.022823127
26	0x3e9f98b9	0.31171206
27	0x3e0ed8b6	0.13949856
28	0x3e955fad	0.29174557
29	0xbd7f8b33	-0.06238861
30	0x3e248962	0.16068032
31	0x3e108c6e	0.1411607
32	0x3e8dddf4	0.277084
33	0x3e6dbdf3	0.23216991
34	0x3e02a243	0.1275721
35	0x3c8f4a82	0.017491583
36	0x3eabacca	0.33530265
37	0x3ddad440	0.10685015
38	0x3c92928a	0.01789214
39	0x3e300c99	0.17192306
40	0x3e86090c	0.26178777
41	0x3d51227f	0.05105829
42	0x3da7f2b9	0.082005925
43	0xbe578fde	-0.21050975
44	0x3e05e764	0.1307655
45	0x3e9bcc6b	0.30429396
46	0x3ce892a7	0.028390242
47	0xbcdfb571	-0.027308198
48	0x3ccc6e87	0.024955047
49	0x3ccd768e	0.025080945
50	0x3e1e344f	0.15449642
51	0x3e97bda6	0.29636878
52	0x3da1dfa6	0.07903986
53	0x3ea64420	0.3247385
54	0x3db3f90a	0.08787735
55	0xbcb6c58c	-0.022310995
56	0xba1ce2a4	-0.00059847
57	0x3dd4f197	0.10397642
58	0xbd95576f	-0.07292067
59	0xbdd00634	-0.10157433
60	0x3ea3a008	0.31958032
61	0x3e338aa6	0.17533359
62	0x3ea7f8c0	0.3280697
63	0x3e6dc408	0.23219311

network.6.weight f4 [64, 64]
0	0xbd3a3d32	-0.045468517
1	0xbc8182d0	-0.015809447
2	0x3e46b89d	0.19406362
3	0x3da746a3	0.0816777
4	0x3d85e256	0.06537311
5	0x3c57cf60	0.013172001
6	0x3eccb3f4	0.39981043
7	0xbeff45ef	-0.49858043
8	0x3e3fa219	0.18714179
9	0xbd630bed	-0.055431295
10	0xbef0308b	-0.46912035
11	0x3e280e41	0.16411687
12	0x3b5970e2	0.0033178856
13	0x3e69bb9f	0.22825478
14	0x3eac8ab5	0.33699575
15	0x3e7725dc	0.24135536
16	0x3d320456	0.043461166
17	0xbc9dbc38	-0.019254789
18	0x3d5f9714	0.05458744
19	0x3b58c9bf	0.0033079234
20	0xbd0411ea	-0.032243647
21	0x3e318bcc	0.17338485
22	0x3eb9d769	0.36297157
23	0x3d2f7952	0.04284031
24	0xbc52f226	-0.0128751155
25	0xbd39a9f0	-0.04532808
26	0x3e620927	0.22073804
27	0x3eb83883	0.35980615
28	0x3dc91dfe	0.09820174
29	0x3e7b123d	0.24518676
30	0xbcac9ecd	-0.021071816
31	0x3e443908	0.1916238
32	0x3e477f62	0.19482186
33	0x3e567501	0.20943071
34	0x3e216537	0.15761267
35	0xbf1c5dda	-0.61080706
36	0x3e81f155	0.25379434
37	0x3e70c1ef	0.2351148
38	0x3e302046	0.17199811
39	0xbcb9c900	-0.022678852
40	0x3d967eea	0.07348426
41	0xbf7ec4b5	-0.995189
42	0x3dafa25f	0.08575892
43	0xbc0b2681	-0.008493067
44	0x3be91d17	0.0071140635
45	0x3db764d2	0.08954777
46	0xbc85e44e	-0.016344216
47	0x3e930ae1	0.28719237
48	0x3f2892e7	0.65849155
49	0x3e104f66	0.14092788
50	0x3e403a6a	0.18772283
51	0x3e31fd95	0.1738189
52	0x3d989fe0	0.07452369
53	0x3dfc160d	0.12308893
54	0xbdbca0a7	-0.092103295
55	0x3e0f4bc4	0.13993746
56	0x3d490a85	0.049082298
57	0x3e1a412f	0.15063928
58	0xbc4aaa63	-0.012369725
59	0x3e49bd9b	0.19701235
60	0x3e1301af	0.14356111
61	0x3d51f5ad	0.051259685
62	0x3e399157	0.18121849
63	0x3ca2d323	0.019876068
64	0x3d79b579	0.06096408
65	0x3d419f78	0.047271222
66	0x3df6437f	0.120245926
67	0x3da51d09	0.08062179
68	0xbdb08c7f	-0.086205475
69	0x3d1291bc	0.035783514
70	0x3dc1c436	0.094612524
71	0xbf400dfa	-0.75021327
72	0x3e00eabe	0.12589547
73	0x3c319440	0.010838568
74	0xbeae0c3f	-0.33993718
75	0x3dec41b1	0.11535967
76	0x3d21a1d7	0.039460983
77	0x3d1b4415	0.037906725
78	0x3ec9831b	0.39357838
79	0x3bbebf80	0.0058211684
80	0xbe37fc28	-0.17967284
81	0x3cc1e560	0.023668945
82	0x3cbb1080	0.022835016
83	0xbd356aaf	-0.044291195
84	0x3e00edc2	0.12590697
85	0xbb5b8903	-0.0033498413
86	0x3f112887	0.56702465
87	0x3dd1f9c9	0.10252721
88	0xbd7912fe	-0.060809128
89	0xbe05cc02	-0.13066104
90	0xbcb88037	-0.022522075
91	0x3ed3b7a1	0.41351035
92	0x3da4df39	0.08050389
93	0x3dce9998	0.100878894
94	0xbcbebfe9	-0.02328487
95	0x3dd1cefc	0.10244557
96	0xbc8da4b4	-0.01729045
97	0x3de07ea2	0.10961653
98	0x3c9aa418	0.018877074
99	0xbef11d79	-0.47092798
100	0x3e507104	0.20355612
101	0x3caad9f8	0.020855889
102	0x3e3b29c7	0.18277656
103	0x3e44f9fb	0.19235985
104	0x3e43d33f	0.19123553
105	0xbf6f9478	-0.9358592
106	0xbc18d1ca	-0.009327361
107	0xbd159160	-0.036515594
108	0x3d300eb0	0.042982757
109	0x3cf8b69b	0.03036051
110	0xbcc91b1b	-0.024549058
111	0x3e628c27	0.22123776
112	0x3f4592b7	0.77176994
113	0x3d3dfd7d	0.046384323
114	0x3ddc74d2	0.10764469
115	0x3e3b5ac0	0.18296337
116	0x3deb6597	0.11493986
117	0xbb956959	-0.0045596776
118	0xbeb0f071	-0.34558442
119	0x3e06a772	0.13149813
120	0x3e27a600	0.16371918
121	0xbcf75a33	-0.030194378
122	0xbd236193	-0.039887976
123	0x3e6769ec	0.22599
124	0x3e0ca098	0.13733137
125	0x3e3e79ca	0.18601146
126	0x3d9063d9	0.070502944
127	0xbaed1dee	-0.0018090585
128	0xbd8e921b	-0.06961461
129	0xbd72c9ac	-0.05927436
130	0x3e0ea9b6	0.13931927
131	0x3cfb160b	0.03065016
132	0x3e02fb71	0.1279123
133	0x3e36b324	0.17841774
134	0x3eb6f7c3	0.35735902
135	0xbf153828	-0.5828881
136	0x3e0ddce6	0.13853797
137	0x3e1b56cf	0.15169834
138	0xbea3f700	-0.32024384
139	0x3e307ece	0.17235872
140	0xbd5b401e	-0.053527944
141	0x3e84ae6f	0.25914332
142	0x3f0f5a68	0.55997324
143	0x3e679237	0.2261437
144	0xbe1d8c5b	-0.15385573
145	0x3daf718e	0.08566581
146	0x3e293e23	0.1652761
147	0x3d6d9229	0.058000717
148	0xbcd73f75	-0.026275376
149	0x3ceeb6ed	0.02913996
150	0x3eca585b	0.39520535
151	0x3bfd477c	0.007729469
152	0x3dd4f1ee	0.10397707
153	0x3d697f11	0.057005946
154	0x3d624c0c	0.055248305
155	0x3ea06324	0.31325638
156	0x3e537d90	0.20653367
157	0x3e9c4966	0.3052475
158	0x3caa2c82	0.020773176
159	0x3e2e7ddd	0.170402
160	0x3df2d3e0	0.11856818
161	0x3dcf4ca8	0.10122043
162	0x3df6188a	0.12016399
163	0xbf475761	-0.77867705
164	0x3eee78d0	0.46576548
165	0x3e4a8c89	0.19780172
166	0xbcb91fd2	-0.02259818
167	0x3e6ae367	0.2293831
168	0x3ccdd5af	0.025126306
169	0xbf72ead0	-0.94889545
170	0x3e74577f	0.23861502
171	0xbd94dcaa	-0.07268651
172	0x3e0ef551	0.13960768
173	0x3e5f4e38	0.21807182
174	0xbdfe9a2f	-0.12431752
175	0x3eac7849	0.3368552
176	0x3f08a3bb	0.5337483
177	0x3d6fe69f	0.058569547
178	0x3e4013b0	0.1875751
179	0x3d1f2b15	0.038859446
180	0x3cd346e0	0.025790632
181	0x3db24744	0.08704999
182	0xbdd5e1fa	-0.10443492
183	0x3e0a474d	0.13503762
184	0x3e262560	0.16225195
185	0x3c568053	0.013092118
186	0xbd1f99e0	-0.038965106
187	0x3e0dbf8e	0.13842604
188	0x3d9e4eb1	0.07729853
189	0x3dce9572	0.10087098
190	0x3d5991ae	0.053117447
191	0x3db6affe	0.089202866
192	0xbdb23a12	-0.08702482
193	0x3db5528a	0.08853634
194	0x3cac0303	0.02099753
195	0x3d9d90de	0.07693647
196	0x3b02e860	0.0019974932
197	0x3dc848e1	0.097795255
198	0x3dc40340	0.095709324
199	0xbf1a2f39	-0.60228306
200	0x3d6f73e4	0.05846013
201	0x3d34e6fd	0.0441656
202	0xbebfb550	-0.37443018
203	0x3dd81aa1	0.10551954
204	0x3d38ec0d	0.04514699
205	0x3d3a7e89	0.04553083
206	0x3ea06048	0.31323457
207	0x3dd77df5	0.10522071
208	0xbdd7dedb	-0.10540553
209	0xbcf50698	-0.02991037
210	0x3d96ddf3	0.07366552
211	0x3d7db073	0.061935853
212	0xbbe7fe3e	-0.0070798686
213	0xbd9f67c3	-0.07783463
214	0x3f1c8010	0.6113291
215	0x3d4a80d3	0.049439263
216	0x3d2ad624	0.041708127
217	0xbdc8ef57	-0.098112755
218	0x3de5541e	0.11197685
219	0x3e9c60cc	0.305426
220	0x3de7d98b	0.1132079
221	0x3e427096	0.1898826
222	0xbd175a8d	-0.03695159
223	0x3ce822c8	0.028336897
224	0x3ce6bd18	0.028166339
225	0x3d0fac7d	0.035076607
226	0x3da29c75	0.07939998
227	0xbef9bd4b	-0.48777232
228	0x3e161eaa	0.14660135
229	0x3d269ee1	0.040678862
230	0xbd196250	-0.037447274
231	0xbd6e21ad	-0.058137584
232	0xbd028ee3	-0.03187455
233	0xbf6c88f3	-0.9239647
234	0x3e09e2ec	0.1346547
235	0x3dc72a93	0.09724917
236	0x3ce2add1	0.027670773
237	0x3d98ab36	0.07454531
238	0xbe50a54f	-0.2037556
239	0x3e65f19f	0.22455452
240	0x3ed3479e	0.41265577
241	0x3cfc34b0	0.030786842
242	0xbd697489	-0.056995902
243	0x3e1db942	0.15402701
244	0x3d38b9cd	0.04509907
245	0x3de64650	0.1124388
246	0xbe052157	-0.13001
247	0x3e043a0a	0.12912765
248	0x3d85581d	0.06510947
249	0x3c452093	0.012031692
250	0x3d1630e6	0.036667727
251	0x3dc4ada3	0.09603431
252	0x3e10fc11	0.14158656
253	0xb991c3b2	-0.0002780236
254	0xbcb50a38	-0.0220996
255	0xbd513915	-0.05107983

network.6.bias f4 [64]
0	0x3e784f59	0.24249019
1	0x3e9a2145	0.30103508
2	0x3e73cb69	0.23808064
3	0x3e5babd1	0.21452262
4	0x3d51720e	0.05113416
5	0x3e8bdf0e	0.27318615
6	0xbd24ccc1	-0.04023433
7	0x3e61e942	0.22061637
8	0xbd9beade	-0.07613157
9	0xbcf2eae1	-0.029653015
10	0x3e87912e	0.2647795
11	0xbd6e1189	-0.05812219
12	0xbdf9ee42	-0.12203647
13	0x3b19cd80	0.0023468435
14	0x3dbc9228	0.092075646
15	0x3d9707d8	0.07374543
16	0xbdb31c18	-0.08745593
17	0x3e7d7256	0.24750647
18	0x3e271c84	0.16319472
19	0x3e380c7c	0.17973512
20	0xbd9a7dbe	-0.07543515
21	0xbc96b2e4	-0.018395849
22	0x3d678c58	0.056530327
23	0x3ea52b8f	0.32259795
24	0x3e4fe483	0.20302014
25	0x3d06942d	0.032856155
26	0xbcb70193	-0.022339618
27	0xbd367e61	-0.044554118
28	0x3e63d8dc	0.22250694
29	0xbd621175	-0.05519243
30	0x3dfb2a16	0.12263887
31	0xbde5b57c	-0.11216256
32	0x3e69f1ca	0.22846141
33	0xbdf5f33a	-0.120092824
34	0x3e668f48	0.22515595
35	0xbbd942ce	-0.006630278
36	0xbd6bf268	-0.057604223
37	0x3dccad20	0.099939585
38	0x3ea5ceba	0.32384282
39	0x3e40111e	0.1875653
40	0xbdac3db4	-0.084102064
41	0x3e815ed7	0.2526767
42	0x3e8416ab	0.25798544
43	0x3e856228	0.2605145
44	0xbdab75eb	-0.083721004
45	0xbc70a680	-0.014688134
46	0x3b72d711	0.003705446
47	0xbdf61290	-0.12015259
48	0xbda34943	-0.07972958
49	0xbde135c3	-0.10996582
50	0x3dfda3ef	0.123847835
51	0x3e51c421	0.20484973
52	0x3e7576a5	0.2397104
53	0x3e5814a0	0.21101618
54	0x3e597bca	0.21238628
55	0x3dba7c5f	0.09105753
56	0xbd417c23	-0.047237527
57	0x3d227a28	0.03966728
58	0x3c60acbb	0.013713057
59	0x3e581d13	0.21104841
60	0xbdeda840	-0.11604357
61	0x3d9d592c	0.07683024
62	0xbd6572c0	-0.056017637
63	0xbdd10e38	-0.1020779

network.8.weight f4 [21, 64]
0	0x3e3d65e4	0.184959
1	0x3e6e5da4	0.23277909
2	0x3bf15b09	0.0073655886
3	0x3db6eb2a	0.08931573
4	0x3d60c927	0.054879334
5	0x3e50c489	0.20387472
6	0xbdc7be40	-0.09753084
7	0x3e536962	0.20645669
8	0xbdfea5f8	-0.12434
9	0xbc97f629	-0.018549995
10	0x3e614129	0.21997513
11	0xbdce3e02	-0.10070421
12	0x3d9263a2	0.0714791
13	0x3d2478dc	0.040154323
14	0x3d7e7899	0.06212673
15	0x3cf3d895	0.02976636
16	0xbdb43a10	-0.08800137
17	0x3bbad75f	0.0057019438
18	0xbd0c6147	-0.03427246
19	0xbd900535	-0.07032243
20	0xbd0f22fc	-0.034945473
21	0xbd8f0fc0	-0.06985426
22	0x3d8274de	0.06369947
23	0x3e35aa7f	0.1774082
24	0x3e3da4cd	0.18519898
25	0xbd9fff92	-0.07812418
26	0xbaf24820	-0.001848463
27	0xbdce51db	-0.100742064
28	0x3e4dd17c	0.20099443
29	0x3e768995	0.24075921
30	0xbdadb0e4	-0.08481005
31	0xbdc9ff57	-0.09863155
32	0x3e081b93	0.13291769
33	0x3de3228c	0.11090574
34	0x3c95abd3	0.018270409
35	0x3ca087b9	0.019595968
36	0xbdff4dae	-0.12465988
37	0x3d220164	0.039552107
38	0xbed107a4	-0.40826142
39	0x3e74fb35	0.23923953
40	0xbda8ded0	-0.08245623
41	0x3e7129d4	0.23551112
42	0x3e1d0fb2	0.15338019
43	0x3e949e5a	0.29027063
44	0xbd41d715	-0.04732426
45	0x3d21f0fc	0.03953646
46	0xbc3adeaa	-0.011405626
47	0x3d729cd4	0.059231594
48	0xbb999c57	-0.0046878266
49	0x3e129192	0.14313343
50	0x3de6be34	0.11266747
51	0x3d4d90c3	0.050186884
52	0x3e1da257	0.15393959
53	0x3de96d18	0.11397761
54	0x3df8f4b9	0.12156052
55	0x3e436fe6	0.19085655
56	0x3d3b88c9	0.045784745
57	0xbd01b14f	-0.031663235
58	0xbdba6bf9	-0.091026254
59	0x3dac3c54	0.08409944
60	0x3d50f848	0.05101803
61	0xbe984744	-0.2974187
62	0x3d2b2808	0.041786224
63	0xbdba617e	-0.091006264
64	0x3e5cd19f	0.21564339
65	0x3c2196a6	0.009862578
66	0x3e4feac3	0.20304398
67	0x3ddbe8c9	0.107377596
68	0xbce73149	-0.028221743
69	0x3ddd8241	0.108158596
70	0xbd2a45e1	-0.041570548
71	0x3e47c0a4	0.1950708
72	0x3da93ede	0.08263944
73	0x3df27c41	0.11840106
74	0x3e340c04	0.17582709
75	0xbd221014	-0.039566115
76	0xbd20a5c0	-0.03922057
77	0x3dabe832	0.08393897
78	0x3df0705e	0.11740182
79	0x3caa49d4	0.020787157
80	0xbdc85571	-0.09781922
81	0x3e409df3	0.18810253
82	0xbe6ac5dd	-0.22927041
83	0xbda49717	-0.080366306
84	0x3d865cda	0.06560679
85	0x3d89f0d2	0.06735386
86	0x3dcb16eb	0.09916481
87	0x3e2a150c	0.16609591
88	0x3e5adf72	0.213743
89	0xbdc00611	-0.09376157
90	0xbda40536	-0.080088064
91	0x3de409c2	0.11134674
92	0x3e8273fd	0.25479117
93	0x3e1681ce	0.14697954
94	0xbe3f50e4	-0.18683201
95	0xbd153c56	-0.036434494
96	0x3df02122	0.117250696
97	0x3d1e40cc	0.038636014
98	0x3d835189	0.06412036
99	0x3d2dbd08	0.042416602
100	0xbd998ea4	-0.0749791
101	0x3c0468a0	0.008081585
102	0xbef8b2e0	-0.4857397
103	0x3e1d0b37	0.1533631
104	0x3d2a45b4	0.04157038
105	0x3d3f70c3	0.046738397
106	0x3e14a1fe	0.1451492
107	0x3e1091ed	0.14118166
108	0x3dd04890	0.1017009
109	0x3d557b00	0.052119255
110	0xbd794b76	-0.06086298
111	0xbc53e722	-0.012933524
112	0xbc79d950	-0.015249565
113	0x3d47192d	0.048607994
114	0x3e50f398	0.20405424
115	0x3e0a1893	0.13485937
116	0x3d5a6549	0.05331925
117	0x3dea8c8a	0.11452587
118	0x3e753b2a	0.2394835
119	0x3e70b77f	0.23507498
120	0x3dbe7dce	0.09301339
121	0xbd530fb6	-0.051528655
122	0x3d4721b1	0.048616115
123	0x3e3de1c5	0.18543155
124	0x3cf98628	0.030459478
125	0xbea2d77a	-0.3180502
126	0x3b522140	0.0032063276
127	0x3d9b5bd7	0.075858764
128	0x3e4f4154	0.20239764
129	0x3d8e8bbf	0.06960248
130	0x3e227b86	0.15867433
131	0x3d8834c1	0.06650687
132	0x3c5abb57	0.013350329
133	0x3d1afd6c	0.03783934
134	0xbc9f1efb	-0.019423952
135	0x3e33a0a4	0.17541748
136	0x3bb58180	0.0055391192
137	0xbca3a677	-0.019976838
138	0x3e6a22ee	0.22864887
139	0xbdb1d598	-0.08683318
140	0xbb438d40	-0.002983883
141	0x3d3f75b4	0.04674311
142	0x3e4eda2e	0.20200416
143	0xbd899ad9	-0.06718988
144	0x3dd97c1a	0.106193736
145	0x3d99d66c	0.07511601
146	0x3e6266b2	0.22109488
147	0x3a083eee	0.00051973655
148	0xbc81d7b0	-0.015849918
149	0x3df80e10	0.12112057
150	0x3e302fdc	0.17205757
151	0x3d6de995	0.05808409
152	0x3e5be9e0	0.21475935
153	0x3d25fe33	0.040525626
154	0x391b75b9	0.00014825807
155	0x3cac0ba0	0.021001637
156	0x3e8209e1	0.25398162
157	0x3e3fd132	0.18732145
158	0xbde67284	-0.11252311
159	0x3d160353	0.036624264
160	0x3d529468	0.051411062
161	0xbd988c68	-0.07448655
162	0x3bd52fde	0.0065059504
163	0xbb3bb4cd	-0.0028641701
164	0xbd8cc088	-0.0687266
165	0x3b55d029	0.0032625294
166	0xbf0123eb	-0.5044543
167	0x3e7733d2	0.24140862
168	0xbdbd9d56	-0.09258525
169	0x3dfbb986	0.12291245
170	0x3d5658ca	0.05233077
171	0x3e58543f	0.21125887
172	0xbb9c2240	-0.004764825
173	0xbde4c354	-0.111700684
174	0xbd3c7851	-0.04601318
175	0x3dfc975e	0.123335585
176	0xbd04ee23	-0.032453667
177	0xbd8a6c86	-0.067589805
178	0x3e593ea1	0.21215297
179	0x3e68af51	0.22723128
180	0x3bad020d	0.0052797855
181	0x3e2b642c	0.16737431
182	0x3dfe08ef	0.12404048
183	0x3e49f7d5	0.19723447
184	0x3cf5c425	0.030000756
185	0x3dd43532	0.10361709
186	0xbda3d8c4	-0.08000329
187	0x3d9e82d8	0.077398
188	0x3df97388	0.12180239
189	0xbecfc9d5	-0.40583673
190	0xbdf5518e	-0.11978446
191	0x3d6659cb	0.056237977
192	0x3e66fd8e	0.22557661
193	0x3e3eb5ee	0.18624088
194	0x3e3aada3	0.182303
195	0x3d7c87ab	0.06165282
196	0x3bea815f	0.0071565355
197	0x3d188baa	0.03724257
198	0xbd23030f	-0.03979784
199	0x3d3aefad	0.04563873
200	0x3df8952a	0.12137826
201	0xbc96e061	-0.01841754
202	0x3d75fd63	0.0600561
203	0x3d0f499c	0.03498231
204	0xbdbfce26	-0.093654916
205	0xbdf1dfe2	-0.118102804
206	0xbad09da0	-0.0015916117
207	0x3c70fb52	0.014708357
208	0xbcdbb671	-0.026820393
209	0x3e63bd5c	0.22240204
210	0xbdeb9be0	-0.1150434
211	0x3cd759c5	0.026287923
212	0xbdb2bc1e	-0.08727287
213	0x3ace6e00	0.0015749335
214	0x3e487f71	0.19579865
215	0x3df63118	0.12021083
216	0x3e4b3e89	0.19848074
217	0x3dbd7116	0.09250085
218	0x3dde41da	0.10852404
219	0xbdd5a3ee	-0.10431658
220	0x3e30576a	0.17220846
221	0x3df7af41	0.12093974
222	0xbdff19b7	-0.124560766
223	0xbe00ec24	-0.1259008
224	0x3e0a9641	0.1353388
225	0x3d0d55dc	0.03450571
226	0x3e240c2c	0.16020268
227	0xbd273517	-0.040822115
228	0x3ae3a080	0.0017366558
229	0x3e32e8fe	0.17471692
230	0xbeb73974	-0.3578602
231	0x3e6041ea	0.21900144
232	0xbdecff14	-0.1157209
233	0x3e15ebee	0.14640781
234	0x3d68e309	0.056857143
235	0x3e56a8e9	0.20962872
236	0xbd6f9f48	-0.05850151
237	0x3cf6e258	0.030137226
238	0xbdd2732d	-0.10275874
239	0xbd7bb30c	-0.06145005
240	0x3d21f154	0.03953679
241	0x3d876f36	0.06613009
242	0x3dd4c9ab	0.103900276
243	0x3e2ba44d	0.16761895
244	0x3e139b57	0.14414726
245	0x3e370fb5	0.17877086
246	0x3e86603a	0.2624529
247	0x3de68576	0.112559244
248	0x3db5c446	0.08875327
249	0x3dd449ca	0.10365637
250	0x3c6c807c	0.01443493
251	0x3cf39f66	0.029739093
252	0xbd82238e	-0.06354438
253	0xbeb294a1	-0.3487902
254	0x3cd9ee90	0.026603013
255	0x3a422972	0.00074066885

network.8.bias f4 [21]
0	0x3de0fb60	0.10985446
1	0x3db29fef	0.08721911
2	0x3e35e14f	0.1776173
3	0x3df4b312	0.119482175
4	0x3e30b518	0.17256582
5	0x3e444941	0.19168569
6	0x3e080dac	0.13286465
7	0x3e441256	0.1914762
8	0x3dfc9424	0.12332943
9	0x3e067c0c	0.13133258
10	0x3e3ee03c	0.18640226
11	0x3e2c6bb6	0.16837963
12	0x3ddec557	0.10877483
13	0x3d8d3fa8	0.06896907
14	0x3e1f718d	0.1557066
15	0x3dfa8a15	0.12233368
16	0x3e822e12	0.25425774
17	0x3e1ce0d0	0.15320134
18	0x3e66347f	0.22480963
19	0x3dda0ba9	0.10646755
20	0x3e8d7d6b	0.2763475
