model/model_1879.pth (torch, 35975 bytes, 10 tensors)

network.0.weight f4 [16, 6]
0	0xbf7c5a15	-0.98574954
1	0xbc691470	-0.014226064
2	0x3dfb71f9	0.12277598
3	0xbd9efb31	-0.07762755
4	0xbf7e597f	-0.9935531
5	0xbd0c5c1b	-0.034267526
6	0xbf76c180	-0.9638901
7	0x3d6012b2	0.05470533
8	0x3dd54634	0.10413781
9	0xbca77bad	-0.020444715
10	0xbf1baa50	-0.6080675
11	0x3e4b69d6	0.19864592
12	0xbf8a408c	-1.0800948
13	0xbe7e3289	-0.24823965
14	0x3d861a16	0.06547944
15	0xbea0f0ae	-0.31433624
16	0x3f4b063e	0.793064
17	0x3da75d10	0.08172047
18	0x3e0611ba	0.130927
19	0x3fbca557	1.4737958
20	0x3ee648e2	0.4497748
21	0x3de34c20	0.11098504
22	0x3dfa324c	0.122166246
23	0x3e09f210	0.13471246
24	0xbefec902	-0.49762732
25	0x3f38affa	0.7214352
26	0xbe5a84ad	-0.21339674
27	0xbe78924f	-0.24274562
28	0x3e82f8f6	0.25580567
29	0x3dcd4e2d	0.100246765
30	0x3f3386ba	0.7012745
31	0x3f8e07e3	1.1096157
32	0xbe2f79bb	-0.1713628
33	0xbefb416b	-0.49073347
34	0x3f165d53	0.5873615
35	0xbe3f7b9e	-0.186995
36	0xbd1dd10c	-0.03852944
37	0xbf996817	-1.1984891
38	0xbef53a54	-0.47896063
39	0x3e8dfa05	0.27729812
40	0xbf41a97e	-0.7564925
41	0xbdf20ed6	-0.11819236
42	0xbc246743	-0.010034385
43	0xbfacc4e4	-1.3497586
44	0xbe857367	-0.26064608
45	0x3d2a010b	0.0415049
46	0xbea38a00	-0.31941223
47	0x3d9a61b2	0.07538165
48	0xbf7c0a82	-0.98453534
49	0x3ebf7b61	0.37398818
50	0xbded7cfc	-0.115961045
51	0x3f7e922b	0.99441785
52	0x3f29a4e8	0.6626725
53	0xbe39e284	-0.18152815
54	0x3ec7b4da	0.39005166
55	0xbf6e0ebd	-0.9299124
56	0x3df6b899	0.12046928
57	0xbfb942eb	-1.4473547
58	0xbea54335	-0.32277837
59	0x3e5c672f	0.21523736
60	0x3e029135	0.12750705
61	0xbfb69325	-1.4263655
62	0xbeaa1dbf	-0.3322582
63	0xbe88a874	-0.2669102
64	0x3f1d024f	0.6133165
65	0x3b543338	0.0032379162
66	0x3f005608	0.50131273
67	0x3e958145	0.29200187
68	0x3ef6187e	0.4806556
69	0xbd9e4933	-0.077288054
70	0x3f83d807	1.0300301
71	0x3e8a2ecd	0.2698883
72	0x3f1b4b8e	0.6066216
73	0xbf9a7fbd	-1.2070233
74	0xbb5fac6a	-0.0034129866
75	0x3e279f1f	0.16369294
76	0xbed80e86	-0.4219858
77	0xbe1a621c	-0.15076488
78	0xbedd4b32	-0.43221432
79	0x3f9c5c5e	1.2215688
80	0x3e4e6a12	0.2015765
81	0xbf34dfd7	-0.7065405
82	0x3f07259e	0.52791774
83	0x3d4df49e	0.050282113
84	0x3e5026ec	0.20327348
85	0x3ef6e3d8	0.48220706
86	0xbe174b3d	-0.14774795
87	0xbf6e1528	-0.9300103
88	0xbf32762d	-0.6971157
89	0xbe9c8aa9	-0.3057454
90	0x3e611f32	0.21984556
91	0x3e523696	0.20528635
92	0x3e201d39	0.15636148
93	0xbf3239e8	-0.6961961
94	0x3f5ec885	0.8702472
95	0xbe810e49	-0.2520621

network.0.bias f4 [16]
0	0x3caca273	0.021073556
1	0x3e98041f	0.29690644
2	0x3ea0244b	0.3127769
3	0x3eb027bc	0.34405315
4	0x3ebac29c	0.364766
5	0xbeeb2496	-0.4592635
6	0xbecdfca5	-0.40231815
7	0xbe406340	-0.18787861
8	0xbdf220e7	-0.11822682
9	0xbb63a0eb	-0.0034733366
10	0x3e9be0f3	0.3044506
11	0x3f178042	0.5918008
12	0x3ebf641f	0.37381074
13	0x3eca5ef9	0.39525583
14	0x3f39e9df	0.72622484
15	0xbf2dcab2	-0.67887414

network.2.weight f4 [32, 16]
0	0xbf0303c9	-0.5117765
1	0x3ce23a9a	0.027615834
2	0xbeacd0d0	-0.3375306
3	0xbee9c032	-0.45654446
4	0xbe3d5928	-0.18491042
5	0x3d16be5c	0.036802635
6	0xbf1a1513	-0.60188407
7	0x3f4d1c95	0.8012174
8	0xbcacfae6	-0.021115731
9	0x3cdc0c84	0.026861437
10	0x3ea20bb4	0.31649554
11	0x3eca25f6	0.39482087
12	0xbf22c344	-0.635792
13	0xbebb8d93	-0.3663145
14	0x3f1c2974	0.6100075
15	0xbe701740	-0.23446369
16	0xbf6d1fa8	-0.9262643
17	0xbf47a523	-0.77986354
18	0x3e720b6f	0.23637174
19	0xbfa159aa	-1.2605488
20	0x3e365653	0.17806368
21	0x3ead45af	0.33842227
22	0xbe8f756c	-0.28019273
23	0x3e2c8bc9	0.16850199
24	0x3dd09757	0.10185116
25	0xbeb49349	-0.3526862
26	0x3ef2dec1	0.47435573
27	0xbeb23c8f	-0.34811828
28	0x3e45d00b	0.19317643
29	0xbf618c69	-0.88104874
30	0x3ea5a1fa	0.3235014
31	0xbf7ebbd8	-0.99505377
32	0x3d121ad8	0.03567013
33	0xbdbe6452	-0.09296478
34	0xbe654d0a	-0.2239267
35	0xbe39e688	-0.18154347
36	0xbd9a60bc	-0.07537982
37	0xbd48f931	-0.049065772
38	0xbe0e8db8	-0.13921249
39	0xbb3fe334	-0.002927971
40	0xbd53ee50	-0.051740944
41	0x3dad9a90	0.08476746
42	0xbc49148c	-0.012272965
43	0x3c8f38c4	0.017483123
44	0xbe7a9ac9	-0.24473108
45	0xbd3ef4b8	-0.0466201
46	0xbe3cdf78	-0.18444622
47	0xbd2d18d8	-0.04226002
48	0x3ef969b2	0.48713452
49	0x3bf60caf	0.007508836
50	0x3e28dbbf	0.16490076
51	0x3f2d2be3	0.6764509
52	0xbce437a8	-0.02785857
53	0xbeaad720	-0.33367252
54	0xbf370543	-0.71492404
55	0xbdc8cadb	-0.098043166
56	0x3da16c5a	0.078819945
57	0xbe9241c7	-0.2856581
58	0x3f54eb86	0.8317188
59	0xbedae707	-0.42754385
60	0x3e6e0018	0.23242223
61	0xbf100671	-0.5625983
62	0x3ea94091	0.33057073
63	0xbec80e15	-0.39073244
64	0xbe4ebfd2	-0.20190361
65	0xbe6c784c	-0.23092765
66	0xbe9a8c98	-0.3018539
67	0x3f050ac6	0.51969564
68	0x3db1184a	0.08647211
69	0xbedaa83a	-0.42706472
70	0xbd92976a	-0.07157786
71	0xbed1a9a9	-0.40949753
72	0x3e891a88	0.26778054
73	0x3ea2863f	0.31743047
74	0xbe4ea3ad	-0.20179625
75	0x3de61183	0.11233809
76	0xbe30c5a5	-0.17262895
77	0xbe407068	-0.1879288
78	0x3e0649fa	0.13114157
79	0x3e8e6ef0	0.27819014
80	0xbf9131b4	-1.1343293
81	0xbe72ee05	-0.2372361
82	0x3f0a114c	0.5393264
83	0xbf127339	-0.57207066
84	0x3ddcbbfc	0.10778043
85	0xbf32af75	-0.69798976
86	0x3e001a97	0.12510143
87	0xbf22ef31	-0.6364623
88	0xbf9360cc	-1.1513915
89	0xbf121882	-0.57068646
90	0x3e328c31	0.17436291
91	0x3d4667d1	0.04843885
92	0xbeb954f0	-0.36197615
93	0x3e2ddffc	0.16979975
94	0xbe5290ae	-0.20563003
95	0x3ee49953	0.44648227
96	0xbf265c54	-0.6498463
97	0x3eabe1e6	0.33570784
98	0x3d9466ca	0.07246168
99	0x3f357155	0.70876056
100	0xbe63c2e5	-0.22242315
101	0xbd8332db	-0.06406184
102	0x3da7e414	0.08197799
103	0x3cbe09e8	0.023198083
104	0xbd47209c	-0.048615083
105	0xbf1ee129	-0.6206232
106	0xbdb6b8d3	-0.08921971
107	0x3f051160	0.5197964
108	0x3e67bce9	0.22630657
109	0xbf05a7ac	-0.5220897
110	0x3edd399f	0.43208024
111	0x3d94e4e6	0.072702214
112	0x3f5b1fa2	0.8559514
113	0xbf037484	-0.51349664
114	0xbecbd5fb	-0.39811692
115	0xbc21f22c	-0.009884398
116	0x3ec76c78	0.38949943
117	0x3ddd176e	0.107954845
118	0xbe17cf2f	-0.14825128
119	0x3e9a30b5	0.30115286
120	0xbec79aad	-0.38985196
121	0xbd89dcee	-0.06731592
122	0x3f137459	0.5759941
123	0x3f2da060	0.6782284
124	0xbbe0b530	-0.0068575367
125	0xbe3443f8	-0.17604053
126	0xbb91f413	-0.0044541447
127	0xbe9bf61c	-0.30461204
128	0x3d8d7b59	0.06908292
129	0x3edb1ddf	0.42796227
130	0x3efdd2c9	0.4957488
131	0xbf3306af	-0.69932073
132	0xbe9e964a	-0.30974036
133	0x3edd4e8a	0.43223983
134	0x3f2a2951	0.66469294
135	0x3e807080	0.2508583
136	0x3e49f7ac	0.19723386
137	0xbeb41a92	-0.35176522
138	0x3e9265e7	0.2859337
139	0xbec14637	-0.37748882
140	0x3ed0694f	0.40705344
141	0x3eeb7f98	0.45995784
142	0xbf03ab17	-0.5143294
143	0x3e5a0737	0.21291815
144	0x3cdcbd93	0.026945865
145	0xbef9bf54	-0.48778784
146	0x3f006646	0.50156057
147	0xbe105348	-0.1409427
148	0xbdc617e4	-0.096725255
149	0xbeb45c11	-0.3522649
150	0xbf2669af	-0.6500501
151	0x3ea7642a	0.32693607
152	0xbeff8438	-0.49905562
153	0xbed03a5e	-0.4066953
154	0x3e87fb78	0.26559043
155	0xbe77d4e2	-0.24202302
156	0x3e8d42fd	0.2759017
157	0x3d59767e	0.05309152
158	0x3f0fbfa9	0.56151825
159	0xbeddb5fd	-0.4330291
160	0xbf8201f3	-1.0156845
161	0xbed92083	-0.42407617
162	0x3f06415a	0.5244347
163	0x3f081e55	0.53171283
164	0x3df77f97	0.12084883
165	0xbdc46f21	-0.09591509
166	0x3f3a9479	0.728828
167	0xbe4ec5b7	-0.2019261
168	0xbe04475a	-0.12917843
169	0xbde0c7b4	-0.1097559
170	0xbf1fd568	-0.6243501
171	0xbf15ef24	-0.58568025
172	0x3f15b71c	0.5848253
173	0xbf4117e7	-0.754271
174	0x3f152473	0.5825874
175	0x3e49c62c	0.19704503
176	0x3d19616a	0.037446417
177	0x3dbd4127	0.092409424
178	0x3f007116	0.50172555
179	0x3e308dd0	0.17241597
180	0x3f03f995	0.51552707
181	0xbf2618fb	-0.6488187
182	0x3df88a14	0.12135711
183	0xbf0ae7c9	-0.54259926
184	0xbf015f6f	-0.50536245
185	0x3f187f83	0.5956957
186	0xbe05b103	-0.13055806
187	0xbe9c25be	-0.30497545
188	0x3f09bfa7	0.53808063
189	0xbdbea04e	-0.093079194
190	0xbd4c0fe3	-0.04981984
191	0x3f4f6688	0.81015825
192	0xbf00ad0d	-0.50264055
193	0x3ea6b3b7	0.32558987
194	0x3f12e388	0.57378435
195	0xbf67a6a3	-0.9048864
196	0xbe07b705	-0.1325341
197	0xbee36845	-0.4441549
198	0x3e9a72ef	0.30165812
199	0xbe71966b	-0.23592536
200	0x3f04be81	0.51853186
201	0xbe25f1d4	-0.16205531
202	0xbe03b179	-0.12860669
203	0xbeb3c690	-0.3511243
204	0x3e329b85	0.17442138
205	0x3e1fdeeb	0.1561238
206	0xbd487dce	-0.0489481
207	0xbe88df53	-0.26732883
208	0x3ebc5f31	0.36791375
209	0xbe728327	-0.23682843
210	0xbe969caf	-0.29416415
211	0xbf01f37d	-0.5076216
212	0x3dde0e54	0.108425766
213	0xbea50010	-0.3222661
214	0x3e7b9463	0.24568324
215	0x3e206b4b	0.15665929
216	0x3ec859ed	0.39131108
217	0x3f556889	0.83362633
218	0xbe0954d8	-0.13411272
219	0x3edca36a	0.43093425
220	0xbf1e8bd9	-0.6193214
221	0xbf94ab66	-1.1614807
222	0x3e1f660f	0.15566276
223	0xbf1013e1	-0.5628033
224	0x3ef5ff59	0.48046377
225	0xbe3595f9	-0.17732991
226	0xbed1cc07	-0.40975973
227	0xbdcc16b2	-0.09965266
228	0x3e31f929	0.17380203
229	0x3ebef5cc	0.37296903
230	0xbda482c3	-0.08032753
231	0x3eb9aaba	0.36263067
232	0xbe547105	-0.20746239
233	0x3ecb56fa	0.39714795
234	0x3e04ccac	0.12968701
235	0x3eeba0bb	0.46021065
236	0xbd8446ef	-0.06458842
237	0xbd890ac0	-0.066915035
238	0xbee0db60	-0.4391737
239	0x3e9d1e72	0.3068729
240	0x3e7cb8b8	0.2467984
241	0x3d7d6b82	0.061870106
242	0xbeb843ca	-0.3598922
243	0x3f0cb0c1	0.54957205
244	0x3c242f2f	0.010021015
245	0x3d467b05	0.048457164
246	0x3ef228d0	0.47296762
247	0x3f37efbd	0.71850187
248	0x3d1a31e0	0.03764522
249	0x3de6d85f	0.11271738
250	0xbf05ba04	-0.5223696
251	0x3e0c122b	0.13678806
252	0xbbf18a6a	-0.0073712366
253	0x3ecce1ae	0.4001593
254	0xbe2649da	-0.1623911
255	0x3ea3f550	0.32023096

network.2.bias f4 [32]
0	0x3ed51a58	0.4162166
1	0x3f39d094	0.7258389
2	0xbe780ace	-0.24222872
3	0xbefc5c6a	-0.49289256
4	0x3e934222	0.28761393
5	0x3f4e8b70	0.80681515
6	0x3dbcdf98	0.092223346
7	0xbee871db	-0.45399365
8	0xbce16eef	-0.027518718
9	0x3f3c8744	0.736439
10	0xbecb013c	-0.3964938
11	0x3bda2c37	0.006658103
12	0x3eac0330	0.33596182
13	0xbed53e55	-0.41649118
14	0x3ea62d13	0.32456264
15	0xbeca6cd8	-0.39536166
16	0xbd003928	-0.03130451
17	0xbe65a6d4	-0.22426921
18	0x3e4f1f3f	0.20226763
19	0x3e10f313	0.14155225
20	0x3e901d84	0.2814752
21	0xbe57734b	-0.21040075
22	0x3df0e497	0.1176235
23	0xbeab2743	-0.33428392
24	0xbe16f2cb	-0.14741056
25	0xbe814e5d	-0.252551
26	0xbed0f4e7	-0.40811846
27	0xbd330021	-0.043701295
28	0x3edf2de8	0.4358971
29	0xbf1df3df	-0.6170024
30	0x3fb82592	1.4386466
31	0x3ed2e86e	0.41192955

network.4.weight f4 [64, 32]
0	0x3fa253cf	1.2681826
1	0xbefcb53f	-0.4935703
2	0xbd83a3c6	-0.06427722
3	0xbf5b37ca	-0.85632
4	0xbb1d9ad8	-0.0024048593
5	0x3eebeeb8	0.46080565
6	0xbe994234	-0.2993332
7	0x3f13cb4d	0.5773209
8	0xbe822ad0	-0.25423288
9	0x3f6f254f	0.93416303
10	0x3f1edd1d	0.6205614
11	0xbf4b2caa	-0.79365027
12	0xbf17536d	-0.5911167
13	0xbf7b0b69	-0.98064286
14	0xbcec727c	-0.028863184
15	0x3e36e471	0.17860581
16	0x3e870dae	0.26377624
17	0x3cc3183d	0.023815269
18	0xbf403e3b	-0.75094956
19	0x3e90956c	0.28239
20	0xbd2669d7	-0.04062828
21	0x3e3a6e76	0.182062
22	0x3dd62a77	0.10457318
23	0x3e6fcdef	0.23418401
24	0x3d09dade	0.033655994
25	0xbd289605	-0.041158695
26	0xbd580aac	-0.052744552
27	0x3e940dc0	0.2891674
28	0xbda4f1a6	-0.08053903
29	0xbf1c36fc	-0.610214
30	0x3e77920c	0.24176806
31	0x3f4be5d2	0.7964755
32	0x3e114c84	0.14189345
33	0x3dee12e3	0.11624696
34	0x3bbb10fc	0.005708812
35	0xbdea7cc1	-0.11449576
36	0x3cd8671a	0.02641635
37	0x3e02d7aa	0.12777582
38	0xbdaea840	-0.08528185
39	0xbe3f5fb8	-0.18688858
40	0xbe1a3d88	-0.15062535
41	0x3decf48f	0.11570083
42	0xbe23d5ac	-0.15999478
43	0xbe07802e	-0.1323249
44	0xbe26f00b	-0.16302507
45	0xbd863183	-0.06552412
46	0xbdd6a531	-0.104807265
47	0x3dd242ff	0.10266685
48	0x3df10254	0.11768022
49	0x3cebc33b	0.028779617
50	0xbe2c1536	-0.16804966
51	0xbdb93ca2	-0.09044768
52	0x3da573e3	0.08078744
53	0xbd97fa62	-0.074208036
54	0xbcfda5b6	-0.030962806
55	0xbe22ecc8	-0.15910637
56	0xbd912ff5	-0.07089225
57	0xbe338bc1	-0.1753378
58	0x3a7a8370	0.0009556329
59	0xbd98ea03	-0.07466509
60	0x3df5c8d9	0.12001199
61	0x3d341b74	0.043971494
62	0xbe051841	-0.12997533
63	0xbd1f6778	-0.038917035
64	0x3ee8fd87	0.45505926
65	0xbf64a1ae	-0.89309204
66	0xbde0da4e	-0.10979138
67	0xbef0ff24	-0.47069657
68	0x3e1bab92	0.15202168
69	0xbe22a843	-0.15884499
70	0x3cf5ac71	0.029989453
71	0xbddc05b8	-0.10743278
72	0x3f1837dd	0.5946024
73	0x3ebae5df	0.36503503
74	0xbe8f76fe	-0.2802047
75	0xbc55765c	-0.013028707
76	0xbdd01f62	-0.10162236
77	0xbe7fd21b	-0.24982493
78	0xbe80e24b	-0.25172648
79	0xbd3bef9a	-0.0458828
80	0xbd84b06c	-0.06478962
81	0xbdcacdb3	-0.09902515
82	0xbe926c93	-0.2859846
83	0xbf04621b	-0.517122
84	0x3e382461	0.17982627
85	0x3d8e0d3b	0.06936117
86	0xbe8d1010	-0.27551317
87	0x3db70099	0.08935661
88	0x3ecae09b	0.39624485
89	0x3e705a47	0.23471938
90	0xbdc76105	-0.09735302
91	0xbc5933f1	-0.013257013
92	0xbf2d820f	-0.6777658
93	0x3d2e19fb	0.042505246
94	0x3eb2bf83	0.34911737
95	0x3ea15acc	0.31514585
96	0xbed4d6fb	-0.41570267
97	0x3ea1059c	0.31449592
98	0xbd0c039e	-0.034183137
99	0x3eec6b4a	0.46175605
100	0x3f07d801	0.5306397
101	0x3e178859	0.14798106
102	0x3f320b68	0.69548655
103	0x3efb07f4	0.49029505
104	0x3d6070d1	0.05479509
105	0xbdf47e2e	-0.11938129
106	0x3e9e0585	0.30863586
107	0x3e2a8100	0.16650772
108	0xbd925bb3	-0.071463965
109	0xbec7ede4	-0.39048684
110	0xbf25d3a3	-0.64776057
111	0xbf47ef2a	-0.7809931
112	0x3f2cf0b5	0.6755479
113	0x3e1fa093	0.15588598
114	0xbf36dbf2	-0.7142936
115	0x3e839787	0.25701544
116	0xbec03ba2	-0.37545496
117	0x3eb3fb4b	0.3515266
118	0xbda86ecd	-0.082242586
119	0x3f49181c	0.78552413
120	0xbd72202e	-0.05911272
121	0x3eb5dec0	0.35521507
122	0xbdd815eb	-0.105510555
123	0xbe886643	-0.2664052
124	0x3c588a71	0.013216601
125	0x3e80698a	0.2508052
126	0xbfa23c23	-1.2674602
127	0xbea50184	-0.3222772
128	0xbd66e222	-0.056368
129	0x3d89c3cb	0.06726798
130	0xbd22b0b9	-0.039719317
131	0x3e08357b	0.13301651
132	0x3ce0a578	0.027422652
133	0xbd92336f	-0.071387164
134	0xbb71f12e	-0.0036917436
135	0xbdbe10f0	-0.09280574
136	0xbdc7ae3e	-0.09750031
137	0xbd188b48	-0.037242204
138	0xbe09d77a	-0.13461104
139	0xbe4ebbda	-0.20188847
140	0xbd9746bc	-0.073865384
141	0xbd79c869	-0.06098214
142	0x3de81e28	0.11333877
143	0xbe0da6ee	-0.1383321
144	0xbc1c4bd7	-0.009539566
145	0xbdf79716	-0.12089364
146	0xbe07b750	-0.13253522
147	0x3db8742f	0.09006535
148	0xbe193350	-0.1496098
149	0xbcae0b1b	-0.02124553
150	0xbe36cba4	-0.1785112
151	0xbd9ba4e3	-0.07599809
152	0xbd631efa	-0.055449463
153	0xbdbaa218	-0.09112948
154	0xbcd42e0f	-0.025900869
155	0xbe5c9b8f	-0.21543716
156	0xbd84136b	-0.06449016
157	0x3db216e3	0.086957715
158	0xbe1dcd28	-0.15410292
159	0x3cd205a5	0.025637457
160	0x3f1e20ce	0.61768806
161	0x3dd3d324	0.10343006
162	0xbd61aeb3	-0.055098247
163	0xbf244271	-0.6416388
164	0xbe8d3592	-0.27579933
165	0x3f7677fa	0.9627682
166	0xbed32478	-0.4123876
167	0x3d9e284a	0.07722528
168	0x3e76d13c	0.24103254
169	0x3f0e2b18	0.55534506
170	0xbf6ff3fb	-0.9373166
171	0x3efdda7e	0.4958076
172	0xbf43bf1c	-0.76463485
173	0x3e3417fb	0.17587273
174	0xbe338cd7	-0.17534195
175	0x3d0d1fc0	0.034454107
176	0xbeabdac5	-0.33565345
177	0xbdfa27b5	-0.12214605
178	0xbe7a6c6a	-0.24455419
179	0xbf06b818	-0.52624655
180	0x3e87d29b	0.26527867
181	0xbc0208d3	-0.007936674
182	0x3eeec97a	0.4663809
183	0x3e307f0e	0.17235968
184	0x3effb604	0.49943554
185	0x3daebd98	0.08532256
186	0xbf6f3411	-0.9343882
187	0xbe0fecbd	-0.14055152
188	0xbf0e1bd4	-0.5551121
189	0x3a93d45d	0.0011278499
190	0x3d47a02a	0.04873673
191	0x3f08bdcb	0.534146
192	0xbf1d320c	-0.6140449
193	0xbe545c54	-0.20738345
194	0x3e2a506d	0.16632243
195	0x3f7b0bb0	0.9806471
196	0xbe9d1f07	-0.30687734
197	0xbecdcd5d	-0.40195742
198	0x3edf8fe9	0.43664482
199	0x3e9593c0	0.29214287
200	0x3ebbc4bd	0.36673537
201	0xbf433843	-0.76257724
202	0x3f43c2ec	0.764693
203	0xbe451f8f	-0.1925032
204	0xbef6474e	-0.48101276
205	0x3eea0ed7	0.45714447
206	0x3f1a3b2b	0.60246533
207	0x3d71d34b	0.059039395
208	0xbe5defb5	-0.21673472
209	0xbd977ee4	-0.07397249
210	0xbe6c81ff	-0.23096465
211	0xbc4a6ed3	-0.012355524
212	0xbf222041	-0.63330466
213	0x3ebdf080	0.3709755
214	0xbe96083d	-0.2930316
215	0xbdddfdc6	-0.10839419
216	0xbf374147	-0.7158398
217	0xbe8dd73f	-0.27703282
218	0x3eeb6093	0.45972118
219	0x3f0d8631	0.55282885
220	0xbea7a509	-0.327431
221	0xbecffaf5	-0.40621153
222	0xbee2d16f	-0.4430041
223	0x3e20bdd8	0.1569742
224	0x3f049386	0.517876
225	0xbe5418c2	-0.2071257
226	0x3d267fbc	0.04064916
227	0xbdd28166	-0.10278587
228	0x3e291933	0.16513519
229	0x3e62e814	0.22158843
230	0xbc516b5e	-0.012781946
231	0x3f8b3774	1.0876298
232	0xbf7da76c	-0.9908359
233	0xbed03055	-0.40661874
234	0x3f2fb57f	0.68636316
235	0x3ef4c5c6	0.4780714
236	0x3ee64884	0.449772
237	0xbf288dbb	-0.65841264
238	0xbe5491b4	-0.20758706
239	0xbed5ba25	-0.4174358
240	0x3cfc2144	0.030777581
241	0x3d76db4e	0.06026774
242	0x3f2665e5	0.6499923
243	0x3f120792	0.570428
244	0x3ea435e6	0.3207237
245	0x3d653ede	0.055968158
246	0xbebcbc63	-0.36862478
247	0xbec9d690	-0.3942151
248	0xbde85e31	-0.113460906
249	0xbec6c218	-0.38819957
250	0xbf37cadd	-0.7179392
251	0x3e9bf519	0.30460432
252	0xbec95e48	-0.39329743
253	0x3f329632	0.6976043
254	0xbe6ef4b9	-0.23335542
255	0x3d3ff6b2	0.046866126

network.4.bias f4 [64]
0	0xbf49d2f8	-0.7883754
1	0xbd73fa4f	-0.059564885
2	0x3da6506c	0.08120808
3	0xbf3c221e	-0.7348956
4	0xbdd1f335	-0.10251466
5	0xbb9062a4	-0.00440629
6	0xbe134371	-0.14381196
7	0x3e93c366	0.28860015
8	0x3f1735a9	0.59066254
9	0xbd824e7f	-0.06362628
10	0xbf37dba6	-0.7181953
11	0x3e86bb0d	0.26314583
12	0xbe3be247	-0.18348037
13	0xbc8ce9a9	-0.017201262
14	0x3ec05290	0.3756299
15	0x3ea7138e	0.32632107
16	0x3d13ef7d	0.036117066
17	0xbe19ba79	-0.1501254
18	0x3e184218	0.14868963
19	0x3e01db11	0.12681223
20	0xbe3eaae1	-0.18619873
21	0xbf00d8a0	-0.50330544
22	0x3e1078f8	0.14108646
23	0x3f25da93	0.6478664
24	0xbe1ad1ea	-0.15119138
25	0x3d78e36e	0.06076377
26	0x3e62ba89	0.2214147
27	0x3eb6a8bf	0.35675618
28	0x3e76aef1	0.24090172
29	0xbf107ef5	-0.5644372
30	0x3ea4b97f	0.32172772
31	0xbdb5ad0e	-0.08870898
32	0x3eb11036	0.3458268
33	0x3e19b925	0.15012033
34	0x3e81bfbd	0.25341597
35	0x3f04ec7d	0.5192335
36	0x3ef50ea0	0.4786272
37	0x3ec299e8	0.38008046
38	0xba993f8f	-0.0011691916
39	0x3f11f420	0.5701313
40	0x3e2c7ee6	0.16845283
41	0x3eb62349	0.35573795
42	0x3e1b60c6	0.15173635
43	0xbe77a9fa	-0.24185935
44	0xbccb967e	-0.024852034
45	0x3eea77d3	0.45794544
46	0x3f0e8b55	0.55681354
47	0x3e09657c	0.1341762
48	0xbeaac578	-0.33353782
49	0xbe2ab9b6	-0.16672406
50	0xbbda3321	-0.006658927
51	0x3edac46e	0.4272799
52	0x3f477039	0.77905613
53	0x3eb1bbbf	0.3471355
54	0x3f161838	0.58630705
55	0xbf606b8c	-0.87664104
56	0xbdd09bc5	-0.10185961
57	0x3d9e5447	0.077309184
58	0xbeb8af96	-0.3607146
59	0x3eb55bdc	0.35421646
60	0x3f1ebd98	0.6200805
61	0x3e61a843	0.22036843
62	0x3ecd0f34	0.40050662
63	0x3e01193e	0.12607285

network.6.weight f4 [64, 64]
0	0x3d182277	0.037142243
1	0x3ad9505c	0.0016579735
2	0x3da06831	0.07832373
3	0x3d253c5b	0.040340763
4	0x3d0a9523	0.033833634
5	0x3a30c8f9	0.00067438144
6	0x3dd18da1	0.10232092
7	0x3d7ffe22	0.06249822
8	0x3e3aceae	0.18242905
9	0xbd716c87	-0.05894139
10	0xbdb5a11c	-0.0886862
11	0x3e3ac7f9	0.18240346
12	0xbc7d4d4c	-0.015460324
13	0x3e90cda7	0.282819
14	0x3dd3dbf2	0.103446856
15	0x3e91fc72	0.28512913
16	0xbd7ac47f	-0.06122255
17	0xbd065c04	-0.032802597
18	0x3ddd9022	0.10818507
19	0x3e282389	0.16419806
20	0xbd82ed6a	-0.063929394
21	0x3dee3139	0.11630482
22	0x3db59de1	0.08868004
23	0x3e1eb44a	0.15498462
24	0xbc52f226	-0.0128751155
25	0xbe4d5ffe	-0.2005615
26	0x3e9c2870	0.304996
27	0x3dc7cf90	0.09756386
28	0x3e1625f8	0.14662921
29	0x3edb5aed	0.42842808
30	0xbdb898bd	-0.090135075
31	0x3e848336	0.25881356
32	0x3e489a01	0.19589998
33	0x3e14801b	0.14501993
34	0xbd127c1c	-0.03576289
35	0xbcc3128a	-0.023812551
36	0x3e9dbf10	0.30809832
37	0x3eb014b8	0.34390807
38	0x3e5dbfa6	0.2165514
39	0x3e259c27	0.16172849
40	0x3de0da36	0.109791204
41	0xbeda5ecb	-0.42650446
42	0x3dbb8b5c	0.0915744
43	0xbc7d9e1a	-0.015479589
44	0x3da474ec	0.080301136
45	0xbaebd48e	-0.0017992423
46	0xbdd6c814	-0.104873806
47	0x3de8d98b	0.11369618
48	0x3e88727f	0.26649854
49	0x3e0aac3a	0.13542262
50	0x3e945a2f	0.28975055
51	0x3d0751d5	0.033037025
52	0xbe490a48	-0.19632828
53	0x3d8144fa	0.06311984
54	0xbed8b005	-0.42321792
55	0x3c3c033e	0.011475382
56	0xbd1b4148	-0.037904054
57	0xbd16d034	-0.03681965
58	0x3ce80002	0.028320316
59	0x3e6e1490	0.23250031
60	0x3b6ea789	0.0036415777
61	0xbc502355	-0.012703736
62	0x3e2b5133	0.16730194
63	0x3d54c8a3	0.051949155
64	0xbe06416a	-0.13110891
65	0x3d6787e5	0.056526083
66	0x3dd07ba4	0.101798326
67	0x3eaf48bc	0.3423518
68	0xbdf12c60	-0.11776042
69	0xbf39ceaf	-0.72581
70	0x3e4ae69b	0.19814532
71	0x3e1cb378	0.15302837
72	0xbec4b0bc	-0.38416088
73	0x3cd04182	0.025421862
74	0xbe146fbd	-0.1449575
75	0x3eb251b3	0.34827957
76	0x3c9d69bf	0.019215463
77	0xbe29e783	-0.16592221
78	0x3e922ab0	0.28548193
79	0x3dc8b624	0.098003656
80	0xbee5fde6	-0.44920272
81	0x3be7b1a7	0.0070707384
82	0x3e2f9192	0.17145374
83	0x3e8f404c	0.27978742
84	0x3dc10822	0.09425379
85	0x3e7b2e09	0.2452928
86	0x3ef22174	0.47291148
87	0x3d5c1b81	0.053737167
88	0xbd7912fe	-0.060809128
89	0xbf29c6ca	-0.66318953
90	0xbe7cf348	-0.2470218
91	0x3eb25ae1	0.3483496
92	0xbec2f185	-0.3807489
93	0xbe9ac7b9	-0.302305
94	0xbf3a56a9	-0.7278848
95	0x3e8c5c9a	0.274144
96	0xbe5c588d	-0.21518154
97	0x3e456535	0.19276889
98	0xbe976769	-0.29571083
99	0x3e41956b	0.18904655
100	0x3e2509b1	0.16116978
101	0xbe83cbb9	-0.25741366
102	0x3f19cd2f	0.6007871
103	0x3c47d95e	0.0121978205
104	0x3e993951	0.2992654
105	0xbdff752d	-0.124735214
106	0x3ec27460	0.37979412
107	0xbd3614ad	-0.04445331
108	0xbe48136b	-0.19538657
109	0xba2dec21	-0.0006634612
110	0x3e15d04c	0.1463024
111	0xbd771ecb	-0.0603321
112	0x3ede60a6	0.43433112
113	0xbe670195	-0.22559197
114	0x3e2721a4	0.16321427
115	0x3eee91c0	0.46595573
116	0x3d90f749	0.07078416
117	0xbe2007bc	-0.1562795
118	0xbf1875df	-0.59554857
119	0xbd91685e	-0.070999846
120	0xbf449772	-0.7679359
121	0xbe007983	-0.12546353
122	0xbe83a319	-0.2571037
123	0xbf9aa90e	-1.2082841
124	0xbe86c5ed	-0.2632288
125	0xbe0e59ca	-0.1390144
126	0x3e83e24d	0.2575859
127	0xbef7d803	-0.4840699
128	0xbe8400a9	-0.25781754
129	0xbd633cb0	-0.055477798
130	0xbc8f8819	-0.017520951
131	0x3d3ba290	0.04580933
132	0x3dc55773	0.0963582
133	0x3e031190	0.12799668
134	0x3e8cd821	0.27508643
135	0xbe80b186	-0.2513544
136	0x3e24c641	0.16091253
137	0x3e09ad63	0.13445048
138	0xbe3efdd2	-0.18651512
139	0x3df63ed3	0.120237015
140	0xbd8d06d0	-0.06886065
141	0x3e52e6eb	0.205959
142	0x3e13f3f3	0.14448528
143	0x3e7dd46d	0.24788065
144	0xbe0c6f64	-0.13714367
145	0x3d8c9d68	0.0686596
146	0x3e8fafcb	0.28063807
147	0x3dc72cd6	0.09725349
148	0xbd6d64d4	-0.057957485
149	0xbc12df72	-0.008964406
150	0xbd412b0a	-0.047160186
151	0x3ddf74f4	0.10910979
152	0x3dd4f1ee	0.10397707
153	0xbe0a0905	-0.13480003
154	0x3dcc398e	0.09971915
155	0xbca7797b	-0.020443669
156	0x3d79b8d3	0.060967278
157	0x3daed46a	0.085366085
158	0xbdc0d2a3	-0.09415176
159	0x3e822004	0.2541505
160	0x3e07cf7c	0.13262743
161	0x3dc85734	0.09782258
162	0xbcd5162f	-0.026011555
163	0xbef9cb9a	-0.48788148
164	0x3ec3a5e3	0.382125
165	0x3d8415c8	0.06449467
166	0x3de7d3d9	0.113197036
167	0x3e8f3d24	0.27976334
168	0x3d9c679b	0.07636949
169	0x3e0f96cd	0.1402237
170	0x3e7dcb30	0.24784541
171	0xbda9c1ed	-0.082889415
172	0x3dc19646	0.094524905
173	0x3e1270c5	0.1430083
174	0xbe9e084a	-0.308657
175	0x3e35f068	0.17767489
176	0x3ea7ed95	0.32798448
177	0x3e1c77b7	0.15280043
178	0x3e9629fb	0.29328904
179	0xbc98b5dc	-0.018641405
180	0xbe3ca060	-0.18420553
181	0x3d3740b8	0.044739455
182	0xbebec89f	-0.37262437
183	0xbe1955dd	-0.1497416
184	0x3e237e3a	0.1596612
185	0xbdd03577	-0.101664476
186	0x3d8726d7	0.06599205
187	0x3e8d9ed9	0.27660254
188	0xbda92ab1	-0.08260096
189	0xbcd07859	-0.025448011
190	0x3d9799b2	0.07402362
191	0x3df77dfd	0.12084577
192	0x3d9e54f1	0.07731045
193	0x3dcb69c4	0.099322826
194	0xbe8af557	-0.27140304
195	0xbf256fb0	-0.64623547
196	0xbcf19f7f	-0.029494999
197	0x3f08479a	0.53234255
198	0x3ed103dd	0.4082326
199	0xbe8b163b	-0.27165398
200	0x3e5a5763	0.21322398
201	0x3ccf3f5c	0.025298767
202	0xbd897f61	-0.06713749
203	0x3e8f1f3e	0.27953523
204	0x3d5d6104	0.0540476
205	0xbd4c4f67	-0.04988041
206	0xbd760cb9	-0.060070727
207	0x3e91748e	0.28409237
208	0x3f2463f9	0.64215046
209	0xbc442b43	-0.011973205
210	0x3ca37880	0.01995492
211	0x3f360138	0.7109561
212	0xbd1eb90a	-0.038750686
213	0x3ed3b252	0.41346985
214	0xbc41d9a0	-0.011831671
215	0xbeb64fe6	-0.35607833
216	0x3d2ad624	0.041708127
217	0xbf5de434	-0.86676335
218	0xbd7db130	-0.061936557
219	0x3ed6d1c5	0.41956916
220	0xbf3467b8	-0.7047076
221	0xbe95e11f	-0.29273316
222	0xbf09c1f6	-0.53811586
223	0x3eae1618	0.3400123
224	0x3dddae7d	0.108242966
225	0x3de45f19	0.11150951
226	0xbf1ee9b6	-0.62075365
227	0xbf836c8c	-1.0267501
228	0xbd6c2f3b	-0.05766223
229	0xbe50b798	-0.20382535
230	0x3d059aa9	0.0326182
231	0xbdf88b67	-0.12135964
232	0x3c9322df	0.017960964
233	0xbf373f4e	-0.7158097
234	0x3aae9efe	0.001332253
235	0x3db93dad	0.09044967
236	0xbe82a6c2	-0.2551785
237	0x3d87dc23	0.066337846
238	0xbf3d7ff3	-0.7402336
239	0x3f88b0fb	1.067901
240	0x3e48ac59	0.19596995
241	0xbf52bf7e	-0.82323444
242	0xbf147e4b	-0.5800521
243	0xbeb1d769	-0.34734657
244	0x3deb25ab	0.11481794
245	0xbd5ff673	-0.05467839
246	0xbf6bdc19	-0.9213272
247	0x3f0cc264	0.54984117
248	0xbfede478	-1.8585348
249	0x3db41ee2	0.08794953
250	0xbf4a4771	-0.7901526
251	0x3e1a8ca9	0.1509272
252	0x3d8cfdb0	0.068843246
253	0xbfb9517f	-1.4477996
254	0x3e17ad18	0.14812124
255	0xbe50c84c	-0.20388907

network.6.bias f4 [64]
0	0x3f3b3e8d	0.7314232
1	0x3f20ebfb	0.6286008
2	0x3f3933d6	0.7234472
3	0x3f3276e7	0.6971268
4	0x3c9ed975	0.019390801
5	0x3f379cbb	0.71723527
6	0xbd9371d6	-0.07199447
7	0x3f20244f	0.625554
8	0xbddce253	-0.107853554
9	0xbdbed0f6	-0.093172
10	0x3f44fa4e	0.76944435
11	0xbde44a80	-0.11147022
12	0xbe371025	-0.17877252
13	0xbd7a92b8	-0.06117508
14	0x3ed50f86	0.41613406
15	0x3f036210	0.51321507
16	0xbe0e7e6d	-0.13915415
17	0x3f18b2d5	0.59647876
18	0x3e0be80b	0.13662736
19	0x3d178ee8	0.03700152
20	0xbddb831f	-0.10718369
21	0x3d625bc7	0.055263307
22	0x3ee4bd4a	0.44675666
23	0x3f42e25d	0.7612665
24	0x3efda80c	0.49542272
25	0x3a91a24f	0.0011110994
26	0xbd34cf08	-0.044142753
27	0xbd9e4641	-0.077282436
28	0x3eef14c1	0.4669552
29	0xbd869a0a	-0.06572349
30	0x3f6e5789	0.9310232
31	0xbe276623	-0.16347556
32	0x3f07370e	0.5281838
33	0xbe2fe8be	-0.17178628
34	0x3f047199	0.51735836
35	0xbd5c6da0	-0.053815484
36	0xbdb699bc	-0.08916041
37	0x3e5eb38e	0.21748182
38	0x3f242569	0.64119583
39	0x3f005540	0.5013008
40	0xbe4339cb	-0.19065015
41	0x3ed81b9d	0.42208567
42	0x3f23fbf8	0.6405635
43	0x3f359737	0.7093386
44	0xbe1203dd	-0.14259286
45	0xbda016fa	-0.078168824
46	0xbce5c608	-0.02804853
47	0x3c812add	0.01576751
48	0xbdeb6e42	-0.114956394
49	0xbe17097f	-0.14749716
50	0x3f0cdb61	0.55022246
51	0x3f298619	0.6622024
52	0x3f0901c1	0.535183
53	0x3f2ad2d7	0.66727966
54	0x3f3a2026	0.72705305
55	0x3f2386c6	0.6387752
56	0xbde2d3a9	-0.11075527
57	0xbd637d2c	-0.055539295
58	0xbd4b7f85	-0.04968216
59	0x3f6f2c56	0.93427026
60	0xbe17571e	-0.14779326
61	0x3e4cec79	0.20012082
62	0xbdb3c31b	-0.08777448
63	0xbd282eaf	-0.041060146

network.8.weight f4 [21, 64]
0	0x3ec93e70	0.3930545
1	0x3e2d1403	0.16902165
2	0x3e8de3b8	0.27712798
3	0x3f253660	0.64536095
4	0x3d60c927	0.054879334
5	0x3e276717	0.1634792
6	0xbdc7be40	-0.09753084
7	0x3e503fa8	0.20336783
8	0xbdfea5f8	-0.12434
9	0x3c5842d4	0.013199527
10	0x3ee17971	0.44037965
11	0xbd189268	-0.037249
12	0x3d247226	0.040147923
13	0x3c0c74ce	0.00857277
14	0x3ddc25a3	0.10749366
15	0x3f87b7af	1.0602931
16	0xbe1d2e51	-0.153497
17	0x3e4b7072	0.19867113
18	0xbf1d8e5d	-0.61545354
19	0xbf81d2bf	-1.014244
20	0xbb62ef04	-0.0034627328
21	0x3f329b3f	0.69768137
22	0x3df97eb1	0.121823676
23	0x3e802365	0.25027004
24	0x3e4b5123	0.1985517
25	0xbd9fff92	-0.07812418
26	0xbaf24820	-0.001848463
27	0xbda8d138	-0.0824303
28	0x3e9b81e9	0.3037255
29	0x3f28e47b	0.65973634
30	0xbe772721	-0.2413602
31	0xbdcb90ae	-0.09939705
32	0x3f03d892	0.51502335
33	0x3de3228c	0.11090574
34	0xbd940348	-0.07227188
35	0xbc47098b	-0.012148271
36	0xbdf75f3b	-0.12078711
37	0x3eb5885b	0.35455593
38	0xbf01305f	-0.50464433
39	0x3e9396bd	0.28825942
40	0xbf42ee76	-0.7614511
41	0x3f0641e8	0.52444315
42	0x3e8a8b5e	0.27059454
43	0x3edbb830	0.4291396
44	0xbd41d715	-0.04732426
45	0xbcc33f2e	-0.023833837
46	0xbc3adeaa	-0.011405626
47	0xbf18e835	-0.5972932
48	0xbb999c57	-0.0046878266
49	0x3e129192	0.14313343
50	0x3e2bf2fb	0.16791908
51	0x3e723904	0.23654562
52	0x3e4a73dd	0.19770761
53	0x3e732ca3	0.23747496
54	0x3f3abcf2	0.7294456
55	0x3ee09e39	0.43870714
56	0x3d3b88c9	0.045784745
57	0xbcdedc27	-0.027204586
58	0xbdba6bf9	-0.091026254
59	0x3e7647ee	0.24050876
60	0x3d50f848	0.05101803
61	0xbf3e251d	-0.7427538
62	0x3d2b2808	0.041786224
63	0xbeb2a13f	-0.34888646
64	0x3ec6d9d5	0.38838068
65	0x3e510778	0.20413005
66	0x3eab604f	0.33471915
67	0x3f3bf5b9	0.7342182
68	0xbce73149	-0.028221743
69	0x3e25b8e1	0.16183807
70	0xbd2a45e1	-0.041570548
71	0x3e56fbc8	0.20994484
72	0x3da93ede	0.08263944
73	0x3df27c41	0.11840106
74	0x3e97beba	0.296377
75	0xbd221014	-0.039566115
76	0xbd20a5c0	-0.03922057
77	0x3d55bfb5	0.05218478
78	0x3e0a2f38	0.13494575
79	0x3f707ba7	0.9393868
80	0xbe14c424	-0.14527947
81	0x3ddfa013	0.109192036
82	0xbf25f52f	-0.64827245
83	0xbf5abc08	-0.8544316
84	0x3d865cda	0.06560679
85	0x3f06a838	0.5260043
86	0x3df7a0ba	0.12091203
87	0x3e6dc393	0.23219137
88	0x3e161e24	0.14659935
89	0xbdc00611	-0.09376157
90	0xbda40536	-0.080088064
91	0x3de409c2	0.11134674
92	0x3eb68311	0.3564687
93	0x3f188b4b	0.59587544
94	0xbe5c88a1	-0.21536495
95	0xbd153c56	-0.036434494
96	0x3efb3932	0.49067074
97	0x3d1e40cc	0.038636014
98	0xbcc0230a	-0.023454208
99	0xbd0a7370	-0.033801496
100	0xbd998ea4	-0.0749791
101	0x3ec07802	0.3759156
102	0xbf06b130	-0.52614117
103	0x3e96fcb1	0.29489663
104	0xbf44da82	-0.76895916
105	0x3f007c89	0.50190026
106	0x3e6a3c17	0.22874485
107	0x3ed6439a	0.4184845
108	0x3dd04890	0.1017009
109	0x3d557b00	0.052119255
110	0xbd794b76	-0.06086298
111	0xbf245fb9	-0.6420856
112	0xbd4004ca	-0.046879567
113	0x3d47192d	0.048607994
114	0x3e94a9ec	0.2903589
115	0x3e868f37	0.2628114
116	0x3e2e734d	0.17036171
117	0x3e4292a8	0.19001257
118	0x3f2bc952	0.67104065
119	0x3ee640a3	0.4497119
120	0x3dbe7dce	0.09301339
121	0xbca6905d	-0.02033251
122	0x3d4721b1	0.048616115
123	0x3e777ac0	0.24167919
124	0x3cf98628	0.030459478
125	0xbf37bb78	-0.7177043
126	0x3b522140	0.0032063276
127	0xbe7131e7	-0.23554192
128	0x3ebb422e	0.3657393
129	0x3e748386	0.23878297
130	0x3e948389	0.29006603
131	0x3f3e5163	0.74342936
132	0x3c5abb57	0.013350329
133	0x3e34b3cc	0.17646712
134	0xbc9f1efb	-0.019423952
135	0x3e7ba571	0.2457483
136	0x3bb58180	0.0055391192
137	0xbca3a677	-0.019976838
138	0x3ea73086	0.32654208
139	0xbdb1d598	-0.08683318
140	0xbb438d40	-0.002983883
141	0x3d3f75b4	0.04674311
142	0x3e2a7804	0.16647345
143	0x3f6028bf	0.87562174
144	0x3d84f9f3	0.064929865
145	0x3e75c5d9	0.24001254
146	0xbf1cd376	-0.61260164
147	0xbf53e829	-0.82776123
148	0xbc81d7b0	-0.015849918
149	0x3f03e20d	0.515168
150	0x3d8d4249	0.068974085
151	0x3e6863e3	0.22694354
152	0x3e514d3e	0.20439622
153	0x3c12a968	0.008951522
154	0x391b75b9	0.00014825807
155	0x3cac0ba0	0.021001637
156	0x3e8a85f9	0.27055338
157	0x3f07e82c	0.5308864
158	0xbe0f2a22	-0.13980916
159	0x3d160353	0.036624264
160	0x3ed2db91	0.4118314
161	0xbd988c68	-0.07448655
162	0xbd520c3e	-0.051281206
163	0xbd0d07f1	-0.0344314
164	0xbd8cc088	-0.0687266
165	0x3ee5087f	0.44733045
166	0xbf15db69	-0.5853792
167	0x3e8857f5	0.26629606
168	0xbf4209e6	-0.75796354
169	0x3eebb06e	0.46033043
170	0x3e402fbd	0.1876821
171	0x3ecd73b7	0.40127346
172	0xbb9c2240	-0.004764825
173	0xbde4c354	-0.111700684
174	0xbd3c7851	-0.04601318
175	0xbf269525	-0.65071326
176	0xbd03cc66	-0.03217735
177	0xbd8a6c86	-0.067589805
178	0x3e60459b	0.21901552
179	0x3e9d8cd9	0.3077152
180	0x3e30ea8f	0.17276977
181	0x3e9c0560	0.3047285
182	0x3f3a87ce	0.7286347
183	0x3ee23e4c	0.44188154
184	0x3cf5c425	0.030000756
185	0x3e49bacb	0.19700162
186	0xbda3d8c4	-0.08000329
187	0x3e807847	0.25091764
188	0x3df97388	0.12180239
189	0xbf2e6b77	-0.6813273
190	0xbdf5518e	-0.11978446
191	0xbeb5ad52	-0.35483795
192	0x3ec79876	0.38983506
193	0x3e5aedd4	0.21379787
194	0x3e9cde00	0.30638123
195	0x3f318806	0.6934818
196	0x3bea815f	0.0071565355
197	0x3e3f1c25	0.1866308
198	0xbd23030f	-0.03979784
199	0x3e385ceb	0.18004195
200	0x3df8952a	0.12137826
201	0xbc96e061	-0.01841754
202	0x3eab92d0	0.33510447
203	0x3d0f499c	0.03498231
204	0xbd7da658	-0.061926216
205	0xbdf1dfe2	-0.118102804
206	0x3e17799a	0.14792481
207	0x3f5955c6	0.84896505
208	0x3c87ffd8	0.016601488
209	0x3ebdc57e	0.37064737
210	0xbf1ee88f	-0.62073606
211	0xbf39bcc9	-0.7255369
212	0xbdb2bc1e	-0.08727287
213	0x3ebcc70f	0.3687062
214	0x3e006fc2	0.12542632
215	0x3e9dd97e	0.30829996
216	0x3df2ca50	0.11854994
217	0x3dbd7116	0.09250085
218	0x3d9d3849	0.07676751
219	0xbdd5a3ee	-0.10431658
220	0x3eaa06f7	0.3320844
221	0x3ee533c0	0.44766045
222	0xbdcc08d3	-0.099626206
223	0xbe00ec24	-0.1259008
224	0x3ed6d03b	0.41955742
225	0x3d0d55dc	0.03450571
226	0xbd43e238	-0.04782316
227	0xbc935ff1	-0.017990084
228	0x3ae3a080	0.0017366558
229	0x3eda7817	0.42669746
230	0xbf18973e	-0.5960578
231	0x3e8aa177	0.27076313
232	0xbf34dfd8	-0.7065406
233	0x3ee818e0	0.45331478
234	0x3e748bda	0.23881474
235	0x3eb379b4	0.3505379
236	0xbce47a25	-0.027890274
237	0x3cf6e258	0.030137226
238	0xbdd2732d	-0.10275874
239	0xbf27c78f	-0.6553888
240	0x3d21f154	0.03953679
241	0x3d876f36	0.06613009
242	0x3e65ba70	0.22434402
243	0x3e809a62	0.25117785
244	0x3e3d92f4	0.1851309
245	0x3eaa0a81	0.3321114
246	0x3f3918aa	0.7230326
247	0x3eddaf81	0.4329796
248	0x3db5c446	0.08875327
249	0x3e245ad0	0.16050267
250	0x3c6c807c	0.01443493
251	0x3e848257	0.2588069
252	0xbd82238e	-0.06354438
253	0xbf2480f1	-0.6425925
254	0x3cd9ee90	0.026603013
255	0x3e9d11c4	0.30677617

network.8.bias f4 [21]
0	0x3f0e9562	0.5569669
1	0x3f284a2d	0.65738183
2	0x3f2098ff	0.62733454
3	0x3f2f1cd6	0.68403375
4	0x3f1bea09	0.60903984
5	0x3f1570ec	0.5837543
6	0x3f2cd996	0.6751951
7	0x3f2f402a	0.6845728
8	0x3f249361	0.6428738
9	0x3f368275	0.7129281
10	0x3f288f47	0.65843624
11	0x3f0ca374	0.5493691
12	0x3f2421ec	0.6411426
13	0x3f4121ef	0.75442404
14	0x3f24b1b7	0.6433367
15	0x3f25090c	0.6446693
16	0x3f4be433	0.7964508
17	0x3f52538f	0.8215875
18	0x3f4a3542	0.78987515
19	0x3f3cf701	0.738144
20	0x3f1a4a0e	0.6026925
