model/model_453.pth (torch, 35975 bytes, 10 tensors)

network.0.weight f4 [16, 6]
00000000: d897 04bf 5867 e7be fa8f e03c 40e6 b8bc
00000010: 2a19 3fbf ca31 d839 5491 febe 1d6e c23c
00000020: 1f65 523e c058 db3d cf26 8fbe dcf1 6e3e
00000030: 09ce 13bf 6160 c6be c2b2 9dbd 88c7 d0be
00000040: 238c 123f 2d74 0fbd 15e9 313e 7f9a 543f
00000050: 4b58 bb3e 7b0f fb3e 170c 04be 8aa0 c73d
00000060: fae3 dabe ee7f 633f dbc3 b1bd 4f20 adbe
00000070: c5ac f63e 5b86 a23d 8ec9 173f 9091 9a3f
00000080: 88cc 8ebd 4a23 27bf e611 ca3e 1ee9 41be
00000090: acba 99be 8054 44be 57e6 5dbe 9754 2bbe
000000a0: 8583 7abf 43d8 253e 3d24 ca3e a5af 61bf
000000b0: 38ed debd ca7f 45be d33b 4cbe e2ed 053e
000000c0: 0ada 6fbf 0d98 0d3f 310d a1bd 514b 803f
000000d0: ae26 1c3f f9a4 43be 8beb a23e f4ac 2cbf
000000e0: f15e e63d 28e0 81bf 946d 42bd dce0 793e
000000f0: aa4f 343e 1023 9fbf 6b3f 49be 7168 643b
00000100: 053c 273f 49ca 10bc 9821 ec3e 8023 40be
00000110: 01fc 6f3e 202a 9e3e 99f3 543f 4fd7 703c
00000120: 8701 e13e 5ce2 bbbf 25e6 1abd e519 0e3e
00000130: 7019 bebe fe59 a8bd 22c7 18bf 97ea 253f
00000140: 6823 443e 56dc 18bf a17f 973e d38e aabc
00000150: dcc8 fd3d 05d8 0d3f b03c d5bd 94c3 b0be
00000160: 5710 49bf ec33 72be 8856 213f 1f63 52bf
00000170: 8292 08bc 6df8 c03d 94f7 b63d 7a9d 55be
-0.51794195 -0.45196033 0.027412403 -0.02257073 -0.7464777 0.00041235826 -0.49720252 0.023734147
0.20546387 0.10710287 -0.27959296 0.2333445 -0.5773626 -0.38745406 -0.07700111 -0.4077723
0.5724508 -0.035022903 0.1737407 0.8304824 0.365908 0.49035248 -0.12895237 0.09747417
-0.42752057 0.8886708 -0.086799346 -0.33813712 0.48178688 0.079357825 0.59291923 1.2075672
-0.06972605 -0.6528822 0.3946678 -0.18936583 -0.30025232 -0.19172859 -0.21669899 -0.16731487
-0.9785693 0.16195779 0.39480773 -0.8815864 -0.1088509 -0.19287029 -0.19944696 0.13079026
-0.93692076 0.55310136 -0.07863844 1.0022985 0.6099652 -0.19105901 0.3182033 -0.67451406
0.112485774 -1.0146532 -0.047467783 0.24402183 0.17608514 -1.2432575 -0.19653098 0.003485229
0.6532596 -0.008837291 0.4611938 -0.18763542 0.23435976 0.30891514 0.831842 0.014699771
0.43946478 -1.4678454 -0.03781714 0.13877065 -0.37128782 -0.0822029 -0.5967885 0.6481108
0.19154131 -0.59711206 0.2958956 -0.020820057 0.123918265 0.55407745 -0.10411966 -0.34524214
-0.7854056 -0.23652619 0.6302266 -0.82182497 -0.008335711 0.094223835 0.089339405 -0.20860854

network.0.bias f4 [16]
00000000: f012 9bbe 3c63 583e a104 633e b472 ac3e
00000010: 8713 c43c 1763 5fbb a714 03bf 654e f93d
00000020: 23c2 06bd 46c8 66bd 205a 653d aa1a 0b3f
00000030: 99f8 833e 33e3 073c 5107 7c3e 0c07 aabe
-0.30287886 0.21131605 0.22169735 0.33681262 0.023935093 -0.0034086162 -0.5120339 0.12173156
-0.032899987 -0.05634334 0.055994153 0.5433756 0.25775602 0.008293915 0.24612166 -0.332085

network.2.weight f4 [32, 16]
00000000: 919f 24be 5155 4a3d 3994 20be 95f0 7cbe
00000010: a9ba fbbd f7e7 4c3e 7f7a a2bd 7164 933e
00000020: 893c 49be 9bf4 dd3d fcaa 523e d46e 6b3e
00000030: 795f bdbe 205d 3ebe 2e4f 953e 0e51 a8be
00000040: 5831 6fbf 37f0 a3be 6941 6dbd 3831 52bf
00000050: d6e2 923e 1a7e e33e 5084 e0bc 0b50 5fbe
00000060: 0ac3 1f3e af3a 65be 29c6 ed3d a103 bbbe
00000070: ac3d 963d b7b4 90bf b728 89bd 96e2 06be
00000080: d81a 123d 5264 bebd 0a4d 65be 88e6 39be
00000090: bc60 9abd 31f9 48bd b88d 0ebe 34e3 3fbb
000000a0: 50ee 53bd 909a ad3d 8c14 49bc c438 8f3c
000000b0: c99a 7abe b8f4 3ebd 78df 3cbe d818 2dbd
000000c0: 11d9 f93e 087b d33b a4ec e8bd 427e 783e
000000d0: 48a0 a93e d4ac 74be 970c 8ebe 3e70 84bd
000000e0: aa43 d93d 3369 6a3e f76e 353e 3c70 74be
000000f0: 33a8 4bbd 6c3a 89be ce54 1a3e f3d3 a0bd
00000100: d5fe 833c acd5 b2bd da33 4abe 151b 763e
00000110: 62db 25be ff18 34bd 64e5 4ebe ead6 1bbf
00000120: 5f62 233e da5b 4e3e 2d31 1dbd 8ab6 c43c
00000130: 78a2 ccbd 16d3 1ebe c316 b63d d421 cbbb
00000140: 4990 8bbf e8a8 463e 3a7b ac3e 4977 53bd
00000150: f91c 443e 9c92 edbe 5fd4 05be fb27 84be
00000160: 4377 5bbf d1b7 23bf 163f 4e3e c832 553c
00000170: abb3 50bc 0900 513d 7f34 8b3d da99 0e3d
00000180: 10b8 2abf 8310 9e3d 85e4 dbbb c8a3 ad3e
00000190: 0fd3 f4be 4784 6ebe 501d a33e 6a70 f9bd
000001a0: 8d96 ccbd 2853 9fbe 79bf 8b3e 5230 003f
000001b0: caa0 163d c875 0ebe abf4 cf3d 7edf 59be
000001c0: 9df1 1f3f 384b adbe 1a1c d0bd ebd5 973e
000001d0: cb92 bb3e d902 1dbe 7116 603d bfc6 193e
000001e0: 1a18 28be 51d1 0b3d 2dcf f33e 0fb1 5d3e
000001f0: e8e1 89bd 7d8d 02bd 2cfd 29bb 0bc8 a2be
00000200: 18f9 c73e 8a66 cd3d ffce 813e 5e38 a7bc
00000210: e4f6 b13d a3ea cebd 168b ac3e 8d41 8d3e
00000220: 96fe 873e 25d0 f7be 387a ab3e 46c0 4dbd
00000230: c4e6 183f 3728 a6bd f6cb 90be cdfc d43d
00000240: af12 7fbe 3316 a7be 0158 d93d b9de 2f3c
00000250: 8709 cd3e 2da1 a5bd 4aeb debe 66d4 d03e
00000260: 4e5e 84be f957 26be 6643 4d3e 28ae 80be
00000270: 3179 e83e 9d45 913e e48d 953e aa6a 51bd
00000280: d53c 7dbf 95d4 67bf d12a 193e 05d2 b83d
00000290: 1e58 053e 4dc2 8c3d 2fef 333e 5b7a 8abe
000002a0: b9e3 edbd 77bf 88be f476 71be d801 abbe
000002b0: 18e5 403e 2e54 03bf 439d 523e 5bab 2f3e
000002c0: fd69 793c d16b 333e b5be ed3e f873 483e
000002d0: 24de 393e 5f6a 73be a3a7 dc3c 6d7a 4abe
000002e0: 6aa1 4fbe 6676 3c3e 1c28 aabd 19e9 45be
000002f0: 2bad 4e3d bb32 9cbe d69f 743d 3550 313f
00000300: d4b1 7dbd 29c1 073e 07aa 6c3e 4534 1ebf
00000310: af21 4ebd 2f04 cbbe d487 c33d 9d0e b0bd
00000320: cbd5 a93e 7d67 8cbd 6b67 f2bd 4b18 a0be
00000330: 5c5f 30bd 4da5 2cbd 6905 303c f64f e03d
00000340: bc1e 923e 18fb 78bc a8c7 ff3d 40ad c8bd
00000350: 7b10 c3bd d7dd 85be e0dc fa3e 12b1 36bd
00000360: b303 b43d 718b 973e 34d4 05bd 7f7e aabe
00000370: 9040 efbe c92c 2abf 3c95 9a3e d564 ed3e
00000380: 74e4 863e d510 a73d a4fc a2be 3371 dcbc
00000390: db9c 3b3e 1af4 473e 6942 f33d e390 833e
000003a0: 0669 8ebe 375c 373e 0f2d 933e 1960 cc3e
000003b0: 02ac 26bc e400 0d3e c165 aebc c477 29be
000003c0: 48e0 c73e 13c4 7d3d 54df f1bd f095 623e
000003d0: 1b2d cdbe 9462 14be 504e 033f 1b61 063e
000003e0: 077f 7e3e 9315 863d 1d2e f53d a5a8 85bd
000003f0: fa4f 2b3e be68 a53e f3c2 9ebe baa8 67be
-0.16076495 0.04939777 -0.15681542 -0.2470115 -0.12291462 0.20010363 -0.079335205 0.28787568
-0.19651999 0.108376704 0.20573038 0.22991496 -0.36986902 -0.18590212 0.29161972 -0.3287434
-0.9343467 -0.32019207 -0.057923708 -0.8210635 0.28688687 0.44432145 -0.027406842 -0.21807878
0.15601745 -0.22385667 0.11610062 -0.36526206 0.07335982 -1.130515 -0.06697219 -0.13172373
0.03567013 -0.09296478 -0.2239267 -0.18154347 -0.07537982 -0.049065772 -0.13921249 -0.002927971
-0.051740944 0.08476746 -0.012272965 0.017483123 -0.24473108 -0.0466201 -0.18444622 -0.04226002
0.4879842 0.0064538755 -0.113732606 0.24266914 0.33130097 -0.23894054 -0.2774398 -0.06466721
0.10608609 0.22891693 0.17718111 -0.23870939 -0.049720954 -0.26802385 0.15071413 -0.07852926
0.016112724 -0.08732161 -0.19746342 0.24033768 -0.16196969 -0.04396915 -0.20204693 -0.6087481
0.15955494 0.20152226 -0.038376976 0.024012823 -0.09991926 -0.1551021 0.0889106 -0.006199101
-1.0903407 0.1940037 0.33687764 -0.05162743 0.19151677 -0.46400917 -0.13069294 -0.25811753
-0.85728854 -0.63952357 0.20141253 0.0130125955 -0.012738149 0.051025424 0.06797122 0.034814693
-0.6668711 0.07717993 -0.0067105913 0.33914018 -0.47817275 -0.23292647 0.318583 -0.121796444
-0.09989653 -0.3111813 0.2729452 0.5007373 0.036774434 -0.13912117 0.101540886 -0.21276662
0.6247805 -0.3384645 -0.1016161 0.29655394 0.36635432 -0.15333118 0.0547089 0.15017222
-0.16415444 0.034135167 0.47619 0.21649574 -0.06732541 -0.031873215 -0.0025938256 -0.31793246
0.3905723 0.100293234 0.25353238 -0.02041262 0.08689669 -0.10103347 0.33699864 0.27589074
0.2656142 -0.4840099 0.33491683 -0.050232194 0.5972712 -0.08113139 -0.2828061 0.103997804
-0.24909471 -0.32634124 0.106124885 0.010734254 0.4004633 -0.080873825 -0.43538886 0.40787047
-0.258532 -0.16244496 0.20045242 -0.2513287 0.45404962 0.28373423 0.29209816 -0.051127113
-0.9892095 -0.9055875 0.1495774 0.09024433 0.13021895 0.068729974 0.1757171 -0.27046475
-0.116157 -0.26708576 -0.23580533 -0.33399844 0.18837392 -0.51300323 0.20567803 0.1715521
0.0152230235 0.17521597 0.4643456 0.19575489 0.18151146 -0.23771046 0.026935404 -0.19773264
-0.20276418 0.1840454 -0.083084315 -0.19327201 0.050458115 -0.30507454 0.059722744 0.6926301
-0.06193717 0.13257279 0.23111735 -0.61798507 -0.050325092 -0.3965163 0.095473915 -0.08596537
0.33170924 -0.06855676 -0.11836132 -0.31268534 -0.04305969 -0.04214983 0.010743477 0.10952751
0.28539073 -0.015196584 0.12489253 -0.0979867 -0.09524628 -0.26145813 0.4899664 -0.04460246
0.08789768 0.29598573 -0.032673076 -0.33299634 -0.46728945 -0.66474587 0.30191982 0.4636599
0.2634617 0.08157507 -0.31833375 -0.026909446 0.18321554 0.19526711 0.11877901 0.25696477
-0.27814502 0.17906271 0.28745314 0.39917067 -0.010172846 0.13769871 -0.021288754 -0.16549593
0.390383 0.06195457 -0.118101746 0.22127509 -0.40073475 -0.1449073 0.5129137 0.1312298
0.24853145 0.06547084 0.11971686 -0.06526307 0.16729727 0.32306474 -0.3100811 -0.22622958

network.2.bias f4 [32]
00000000: fe79 a83e be50 be3e ce0a 78be 8cfa 7cbd
00000010: f43e 9e3e 4926 223e 127a 803e 7c16 a0be
00000020: 589b 96be a783 463d ba98 563e 4a39 ca3d
00000030: 0c16 bf3e 0afb a6be 8c6e b83e 12bd 81be
00000040: a329 94bd 0e20 45be f816 93be 9771 0d3e
00000050: dd74 153d 4695 95bc 091b 913e 1fbd d7ba
00000060: b85f 73be e1f4 3dbd bf85 cdbe 0372 f13d
00000070: 6dbf 6bbd f15f c33d d824 b43e 6fe8 c53e
0.32905573 0.37170976 -0.24222872 -0.061762378 0.30907404 0.15834917 0.25093132 -0.31267154
-0.29415393 0.048465397 0.20956698 0.09874208 0.37321508 -0.32613403 0.3602184 -0.25339562
-0.07234504 -0.19250509 -0.2872846 0.13812862 0.036488403 -0.018259656 0.2834094 -0.0016459561
-0.23766983 -0.046376113 -0.40141103 0.11789324 -0.057555605 0.09539784 0.3518436 0.38653895

network.4.weight f4 [64, 32]
00000000: 5b5d 373f 201c 10bf c6a3 83bd d63e 1cbf
00000010: 2b50 843d 2231 5d3f c84b c6bd ed93 053f
00000020: bc47 9abe f559 9e3e 6c4a 4a3f 3dfc 7fbe
00000030: d093 89be 9525 94bf ca1d 023e d575 253d
00000040: f767 083e 95b4 623d bd73 d8be edaf ab3e
00000050: c613 c1be 3a7a 153e 3fb8 4f3e 6c82 653e
00000060: 39f9 983e 1b0c eebd f67b c23d 4f96 ecbd
00000070: e2b7 d9be 3bcf 98be b4b9 a33e 5630 d33e
00000080: d3ac 153e 5eaf 123e fc10 bb3b 45cc b6bd
00000090: 3c9f 2c3d 72a1 183e 8439 5bbd 4da9 1fbe
000000a0: 87ae ebbd 21e5 063e cf27 03be 8322 b6bd
000000b0: 5157 00be 8331 86bd f3e8 aebd cca7 093e
000000c0: 286c 113e 3bc3 eb3c 35a5 0bbe 6041 fabd
000000d0: e821 d33d 62fa 97bd 9c4c 0fbc 92cc 10be
000000e0: ce43 33bd 3799 06be 77d1 013d c0d6 76bd
000000f0: b4e5 203e 6ff3 a83d ab6a e6bd d458 0bbd
00000100: 32de 01bd 9b9a 60be 4eda e0bd 1e76 17bc
00000110: 46d9 78bd 3814 c93e c5d6 5a3d f44f 453e
00000120: 9136 973e 137c 793e 4fc4 2c3f 3ce5 1f3d
00000130: 3762 3ebe d17b 28bf 1c1b 98be 8000 ab3e
00000140: 9e21 eb3d 1026 05be e598 9bbd 2986 833e
00000150: 1d3a 9ebd 2ddd 63bd 9aad a0bd 1fac b0bd
00000160: 828b b53e 9a87 9f3e 5069 13be 39b6 02bd
00000170: b335 58bf 8f16 503e 9c04 543e 6114 a03a
00000180: 2190 bd3d c167 bfbe 9e03 0cbd 18dc 873e
00000190: 5e3c 8c3e bb73 283d 91f9 a33d 05a4 2bbe
000001a0: 0f77 563e 56a9 efbd 9c3e 183f d6bf f2bd
000001b0: 5339 f2bc 810f 6cbf bd80 babe d5a2 9abd
000001c0: 12c3 943e 52e0 ff3d 3cf5 0abe cfe8 043f
000001d0: 188c 73be ee9f e53d 2dc5 323e f7a3 163e
000001e0: 9c56 063e bd35 ac3e adde 733e ff99 3f3e
000001f0: de29 02bf 2e5f f83d 7e1f 0e3d 085f 473e
00000200: 22e2 66bd cbc3 893d b9b0 22bd 7b35 083e
00000210: 78a5 e03c 6f33 92bd 2ef1 71bb f010 bebd
00000220: 3eae c7bd 488b 18bd 7ad7 09be dabb 4ebe
00000230: bc46 97bd 69c8 79bd 281e e83d eea6 0dbe
00000240: d74b 1cbc 1697 f7bd 50b7 07be 2f74 b83d
00000250: 5033 19be 1b0b aebc a4cb 36be e3a4 9bbd
00000260: fa1e 63bd 18a2 babd 0f2e d4bc 8f9b 5cbe
00000270: 6b13 84bd e316 b23d 28cd 1dbe a505 d23c
00000280: b8ba ad3e 3fd3 17be b3ae 61bd 1ebb 3cbe
00000290: 4501 5fbe f7bf 773e f862 44be a114 833e
000002a0: baf6 143e 1276 c23e fceb f93d d303 b43d
000002b0: 6bb1 4fbe a3ad 79be 8def 44be 23a0 6a3d
000002c0: 52c8 86bd b527 fabd 6e24 37be 4b80 4e3c
000002d0: 5bff aabd 9414 833e f667 9e3e 77a5 0bbe
000002e0: 60d3 643e a0bc 823e a4c1 853c b4a1 c5bd
000002f0: d858 23bf fef0 0e3d f638 883c 18a6 aa3e
00000300: caec 8ebe a329 15be 6d50 2a3e 65fa 943e
00000310: 018f d9be 1f9d 873e 06ae ce3e 16e1 c93d
00000320: 9aef 3b3e c07d fabe a7f2 b93e ccde 92be
00000330: 34c5 45be e925 2d3d 29c0 883e 2339 3ebd
00000340: 2641 363c 3afa 2dbd 74dc 9a3e 978c 93be
00000350: ed56 a7be 2a2c 0d3f 5ed6 27be 28b9 d5be
00000360: 076f afbe b833 cabe 2cfc b13e 6783 ba3d
00000370: e822 dc3d 7539 213e fcfc debd b2c5 81be
00000380: 54a9 2d3e f59c 9d3d bc7f 263d 6633 ae3d
00000390: 2932 1b3d 947a 7bbf c7c9 9d3e c137 0d3f
000003a0: 1e6a 44bf 1cc2 6fbd afca 21bc a4ac 043f
000003b0: 29f2 ef3d 38b7 d5be fe8b 243d 1d83 8cbe
000003c0: 95b0 87be 4edb 763d 1963 fc3e 9bec e03e
000003d0: 43ba 283f 01d6 4cbf 2c77 57be a1b8 3c3d
000003e0: 4cb0 82be b977 03bf 34ce 8d3e 67f1 c9bc
000003f0: 8753 7abf b0a4 e33e 6461 28be 33cf 95bd
0.71626824 -0.56292915 -0.06427722 -0.6103338 0.06460603 0.86403096 -0.09682423 0.5217884
-0.30132854 0.30928007 0.7901981 -0.24998565 -0.26870584 -1.1573969 0.12706676 0.040395577
0.1332091 0.055347998 -0.422758 0.33532658 -0.37710398 0.14597407 0.20285128 0.22413033
0.29877642 -0.11623403 0.094963 -0.115521066 -0.42523104 -0.29845604 0.31977618 0.41247815
0.14616708 0.1432471 0.005708812 -0.0892568 0.042144045 0.14905336 -0.053521648 -0.15591927
-0.11507898 0.13173343 -0.12808155 -0.08893301 -0.12533309 -0.06552412 -0.08540525 0.13442916
0.14201415 0.028779617 -0.1363724 -0.122195005 0.103092015 -0.074208036 -0.008746292 -0.14140537
-0.043765835 -0.13144384 0.031693902 -0.060263395 0.15712625 0.08249556 -0.11250814 -0.03402026
-0.031706043 -0.21933977 -0.10979138 -0.00924447 -0.060754083 0.39273238 0.053427476 0.19268781
0.29533818 0.24363737 0.67487043 0.039036974 -0.18592153 -0.6581393 -0.29708183 0.3339882
0.11481021 -0.13002801 -0.07597522 0.25688294 -0.07725928 -0.05563085 -0.07845612 -0.086265795
0.35458 0.31158143 -0.14395642 -0.031912062 -0.8445694 0.20321105 0.20704883 0.0012213105
0.09256006 -0.37383845 -0.034183137 0.26535106 0.27389807 0.041125994 0.080065854 -0.16761787
0.20943855 -0.1170222 0.59470534 -0.11852996 -0.02956835 -0.9221116 -0.36426345 -0.07550589
0.29055077 0.124939576 -0.13570112 0.5191774 -0.2378391 0.11212145 0.17458029 0.14710985
0.13118976 0.3363475 0.23815413 0.18711089 -0.50845134 0.12127529 0.034698002 0.19469845
-0.056368 0.06726798 -0.039719317 0.13301651 0.027422652 -0.071387164 -0.0036917436 -0.09280574
-0.09750031 -0.037242204 -0.13461104 -0.20188847 -0.073865384 -0.06098214 0.11333877 -0.1383321
-0.009539566 -0.12089364 -0.13253522 0.09006535 -0.1496098 -0.02124553 -0.1785112 -0.07599809
-0.055449463 -0.09112948 -0.025900869 -0.21543716 -0.06449016 0.086957715 -0.15410292 0.025637457
0.33931518 -0.14826678 -0.055098247 -0.18430755 -0.21777828 0.24194323 -0.19178379 0.25601676
0.14547244 0.37980705 0.122032136 0.08789792 -0.20282523 -0.24382643 -0.19232006 0.057281625
-0.06581177 -0.12214605 -0.1788499 0.01260383 -0.083494864 0.25601637 0.3093869 -0.13637339
0.22346258 0.25534534 0.016327687 -0.09649983 -0.6380744 0.034897797 0.016628724 0.33329844
-0.2791503 -0.14566664 0.16632243 0.29097286 -0.42491916 0.2648706 0.40367144 0.09857385
0.1835312 -0.48924065 0.36317942 -0.28685606 -0.19313508 0.042272482 0.26709107 -0.04644121
0.011123931 -0.042474963 0.30246317 -0.288182 -0.32683507 0.55145514 -0.16390368 -0.41742826
-0.34264395 -0.39492583 0.34762704 0.09107094 0.10748845 0.15744574 -0.10888097 -0.25346142
0.16959125 0.07695953 0.04064916 0.08505897 0.037889633 -0.98233914 0.30818006 0.551632
-0.7672442 -0.058534727 -0.009874984 0.5182593 0.1171611 -0.41741347 0.04017257 -0.27443781
-0.2650191 0.06026774 0.49294356 0.43930516 0.6590921 -0.80014044 -0.21041554 0.046074513
-0.2552513 -0.5135456 0.27696383 -0.024651242 -0.977837 0.44461584 -0.16443402 -0.07314911

network.4.bias f4 [64]
00000000: 7d12 32be 496b f3bc a9f5 9f3d 3950 1bbd
00000010: 35f3 d1bd 09f0 b3bb f5da 533e ae8b 5c3e
00000020: a574 473e 7f4e 82bd 75b9 01bf 8b22 ea3d
00000030: 2b5d 1bbe a39e f43d 8fff 2a3e f99a 993e
00000040: 3edd 323c 1274 f2bd 7eab 5e3e d565 3b3e
00000050: e1aa 3ebe 2cf8 41be d632 1a3e 8dd4 543e
00000060: ead1 1abe 91f7 ba3c 9a99 bc3e 44ba 713e
00000070: d28b b13e 3a4f 24be aa69 4a3e b34d ba3d
00000080: b186 873e ea90 733e 9653 f73d f0b8 d13d
00000090: 92fb c13e dec3 843e 6e96 90bc bf69 933e
000000a0: fde3 8f3e d2a2 263e 20ad a2bc de8f 57be
000000b0: a9b6 7f3e 16a5 b53e bb4b 9a3e 4d55 dd3b
000000c0: 4dfc b2bc da0e 903c 31b4 293e 46b6 b13e
000000d0: 115d 053d b418 c23e 5cab 4a3d e82f 30be
000000e0: 8202 743b 19a8 e83d c8b3 21be 5580 8c3c
000000f0: 6a3c ac3e 7448 453e 952b bf3e 3ff9 883e
-0.17389865 -0.029714243 0.07810528 -0.037918303 -0.10251466 -0.005491261 0.20688994 0.21537659
0.1947809 -0.06362628 -0.5067361 0.1143237 -0.1517226 0.1194432 0.1669905 0.30001047
0.010917006 -0.11838545 0.21745107 0.18300565 -0.18619873 -0.18942326 0.15058455 0.20784207
-0.15119138 0.022823127 0.3683594 0.23606211 0.34676987 -0.16045848 0.1976687 0.09096851
0.2646995 0.23785749 0.120764896 0.10240352 0.37887245 0.25930685 -0.017649855 0.28791615
0.2810363 0.16273049 -0.019857943 -0.21050975 0.24972023 0.35477513 0.30135903 0.0067545534
-0.021848822 0.017585207 0.16572644 0.34709376 0.03255946 0.37909472 0.049479827 -0.17205775
0.003723294 0.11360187 -0.15791237 0.017151037 0.33639842 0.1926592 0.37337938 0.2675266

network.6.weight f4 [64, 64]
00000000: 4c43 143e d082 81bc e709 543e b24a 443d
00000010: 2395 0a3d c414 943c b41d e33e 2ae5 c0bd
00000020: 341e 443e 876c 71bd 0bbe f5be eda7 223e
00000030: 249d 803c 078f 753e f9fa 3c3e b488 733e
00000040: c62e 4b3b bfc3 e4ba 4ab9 803d 1734 2d3e
00000050: 6aed 82bd cbae 253e 600b a23e 9d69 7c3c
00000060: 26f2 52bc f0a9 39bd 6d67 5b3e ad0a 073f
00000070: ced4 e03d 38c7 c03e 6095 7dbe 9d46 163e
00000080: de8e 313e aa7b 603e 703d 85bd 2cdf 01bf
00000090: 56cc 9e3e b8fe 8e3e a7ef d53d 55f9 5f3d
000000a0: 41e5 d43c d519 babe 9448 873d 8126 0bbc
000000b0: 38ff 803d c8bc f53d 6575 f7be ed3d 743e
000000c0: 1da9 153f f7b7 6b3d dde7 283e 458d 3a3e
000000d0: a599 aa3d a437 233e e671 f4be 3b71 ec3d
000000e0: aed9 963c 24cf 333e 09cf ad3d ee19 3f3f
000000f0: 118d 223e ab4a c33c 3306 443e 9510 473d
00000100: 9ca9 bc3d 789f 413d 0f43 e93d 3416 96bc
00000110: 602c f1bd 5861 2dbc e2d5 763e 8f3f 8fbe
00000120: 6704 d53d 8241 d03c a338 ccbe 56ef d23d
00000130: c0f1 4d3d a671 083d c4f2 5d3e d101 1d3c
00000140: f345 8ebe dc2e 1b3d 3fe9 a53c caef b23d
00000150: 2208 c13d e466 73bd 54d1 f73e dd0b 9d3d
00000160: fe12 79bd 02cc 05be 4fe3 a4bc 049d cb3e
00000170: 231b ab3d 0dab 213e d562 82be 51da 203d
00000180: f361 3dbd 8763 cb3d c82b 26be 8d31 1dbf
00000190: 7da5 6f3e 3b03 f13d bb23 e93d b856 743e
000001a0: 2dda 053e 2af0 29bf ee54 85bd 6091 15bd
000001b0: ef2e bf3d cd0f b43c acde 48bf 6435 5b3e
000001c0: 4fe6 223f a027 dabb 1b3e 8b3d 3da4 4c3e
000001d0: 9072 a43d 3f05 c93c a043 01bf 0de3 a63d
000001e0: d757 a43d 8029 97bc 531c ab3d e870 0a3f
000001f0: a31a 073e 0102 223e 65af a13d 2bb7 9a3c
00000200: fbc7 0abc acc9 72bd d509 223e a805 1abd
00000210: 7357 c53d c8e7 133e 5462 033f e9df c2be
00000220: 8f92 203e 63ad 093e 8708 c3be 234e 2f3e
00000230: 2b9e 19bd 4f1c 8b3e f0f3 b83e e02e 6c3e
00000240: 9854 23be e691 cc3d 7b6f 303e 54e6 573e
00000250: d464 6dbd 577e 2ebd 2742 9a3e 5a26 913a
00000260: eef1 d43d 117f 693d 9677 753d 7e45 0d3f
00000270: bc4e 573e fe7a b53e d274 31be 556f 173e
00000280: abaf bc3d eb8e d73d 16b3 a7bd 20b9 6bbf
00000290: e369 003f 1b0d 663e 8631 98bd 1d60 a13e
000002a0: a6f7 57ba 02f4 85be cb38 5b3e aadc 94bd
000002b0: b22c 1b3e d316 753e d984 1cbf a2af cf3e
000002c0: c9e2 1b3f a455 c3bc 9de5 383e cc8d 6d3d
000002d0: ff13 9e3c 8b2b f93d 93f0 a1be 7de8 9d3d
000002e0: a531 013e b50c 313d 6e09 373e 9a0b 4d3f
000002f0: 96e7 a03d b06d a83d d889 783d 2704 f13d
00000300: 220e b93d 8a52 b53d eb02 0d3b 2a45 13bd
00000310: 7f9f f1bc fa9a dd3d 29fc be3d 1791 4abe
00000320: 9e73 273d 5c3f cf3c 7e75 e7be 21f8 9e3d
00000330: 0461 5d3d 7a76 be3c 9cc4 533e e1a6 613d
00000340: 3971 35be 432b 44bc 9701 7e3d 1d4e 593e
00000350: 0ab9 1ebd 41bb 0ebe e137 763e 66f5 1ebc
00000360: 24d6 2a3d 57ef c8bd 759b be3d 567e f23e
00000370: 8598 a33d 51cd 313e 2387 5bbe 6604 adbc
00000380: 1333 23bc 5f7d 3f3c a12e e8bd d37e dfbe
00000390: a6d3 b43d 582c 7b3d e764 edbd 4a1a 313c
000003a0: 422b d6bd b3fc 27bf 9b0e a13d 932a c73d
000003b0: a428 083a 63ba 4e3d dea4 2ebf c84a 983e
000003c0: be73 193e afc7 91bd 2108 d4bd b9bf 043e
000003d0: 6835 093c b9d0 ce3d 759f 82be a5bb 933c
000003e0: 3d72 24bd f025 1f3c bacd 553e 6af6 183f
000003f0: 3b95 e33d 217a 8cbd 64d0 4bbd e20e 7ebd
0.14478797 -0.015809447 0.20706902 0.047922798 0.033833634 0.018076308 0.443586 -0.094187096
0.19152147 -0.05894139 -0.47996554 0.15884371 0.01569993 0.23980342 0.18455113 0.23782617
0.003100322 -0.0017453356 0.06285341 0.16914402 -0.063929394 0.1617996 0.31649303 0.01540604
-0.0128751155 -0.04532808 0.21426173 0.52750665 0.10978089 0.37651992 -0.24764013 0.14675374
0.17339656 0.21922174 -0.06505859 -0.5073116 0.3101527 0.2792871 0.10446101 0.05468114
0.025988223 -0.36347833 0.0660564 -0.008493067 0.06298679 0.11998898 -0.48331752 0.23851748
0.5846117 0.05754849 0.16494699 0.18217953 0.083300866 0.15939194 -0.47743148 0.115450345
0.018414345 0.17559487 0.084867544 0.7464894 0.15874125 0.023839315 0.1914299 0.0485998
0.09212038 0.047271222 0.113897435 -0.018321134 -0.11776042 -0.010582291 0.24105027 -0.2797818
0.1040123 0.025421862 -0.3988696 0.10299556 0.05027938 0.03331151 0.21674639 0.009582953
-0.27787742 0.037886485 0.020252822 0.087371424 0.09425379 -0.059424296 0.48401892 0.07668278
-0.060809128 -0.13066104 -0.02012792 0.3976823 0.08354785 0.15787907 -0.25466028 0.039270703
-0.04623599 0.09931093 -0.16227639 -0.61403733 0.23402973 0.11768194 0.11383768 0.23861206
0.13071509 -0.66382086 -0.0651034 -0.036515594 0.09335124 0.02198019 -0.7846477 0.21407086
0.63632673 -0.0066575557 0.06798955 0.19984527 0.080296636 0.024538634 -0.5049381 0.08148775
0.080245666 -0.018452406 0.08355012 0.5407853 0.13193755 0.15821077 0.07894782 0.01888617
-0.008470531 -0.05927436 0.15824063 -0.03760305 0.0963582 0.14443886 0.5132191 -0.38061455
0.15680908 0.13445048 -0.38092443 0.1711965 -0.037504356 0.27170035 0.3612361 0.23064756
-0.15950239 0.099887654 0.17230026 0.21083957 -0.057957485 -0.042600956 0.30128595 0.0011074052
0.10397707 0.057005946 0.0599285 0.5518416 0.21026129 0.35445398 -0.1732972 0.14788564
0.092131935 0.10525306 -0.08188455 -0.92079353 0.5016157 0.22465937 -0.07431321 0.3151864
-0.00082385016 -0.26162726 0.21408384 -0.07268651 0.15153769 0.23934488 -0.6114021 0.40563685
0.6089292 -0.023844548 0.1805634 0.057996556 0.019296644 0.12166508 -0.31628856 0.07710359
0.12616594 0.04322501 0.17874691 0.8009583 0.078566715 0.08224046 0.060678333 0.1176837
0.09035899 0.08853634 0.0021516632 -0.035954632 -0.029494999 0.10820575 0.093254395 -0.1978191
0.040881746 0.025298767 -0.45206827 0.077621706 0.0540476 0.023249853 0.2068047 0.05509079
-0.17718972 -0.011973205 0.062013235 0.21221204 -0.038750686 -0.13938619 0.24044754 -0.009702062
0.041708127 -0.098112755 0.09306995 0.47362012 0.07988075 0.17363478 -0.2143827 -0.021120261
-0.0099609075 0.011687606 -0.11337019 -0.43651447 0.08829431 0.061321586 -0.11591511 0.01080949
-0.104574695 -0.65619963 0.07864114 0.09724917 0.0005194044 0.05047072 -0.6822032 0.29744554
0.14985558 -0.07118165 -0.10353113 0.12963761 0.008374549 0.100984044 -0.2551228 0.018033812
-0.04014801 0.009713635 0.2087926 0.59751 0.11112448 -0.06859232 -0.049759284 -0.062025912

network.6.bias f4 [64]
00000000: f1c0 b83e c367 c53e 9533 b33e 1b9d 8d3e
00000010: 0e72 513d f860 bd3e c1cc 24bd 58ff a33e
00000020: deea 9bbd e1ea f2bc 8004 bd3e 8911 6ebd
00000030: 738d 16be 80cd 193b fb32 343e 7a0a 933e
00000040: 0d45 c7bd f601 ba3e 19d0 9d3e c8e4 7b3e
00000050: be7d 9abd e4b2 96bc 9cc2 193e 0386 de3e
00000060: cdff 993e 4fa2 913a 9301 b7bc 617e 36bd
00000070: f763 9d3e d8c8 36be 0c72 543e c6df 06be
00000080: bcfe 9d3e 3af3 f5bd fc2b 923e 5ae5 17bd
00000090: bc99 b6bd 2a6f 263e adf4 043f de93 863e
000000a0: b43d acbd 2e04 ac3e 0064 b33e ea29 b13e
000000b0: eb75 abbd a539 3ebd 11d7 723b 9012 f6bd
000000c0: 33bd b0bd 910a edbd 83f7 563e d26d 993e
000000d0: b892 ab3e 23b9 9c3e e578 933e ab79 1d3e
000000e0: 237c 41bd c53c d33b a1dc 92bc 9bb5 923e
000000f0: 40a8 edbd 46b5 273e 1bc3 b3bd d8b0 febd
0.36084703 0.38555726 0.3500029 0.27658924 0.05113416 0.36988044 -0.04023433 0.3203075
-0.07613157 -0.029653015 0.36917496 -0.05812219 -0.14702396 0.0023468435 0.17597573 0.2871893
-0.09729967 0.3632962 0.30822828 0.24598992 -0.07543515 -0.018395849 0.15015644 0.43461618
0.30077973 0.0011110994 -0.022339618 -0.044554118 0.3074033 -0.17850053 0.2074663 -0.131713
0.3085841 -0.120092824 0.28549182 -0.03708396 -0.08916041 0.16253343 0.51935846 0.2628469
-0.084102064 0.3359694 0.3503723 0.3460229 -0.083721004 -0.046441693 0.003705446 -0.12015259
-0.08629837 -0.11574281 0.20992856 0.299666 0.33510375 0.30609998 0.28803173 0.15378444
-0.047237527 0.0064464533 -0.01792747 0.2865418 -0.11604357 0.16377744 -0.08777448 -0.12436074

network.8.weight f4 [21, 64]
00000000: 8299 823e 9b0b 743e 2bd1 993d 0fb8 003e
00000010: 27c9 603d c426 6f3e 40be c7bd e94a 863e
00000020: f8a5 febd 29f6 97bc 9608 953e 023e cebd
00000030: a263 923d dc78 243d a38d fa3d 665c a93e
00000040: 512e 1dbe 30d6 b43d 097c 28bf 99c4 8fbd
00000050: fc22 0fbd c00f 8fbd 61bd f93d 93e0 703e
00000060: 076a 663e 92ff 9fbd 2048 f2ba db51 cebd
00000070: 2184 8c3e 6d69 fe3e 756f 5abd 6480 05be
00000080: 5eab 343e 8c22 e33d 2637 8e3d 8b09 47bc
00000090: 3b5f f7bd d1d8 7f3d cd44 e2be ea77 903e
000000a0: d0de a8bd 5480 8c3e 4782 563e f744 b73e
000000b0: 15d7 41bd 93de 003c aade 3abc d49c 723d
000000c0: 579c 99bb 9291 123e 666d 393e 6bdf 013e
000000d0: bfb2 5f3e ecd5 383e 97d6 343e 486c 573e
000000e0: c988 3b3d b265 14bd f96b babd 03d0 263e
000000f0: 48f8 503d b587 7bbf 0828 2b3d b9e3 72bd
00000100: 913d 893e 9786 a03d a924 823e 0ed4 163e
00000110: 4931 e7bc 383f 233e e145 2abd f1da 813e
00000120: de3e a93d 417c f23d 0c23 833e 1410 22bd
00000130: c0a5 20bd 32e8 ab3d 50c3 123e 9e9d 383f
00000140: 3495 e8bd 346f 693e f867 17bf 6674 09bd
00000150: da5c 863d d2f0 893d 3b00 193e 452b 643e
00000160: ef86 803e 1106 c0bd 3605 a4bd c209 e43d
00000170: bb6c 9c3e 513e c53e cc23 debd 563c 15bd
00000180: 3d29 2a3e cc40 1e3d bf5e c03d 6143 11bb
00000190: a48e 99bd e40c 583d 6624 01bf ddd4 613e
000001a0: b445 2a3d 199f ce3d b742 553e 62d5 4b3e
000001b0: 9048 d03d 007b 553d 764b 79bd 22e7 53bc
000001c0: 50d9 79bc 2d19 473d cab9 7d3e f189 4b3e
000001d0: 235d ff3d 3252 303e 0345 8d3e 1065 843e
000001e0: ce7d be3d 9cfe c6bd b121 473d 69be 393e
000001f0: 2886 f93c 7070 5abf 4021 523b f660 043d
00000200: 74ab 803e bccc f83d 54b9 4d3e 52e8 f73d
00000210: 57bb 5a3c dbe0 cd3d fb1e 9fbc 2cbd 653e
00000220: 8081 b53b 77a6 a3bc eac6 8d3e 98d5 b1bd
00000230: 408d 43bb b475 3f3d 32b4 733e 1ab5 9b3e
00000240: f3f9 843d ff35 f63d 0335 21bf 7be1 2a3d
00000250: b0d7 81bc 100e f83d 252d 6b3e a7e1 003e
00000260: 56f7 813e 68a9 123c b975 1b39 a00b ac3c
00000270: c2f9 973e 12fb db3e 7392 4dbc 5303 163d
00000280: 347e 023e 688c 98bd 7d01 973d f107 0dbd
00000290: 88c0 8cbd bc1a 6e3d ba71 f9be e9d4 8d3e
000002a0: 569d bdbd b2de 333e 116f f43d 45be 8a3e
000002b0: 4022 9cbb 54c3 e4bd 5178 3cbd 5e97 fc3d
000002c0: 6b00 35ba 866c 8abd 983d 8c3e 9b5b 903e
000002d0: 2d42 903d a6af 603e 871c 293e 97b1 943e
000002e0: 25c4 f53c 148b f53d c4d8 a3bd 5a0e 373e
000002f0: 8873 f93d 1204 54bf 8e51 f5bd 8132 b43d
00000300: 6351 993e e82a 6e3e e6bc 703e f4d9 eb3d
00000310: 5f81 ea3b cc57 e23d 0f03 23bd 2192 d83d
00000320: 2a95 f83d 61e0 96bc a1e1 063e 9c49 0f3d
00000330: 58a6 7dbd e2df f1bd 17f4 a33d be27 b43e
00000340: d8ff 873c a2cf 833e 153c 21bf 8ae0 3abd
00000350: 1ebc b2bd 006e ce3a cfdf 7c3e e708 403e
00000360: b2ef 7d3e 1671 bd3d da41 de3d eea3 d5bd
00000370: f013 7b3e a50f c03e 93c8 a4bd 24ec 00be
00000380: 8131 3b3e dc55 0d3d 1417 743e f15f 93bc
00000390: 80a0 e33a ca13 183e 76b8 0fbf 3873 8b3e
000003a0: 14ff ecbd 7809 573e 35cf d03d 004a 913e
000003b0: 489f 6fbd 58e2 f63c 2d73 d2bd 0cb3 7bbd
000003c0: 54f1 213d 366f 873d 5bb4 313e 4efd 683e
000003d0: b600 4e3e 0893 763e 3a8f 8e3e e8fb 193e
000003e0: 46c4 b53d 8491 253e 7c80 6c3c 665d c13d
000003f0: 8e23 82bd 7d5b 41bf 90ee d93c 2953 fdbc
0.25507742 0.23832552 0.07510599 0.12570213 0.054879334 0.23354632 -0.09753084 0.26229027
-0.12434 -0.018549995 0.29108113 -0.10070421 0.0714791 0.040154323 0.12234046 0.33078307
-0.153497 0.088299155 -0.6581426 -0.0701992 -0.034945473 -0.06985426 0.12194324 0.23523168
0.22501384 -0.07812418 -0.001848463 -0.100742064 0.27444556 0.49689808 -0.05332895 -0.13037258
0.17643496 0.11090574 0.069441125 -0.012148271 -0.12078711 0.06246263 -0.44193116 0.28216487
-0.08245623 0.27441657 0.20948134 0.35794804 -0.04732426 0.007865566 -0.011405626 0.059231594
-0.0046878266 0.14313343 0.18108138 0.12682883 0.2184553 0.18050355 0.17659985 0.210374
0.045784745 -0.036229797 -0.091026254 0.16290288 0.05101803 -0.9825395 0.041786224 -0.059299204
0.26804784 0.07838171 0.25418594 0.1472933 -0.028221743 0.15942085 -0.041570548 0.25362352
0.08263944 0.11840106 0.25612676 -0.039566115 -0.03922057 0.08393897 0.14332318 0.72115505
-0.11356583 0.22796327 -0.5914302 -0.03355827 0.06560679 0.06735386 0.14941494 0.22282131
0.25102946 -0.09376157 -0.080088064 0.11134674 0.30551705 0.38524106 -0.108466715 -0.036434494
0.16617294 0.038636014 0.093930714 -0.0022165405 -0.0749791 0.05274667 -0.50446165 0.22053857
0.04157038 0.10088939 0.20826231 0.19905618 0.1017009 0.052119255 -0.06086298 -0.012933524
-0.015249565 0.048607994 0.24777904 0.19876839 0.12468936 0.17218855 0.27591714 0.25858355
0.09301339 -0.09716532 0.048616115 0.18139042 0.030459478 -0.85327816 0.0032063276 0.03231903
0.25130808 0.12148425 0.20090228 0.121048585 0.013350329 0.100526534 -0.019423952 0.22435445
0.0055391192 -0.019976838 0.27690822 -0.08683318 -0.002983883 0.04674311 0.23799208 0.30411607
0.064929865 0.12022018 -0.62971514 0.04171894 -0.015849918 0.12112057 0.2296644 0.1258608
0.25384015 0.008951522 0.00014825807 0.021001637 0.29682738 0.4296499 -0.012547123 0.036624264
0.12743455 -0.07448655 0.07373331 -0.0344314 -0.0687266 0.058130965 -0.4871958 0.277015
-0.09258525 0.1756542 0.11935247 0.2709829 -0.004764825 -0.111700684 -0.04601318 0.123335585
-0.00069046643 -0.067589805 0.27390742 0.2819489 0.07043872 0.21942005 0.16514789 0.2904174
0.030000756 0.11989418 -0.08000329 0.17876568 0.12180239 -0.8281871 -0.11978446 0.08798695
0.29944906 0.23258555 0.23509559 0.11516181 0.0071565355 0.11051902 -0.03979784 0.10574747
0.12137826 -0.01841754 0.13172008 0.03498231 -0.061926216 -0.118102804 0.08005541 0.3518657
0.016601488 0.2574435 -0.629823 -0.045624293 -0.08727287 0.0015749335 0.24694751 0.18753396
0.24798468 0.09250085 0.10852404 -0.10431658 0.24519324 0.37511936 -0.08046069 -0.1259008
0.18280603 0.03450571 0.23836929 -0.017990084 0.0017366558 0.14851299 -0.5614084 0.27236342
-0.1157209 0.20999706 0.101957716 0.2837677 -0.05850151 0.030137226 -0.10275874 -0.06145005
0.03953679 0.06613009 0.17353956 0.22752878 0.20117459 0.24079525 0.27843648 0.15037501
0.08875327 0.16168791 0.01443493 0.094416425 -0.06354438 -0.75530225 0.026603013 -0.030923443

network.8.bias f4 [21]
00000000: 4f0b 613e 6ba1 953e 3454 3c3e d174 833e
00000010: 7b9c 7e3e c86d a13e 4b9f 813e b70e 843e
00000020: 3e84 5b3e 7207 9d3e 85c5 933e cc58 613e
00000030: 57d8 6b3e 1390 833e 8c01 893e 614e 833e
00000040: d3d8 863e 0cff 8c3e 856e b63e 0740 8b3e
00000050: eaac ca3e
0.2197697 0.29224715 0.18391496 0.2567506 0.2486438 0.3152907 0.25316843 0.25792477
0.21437165 0.30669743 0.28861633 0.2200653 0.23031746 0.25695857 0.26758993 0.25645736
0.263373 0.27538335 0.35631195 0.27197286 0.39585048
