model/model_3225.pth (torch, 35975 bytes, 10 tensors)

network.0.weight f4 [16, 6]
00000000: 74b0 89bf d259 843e f1c3 523e 8777 0ebd
00000010: 07dc 8ebf 1dec 2cbd 0b1c 92bf 9df7 a4bd
00000020: 1234 273d 20f1 41be 036e 13bf fde2 183e
00000030: 6895 9cbf 4d6f 5ebe 5767 b23d 243a c1be
00000040: e70b 8b3f 6a5c cc3d e170 3c3e 81d5 d73f
00000050: 0cb3 063f 9fb4 1a3e 10bd b83e 67d8 243e
00000060: 38c2 1fbf 8827 0b3f 846f 9fbe 302c 8cbe
00000070: 7489 633e d2a8 7e3d 03cb 533f a6ed 503f
00000080: 54f9 9ebe 6c5a 26be 1a38 253f b941 66be
00000090: 4c74 0bbe db26 b1bf 346d 01bf bd25 863e
000000a0: ad0d 59bf 6e21 17be 4973 77bd 336c cbbf
000000b0: 6cdb 8bbe 523e d2bd 58d8 0dbf d846 963d
000000c0: add1 89bf e26f 9a3e f84a 34be 3479 623f
000000d0: e071 113f 6b95 43be 8383 cd3e d2ab 56bf
000000e0: 6bd1 f73d 3a52 ccbf 588f 7abe c4f2 663e
000000f0: e410 acbd b0ce cbbf 042a b5be 7560 c5be
00000100: 2b15 0b3f ce73 c7ba bd6a 0d3f ed96 b33e
00000110: 7300 063f b029 2ebe 2239 9d3f 033f 9e3e
00000120: a78c f43e 2890 70bf 30a6 ed3d ac12 9b3d
00000130: 8260 2abf 0196 fdbd a22b 08bf 7644 a23f
00000140: fbb6 663e 7ea0 3fbf 17de 323f 5378 803d
00000150: 56ac 863e 793a f13e e911 08be c86a 92bf
00000160: 4d7e 47bf 8acf 95be 5bf1 a43e f123 c23e
00000170: ac74 1c3e f9de 86bf 7598 713f 351b 8fbe
-1.0756974 0.25849777 0.20582558 -0.03478196 -1.1160897 -0.042217363 -1.1414808 -0.08055041
0.040821142 -0.18939638 -0.5758974 0.14930339 -1.2233095 -0.21722145 0.08711117 -0.3773967
1.0863007 0.09978564 0.18402435 1.6862031 0.52616954 0.15107964 0.36081743 0.16098176
-0.6240573 0.54357195 -0.31139767 -0.27377462 0.22220403 0.06217272 0.82731646 0.8161262
-0.31049597 -0.1624543 0.6453873 -0.22486009 -0.13618582 -1.3839983 -0.50557256 0.26200667
-0.8478649 -0.14758846 -0.06041268 -1.5892395 -0.27315843 -0.10265793 -0.5540824 0.07337731
-1.0767113 0.30163485 -0.17606723 0.8846619 0.56814384 -0.19099967 0.40139398 -0.83855927
0.1210049 -1.5962594 -0.24468744 0.22553545 -0.08401659 -1.5922451 -0.35383618 -0.38550153
0.54329175 -0.0015217008 0.55240995 0.35076085 0.52344435 -0.1700809 1.228306 0.3090745
0.4776356 -0.93969965 0.116039634 0.07571921 -0.6655351 -0.123821266 -0.5319158 1.2677143
0.22530739 -0.74854267 0.6987013 0.0627295 0.26303357 0.47114924 -0.13288082 -1.1438837
-0.77927095 -0.29259902 0.3221539 0.37918046 0.15278882 -1.0536796 0.94373256 -0.27950445

network.0.bias f4 [16]
00000000: e8a3 93bb 29d3 f63e 6a66 d23e 3a55 993e
00000010: bead a23e 935f 6cbf 2d2a 7ebe 2adf 8abe
00000020: 1864 db3c 4a61 eb3b b9f7 cd3e 4eef f43e
00000030: 8479 c13e 7bed 043f 532f 5a3f 12f1 3ebf
-0.004505623 0.48207977 0.4109376 0.29947835 0.3177318 -0.92333335 -0.24820776 -0.27123386
0.026781127 0.0071832286 0.4022806 0.47838825 0.37788022 0.51924866 0.8522846 -0.74586594

network.2.weight f4 [32, 16]
00000000: b120 d6be ca15 553d 61ce ebbe 4182 4fbf
00000010: e9b2 82be d9d9 9dbc d342 36bf 2166 333f
00000020: e312 cd3c 6f4f fd3c da88 e83e d07f 093f
00000030: 5187 34bf 7c10 42be f339 2f3f 4c8a 15bf
00000040: 2bf1 36bf cf46 6ebf ee5a 973e 43f2 c8bf
00000050: a005 b3bd 2e68 e43e 2cad 86be deae a3bc
00000060: b23c 8b3d e4af e3be f46e 303f 6e10 c8be
00000070: 73a3 f23d 156f 66bf c949 9d3e af23 91bf
00000080: d81a 123d 5264 bebd 0a4d 65be 88e6 39be
00000090: bc60 9abd 31f9 48bd b88d 0ebe 34e3 3fbb
000000a0: 50ee 53bd 909a ad3d 8c14 49bc c438 8f3c
000000b0: c99a 7abe b8f4 3ebd 78df 3cbe d818 2dbd
000000c0: e358 233f 4eb0 81bd 7c3e 973e d264 223f
000000d0: c885 f73a e6a5 81be 1878 1fbf bb96 bbbe
000000e0: 7898 593a 60af a7be a675 823f b168 e5be
000000f0: 66b3 823e 63e8 14bf 4650 cf3e 5d24 02bf
00000100: 4407 9abe 9218 97be 2fca acbd 7bb4 dc3e
00000110: ceb0 613d 16de 08bf e6f0 97be ff6b 3ebf
00000120: b8c5 873e 21c7 9b3e f29d c2be 966c 493e
00000130: 7afe c2bd 75fa aebd 1fe1 8c3e a472 a23e
00000140: 0e07 a6bf 576a abbe e21e 0f3f 2dcb 41bf
00000150: 5550 c03e 4163 dfbe 3a2f 853e 457a 83bf
00000160: 37ed bcbf b116 23bf 89d2 953e b386 e43d
00000170: cc86 03bf b501 80bd 31d4 fcbe bbc1 0a3f
00000180: 5ff3 fabe ac48 c43e a4a9 553e 4654 613f
00000190: 70af 9abe 7f4e d03d 5783 31be 33fe a5be
000001a0: 0e6e 9dbd f6f0 16bf 5070 09be e83b 053f
000001b0: 59f1 ac3d 5521 20bf 2480 a53e 0fb1 323e
000001c0: 4f8c 8b3f dfa7 12bf 7d9f c9be ac9c 8e3c
000001d0: aef2 f63e 0473 d53e 3b31 e63b 4fbc f63e
000001e0: 2da8 42bf c0bc 2cbe 406e 1c3f 12f7 3c3f
000001f0: 8644 93bd f629 74be 6548 1abe f087 a2be
00000200: 0a35 26be 7f4d 163f bc3b 273f 29c8 2abf
00000210: 7acf 0ebf 71cb 3c3f cf54 1f3f dee5 6f3e
00000220: 258e 1e3e 8219 bcbe 08fa 7a3e 3c08 18bf
00000230: 068b dd3e bac2 e73e 1f9e 1bbf 38f2 6e3e
00000240: 5515 ee3c b9ac b1be 5e34 443f 5df5 81be
00000250: 1a24 aabe 8c87 dcbe 173f f5be 7d8a 1c3b
00000260: 31c1 ecbe 9f2f 10bf 6155 993e 3825 13bf
00000270: 8cfd 373e 25a2 17be 4ebe 093f a90d 2dbf
00000280: eab9 7cbf fc5a 15bf 2804 213f 084a 103f
00000290: 442c 233e 5ec8 2fbd 0505 703f c8f9 0ebe
000002a0: 7e4f e5bd fafa fdbe 1f7e 2bbf ee87 34bf
000002b0: a60f 3b3f f8ad 6dbf 58c7 133f beb0 f33d
000002c0: 86a3 e43d f0f9 cd3d 2f6b 023f 36c0 673e
000002d0: 31de 113f 0603 4bbf dbc6 b93b 8f2c c3be
000002e0: 5a56 11bf 2598 3c3f 1706 2cbe d190 c6be
000002f0: 852f 063f cf22 cbbe 8ac5 7cbe ee83 7d3f
00000300: 9cef debe 9faf 633e 0d0d 233f 90da 6cbf
00000310: 8cc1 18be 2d2d 27bf 84cf db3e 246d e6be
00000320: 65ac 0f3f ff74 d4bd 761d 72bd f470 14bf
00000330: 2847 a53d 2276 c63d bfcf c3bd 98fb 14bf
00000340: 277c 9e3e 0d2d cabe 07b4 a0be 2258 56bf
00000350: 8fa5 623e d982 e53c a395 cd3e 59c7 18be
00000360: d6e6 803e 2ed1 863f f545 b33d d8c6 1f3f
00000370: 6fc3 d7be e41d a0bf 2f9d f5bc e81b 1bbf
00000380: f20e dd3e f4e0 49ba 639d f3be 9d0f dcbd
00000390: 1693 723e b005 ce3e f017 ccbd 7d78 fe3e
000003a0: 55cc febd 399c 173f 6e9a b53c 8926 f63e
000003b0: ff5a 6cbe 3c08 45be 878c 22bf 1db2 213f
000003c0: ee20 ea3d 50f9 a93d 0119 f7be 6971 353f
000003d0: d23e 1a3e 4458 023e 133b 0e3f 09c4 4b3f
000003e0: ffd9 26be 1f80 4dbe dbd1 f8be 1d9e 593e
000003f0: d813 94bd 559d e93e ed95 99bd 2f32 c03e
-0.41821817 0.052022733 -0.46055892 -0.81058127 -0.25527123 -0.019268917 -0.71195716 0.7007771
0.02503342 0.030921666 0.4541691 0.5371065 -0.70518976 -0.18951601 0.684478 -0.5841415
-0.71461743 -0.93076795 0.2956156 -1.5698932 -0.08741307 0.44610733 -0.26303995 -0.019980844
0.06798686 -0.4447013 0.689193 -0.39075035 0.11847582 -0.9001325 0.30720356 -1.1339015
0.03567013 -0.09296478 -0.2239267 -0.18154347 -0.07537982 -0.049065772 -0.13921249 -0.002927971
-0.051740944 0.08476746 -0.012272965 0.017483123 -0.24473108 -0.0466201 -0.18444622 -0.04226002
0.63807505 -0.063324556 0.2953986 0.6343509 0.0018884474 -0.25321883 -0.62292624 -0.36638436
0.00083006127 -0.32750988 1.0192153 -0.44806436 0.25527495 -0.58167094 0.4049093 -0.50836736
-0.30083668 -0.29510933 -0.08437001 0.43106446 0.055100255 -0.53463876 -0.29675978 -0.7438354
0.26518035 0.3042536 -0.38011128 0.19670328 -0.09521194 -0.08543865 0.27515504 0.3172809
-1.2970903 -0.33479568 0.559065 -0.75700647 0.37561288 -0.43630412 0.26012594 -1.0271689
-1.4759892 -0.637065 0.29262188 0.11158504 -0.5137756 -0.062503256 -0.4938064 0.5420186
-0.49013802 0.38336694 0.20865494 0.88019216 -0.30211973 0.10171222 -0.17335258 -0.324205
-0.07687007 -0.5896143 -0.1342175 0.52044535 0.08444471 -0.6255086 0.32324326 0.17450355
1.0902194 -0.572874 -0.39379492 0.017408691 0.48232025 0.41689312 0.0070249117 0.48190543
-0.76037866 -0.16868877 0.6110573 0.738145 -0.07190804 -0.23844132 -0.15066679 -0.31744337
-0.1623117 0.58712 0.6532552 -0.6671167 -0.55785334 0.73747927 0.6223878 0.23427531
0.15483911 -0.3673821 0.24509442 -0.59387565 0.4327013 0.45265752 -0.6078815 0.23334587
0.029062906 -0.3470209 0.76642406 -0.2538251 -0.33230668 -0.43072164 -0.47899696 0.0023886256
-0.46241143 -0.56322664 0.2994795 -0.57478666 0.17967814 -0.14807947 0.53806007 -0.6759897
-0.9872118 -0.58341956 0.62896967 0.5636296 0.15934855 -0.042915694 0.9375766 -0.13962471
-0.111968026 -0.49605542 -0.6698932 -0.7051991 0.7307075 -0.9284358 0.5772605 0.11898945
0.11164002 0.100574374 0.509448 0.22631916 0.5697966 -0.7930149 0.0056694574 -0.38119933
-0.5677239 0.73669654 -0.16799198 -0.3878236 0.5241626 -0.39674994 -0.2468473 0.99029434
-0.43542182 0.22234963 0.6369179 -0.92521 -0.14917582 -0.6530331 0.4293176 -0.45005143
0.5612243 -0.10373878 -0.059110127 -0.5798485 0.080702126 0.09690501 -0.09561109 -0.581964
0.30954096 -0.39487496 -0.3138735 -0.8372823 0.22133468 0.028016495 0.40153226 -0.14919795
0.25176114 1.0532587 0.087535776 0.62412786 -0.42141291 -1.2509122 -0.029982178 -0.60589457
0.43175465 -0.0007701062 -0.47581014 -0.107451655 0.23688921 0.40238714 -0.09965503 0.497013
-0.12441317 0.5922275 0.022168364 0.48076275 -0.23081587 -0.19241422 -0.6349568 0.63162404
0.11432062 0.08299506 -0.48261264 0.70876175 0.15063027 0.12728983 0.5555889 0.79596
-0.16294096 -0.20068406 -0.48597607 0.21251722 -0.072303474 0.45627847 -0.07499299 0.37538287

network.2.bias f4 [32]
00000000: 1f50 fb3e 5dc3 963f ce0a 78be 9c2a 2dbf
00000010: 8954 903e 5e74 3f3f 701a 493d a2fb ccbe
00000020: c436 593e 3adc 833f 1d3c f3be 6e2d 21bd
00000030: a0d2 173f 30aa 13bf 6175 8d3e e222 06bf
00000040: 0b3d c23d d4a6 65be b484 f63d 6ddb 393c
00000050: 5edb 423e 4a34 4fbe cc38 5bbe c663 7cbe
00000060: 5869 6cbe d523 66be 3427 ccbe 0894 92bd
00000070: d523 3d3f 2807 70bf a0aa bd3f 4c67 b53e
0.49084565 1.177837 -0.24222872 -0.6764314 0.28189495 0.7478694 0.04909748 -0.4003573
0.21212298 1.0301583 -0.475068 -0.039349966 0.59305763 -0.5768156 0.27628615 -0.52396977
0.09484299 -0.22426921 0.1203703 0.011343819 0.19028994 -0.2023479 -0.21408385 -0.24647436
-0.2308706 -0.22474606 -0.3987366 -0.07157141 0.738828 -0.9376092 1.4817696 0.35430372

network.4.weight f4 [64, 32]
00000000: cd74 8f3f aef5 c7be c6a3 83bd cb07 3abf
00000010: e7ae a7be 72d8 4a3f f85b 06bf c87d 393f
00000020: b6ca afbe 6032 463f 97c9 603e e174 67bf
00000030: a551 3bbf ce7b a0bf 05ef 423e 8c05 cb3e
00000040: 6bbc e43e 3d18 c33c 1b9e d3be 2aba 8cbe
00000050: 6aea 14bf 5564 593c 5329 7bbc 461a d63e
00000060: 754e d13e 5ff3 4a3d 0c70 79be 1c05 5f3f
00000070: 6929 c2be 506e c1bf 75c9 ba3e c85a 393f
00000080: 3f8b e13d 2105 ad3d fc10 bb3b 03c4 15be
00000090: 1a67 d83c f4a1 c43d aab4 efbd 9fe6 5fbe
000000a0: 5dbe 3abe 77e7 ab3d acd5 23be 2e80 07be
000000b0: 0bf0 26be b23c c7bd 3bd9 0bbe ff42 d23d
000000c0: 12f5 af3d 3bc3 eb3c 3615 2cbe 534a fabd
000000d0: 4ed0 483d 62fa 97bd b6a5 fdbc cc71 43be
000000e0: f52f 91bd c18b 33be 7083 7a3a 03ea 98bd
000000f0: 37bc b43d 741b 343d e79e 25be 7867 1fbd
00000100: 7662 143f 0441 6fbf 4eda e0bd 5db3 fcbe
00000110: eb9d 683e 2dfe ccbe 827e 833d 612d 11bf
00000120: 0399 7e3f f835 6e3e a206 42be 6ab5 d9be
00000130: 7439 8abe e2f3 b4be 7517 313e 28c5 153d
00000140: 68cf a8bd b3cd cabd 9d2e 82be 9a82 6abf
00000150: 153f 94bc 6112 95be 636f 1cbe 1f7c e63d
00000160: 1162 0b3f 6905 f93d 1da2 8bbe df87 fb3e
00000170: 3813 efbe 320c 00be 4a0e da3e ed68 1e3e
00000180: 526d 09bf 6373 593e 9e03 0cbd 70d5 3d3f
00000190: 2bdd bf3e 73f1 a13f 7fe1 313f 2322 d13e
000001a0: 0b6f c83d 1c9b 693e 42f6 233f 4cec afbd
000001b0: 8a20 28be 9ce9 953e 0bfa 33bf 457a 51bf
000001c0: d946 913f 93a0 1f3e 3e48 48bf a089 17be
000001d0: 5c06 6e3e 5f85 663e 4288 99be de2e 313f
000001e0: c810 14be a303 0c3e fc35 013e 53ab 02be
000001f0: 8a26 a2bd 95ff 7a3e 97b7 c2bf 0ad4 b0be
00000200: 22e2 66bd cbc3 893d b9b0 22bd 7b35 083e
00000210: 78a5 e03c 6f33 92bd 2ef1 71bb f010 bebd
00000220: 3eae c7bd 488b 18bd 7ad7 09be dabb 4ebe
00000230: bc46 97bd 69c8 79bd 281e e83d eea6 0dbe
00000240: d74b 1cbc 1697 f7bd 50b7 07be 2f74 b83d
00000250: 5033 19be 1b0b aebc a4cb 36be e3a4 9bbd
00000260: fa1e 63bd 18a2 babd 0f2e d4bc 8f9b 5cbe
00000270: 6b13 84bd e316 b23d 28cd 1dbe a505 d23c
00000280: 9a4a fd3e e1ce c93e b3ae 61bd 7f63 41bf
00000290: 2076 7fbe 58ce 783f 4eaf 1bbf d152 96bd
000002a0: 0ec6 473e e128 933f 7ba6 31bf 129c 2a3f
000002b0: 8838 64bf 1f70 533e 725e 52be 2da7 2ebe
000002c0: bdaf f7be b527 fabd c67f a3bc f611 9fbe
000002d0: 3718 2d3f ae13 0a3e 2880 1e3f 8149 a63c
000002e0: 1a67 083f 2884 5a3e d399 d8bf 2b8a 6fbd
000002f0: b147 00bf e65f 003c fb78 3b3e 857f 983e
00000300: b2b0 16bf 4d58 ddbe 6d50 2a3e 6042 ab3f
00000310: 29f7 50be afbb eabf 28e5 b83e b697 013b
00000320: cd91 363f 17d9 afbe 5fae df3e 3a28 41be
00000330: 6755 eebf e8f0 303f 80b8 043f 0d11 d0be
00000340: eda9 a2bd e47e 97bd df98 adbe 6bac bebd
00000350: 4f54 71bf be33 8f3e eebe 54be 9015 ddbc
00000360: fe87 9fbf 73c8 e2be f4fb 153f 3840 213f
00000370: fada 70bf d8dc 0fbf 7460 89bd 944e abbc
00000380: 92ff 133f 7cbb dfbe bc7f 263d fab8 63be
00000390: a003 8b3e 2ef7 493f c40f b2be cd33 8f3f
000003a0: a54b 4abf 6421 22bf 1978 333f 488a d33e
000003b0: fb08 0b3f f406 95bf fa04 bcbe a071 c9be
000003c0: cfc6 803d 4edb 763d d2c9 4d3f c9b0 243f
000003d0: bf72 be3d f5a1 8a3e 885a e8be 2907 edbe
000003e0: 4948 29be 2e7d bdbe 63a4 67bf 5cdd 743e
000003f0: 673a febe b044 103f ad32 743d 7288 943e
1.120752 -0.39054626 -0.06427722 -0.7266814 -0.32750627 0.7923652 -0.52484083 0.7245755
-0.34334344 0.77420616 0.219519 -0.9041272 -0.73171455 -1.2537782 0.19036491 0.3965267
0.44675002 0.023815269 -0.41331562 -0.27485782 -0.5817019 0.01326855 -0.015329677 0.4181692
0.4088017 0.049548503 -0.24359149 0.8711717 -0.37922218 -1.511179 0.36481825 0.72404146
0.11012887 0.08448244 0.005708812 -0.14625554 0.02641635 0.096012026 -0.11704381 -0.21865319
-0.1823668 0.08393758 -0.15999478 -0.1323249 -0.16302507 -0.097283736 -0.13657086 0.10266685
0.08591665 0.028779617 -0.16804966 -0.122212075 0.04902678 -0.074208036 -0.030962806 -0.19086379
-0.07089225 -0.1753378 0.0009556329 -0.07466509 0.08824962 0.043971494 -0.16173898 -0.038917035
0.5796274 -0.9345858 -0.10979138 -0.49355593 0.22716491 -0.4003767 0.06420614 -0.5670987
0.9945223 0.23262775 -0.18947843 -0.4252122 -0.26996958 -0.35342318 0.17294104 0.036564976
-0.082426846 -0.09902515 -0.25426188 -0.9160553 -0.018096486 -0.29115584 -0.15276866 0.11254143
0.5444651 0.12159235 -0.2727212 0.491271 -0.4669435 -0.12504652 0.42589027 0.15469714
-0.53682435 0.21235423 -0.034183137 0.74153805 0.37473425 1.265181 0.69484705 0.40846357
0.09786805 0.22813076 0.64047635 -0.08589992 -0.16418663 0.29279792 -0.7030341 -0.81827193
1.1349746 0.15588598 -0.7823523 -0.14798594 0.23244613 0.22511815 -0.2998677 0.6921214
-0.14459527 0.13673262 0.1261825 -0.12760668 -0.07917507 0.2451156 -1.5212277 -0.34536773
-0.056368 0.06726798 -0.039719317 0.13301651 0.027422652 -0.071387164 -0.0036917436 -0.09280574
-0.09750031 -0.037242204 -0.13461104 -0.20188847 -0.073865384 -0.06098214 0.11333877 -0.1383321
-0.009539566 -0.12089364 -0.13253522 0.09006535 -0.1496098 -0.02124553 -0.1785112 -0.07599809
-0.055449463 -0.09112948 -0.025900869 -0.21543716 -0.06449016 0.086957715 -0.15410292 0.025637457
0.4947098 0.3941565 -0.055098247 -0.75542444 -0.24947405 0.97189856 -0.6081437 -0.07340015
0.19509146 1.149685 -0.69394654 0.66644394 -0.8914876 0.2064824 -0.2054384 -0.1705596
-0.48376265 -0.12214605 -0.019958388 -0.3106839 0.67615074 0.1348407 0.619143 0.020298721
0.5328232 0.21339476 -1.6921943 -0.058481377 -0.5010939 0.007835364 0.18307869 0.2978479
-0.58863366 -0.4323143 0.16632243 1.3379631 -0.20406784 -1.8338526 0.36112332 0.0019774265
0.71316224 -0.34345314 0.43687722 -0.18863001 -1.8619813 0.69117594 0.51844025 -0.4063801
-0.07942567 -0.07397249 -0.33905694 -0.0931023 -0.9426927 0.27969164 -0.20775959 -0.02698782
-1.2463377 -0.44293556 0.58587575 0.62988615 -0.9408413 -0.56196356 -0.0670785 -0.020911492
0.57811844 -0.43697727 0.04064916 -0.22238532 0.27151203 0.7889279 -0.34777653 1.1187683
-0.79021674 -0.633322 0.7010513 0.41316438 0.5431058 -1.1642747 -0.36722547 -0.39344501
0.0628792 0.06026774 0.8038608 0.6433225 0.0929923 0.27076688 -0.4538157 -0.46294525
-0.16531481 -0.37009567 -0.9048521 0.23912567 -0.49653932 0.5635481 0.05961864 0.2901035

network.4.bias f4 [64]
00000000: 10f1 5bbf 4d0a bbbd 37e4 b7be fd0a 9dbf
00000010: 35f3 d1bd 8907 85bd ba46 b3be 008c c13e
00000020: b314 633f 7f4e 82bd 88c9 73bf d3b4 e33d
00000030: 47e2 3bbe 49de ee3c aca3 c53e 204b b33e
00000040: aeec d73c 79ba 19be eed8 d93c 21ae 263e
00000050: e1aa 3ebe ae0d edbe 213e eabd f7ff 853f
00000060: 7bf9 21be 11a5 0c3f 127d af3e 9740 b53e
00000070: 7815 2b3e b727 61bf 617b b83e 6dc2 ec3a
00000080: 2677 db3e 999f 3e3e 7a5c 803e 55aa 263f
00000090: 0146 bc3e 576c a33e 84ec b83c 1627 9a3e
000000a0: 5c72 b0bc 10f3 e23e 1926 273e faa9 77be
000000b0: f2d9 2abf 0b9c 433f a050 5c3f b97c 05bd
000000c0: 98ea 3dbf cb03 cfbe 38c8 58bd d3e4 b03e
000000d0: 07b0 a13f e52e d03e ffce 293f 7bb4 90bf
000000e0: e003 393e ffe9 c33e f0a6 18bf 827b bd3e
000000f0: df69 753f 2e50 b23d 5ca3 9c3e 5fa0 463e
-0.8591471 -0.09132824 -0.35916302 -1.2268978 -0.10251466 -0.06495578 -0.35014898 0.37802124
0.8870346 -0.06362628 -0.9522939 0.11118474 -0.18348037 0.029158728 0.38601434 0.35018253
0.026357975 -0.1501254 0.026592698 0.16277362 -0.18619873 -0.462995 -0.114376314 1.0468739
-0.15817825 0.5493937 0.3427511 0.3540084 0.16707408 -0.87951225 0.3603163 0.0018063314
0.4286434 0.18615569 0.25070554 0.65103656 0.3677216 0.31918594 0.022573717 0.30107945
-0.021538906 0.44326067 0.16323127 -0.24185935 -0.6673881 0.7640998 0.86060524 -0.032589648
-0.74186087 -0.4043258 -0.05292532 0.3454958 1.2631844 0.40660778 0.66331476 -1.1305078
0.18067884 0.38264462 -0.59629726 0.3700829 0.9586467 0.08706699 0.30593383 0.19397114

network.6.weight f4 [64, 64]
00000000: 8b4f 58bd c2ff f5bc 82c4 0f3e 1f68 d83c
00000010: 2395 0a3d 5483 0f3c a37b 7dbe 928a 423e
00000020: 2077 e43d 876c 71bd e009 f93d 0970 103e
00000030: 4c4d 7dbc addd 883e 5406 3ebe 812e a93e
00000040: 0738 a53c 045c 06bd 6738 f03d 400e 173e
00000050: 6aed 82bd e884 0c3d b4fb 073e 0a4f 8c3b
00000060: 3496 e1bc f47c 223e dce7 c03e 7662 1c3d
00000070: 77a2 ae3d 0a3a b93e 6930 b6bd 20dc 9a3e
00000080: 462b 9c3e 8a1a 843d 47b5 54bd 2825 f3bd
00000090: 8c9d ab3e cd99 ed3e b542 3c3e 8933 543e
000000a0: 1507 213d 4090 c7be 952f f23c 1a9e 7dbc
000000b0: 7aa9 0a3d 6f92 d7bc 0811 2cbe 8eb0 d9bc
000000c0: cc63 643e 539c 4d3c 5f31 5c3e b1d2 d1bc
000000d0: 0eb0 95be 147f a73e ea11 03bf 8f1f 903b
000000e0: 0a31 b13d c62c 7fbe 6714 67bd 1af0 19be
000000f0: 7da6 26bd cbe5 3c3e 7eb2 133e f8e7 083e
00000100: c702 07bf e587 673d 4bdd 9e3e e843 ae3e
00000110: 602c f1bd 8316 86be 9017 ae3d d473 d23e
00000120: 4ebd 78bf 8241 d03c ab41 3d3e fc91 d83e
00000130: bf69 9d3c 5e5c 233d 0a65 903d 95c8 d3be
00000140: 95f2 96be a7b1 e73b 0331 8ebc 6fc4 b73e
00000150: 2208 c13d 4677 013f f9e3 533f 9dbb 8a3e
00000160: 0a6c ecbd 9fc1 ffbe f71d c8be f015 393f
00000170: 27b1 0abf ca39 86bf ecaa 9abf 125c 3cbe
00000180: 13fd a2bd 3744 4f3d e455 ff3e 15e7 a83d
00000190: 53a9 213e 0c61 0fbf 1c9d b33e ca3f 3dbe
000001a0: 53e6 d43e d255 113f cb18 2dbd ad14 36bd
000001b0: 6d52 a6be fe84 ae3a 34b8 643e ef68 23bf
000001c0: 618b a03e d94b 3abd 7152 9f3d 8af2 3e3f
000001d0: 1666 523e e9f9 04bf b589 89be aa49 d9be
000001e0: f029 98bf bb3c fb3d 2de9 d5be 9ccf 1fc0
000001f0: 9d3b 143e d505 cdbc 2587 573e 867d dabe
00000200: 7234 b4be c484 b2bd f147 a9bd cde4 d9bd
00000210: 7357 c53d 8a41 d8bd b4a8 223d f202 4b3d
00000220: 06e1 803e 63ad 093e 20dd 0cbe 99b9 9abd
00000230: d006 8dbd ac0b 2c3d 6dee 2d3e 730d 753e
00000240: 430d 46be 689d 8c3d 5746 3b3e caed 2ebc
00000250: d464 6dbd 8f54 26be c352 acbd bf55 aebd
00000260: 712f a73d b405 6d3e c4ff 4c3c be62 9cbe
00000270: a165 80bd e5ff 743b da9a c7bd 7d0c ba3d
00000280: 7132 91bc 66a5 10be 082d 9b3c 2533 ffbe
00000290: 4eba 4b3e 55c4 aabc 02b6 91bd fca0 f63d
000002a0: 5239 643d 5f84 8fbc 6d5a ab3d edc1 a9bd
000002b0: 4a40 6e3d 01ac 123e b66a 22bd 3d3a 633e
000002c0: ccb6 4f3f ceaf 8f3e 2fb8 733e a6e7 5abd
000002d0: 9e9f dbbe 35db 1c3e ce97 dd3d b646 b9be
000002e0: d486 093e f319 41be 311f e33d b960 9c3e
000002f0: f715 c7bd c254 573b 1b9b ef3d c2cc a73e
00000300: 2b1e 263e ae75 8a3d b675 ecbe 0c32 8bbf
00000310: 7f9f f1bc 9f72 003f 179f 7f3e b6bd 02be
00000320: 5176 903d 5c3f cf3c 1b93 aebe 0806 5fbd
00000330: 0461 5d3d 5bec 903b 24c3 9cbe eeaf 113e
00000340: d0c7 5b3f 432b 44bc 1d87 81be 365c 923e
00000350: 0ab9 1ebd 56e5 9b3e ca84 93be 032d 7ebe
00000360: e992 a33c cb00 e9be 1a45 c33c bfe0 af3e
00000370: ec46 38bf 27c5 27be 50af df3e 1de8 b63e
00000380: 0b1c b73e 0723 b13d b3df 2bbe 9cd9 bcbf
00000390: cdd9 ffbe 75e9 babb e47d a3be f9fd 4e3e
000003a0: a382 523e 7599 36bf 069f bcbe ad3d b93d
000003b0: 10f1 1ebf 9973 9dbd 0432 85bf 83c3 a53f
000003c0: 99a1 2cbe cdaf 90bf 573a 29bf 86c3 04bf
000003d0: a7a6 81be 26a5 0dbb 19f3 78bf 3573 193d
000003e0: 8bac d3bf 9193 9f3e 534f 7fbf 0c96 8bbe
000003f0: f677 a5bd 833e 98bf 93c8 0d3c d69d aebe
-0.052810233 -0.030029181 0.14039806 0.026416836 0.033833634 0.008759338 -0.24754195 0.18998173
0.11155534 -0.05894139 0.12160087 0.14105238 -0.015460324 0.26731625 -0.18557101 0.33043292
0.020168317 -0.032802597 0.11729508 0.1475153 -0.063929394 0.034306437 0.13279611 0.004281883
-0.027537443 0.15867978 0.37676895 0.038179837 0.085270815 0.36177093 -0.08895952 0.30246067
0.30501765 0.064503744 -0.051930692 -0.11872321 0.33518636 0.46406403 0.18384822 0.20722784
0.039313395 -0.38977242 0.029563705 -0.015479589 0.03385303 -0.026314942 -0.16803372 -0.026573446
0.22303694 0.012549478 0.21503209 -0.02561316 -0.29235882 0.3271414 -0.5119921 0.0043982933
0.086519316 -0.24919423 -0.05641594 -0.15032998 -0.04068612 0.18447034 0.14423558 0.13369739
-0.5273861 0.056526083 0.31028208 0.34036183 -0.11776042 -0.2618905 0.08500588 0.41103995
-0.97163856 0.025421862 0.18482082 0.42298877 0.019215463 0.03988301 0.07050522 -0.4136397
-0.2948195 0.0070707384 -0.017357355 0.35892054 0.09425379 0.5057262 0.82769734 0.27096263
-0.11544044 -0.4995241 -0.3908536 0.722991 -0.54176563 -1.0486386 -1.2083411 -0.18394497
-0.07958426 0.050602164 0.49870217 0.082472004 0.15787248 -0.56007457 0.35080802 -0.18481365
0.41581973 0.56771576 -0.042259973 -0.04445331 -0.3248476 0.0013314781 0.22335893 -0.6383199
0.31356338 -0.04548249 0.07779396 0.74588835 0.20546755 -0.5194383 -0.26862875 -0.42439014
-1.1887798 0.12267443 -0.41779462 -2.4970465 0.14475866 -0.025027195 0.21047647 -0.42673892
-0.35196263 -0.08716729 -0.08265675 -0.106393434 0.0963582 -0.105593756 0.03971167 0.049563356
0.2517168 0.13445048 -0.13756227 -0.07554931 -0.06886065 0.04200332 0.16985483 0.23930912
-0.19340996 0.0686596 0.18288551 -0.0106768105 -0.057957485 -0.16243194 -0.08414223 -0.085124485
0.081633456 0.23146707 0.012512151 -0.30544084 -0.06269384 0.003738397 -0.097463325 0.09084413
-0.017724248 -0.14125594 0.018942371 -0.49843708 0.19895288 -0.020845572 -0.07114793 0.12042424
0.055718727 -0.017519174 0.08366857 -0.082889415 0.05816678 0.14323427 -0.03965255 0.22190185
0.811383 0.28063816 0.23800729 -0.053443573 -0.42895216 0.15317996 0.1081997 -0.3618676
0.13430339 -0.18857555 0.11089934 0.30542544 -0.09720986 0.0032856916 0.11699506 0.32773405
0.16222446 0.06760727 -0.46183556 -1.0874648 -0.029494999 0.501749 0.24963032 -0.12767681
0.07053817 0.025298767 -0.34096608 -0.05444911 0.0540476 0.004422707 -0.3061763 0.14227268
0.85851765 -0.011973205 -0.25298396 0.28585976 -0.038750686 0.30448407 -0.28812248 -0.24821858
0.019967513 -0.45508417 0.023836661 0.34351155 -0.7198322 -0.16383801 0.4368844 0.35723963
0.35763583 0.08649259 -0.16784553 -1.4753909 -0.49970856 -0.0057041 -0.31931984 0.2021407
0.20557646 -0.71327907 -0.36840075 0.09044967 -0.6208658 -0.07688064 -1.0405889 1.295029
-0.1685852 -1.130365 -0.66104645 -0.51860845 -0.25322458 -0.0021613329 -0.9724594 0.037463386
-1.6537031 0.31167272 -0.99730414 -0.27262914 -0.08079521 -1.1894077 0.008653778 -0.34104794

network.6.bias f4 [64]
00000000: 6edf 783f 9435 803f 142f 523f b21a 4d3f
00000010: ad9f 4abc 42dc 543f 5e6e d4bd 1104 5c3f
00000020: 53e2 dcbd f6d0 bebd 69a1 823f 804a e4bd
00000030: 2510 37be b892 7abd ce08 1c3f 3917 5d3e
00000040: 4af3 75bd 5607 743f 3247 3fbe 2cec 1e3d
00000050: 155d 2ebe ca9c 313e 4a0d 533f e710 6f3f
00000060: a35a 853f f319 fbbc 08cf 34bd f7ca dbbd
00000070: 6a8f 193f 706d fa3d 910e 8b3f abeb 47be
00000080: 797d 823f b56e 50be 1058 563f a06d 5cbd
00000090: 5dd1 1bbe 09c1 3c3e 16c9 663f 37cb 0b3f
000000a0: a2b7 cc3d 6987 193f f31f 3c3f 17e1 753f
000000b0: b069 a9bc 940f e1bd 08c6 e5bc 1a3f a83d
000000c0: 426e ebbd 7f09 17be 05a4 2a3f 392f 5c3f
000000d0: 3245 5f3f b007 663f d764 6a3f 8327 513f
000000e0: a9d3 e2bd 2c7d 63bd a1f8 87bd 2a35 893f
000000f0: 1e57 17be ca5f b63e f6cb f4bd 4f1d 9ebe
0.97215927 1.0016351 0.82103086 0.8011886 -0.012367171 0.83148587 -0.10372613 0.85943705
-0.107853554 -0.093172 1.0205508 -0.11147022 -0.17877252 -0.06117508 0.60950935 0.2159089
-0.06004647 0.95323694 -0.18679503 0.03879945 -0.17027695 0.17344967 0.8244215 0.93385166
1.0418285 -0.030652022 -0.044142753 -0.10732072 0.5998446 0.12227905 1.086382 -0.19523494
1.0194541 -0.20354731 0.8372812 -0.053815484 -0.15216585 0.18433012 0.9015058 0.54606956
0.09995963 0.59972245 0.7348625 0.96046585 -0.020680279 -0.109892994 -0.02804853 0.08215161
-0.114956394 -0.14749716 0.66656524 0.86009556 0.8721496 0.8985548 0.9156012 0.81700915
-0.11075527 -0.055539295 -0.06639219 1.0719349 -0.14779326 0.35619956 -0.11952965 -0.30881736

network.8.weight f4 [21, 64]
00000000: 678b c83e b803 8a3e 62ac 603e 01c0 3a3f
00000010: 27c9 603d 51e9 e73d 40be c7bd 9831 923e
00000020: f8a5 febd d442 583c 7543 f23e 6892 18bd
00000030: 2672 243d ce74 0c3c 3507 ef3d 467e e23e
00000040: 5d91 233e df57 5c3e 1f94 e1be bc38 2abf
00000050: 04ef 62bb 9e72 403f 0e8b 493e 6739 ca3e
00000060: c343 733e f5e9 3dbd 2048 f2ba 6fe1 4fbd
00000070: 1b0f 0f3f f4f8 ef3e 78c0 c8bc ae90 cbbd
00000080: ce2f 213f 5d18 a23d 6592 f43d 8b09 47bc
00000090: d9fe c1bd 1d32 9e3e 0878 d4be 2a1f dc3e
000000a0: 0c29 13bf 89ee d73e 430b 583e e7de f33e
000000b0: a496 6abe b75d f83b aade 3abc e87f d6be
000000c0: 579c 99bb 9291 123e 1368 8f3d 0552 5a3e
000000d0: 3036 c43e f18a c13d a99e 523f b39b cc3e
000000e0: c988 3b3d 27dc debc f96b babd fe91 7a3e
000000f0: 48f8 503d 7705 ecbe 0828 2b3d 5200 6abf
00000100: f37c e93e 4e0e 883e 9f09 1f3e aaa1 153f
00000110: 4931 e7bc 3a8c e43d e145 2abd 1f69 a43e
00000120: de3e a93d 417c f23d 6b17 9c3e 1410 22bd
00000130: c0a5 20bd b5bf 553d fd23 2e3e 3bcf 1e3f
00000140: 69e6 a23d a3bd 873e 8472 e0be afb1 16bf
00000150: da5c 863d 7df7 5a3f 2dbc 403e 24c9 ac3e
00000160: ecaa 613e 1106 c0bd 3605 a4bd 3b0c a33d
00000170: 715f 113f c3fa c63e 9149 e4bc 563c 15bd
00000180: 807c 183f cc40 1e3d eb35 3c3d 7073 0abd
00000190: 196b 59bd 6de2 c23e 33de d4be 814d 003f
000001a0: fea6 17bf 17b0 d93e ce42 7c3e e819 0b3f
000001b0: 4730 c7bc 007b 553d 764b 79bd 022c e4be
000001c0: ca04 40bd 2d19 473d dc28 683d 10c1 483e
000001d0: 1ee1 a83e 26bf 473e 1962 833f 3fa6 bf3e
000001e0: ce7d be3d 5d90 a6bc b121 473d e7b4 783e
000001f0: 2886 f93c 235e ecbe 4021 523b 5191 29bf
00000200: 748f c53e 36d6 a63e 9d50 6d3e e282 e13e
00000210: 57bb 5a3c 1416 f53d 9073 443c 8261 973e
00000220: 8081 b53b 77a6 a3bc d725 b23e 98d5 b1bd
00000230: 408d 43bb b475 3f3d 10c1 203e 8e39 513f
00000240: b598 f83c 122b 903e 68de c7be 94ef 00bf
00000250: 96d4 813c 431c 3c3f 3d4c 543e cdb1 9c3e
00000260: 15d4 5a3e 68a9 123c b975 1b39 a00b ac3c
00000270: aa0e c63e cac6 a93e cd48 443b 5303 163d
00000280: 340c 113f 688c 98bd ff9d 463e f107 0dbd
00000290: af5f 92bd 0840 b73e 9314 dfbe d3cb 453f
000002a0: b115 0fbf 0ae7 cb3e 6241 213e 4aa5 fd3e
000002b0: 0aa3 93bd 54c3 e4bd 5178 3cbd d6b2 fbbe
000002c0: 66cc 03bd 866c 8abd 4801 5d3d f8d3 583e
000002d0: 0342 9f3e 90fb 6e3e d101 123f 6339 ce3e
000002e0: 25c4 f53c cbba 493e c4d8 a3bd 8176 9a3e
000002f0: 8873 f93d 0164 dfbe 8e51 f5bd ddf0 17bf
00000300: 2d98 c73e 7bf0 aa3e 9ad7 503e 0204 043f
00000310: 5f81 ea3b 1c5d 0e3e 0f03 23bd 3a96 b13e
00000320: 2a95 f83d 61e0 96bc d0a9 bb3e 9c49 0f3d
00000330: 58a6 7dbd e2df f1bd 1b70 4d3e 59bc f83e
00000340: 93d1 b63c 9490 8e3e ce20 c8be 0396 05bf
00000350: 1ebc b2bd 2373 213f 2d07 653e b85e b03e
00000360: a161 783e 1671 bd3d 4938 9d3d eea3 d5bd
00000370: 054d d33e 3234 913e 9bc1 563c 24ec 00be
00000380: d660 0e3f dc55 0d3d 4a04 7d3e f15f 93bc
00000390: f254 ef3c 6a19 8f3e 3565 e4be 315b 7f3e
000003a0: 783c 06bf 9cf2 b93e f1f4 803e ba7c e83e
000003b0: c839 f0bc 58e2 f63c 2d73 d2bd 0538 edbe
000003c0: 54f1 213d 366f 873d 1188 bb3d 1893 883e
000003d0: 5230 b73e 6ff2 223e f3d8 263f 6aad ba3e
000003e0: 46c4 b53d d05a 243e 7c80 6c3c 28fc 913e
000003f0: 8e23 82bd edf7 c7be 90ee d93c 640f d03e
0.39168856 0.26955962 0.21940759 0.72949225 0.054879334 0.113237984 -0.09753084 0.28553462
-0.12434 0.013199527 0.4731709 -0.037249 0.040147923 0.00857277 0.116712965 0.44236964
0.1597342 0.21517895 -0.4405832 -0.6649282 -0.0034627328 0.7517489 0.19681951 0.3949692
0.23756318 -0.046365697 -0.001848463 -0.0507521 0.55882424 0.46869624 -0.024505839 -0.09939705
0.6296357 0.07914803 0.11941985 -0.012148271 -0.094724365 0.30897608 -0.41497827 0.42992526
-0.5748451 0.42174175 0.21098046 0.47630998 -0.22909027 0.007579531 -0.011405626 -0.4189446
-0.0046878266 0.14313343 0.070022725 0.2132035 0.38322592 0.09450329 0.82273346 0.3996254
0.045784745 -0.027204586 -0.091026254 0.24469754 0.05101803 -0.4609792 0.041786224 -0.9140674
0.4560314 0.26573414 0.15531014 0.58449805 -0.028221743 0.111595586 -0.041570548 0.3211145
0.08263944 0.11840106 0.30486616 -0.039566115 -0.03922057 0.05218478 0.17005916 0.6203496
0.079541035 0.2651187 -0.43837368 -0.58864874 0.06560679 0.8553389 0.18821783 0.33747208
0.22037858 -0.09376157 -0.080088064 0.07961317 0.5678626 0.3886319 -0.02786711 -0.036434494
0.5956497 0.038636014 0.045949858 -0.033801496 -0.053080652 0.38063374 -0.41575775 0.5011826
-0.59239185 0.42517158 0.24634859 0.54336405 -0.024315013 0.052119255 -0.06086298 -0.44564825
-0.046879567 0.048607994 0.05667959 0.19604897 0.3298425 0.19506511 1.0264312 0.37431523
0.09301339 -0.02033251 0.048616115 0.24287759 0.030459478 -0.4616557 0.0032063276 -0.6623736
0.3858601 0.32585305 0.23175283 0.44045168 0.013350329 0.11967102 0.011990443 0.2956658
0.0055391192 -0.019976838 0.34794495 -0.08683318 -0.002983883 0.04674311 0.15698647 0.81728446
0.030346254 0.2815786 -0.3903687 -0.5036557 0.01584844 0.73480624 0.20732208 0.306044
0.21369965 0.008951522 0.00014825807 0.021001637 0.38683063 0.33159477 0.002995062 0.036624264
0.56659245 -0.07448655 0.19396208 -0.0344314 -0.071471564 0.3579104 -0.43570384 0.77264136
-0.55892473 0.39824706 0.15747598 0.49540168 -0.072088316 -0.111700684 -0.04601318 -0.49159878
-0.03217735 -0.067589805 0.0539563 0.2117461 0.3110505 0.23338151 0.5703402 0.40278158
0.030000756 0.19700162 -0.08000329 0.30168536 0.12180239 -0.43630984 -0.11978446 -0.59351903
0.38983288 0.33386597 0.20394745 0.51568615 0.0071565355 0.13902706 -0.03979784 0.34684926
0.12137826 -0.01841754 0.36652994 0.03498231 -0.061926216 -0.118102804 0.20062296 0.48581198
0.02231673 0.2784468 -0.39087528 -0.52182025 -0.08727287 0.6306631 0.22366019 0.34447265
0.24255992 0.09250085 0.07676751 -0.10431658 0.412697 0.28360134 0.013107683 -0.1259008
0.5561651 0.03450571 0.24708667 -0.017990084 0.02921531 0.27949077 -0.44608465 0.2493713
-0.5243602 0.3631791 0.25186875 0.4540766 -0.029324427 0.030137226 -0.10275874 -0.46331802
0.03953679 0.06613009 0.09156812 0.26674724 0.35779053 0.15912794 0.6517479 0.3646043
0.08875327 0.16050267 0.01443493 0.28512692 -0.06354438 -0.3905634 0.026603013 0.40636742

network.8.bias f4 [21]
00000000: d957 683f d308 803f 7dd8 7e3f 2f53 7e3f
00000010: 20ee 793f c6b1 7b3f 8ba7 6a3f 5a98 6c3f
00000020: e244 703f 13e2 723f d835 813f 7a72 5b3f
00000030: b133 6c3f 43c5 6d3f e5d7 703f 798d 613f
00000040: 280b 7d3f 0b49 8b3f d8af 803f f4b0 793f
00000050: 8777 363f
0.90759045 1.0002693 0.99549085 0.9934568 0.97628975 0.98318136 0.916619 0.9241997
0.93855107 0.9487621 1.0094557 0.8572155 0.92266375 0.9287912 0.9407943 0.88106495
0.9884515 1.0881666 1.0053663 0.97535634 0.71276134
